pytorch_models/model280140.pth (torch, 72107 bytes, 6 tensors)

SoftmaxPolicy_l1.weight f4 [128, 4]
000000 b8 de 82 3e 4a cf 62 be e8 79 ea bd b6 12 6b 3e
       0.25560546 -0.22149387 -0.11449033 0.22956356
000010 97 e7 ef be c8 ac a0 3e b3 75 53 bd 9b 36 83 3e
       -0.46856377 0.31381822 -0.05162592 0.25627598
000020 08 bc 8c 3d 9d 7d 62 bd 5c 0b 53 3e 69 7a 4b 3d
       0.068718016 -0.055295575 0.20609802 0.049677286
000030 55 df 31 3e c3 74 40 be 6a c6 de bc 45 30 53 bd
       0.1737035 -0.18794541 -0.02719422 -0.051559705
000040 d1 58 93 3d e8 ce e5 ba fc e7 de 3e a2 a8 1d 3e
       0.07194675 -0.0017532976 0.43536365 0.1539636
000050 6b 59 3b be 79 db 99 be 32 34 ac bd bb ff 58 be
       -0.18295829 -0.30050257 -0.08408393 -0.21191303
000060 a1 62 26 be e3 21 a9 3c d4 04 a0 3e 6d 7a 8f 3e
       -0.16248561 0.020646041 0.31253684 0.2802309
000070 7b df fa be 1e aa a7 3e df b9 84 3e ae a1 04 3f
       -0.48998627 0.32746977 0.25923058 0.51809204
000080 1b df a7 3e 1e ab eb be 61 22 fb be 91 d3 6f be
       0.32787403 -0.4602899 -0.49049667 -0.2342055
000090 2f a6 d6 3e 02 bb c5 bd 3a 01 60 3e c4 83 69 be
       0.41923663 -0.096548095 0.21875468 -0.22804171
0000a0 1e 2b f8 3e 8d 1b 70 be 14 7a 98 3e 2d b6 24 bc
       0.48470396 -0.2344801 0.29780638 -0.0100532
0000b0 5c d7 84 be 46 3b 84 3e e3 4e 82 be 9d dd 1f 3e
       -0.25945556 0.25826472 -0.2545081 0.15611883
0000c0 bc 47 07 be cb 7f 4e bd c6 4a f0 be 24 b1 6a be
       -0.13210958 -0.05041484 -0.46932048 -0.22919136
0000d0 af bd 89 3e 5b 00 ed bd f9 88 00 3f 38 ae cd 3e
       0.2690253 -0.115723334 0.50209004 0.4017198
0000e0 b9 f3 fb bc 5e 6e 9f be 92 60 d4 3e 66 d8 48 3e
       -0.030755864 -0.3113889 0.41479927 0.196138
0000f0 58 d0 a1 be e9 44 af 3e 3c 91 da 3e fe 3e fb 3e
       -0.31604266 0.34232262 0.4268893 0.49071497
000100 8a 72 8e be 02 53 a6 bd c0 c0 eb bc 09 a4 8a 3d
       -0.2782176 -0.08121301 -0.028778434 0.067695685
000110 cc 2b c1 be fc 68 b5 be 09 43 7f 3e d0 3d ff bd
       -0.37728727 -0.3543166 0.24927916 -0.12462962
000120 b5 cc 6b 3e f7 9d 08 3d ef 49 9c 3e f9 e9 37 3e
       0.23027308 0.033353772 0.30525157 0.17960347
000130 21 7e 29 3e 27 ed 81 3e 12 3e a1 be 74 d7 a5 3e
       0.1655202 0.25376245 -0.31492668 0.3239094
000140 7a 94 b1 be 23 d4 c0 be 7b 8d ab 3d 8f 42 67 bd
       -0.3468359 -0.37661847 0.08376595 -0.05645996
000150 3b 50 95 3e 25 9b 90 be 5f ca b6 be c1 64 d2 3e
       0.29162773 -0.28243366 -0.35701272 0.41092494
000160 28 0e 92 bd 0c 90 8d 3e 51 82 b3 3d 7a c2 d7 be
       -0.07131606 0.27648962 0.0876509 -0.4214056
000170 ae e3 c6 3d 45 f3 e8 3d c9 86 ae be 70 9c 73 be
       0.09711395 0.11374525 -0.34087208 -0.23790145
000180 20 a4 34 3e 9d c0 8b 3d 92 1d b9 be 03 42 5d be
       0.17640734 0.068238474 -0.36155373 -0.21607213
000190 f1 f5 e4 3e b6 18 a8 bd 2a c3 cd 3e fa 7f 88 3e
       0.44718888 -0.08207838 0.4018796 0.26660138
0001a0 3f 3e a4 be 18 21 d8 be 3e fc eb 3e b7 d7 82 3c
       -0.3207874 -0.4221275 0.46090883 0.015972001
0001b0 2e 1e ac 3e 44 6c ec 3d 02 e1 89 3e 36 ce d2 3e
       0.33616775 0.115440875 0.2692948 0.4117295
0001c0 f2 41 ed 3e 3b d6 a5 be 31 14 44 3e 5e 5a e2 3e
       0.46339375 -0.32390007 0.19148327 0.4420957
0001d0 b7 7b b3 3e a6 8d 98 3e 95 f3 bc be 6e 39 b8 be
       0.35055324 0.2979557 -0.36904588 -0.35981315
0001e0 d3 3c 9d be 81 bf 6b 3d 44 48 03 3f 4a 05 a0 be
       -0.30710468 0.05755568 0.51282144 -0.31254035
0001f0 a0 74 8c 3e fd e8 8f be 17 6e fd be 05 50 d5 bd
       0.27432728 -0.28107443 -0.49498054 -0.10415653
000200 fb 5f 90 3e bb bc ed 3e d2 82 93 be 13 09 e3 3d
       0.28198227 0.46433052 -0.28810745 0.11085715
000210 98 16 d6 3e 59 70 b5 3e 10 57 d2 3e 1a 7b c0 3e
       0.41814113 0.35437277 0.41082048 0.3759392
000220 27 c9 9a 3e 54 42 ea 3d 71 ce aa be 56 da d1 be
       0.30231592 0.11438432 -0.33360627 -0.4098689
000230 d6 9a 71 be 2d 7f 65 bd c6 98 3c be f1 aa 7c 3e
       -0.23594221 -0.056029487 -0.18417653 0.24674584
000240 dd c7 1f 3e 2c 9e ea bd ee 77 57 3e 1c 27 33 3e
       0.15603586 -0.1145595 0.21041843 0.17495388
000250 7f a7 97 3e 14 b8 b8 3e a6 58 75 bd 62 34 05 3f
       0.29619977 0.3607794 -0.059898995 0.52033055
000260 a1 c5 36 bd af 5e 00 bd ec 12 1b bf 40 01 be be
       -0.044622067 -0.031340297 -0.6057575 -0.3711033
000270 ca b8 93 be f7 5e 5a be 5c 38 b0 3e e4 b4 27 be
       -0.2885192 -0.21325289 0.34418 -0.16377598
000280 01 f9 ba be 11 49 60 3e 6d 1b 86 3e 18 61 b0 3e
       -0.365181 0.21902873 0.261928 0.34449077
000290 f1 66 85 be b7 25 d7 3d e8 5e 3a be ce f9 e2 bd
       -0.260551 0.105052404 -0.18200266 -0.11082803
0002a0 07 b6 c9 be f6 11 6b be b5 48 2e be bc 66 5b 3e
       -0.39396688 -0.2295607 -0.17019923 0.21425909
0002b0 62 31 a9 3d 60 63 15 3e d7 1a 20 3f 1d 1f 03 3f
       0.08261372 0.1458869 0.62540954 0.5121935
0002c0 2b e1 a9 3e bc b4 c0 3c 4d c0 61 be 34 97 e5 3e
       0.33179602 0.02352368 -0.22046013 0.4484192
0002d0 74 76 05 be dd 24 3d bd 95 fc e0 be df 2c cc bd
       -0.13033468 -0.046177734 -0.43942705 -0.09969496
0002e0 1a ba aa be 5b e9 e7 3e e8 a3 f4 be a3 cd d6 be
       -0.3334511 0.45295224 -0.477813 -0.41953763
0002f0 36 76 29 bc ff 2a 88 be 0d 42 32 3e b2 1a 45 be
       -0.010343125 -0.26595303 0.17408009 -0.19248465
000300 3a ab 6d be d3 97 2f 3d 95 cd ae 3e da f3 c2 be
       -0.23209849 0.0428694 0.34141222 -0.3807667
000310 0c ed 6b 3e 59 5a a2 3e f4 b2 f0 3e 8b 29 b9 be
       0.23039645 0.31709555 0.4701153 -0.36164507
000320 9d 44 0c 3e 88 79 b9 be 4e e8 c8 3e e4 58 53 be
       0.13698049 -0.36225533 0.39239734 -0.20639378
000330 cd 13 97 3e b6 0e 89 3c 56 b3 55 bc fa 7f d2 bb
       0.29507294 0.016730648 -0.013043245 -0.0064239474
000340 30 be 95 3d b6 d4 72 3e 79 c1 5b 3e b0 cf 64 3e
       0.07311666 0.23713955 0.21460523 0.22344851
000350 75 18 e6 be aa c5 be 3e 3f 9f 08 3f ea 16 ed 3e
       -0.44940534 0.3726018 0.5336799 0.46306545
000360 f9 fe b2 3e 0d 38 b8 be 53 07 1e be b6 76 e3 3e
       0.34960154 -0.35980263 -0.15432481 0.44426507
000370 d6 06 c7 be 17 9a e9 3e 04 6a df be 36 3e c8 be
       -0.38872403 0.45625374 -0.4363557 -0.39109963
000380 36 8e 74 3e 72 26 b2 be a2 7f 45 bd 53 9b c9 3e
       0.23882374 -0.34794956 -0.048217423 0.39376315
000390 12 01 cd 3e a9 e2 ee 3e a6 5c 4a be 2f 6c e2 be
       0.4003988 0.46657303 -0.19761905 -0.44223163
0003a0 91 c6 f7 3e 0f 5a 05 be 2b 53 77 be ff 7b 08 3e
       0.48393682 -0.13022636 -0.2415282 0.13328551
0003b0 41 6f b3 be e5 6d a4 3e 2f 1b 6d 3e 18 a6 e4 be
       -0.35045817 0.32115093 0.23154901 -0.4465797
0003c0 32 ce d2 be d6 f7 3f bd 1e c6 46 3e 13 ac 58 bc
       -0.4117294 -0.046867214 0.19411513 -0.013224619
0003d0 b3 ba 7f be 29 14 a7 3c 7b a4 f2 be fd 8d b9 be
       -0.24973564 0.020395355 -0.47391114 -0.3624114
0003e0 8e f6 a8 be e2 f8 d4 3e ad 22 d1 3e 67 78 49 be
       -0.33000606 0.41596133 0.40846768 -0.19674836
0003f0 c9 d1 e9 3c a3 20 57 3e c7 bb 15 3c e4 8a 89 be
       0.028542416 0.21008544 0.009139008 -0.26863778

SoftmaxPolicy_l1.bias f4 [128]
000000 c0 58 c2 be 41 1c b6 3e f4 4a aa 3e d4 e3 ff be
       -0.37958336 0.3556843 0.3326031 -0.49978507
000010 4c d1 c9 be 37 0a ad be cb e6 84 be 8b 9e f4 3d
       -0.39417493 -0.33796856 -0.2595733 0.11944302
000020 6d 66 f8 be 6b b3 c8 be fa 89 6c 3e 90 dc 2e be
       -0.48515645 -0.39199385 0.23099509 -0.17076325
000030 56 77 5b be 21 59 d4 be 16 6a 44 3e c9 f2 e7 3d
       -0.21432242 -0.4147425 0.19181094 0.113256045
000040 dd 1c 52 be b3 a5 9f be 3b 3e ef 3d 2b 9e 1a 3e
       -0.20518823 -0.31181106 0.116817914 0.15099399
000050 a0 fb 44 3e 17 ae 28 3e 29 91 4d bd 83 ae c8 be
       0.19236612 0.1647266 -0.050187264 -0.39195642
000060 0c 0b b3 3e cf c3 07 3d 3a 7d b0 be 94 6b f0 3e
       0.34969366 0.033145722 -0.3447054 0.46957076
000070 35 d0 92 3e 74 05 d0 be 52 f0 7c be 5b a1 23 be
       0.28674474 -0.4062916 -0.2470105 -0.15979521
000080 5c d8 94 be 4d 90 70 3e 22 b2 c1 be cc c1 e7 3e
       -0.2907132 0.23492546 -0.37831217 0.45265043
000090 a7 40 4a be 72 85 9b 3e e6 dd c2 3d 59 78 6b be
       -0.19751225 0.30375248 0.0951498 -0.22995128
0000a0 74 d9 b0 3e 71 88 c2 be a8 96 87 be 19 87 df 3d
       0.34540904 -0.37994722 -0.2648213 0.1091444
0000b0 a4 6c c7 3e c3 0a 55 be cd 5d 91 be 23 52 a5 be
       0.38950074 -0.20804887 -0.28391877 -0.32289228
0000c0 49 94 4c be 36 f1 22 be 55 08 f6 bd 43 ea 95 be
       -0.19978441 -0.15912327 -0.12013308 -0.2928029
0000d0 49 ac 2d 3e 41 75 ac 3d 99 ca ae be 8d 19 82 be
       0.16960253 0.08420802 -0.34138945 -0.2541012
0000e0 e7 8f ce 3d eb db d2 3c ac cf c7 3e 1a 20 76 bd
       0.10086041 0.02573963 0.3902563 -0.06008921
0000f0 84 95 cf be bf f7 ba be 4d 6a 06 be 41 c1 d8 bd
       -0.4054376 -0.3651714 -0.13126488 -0.10583735
000100 45 08 b0 3d 6d b4 04 be be 63 58 3e 24 6a 23 be
       0.08595327 -0.12959452 0.21131799 -0.15958458
000110 d1 93 c8 3e b4 3e cb 3d af 31 25 be da ac f3 3e
       0.39175275 0.09924069 -0.16132234 0.47592813
000120 95 9d 26 3e 8a 2b b8 be fd fa 87 be 1a 88 ab 3e
       0.1627105 -0.35970718 -0.26558676 0.33502275
000130 2b 21 62 3e 18 84 c2 3e d7 52 8d 3c 82 29 b2 3e
       0.22082965 0.37991405 0.017251415 0.34797293
000140 71 b6 8b 3e a3 c0 10 3e c4 2d 18 be 40 c0 02 3f
       0.2728763 0.14135985 -0.14861208 0.510746
000150 e2 ef c6 3d f1 65 1e be 2b 9b 87 3d 57 cb ff 3e
       0.09713723 -0.15468575 0.06621393 0.49959823
000160 22 fb a3 3e 5a be 6f bd 6a 06 05 3f d1 93 80 3e
       0.32027537 -0.058531143 0.5196291 0.25112775
000170 e1 ae 84 be 89 32 eb be 3e 5b a0 3e 63 2f 00 3f
       -0.25914672 -0.45936993 0.31319612 0.50072306
000180 6f ff 9a be 79 43 4a 3e f5 f3 30 3d 8e a4 02 be
       -0.30273005 0.19752301 0.043201406 -0.12758085
000190 d6 e4 df bd 6c fe 29 3e 61 56 d1 3d 7d b4 ab 3e
       -0.10932319 0.1660096 0.102215536 0.3353614
0001a0 49 d7 3c 3e ed 10 85 3e 73 d4 f1 3e ca 0e 34 3e
       0.184415 0.25989476 0.47232398 0.17583767
0001b0 1e 17 ec 3d 41 f1 0c be bf fd c2 3e d1 08 c0 3d
       0.11527847 -0.13763906 0.38084218 0.093766816
0001c0 f8 82 a7 3e 83 73 f6 3e fa 5e 06 be f4 68 aa 3e
       0.3271711 0.48135003 -0.13122168 0.33283198
0001d0 bb ef 80 bd fa c2 f4 3e 51 d5 c8 3e 01 67 20 be
       -0.06295725 0.47805005 0.39225248 -0.15664293
0001e0 ea 70 3a 3c a3 a0 5a be 5b f4 56 be 18 14 b3 bd
       0.01137946 -0.2135034 -0.20991652 -0.08744067
0001f0 c5 37 09 bb cc 41 1f be dc 24 f1 be 82 ae a0 be
       -0.0020937782 -0.15552443 -0.47098434 -0.3138314

SoftmaxPolicy_l2.weight f4 [128, 128]
000000 49 b4 b8 39 d5 7e 2c bd 57 32 95 3d 76 e2 94 3d
       0.00035229538 -0.042113144 0.07284992 0.072697565
000010 71 00 68 3d 54 86 25 3d 47 ad 93 bd cb 31 4e 3d
       0.056641046 0.04041131 -0.072107844 0.050340455
000020 39 3a 78 bd 26 68 62 bc cc a6 18 bd f6 30 db 3c
       -0.0606024 -0.013818776 -0.037268445 0.026756745
000030 fb 87 87 bd eb 2d 27 bd 1d 6e 78 bd ce a4 d0 bd
       -0.06617733 -0.040815275 -0.060651887 -0.10187684
000040 2b 33 42 bd 79 ff a5 3d ca 07 d4 bb 4b 10 03 3d
       -0.04741208 0.08105368 -0.006470655 0.03199796
000050 1b 11 b2 bd c0 1c c8 3d 27 e6 5b bc 7e 80 9e bd
       -0.08694669 0.097711086 -0.013421572 -0.07739352
000060 b8 45 b4 3d f8 e0 65 bc 23 13 94 3d 5b c1 64 bd
       0.0880236 -0.0140306875 0.072302125 -0.05584846
000070 81 29 8c bd d9 bf 5d bd e3 2c 0c 3d 7c 4d b7 3c
       -0.06843854 -0.05413804 0.034222495 0.022375815
000080 02 ac 9c bd ad 0e 5a 3c 71 98 29 3c f3 60 09 3d
       -0.076499954 0.013309163 0.010351286 0.033539724
000090 a1 39 2f bd 38 df 80 bd 01 00 e9 3d 66 ef 45 bd
       -0.04277957 -0.062925756 0.11376954 -0.04832401
0000a0 db 5d 30 3d 77 be 93 3d e3 cb 8d bd 5b 22 a1 bd
       0.043058258 0.07214063 -0.06923654 -0.07867881
0000b0 d6 75 c3 3c 24 c9 9c bd 8e cf 0b 3d 4e d0 07 bd
       0.0238599 -0.07655552 0.034133486 -0.03315764
0000c0 af de 15 bd 6b 32 86 bd 2e 68 3c 3d b1 ea 39 bd
       -0.03658932 -0.06552585 0.04599779 -0.045389835
0000d0 f0 75 b1 bd 34 76 87 bd 0b ce 27 bd 96 96 a3 bd
       -0.08665073 -0.06614342 -0.040967982 -0.07987706
0000e0 38 d9 39 3d c9 15 b6 bc 97 e7 b2 3d c2 73 79 3d
       0.04537317 -0.022227185 0.087355785 0.06090141
0000f0 60 f5 68 bd 0c a7 39 bd 29 22 32 bd d7 63 6c 3d
       -0.056874633 -0.045325324 -0.04348961 0.057712402
000100 d7 b4 b4 3b 45 98 d0 bc 74 25 ba 3d 16 02 d7 3d
       0.005514722 -0.025463233 0.09089175 0.10498445
000110 4e 36 a4 3d e5 f3 87 bd a2 53 0e bd 27 1a 5a bc
       0.0801817 -0.06638316 -0.034747727 -0.013311899
000120 36 fa c5 3d 5a 47 17 bd a5 ec 35 bd eb ad 84 3c
       0.096668646 -0.03693328 -0.044415135 0.016196212
000130 e4 66 a3 bc ee 0e 2e 3d 29 45 80 3c 94 80 9a bd
       -0.019946523 0.042494707 0.015657978 -0.075440556
000140 e8 d7 ae 3d 3d bd a8 3d 84 23 c8 3b 73 c8 57 bd
       0.085372746 0.08239219 0.0061077494 -0.052681398
000150 82 67 11 3d d6 5d 5b 3d 88 2f 7c 3d 67 07 1e bd
       0.035499103 0.053556286 0.061568767 -0.03858128
000160 00 56 bb bb 3c c0 d0 bc 9f c9 b5 3d 88 9c 00 3e
       -0.005717039 -0.02548229 0.08876347 0.12559712
000170 9e 30 26 3b a0 d6 5b bd e0 80 24 3d ff 08 50 3d
       0.0025358568 -0.05367148 0.040161967 0.05078983
000180 4d 0b 17 3d 0b 97 9e bd dc e8 75 3c b7 2f 0b bd
       0.03687601 -0.07743653 0.015009131 -0.03398105
000190 63 eb 94 bd 15 79 17 bd cf 53 63 3d 6d 5f 2d 3d
       -0.07271459 -0.036980707 0.055499848 0.042327333
0001a0 12 01 9f bd 10 77 7a 3c 97 e5 b2 3d fa a4 da 3d
       -0.07763876 0.015287176 0.08735197 0.10675998
0001b0 64 29 8e 3d 83 32 cb bc 83 c5 4d 3d 5d 64 56 3d
       0.069414884 -0.02480436 0.05023719 0.052341808
0001c0 64 0c 2c 3d a1 c7 6f bd 21 39 0a bd 11 fb 9d 3d
       0.042004004 -0.05853999 -0.03374589 0.07713903
0001d0 c2 97 a0 3d 4c af a2 3d bd 10 30 bd 6c 33 92 bc
       0.078414455 0.079435915 -0.042984713 -0.017846785
0001e0 7e 2c 62 bd 2a bd fc bc 89 6a 94 3d 93 e4 83 bd
       -0.055218212 -0.03085192 0.072468825 -0.064400814
0001f0 6a 29 ce 3b 9f ee a8 3c 4c f3 46 bd e5 ef 20 3d
       0.006291558 0.020621596 -0.04857187 0.03929128
000200 d9 ad 88 bc 59 ba 91 3d 25 73 2c bd ff ac 3a 3c
       -0.01668446 0.07115621 -0.042101998 0.011393785
000210 af 38 a0 bd 6b 1b 4b 3d e8 66 ad 3d 54 03 ce 3c
       -0.078233115 0.049586695 0.084668934 0.025148071
000220 cc 02 74 3b e8 aa 3a bd c4 7e 21 bd c2 12 2d bd
       0.0037233112 -0.045573145 -0.039427534 -0.042254217
000230 22 4b 46 bd b5 52 d7 3c 9f 61 58 3c 07 8d a8 3d
       -0.048411496 0.026284555 0.013206868 0.08230024
000240 42 13 8f bd 75 9e 69 bd 17 c1 14 bd 2b 0f 08 bd
       -0.06986095 -0.057035882 -0.036316957 -0.03321759
000250 cc 98 a2 3d 53 a1 34 3d 23 70 9c bd 26 a1 7e bb
       0.079393 0.044099163 -0.07638576 -0.0038853376
000260 4a 3b df 3b 79 93 9a 3d 85 40 a9 3d 66 40 75 3d
       0.0068124877 0.075476594 0.08264259 0.05987587
000270 a2 56 af 3d cd 29 ee bc 30 45 8e ba c9 16 a3 bd
       0.08561446 -0.029072667 -0.001085436 -0.0796333
000280 09 fc d4 3c 31 31 fa 3d cf 54 51 3d 71 f8 da 3d
       0.025999086 0.12216414 0.05110627 0.10691918
000290 59 35 08 bd 5a 2a f4 3c 38 86 51 bd ce a8 8e 3d
       -0.033254 0.029805351 -0.05115339 0.06965791
0002a0 6d a0 16 bd 73 34 26 bd cf 94 66 3c ca 61 8b 3c
       -0.036774088 -0.040577363 0.014073565 0.017014403
0002b0 3c 43 7b 3d 7b 0a 4f bc 77 e6 97 bc b5 6e 34 3d
       0.061343417 -0.012636776 -0.018542511 0.04405089
0002c0 8a eb 7a 3d fb c7 cd 3d da f3 0b 3d 8c 04 0c bb
       0.061259784 0.10047909 0.0341681 -0.0021365015
0002d0 f9 ae fa 3d 4d bd 07 3e 0c c9 1f bd e4 b7 2b 3d
       0.12240405 0.13255806 -0.039010093 0.04192342
0002e0 3b 6f df 3c 1d b4 1f bd a9 ca b8 bb 1e 4b 63 bc
       0.027274719 -0.03899013 -0.0056393933 -0.01387289
0002f0 e2 9f 87 bd ce 66 04 bd b1 ef 5f 3d 3d 81 9b 3d
       -0.06622292 -0.032324605 0.054671947 0.075930096
000300 67 cd 43 3c 8e 12 9a bd 9b c2 66 3c 48 51 d6 bc
       0.011950827 -0.0752307 0.0140844835 -0.026161805
000310 3b 7a a8 3d f0 3b ad bd db 6b 46 bc e1 bb b1 3d
       0.082264386 -0.08458698 -0.012110676 0.08678413
000320 2b d4 78 3c d6 6c 23 bd 3c 66 a8 bd cb 3f 7e 3a
       0.015187304 -0.039898716 -0.08222625 0.0009698837
000330 e1 64 65 3d 31 56 6c bd aa cf a9 bd ff 5d 65 3d
       0.05600441 -0.057699386 -0.08291562 0.055997845
000340 26 0c f6 bc 75 b9 78 3d 0a f3 9c bd 5c 67 31 bc
       -0.03003509 0.06072374 -0.076635435 -0.010827865
000350 45 0e 61 bd d9 ba 14 bb f1 2a ad bd 10 c3 41 3d
       -0.05494525 -0.0022694378 -0.08455456 0.047305167
000360 8f 47 20 bd 05 4c 81 bd 7d 22 2b bd 07 b8 e6 bd
       -0.039130744 -0.06313328 -0.041780937 -0.11265569
000370 2e 23 40 3d 6d 05 a0 bc cb 65 a8 bb 9a 8c 95 3d
       0.04690855 -0.019533837 -0.005139088 0.07302208
000380 40 cb 44 bc 7a d3 a4 3d ed b3 d0 3b 59 ab 72 bd
       -0.012011349 0.080481485 0.006369105 -0.05924544
000390 cd 89 cc 3c 8b 9c e2 3c b4 8e 7d bd 68 ad eb 3c
       0.024968052 0.027662536 -0.06190367 0.02876921
0003a0 61 8b 9d 3c db 34 9e 3d 6c 37 e0 bb c0 e8 84 bd
       0.0192315 0.07724925 -0.0068425443 -0.06489706
0003b0 9a 3e af bd 5e e0 0f 3d f2 a9 b5 bc 33 2f ab bc
       -0.08556862 0.035126083 -0.022175763 -0.02089653
0003c0 70 04 07 bc bc 11 bd bc eb ec c9 3c fb 94 a8 3d
       -0.008240804 -0.023079745 0.024649104 0.08231541
0003d0 43 99 98 3d cf 58 7e bd ab fe bb 3d fe 1b 7e 3d
       0.07451107 -0.062096413 0.091794334 0.062038414
0003e0 b0 68 76 3c 1f e1 27 3d b6 ad 6f 3d 51 bc 9e 3d
       0.015039608 0.040986177 0.058515273 0.07750762
0003f0 24 c7 49 3d 78 c9 ff 3c f2 cc 11 bd 83 f7 6f bd
       0.04926218 0.031223997 -0.03559584 -0.058585655

SoftmaxPolicy_l2.bias f4 [128]
000000 34 5a 59 3d dd e3 0e bd 32 1c 21 3b bd cd 7f bd
       0.05306454 -0.034885276 0.0024583456 -0.062452067
000010 12 22 45 bd ab 2b 65 3d 6f 1d 98 3c 3e 95 e2 3c
       -0.048128195 0.05594985 0.018568723 0.027659055
000020 63 03 4f 3d ec 79 db 3c 28 8d ea 3b ec ca 37 bc
       0.05054034 0.026791535 0.0071579404 -0.011217814
000030 00 1b 91 3a a3 41 a9 3d 81 de 10 3d 77 9f 24 3c
       0.0011070669 0.08264472 0.035368446 0.010047785
000040 b5 e2 11 3d 0d c2 24 bd f4 b6 8d bd b2 c2 9b bc
       0.035616595 -0.040224124 -0.06919661 -0.019013736
000050 94 e6 c3 3d 81 07 ae 3c f3 88 85 bd 31 dc 73 3d
       0.09565464 0.021243813 -0.065202616 0.059536163
000060 04 cc a5 3d b6 7e 8b 3d eb f1 34 3c 09 50 bf bc
       0.080955535 0.068112776 0.011044006 -0.023353593
000070 f8 cf 0e 3c 14 ca f7 3c 6c 30 01 bd 0a 4b 2f bd
       0.008716576 0.030247726 -0.03154032 -0.042796172
000080 b0 e8 9d 3c a1 a4 36 3d b4 cf dd bc f5 db 0e bc
       0.019275993 0.044590596 -0.02707658 -0.008719434
000090 7b 48 85 bd c3 30 93 ba 96 b3 a1 bc 1a fd b9 3d
       -0.06507965 -0.0011229742 -0.019738954 0.090814784
0000a0 cb 7e 7a 3d 1d df f5 bc cc 45 8c bd 2b 6b 92 bd
       0.061156075 -0.030013615 -0.0684925 -0.07149347
0000b0 07 4f 52 bd 9c 67 b7 3d fb 19 d2 bc ab 80 85 3d
       -0.051344898 0.08955309 -0.025647154 0.06518682
0000c0 f9 34 8c 3d c1 d3 13 bc a6 45 20 3d 1a 19 f3 3c
       0.06846041 -0.009022654 0.039128922 0.029675055
0000d0 ca 3c a9 3d ed 73 2c 3d e6 4f 53 3d 76 98 b6 3d
       0.08263548 0.042102743 0.05158987 0.08915798
0000e0 dd 53 25 3c cd 8a a9 3d f6 d9 1d bb 35 49 87 bd
       0.010090795 0.08278427 -0.0024086214 -0.0660576
0000f0 0e 00 ae 3d af b5 87 bd a7 1d 0e 3b 79 93 ac 3d
       0.08496104 -0.0662645 0.0021685155 0.08426566
000100 72 b4 bf bc 3b b0 78 bd 09 8f 87 3d c2 5b 08 3d
       -0.023401473 -0.06071494 0.06619079 0.033290632
000110 5c 25 67 3d 3f 0a 44 3d 57 2d bd bd a4 18 92 3d
       0.056432113 0.047861334 -0.092371635 0.07133606
000120 8e fc 94 bd b5 06 44 3c 84 0c 51 bd 57 95 87 3d
       -0.072747335 0.01196449 -0.051037326 0.06620281
000130 4d 03 be 3d ed ce 58 3c d6 54 b5 bc 27 f5 9a 3d
       0.09277973 0.013232929 -0.02213518 0.0756629
000140 98 f7 8e 3d b0 c9 85 bc 2f b2 91 3d 55 d5 e5 3b
       0.069808185 -0.016331524 0.07114064 0.0070139566
000150 71 95 24 bd 69 49 aa 3d 36 75 52 bd ae de 84 bd
       -0.04018158 0.08314783 -0.051381312 -0.06487785
000160 76 a3 56 3d 6a f3 08 3d 73 65 8f 3d 38 8a 10 bd
       0.052401982 0.033435263 0.07001772 -0.035288066
000170 e4 f0 ae 3c 87 88 3b 3d 44 ac 95 3c e3 b2 94 bd
       0.0213551 0.0457845 0.01827062 -0.072606824
000180 93 2b 67 3d 22 cf c1 3c d1 3b aa bc 65 71 ba bc
       0.05643804 0.023658339 -0.020780476 -0.022759149
000190 f0 2d bb bd 41 f2 bf 3d fa e2 5d 3c e7 c1 cb bc
       -0.09139621 0.09372378 0.013542885 -0.024872733
0001a0 8b a2 c7 3d 85 30 81 bd 17 7b d0 3c 0d df 68 bc
       0.097477995 -0.063080825 0.025449319 -0.014213336
0001b0 0f fc dc bc d0 a0 fd 3a 37 ee 38 bc 2e c3 99 3d
       -0.02697566 0.0019350294 -0.011287264 0.07507931
0001c0 2d e3 84 3d c7 24 01 3d df 36 6c bb 8d 14 7b bc
       0.06488643 0.031529214 -0.0036043448 -0.015324724
0001d0 25 13 07 bc 2d d3 7e ba 3a 1d 01 3d c9 d9 8f 3d
       -0.0082443105 -0.00097207987 0.031522013 0.07023961
0001e0 16 ed 81 bd a0 44 b6 bd 7d 4d 71 bc f5 d3 93 3d
       -0.06344049 -0.08899808 -0.014727947 0.07218162
0001f0 5e be 30 3d b5 05 0d bd 10 e7 69 3d e4 af 1e 3d
       0.0431503 -0.03442927 0.057105124 0.03874196

SoftmaxPolicy_l3.weight f4 [2, 128]
000000 10 f5 53 3d 3c 81 55 3c 8e 54 fe 3d 01 86 59 3c
       0.05174738 0.0130313 0.12418471 0.013276578
000010 44 5d b7 bd 87 a5 99 bc 38 74 25 3d 6e 59 be 3d
       -0.08953336 -0.018755687 0.040394038 0.09294401
000020 7d b6 72 3c 49 a7 fe 3b ad 9f 8c 3d 35 0c 8e 3d
       0.014814016 0.007771407 0.06866393 0.06935922
000030 ba 50 b8 3d 21 5d 73 3c 21 48 6d 3b b2 4f c3 3d
       0.08999772 0.014853747 0.0036206322 0.09536685
000040 ac 79 62 3d 4c b4 c0 3d 72 9c 31 bc 8e 6a c8 3d
       0.055291817 0.09409389 -0.010840522 0.09785949
000050 5f ce 30 bd 62 03 c8 3d 12 33 1d bd 5c 9a 80 bc
       -0.04316556 0.0976627 -0.038378783 -0.015698604
000060 ff 88 11 bd 10 dc 2c 3d 7e a5 44 3d ff c1 0a 3d
       -0.03553104 0.042202055 0.04800939 0.033876415
000070 d4 f8 b3 bd 6f 61 b3 3b 95 ce 20 bd c7 99 14 bd
       -0.087876946 0.0054742615 -0.039259512 -0.036279466
000080 5c 70 59 3d 14 36 54 ba 7e 09 4c 3d a1 4a a1 bd
       0.05308567 -0.00080952165 0.04981374 -0.078755625
000090 aa 59 4c 3c 25 51 8d 3d 72 a6 6c 3d 15 44 d1 3d
       0.012472549 0.06900243 0.057775922 0.10218064
0000a0 23 6f 1f bc 1b 11 ae 3d 3a 62 8e bd 23 d2 1e bc
       -0.009731087 0.08499356 -0.06952329 -0.009693655
0000b0 48 dc 22 bc f1 e8 ea bc ff 69 06 3d d9 ba 18 3b
       -0.009940214 -0.028675528 0.03281593 0.002330473
0000c0 84 24 d1 bd c1 ca c6 bd 8e 24 1b 3d e8 2e 77 bd
       -0.10212043 -0.09706641 0.03787666 -0.060347468
0000d0 95 91 e3 bd 2f 6c 03 3e 3e cd 68 bd 28 57 c2 3d
       -0.11111752 0.12834238 -0.05683636 0.0948928
0000e0 30 96 85 3d 0c 48 40 3d 04 e4 99 bd 0e e3 ab bc
       0.065227866 0.04694371 -0.07514194 -0.020982292
0000f0 7d e7 a5 3d f1 61 b2 3c 01 87 ff bd 62 1e ea 3b
       0.081007935 0.021775218 -0.12476922 0.007144735
000100 11 f8 88 bd 42 06 90 bd f1 32 aa bd 92 a0 a4 3d
       -0.0668794 -0.070324436 -0.083104976 0.08038439
000110 39 cb 95 3d 2c bd 8d bd e7 14 0e bd 22 74 a0 3d
       0.07314152 -0.06920847 -0.034687903 0.078346506
000120 89 67 9c ba 69 19 70 bd 10 16 da 3c 53 47 e0 bd
       -0.0011932711 -0.058617983 0.026621848 -0.10951104
000130 8c f0 b3 bd 8f 82 90 3d cc ad b5 bd fe 51 ca 3d
       -0.08786115 0.07056152 -0.0887104 0.0987892
000140 8b c2 05 bd 33 07 68 bd bd 05 a9 bd da 52 5f 3d
       -0.032656234 -0.05664749 -0.082530476 0.054522373
000150 ca 41 f6 bd 8b 2b 24 3d 12 a3 dd 3c 3b fb 08 3d
       -0.12024267 0.04008059 0.027055297 0.033442717
000160 a6 cd d3 bd 60 7e 84 bd 65 58 32 3d a2 dd 94 bd
       -0.10341959 -0.064694166 0.04354133 -0.072688356
000170 76 a0 3b bd 8d e6 63 3d cb ae 31 3d d1 0a 94 3d
       -0.045807324 0.055639792 0.043379586 0.072286256
000180 5f 23 40 3b b7 f1 2a bd 41 3b 01 3e c3 ac 7c 3b
       0.0029317958 -0.041734423 0.1262026 0.0038555122
000190 1c fb ad bc f6 3b 98 3d 63 60 b0 bd d4 79 a5 3d
       -0.021237902 0.07433312 -0.08612134 0.080798775
0001a0 27 81 0b 3d 62 1d 7c bc 63 72 94 bd fa ae db bc
       0.034058716 -0.015387865 -0.0724838 -0.026816834
0001b0 75 5e c1 bc ee 18 9e 3c f9 bf 77 bd 9d 7a 3a 3d
       -0.023604611 0.019298997 -0.060485814 0.04552709
0001c0 0e b7 f6 bd 79 07 a1 bd 86 90 f4 bb ed 3a da 3d
       -0.12046634 -0.078627534 -0.0074635176 0.106557705
0001d0 58 de 8f 3d d5 15 b4 bd 3c 5d 9a 3d 0c 0f 6a bd
       0.070248306 -0.08793227 0.07537314 -0.057143256
0001e0 e5 04 99 3d 2b 32 27 3c 55 42 c4 bc 8f 8b cc bd
       0.07471637 0.010204832 -0.02395741 -0.09987556
0001f0 78 56 d2 bd 4f 17 d7 bd 1a 23 6e bd 02 8a 8d 3d
       -0.10270399 -0.10502493 -0.058138944 0.069110885
000200 a0 03 92 bb 0c 19 e2 3d f0 e8 e9 bd 4a 55 af 3d
       -0.0044559985 0.110399336 -0.114213824 0.085611895
000210 30 09 94 3c 1c 7b bd 3d b3 ee ce bd d0 df 9b bd
       0.018070787 0.09251997 -0.10104122 -0.07611048
000220 be e9 e0 3d 4e 86 50 3d dc 4f f0 bd 37 1a cc bd
       0.10982083 0.050909333 -0.11733982 -0.099659376
000230 18 07 dc bc ad ee fc 3d e5 51 b0 3d 04 62 a8 bd
       -0.026858851 0.12350211 0.0860937 -0.0822182
000240 59 ac 37 3c c9 ff 90 3c ad f6 84 bd a6 a7 a9 bd
       0.0112105245 0.017700093 -0.06492362 -0.082839295
000250 03 22 d3 3d b7 ea 14 3c 12 e8 16 3d 86 d8 d7 3d
       0.103092216 0.0090891635 0.036842413 0.105393454
000260 a6 02 16 3d e3 aa 10 be 39 1c 84 bd 2a 20 79 bd
       0.03662362 -0.14127688 -0.064506955 -0.06082169
000270 5a bf 98 bd a9 51 84 3d e1 c2 75 3b 55 7d ee 3d
       -0.074583724 0.06460888 0.003750019 0.11644999
000280 bc 3a 08 bd 89 64 9e 3c ac 11 e3 bc 72 05 9f 3d
       -0.03325914 0.019335048 -0.027718388 0.077647105
000290 f2 79 76 3d 4f 57 9e bc 23 34 59 bd 50 b6 39 bd
       0.06017489 -0.019328741 -0.053028237 -0.045339882
0002a0 b1 d3 88 bd f6 ef 13 be e1 5c 2c 3d 49 f5 5d 3d
       -0.06681002 -0.14447007 0.042080764 0.054189
0002b0 b2 a8 d9 bd f4 78 04 3e 29 a4 7b bd 8a 16 bd bd
       -0.10627879 0.12936765 -0.061435852 -0.092328146
0002c0 e1 08 8e 3d 93 f3 84 3d 96 03 8d bc 51 fc a0 3c
       0.06935287 0.064917706 -0.017213624 0.019651564
0002d0 0e 1e 1c 3d 85 32 ed bd 16 ef 0c 3e 49 fe b8 bd
       0.0381146 -0.115819015 0.13763079 -0.09032876
0002e0 c7 51 48 bd cf 84 14 be 09 8c d8 bc 89 12 d7 3c
       -0.048906114 -0.14503787 -0.026433961 0.026253955
0002f0 94 9e f6 bd f9 03 8e bd ac 16 4a 3c f8 26 86 bd
       -0.12041965 -0.069343515 0.012334507 -0.065504014
000300 b9 48 a4 3d 5d 33 e4 3d a0 26 16 bb 5c d6 4e bd
       0.08021683 0.11142609 -0.0022911206 -0.050497398
000310 0d 68 5e 3d 1a f5 33 3c aa 44 8b 3d 46 89 bb 3c
       0.05429845 0.01098373 0.06800206 0.022892606
000320 68 63 85 3d 63 d7 f8 3d cb 92 7f bd 9e 9b 5a bd
       0.06513101 0.12150457 -0.062395852 -0.053371064
000330 d8 5f b5 3b e1 c5 c4 bd 37 3b 96 3d 27 21 8c bd
       0.005535107 -0.09608055 0.07335513 -0.06842261
000340 37 f6 55 3d d6 25 8d bd d2 a2 8e 3d de 10 c8 3c
       0.052236762 -0.06891982 0.06964649 0.024422105
000350 b6 33 e9 3d 0c 0b 89 bd 1a cd 9b 3c a1 93 51 bd
       0.11386816 -0.0669156 0.019018698 -0.05116618
000360 ce 38 be 3b 74 e4 8b 3d 47 f7 c0 bd dc 57 b3 3d
       0.0058051115 0.06830683 -0.094221644 0.08756992
000370 fe 68 15 3d 6b 04 cd bc e1 12 95 3d ca fd 25 3c
       0.03647708 -0.02502652 0.072789915 0.010131309
000380 d5 ff dd bd 13 ec 97 3d 2a 59 89 3c bc da 3e bd
       -0.10839812 0.074180745 0.01676615 -0.04659532
000390 63 a4 66 3d bb b0 21 bd 64 d0 40 3d 39 35 1d bd
       0.056309115 -0.039475184 0.047073737 -0.038380835
0003a0 5c 86 13 be 70 8d c9 3d 08 2f d1 3d c1 67 f4 bd
       -0.14406723 0.0984143 0.102140486 -0.11933852
0003b0 cf 22 97 bd b4 a2 ac 3d 6a 2c 63 3d c2 58 3f bd
       -0.07379686 0.08429471 0.05546228 -0.046715505
0003c0 0c ea 67 3c b7 29 b7 3d bf df ce 3d b0 e0 00 be
       0.014154922 0.08943503 0.1010127 -0.12585711
0003d0 0e ca 6d bd 0f e3 6a bc 50 47 c6 bd 28 cf 53 bc
       -0.058054022 -0.014336362 -0.096815705 -0.012927808
0003e0 11 2e 5b b9 f4 b6 83 bc c0 3a 70 bd 10 11 ed 3b
       -0.00020902629 -0.01607845 -0.05864978 0.0072347
0003f0 da 35 d6 3b 97 d3 0b bd a9 32 88 3d a8 9a 93 bd
       0.0065371813 -0.034137335 0.06650288 -0.07207233

SoftmaxPolicy_l3.bias f4 [2]
000000 dc 57 01 3d 5f 70 81 bc
       0.03157793 -0.015800653
