pytorch_models/model280376.pth (torch, 72107 bytes, 6 tensors)

SoftmaxPolicy_l1.weight f4 [128, 4]
0.25627413 -0.22602606 -0.113168895 0.23188867 -0.46904624 0.31190863 -0.051885705 0.25742036
0.06805571 -0.05547758 0.20498122 0.05055136 0.1764818 -0.19219217 -0.030339928 -0.047744423
0.07194675 -0.0017532976 0.43536365 0.1539636 -0.18262623 -0.2999636 -0.083329946 -0.212473
-0.16203503 0.020920828 0.3123716 0.2808544 -0.4893121 0.32628945 0.2583509 0.51858574
0.33129153 -0.46448386 -0.49109712 -0.22932804 0.41959217 -0.09693192 0.21984677 -0.22829393
0.4849596 -0.23421463 0.29992607 -0.010121572 -0.25942677 0.25792193 -0.25448734 0.15631384
-0.13033222 -0.04972253 -0.46904242 -0.22856754 0.26839125 -0.11295754 0.49952433 0.39958513
-0.03048711 -0.31078696 0.41316956 0.19656865 -0.31685495 0.34047204 0.42631122 0.4906287
-0.27825946 -0.08136482 -0.028885476 0.06735373 -0.37746486 -0.3548064 0.24942204 -0.12409665
0.22965331 0.03267209 0.30393264 0.17997868 0.16524416 0.2529128 -0.31667274 0.32453844
-0.3460821 -0.37633482 0.08335508 -0.056384042 0.2899965 -0.28334278 -0.35579178 0.4121991
-0.070395276 0.27788916 0.08823676 -0.42192605 0.09709908 0.11337967 -0.34145296 -0.2372181
0.17698129 0.06890754 -0.35972252 -0.21597794 0.44655597 -0.08265043 0.39939666 0.26645583
-0.32064924 -0.42217547 0.46112412 0.015764177 0.33565974 0.114778765 0.26761624 0.412289
0.46323314 -0.32407737 0.18990953 0.44251123 0.35052446 0.29799324 -0.3678785 -0.35928425
-0.3066182 0.057827316 0.5124413 -0.31090024 0.27347386 -0.28474182 -0.49139616 -0.102251224
0.28168115 0.46344274 -0.28961128 0.11060903 0.41763893 0.35373443 0.40923107 0.376294
0.3015854 0.114094056 -0.331242 -0.41048616 -0.23611642 -0.0562806 -0.1850277 0.24724796
0.1553901 -0.11230541 0.2081055 0.17375953 0.2961446 0.359922 -0.06131934 0.5211349
-0.043493718 -0.029931534 -0.6053063 -0.37176222 -0.28870958 -0.21350124 0.3441785 -0.1636425
-0.36678123 0.21724708 0.26184618 0.34445772 -0.26050594 0.106184214 -0.18124531 -0.11269445
-0.39307272 -0.2288767 -0.16966167 0.2147772 0.082399264 0.14563149 0.6235684 0.5120726
0.33127815 0.02312188 -0.22208035 0.44857955 -0.13076283 -0.047032874 -0.43921378 -0.09870681
-0.33163282 0.45444638 -0.47996613 -0.42008725 -0.010781812 -0.266453 0.17339347 -0.19183275
-0.23195149 0.04229647 0.34136787 -0.37911242 0.2303505 0.316469 0.4677668 -0.36171347
0.13749844 -0.36467966 0.39305815 -0.20350079 0.29458192 0.016202644 -0.013408946 -0.005998545
0.072714336 0.23627843 0.21289727 0.22398692 -0.44867584 0.37155303 0.5334307 0.46313626
0.34730443 -0.36108458 -0.15106009 0.44401726 -0.38736227 0.4576535 -0.43780452 -0.3916721
0.23812228 -0.34673563 -0.04886989 0.39342678 0.40025738 0.46767864 -0.19644138 -0.44322094
0.4842659 -0.13020466 -0.2395538 0.13409762 -0.35076427 0.32163987 0.23077612 -0.44679263
-0.4120438 -0.047663424 0.19405693 -0.013017411 -0.24956256 0.02126642 -0.47350445 -0.3627973
-0.3318413 0.41314515 0.40700954 -0.19555995 0.028758477 0.21115653 0.009846222 -0.2694817
00000000: 5d36 833e 6073 67be 18c5 e7bd 3974 6d3e
00000010: d426 f0be 7db2 9f3e 1b86 54bd 9acc 833e
00000020: cb60 8b3d 753c 63bd 99e6 513e f10e 4f3d
00000030: a5b7 343e 06ce 44be 718b f8bc a88f 43bd
00000040: d158 933d e8ce e5ba fce7 de3e a2a8 1d3e
00000050: 5f02 3bbe d494 99be e4a8 aabd 8692 59be
00000060: 83ec 25be 2862 ab3c 2cef 9f3e 26cc 8f3e
00000070: 1e87 fabe 690f a73e 9246 843e 09c2 043f
00000080: 0b9f a93e d4d0 edbe 1571 fbbe f8d4 6abe
00000090: c9d4 d63e 3e84 c6bd 831f 613e e2c5 69be
000000a0: a04c f83e f6d5 6fbe e98f 993e f3d4 25bc
000000b0: 96d3 84be 580e 843e 2a4c 82be bc10 203e
000000c0: cf75 05be daa9 4bbd 5426 f0be 9c0d 6abe
000000d0: 946a 893e 4856 e7bd a7c1 ff3e 6c96 cc3e
000000e0: 1bc0 f9bc 781f 9fbe f68a d33e 4b49 493e
000000f0: d03a a2be 5a52 ae3e 7745 da3e af33 fb3e
00000100: 0678 8ebe 99a2 a6bd 3ca1 ecbc c1f0 893d
00000110: 1343 c1be 2fa9 b5be 7e68 7f3e 6226 febd
00000120: 3d2a 6b3e 2bd3 053d 0f9d 9b3e 554c 383e
00000130: c435 293e c97d 813e ee22 a2be e729 a63e
00000140: ac31 b1be f5ae c0be 11b6 aa3d f4f2 66bd
00000150: 6c7a 943e 4e12 91be 572a b6be c30b d33e
00000160: 662b 90bd 7d47 8e3e 79b5 b43d b106 d8be
00000170: e2db c63d 9a33 e83d ecd2 aebe 4de9 72be
00000180: 953a 353e 651f 8d3d 8d2d b8be 5229 5dbe
00000190: fca2 e43e a144 a9bd b87d cc3e e66c 883e
000001a0: 232c a4be 6227 d8be 7618 ec3e e023 813c
000001b0: 98db ab3e 2111 eb3d ff04 893e 8b17 d33e
000001c0: e52c ed3e 78ed a5be a577 423e d590 e23e
000001d0: f177 b33e 9292 983e 925a bcbe 1bf4 b7be
000001e0: 10fd 9cbe 56dc 6c3d 5a2f 033f 512e 9fbe
000001f0: c404 8c3e aec9 91be 4798 fbbe 1769 d1bd
00000200: 8338 903e 5e48 ed3e ee47 94be fd86 e23d
00000210: c5d4 d53e ae1c b53e bc86 d13e 9ba9 c03e
00000220: 6769 9a3e 25aa e93d 8d98 a9be 3e2b d2be
00000230: 81c8 71be 7d86 66bd e777 3dbe 922e 7d3e
00000240: 951e 1f3e 6100 e6bd 9c19 553e 05ee 313e
00000250: 44a0 973e b247 b83e fd29 7bbd 1969 053f
00000260: 7826 32bd fa32 f5bc 5bf5 1abf 9e57 bebe
00000270: bed1 93be 12a0 5abe 2a38 b03e e691 27be
00000280: c0ca bbbe 0576 5e3e b410 863e c35c b03e
00000290: 0961 85be 1c77 d93d 5f98 39be 59cc e6bd
000002a0: d440 c9be a75e 6abe cabb 2dbe 8eee 5b3e
000002b0: f2c0 a83d 6c20 153e 2ea2 1f3f 3117 033f
000002c0: 4a9d a93e 196a bd3c 0869 63be 38ac e53e
000002d0: b1e6 05be 8ba5 40bd a1e0 e0be cc26 cabd
000002e0: c7cb a9be 32ad e83e 1fbe f5be ad15 d7be
000002f0: 32a6 30bc 876c 88be 0f8e 313e ce6f 44be
00000300: b184 6dbe 103f 2d3d c5c7 ae3e 061b c2be
00000310: 00e1 6b3e 3a08 a23e 217f ef3e 8232 b9be
00000320: 64cc 0c3e 4bb7 babe eb3e c93e 8362 50be
00000330: 71d3 963e 68bb 843c 32b1 5bbc 718f c4bb
00000340: 41eb 943d f9f2 713e be01 5a3e d45c 653e
00000350: d7b8 e5be 333c be3e ea8e 083f 3220 ed3e
00000360: e3d1 b13e 14e0 b8be 7faf 1abe 3b56 e33e
00000370: 5954 c6be 8f51 ea3e ea27 e0be 3f89 c8be
00000380: 54d6 733e 5587 b1be cb2b 48bd 3c6f c93e
00000390: 89ee cc3e 9373 ef3e ee27 49be dbed e2be
000003a0: b3f1 f73e 5f54 05be 974d 75be e350 093e
000003b0: 6097 b3be fbad a43e 9350 6c3e 01c2 e4be
000003c0: 68f7 d2be b93a 43bd dcb6 463e fb46 55bc
000003d0: 548d 7fbe ea36 ae3c 2d6f f2be 91c0 b9be
000003e0: 1ae7 a9be c387 d33e 8e63 d03e de40 48be
000003f0: e696 eb3c 6b39 583e 0c52 213c 81f9 89be

SoftmaxPolicy_l1.bias f4 [128]
-0.37762693 0.35435903 0.33037832 -0.49674106 -0.39417493 -0.33812258 -0.2596946 0.11925447
-0.4804556 -0.39153695 0.23131381 -0.17067294 -0.216056 -0.41625538 0.1911825 0.11265485
-0.20545769 -0.31171826 0.116392985 0.15000005 0.19173726 0.1650247 -0.048026044 -0.3920899
0.35036308 0.033816215 -0.34486622 0.46872205 0.2854232 -0.40628862 -0.24802788 -0.16004756
-0.29168287 0.23411489 -0.3788084 0.4515608 -0.19898328 0.30270556 0.09652303 -0.22999114
0.34387475 -0.37964642 -0.26588643 0.108392805 0.38871947 -0.20767982 -0.28346992 -0.32269323
-0.20110752 -0.15942623 -0.11857654 -0.29325658 0.1688574 0.084156506 -0.34318218 -0.25328928
0.09988937 0.026641732 0.3912462 -0.057831403 -0.40521094 -0.3653415 -0.13319072 -0.103945725
0.08755381 -0.13095939 0.21192905 -0.1595713 0.39200336 0.0993362 -0.1616714 0.4742847
0.16347781 -0.35977983 -0.2656033 0.33610716 0.21977301 0.38007405 0.01828244 0.34708294
0.27380878 0.14239125 -0.14895344 0.511578 0.0961929 -0.15519471 0.06669532 0.49872825
0.31841677 -0.059575744 0.5203364 0.25203177 -0.25968945 -0.45956972 0.31250826 0.5007977
-0.30369824 0.19597197 0.04371732 -0.12853837 -0.107782334 0.16632849 0.10242531 0.33372465
0.18616655 0.2590798 0.47315148 0.17688303 0.11579564 -0.13839975 0.38019562 0.09279903
0.32609746 0.48035848 -0.13264592 0.33145428 -0.06116557 0.47872147 0.39128423 -0.1553441
0.009878187 -0.21369366 -0.2107613 -0.08639509 -0.0019740516 -0.15480208 -0.471012 -0.3145238
00000000: 5158 c1be 8c6e b53e 5927 a93e d854 febe
00000010: 4cd1 c9be 671e adbe b1f6 84be b03b f43d
00000020: 47fe f5be 8877 c8be 87dd 6c3e e3c4 2ebe
00000030: c93d 5dbe 6d1f d5be 58c5 433e 96b7 e63d
00000040: 8063 52be 8999 9fbe 725f ee3d 9d99 193e
00000050: c656 443e 3cfc 283e f5b6 44bd 02c0 c8be
00000060: ca62 b33e df82 0a3d 4e92 b0be 56fc ef3e
00000070: fd22 923e 1005 d0be 05fb 7dbe 82e3 23be
00000080: 7557 95be d0bb 6f3e 2df3 c1be fa32 e73e
00000090: 46c2 4bbe 39fc 9a3e dead c53d cc82 6bbe
000000a0: 5a10 b03e 0461 c2be 4422 88be 0cfd dd3d
000000b0: 3d06 c73e 05aa 54be f822 91be 0c38 a5be
000000c0: 21ef 4dbe a140 23be 42d8 f2bd ba25 96be
000000d0: f4e8 2c3e 3f5a ac3d 93b5 afbe 22af 81be
000000e0: cc92 cc3d c33f da3c 6c51 c83e 9fe0 6cbd
000000f0: cf77 cfbe 0b0e bbbe 2663 08be 7fe1 d4bd
00000100: 694f b33d 381a 06be ee03 593e a966 23be
00000110: aab4 c83e c770 cb3d 308d 25be 72d5 f23e
00000120: ba66 273e 1035 b8be 28fd 87be 3d16 ac3e
00000130: 2d0c 613e 1199 c23e 0ec5 953c dbb4 b13e
00000140: aa30 8c3e 03cf 113e 4087 18be c7f6 023f
00000150: c800 c53d 5deb 1ebe 8e97 883d 4f59 ff3e
00000160: 8607 a33e b205 74bd c434 053f 4f0a 813e
00000170: 04f6 84be b94c ebbe 1501 a03e 4734 003f
00000180: 567e 9bbe e0ac 483e ef10 333d 909f 03be
00000190: fcbc dcbd 0452 2a3e 5cc4 d13d f5dd aa3e
000001a0: 72a2 3e3e 1ca6 843e e940 f23e d320 353e
000001b0: 4426 ed3d aab8 0dbe 00a9 c23e 6b0d be3d
000001c0: 3ff6 a63e 8cf1 f53e 55d4 07be 60b4 a93e
000001d0: c088 7abd fb1a f53e 6856 c83e 8612 1fbe
000001e0: 1fd8 213c 83d2 5abe cfd1 57be e9ef b0bd
000001f0: 175f 01bb 7084 1ebe 7c28 f1be 4309 a1be

SoftmaxPolicy_l2.weight f4 [128, 128]
0.0029711986 -0.041023806 0.073658235 0.07045902 0.056641046 0.04130911 -0.07212279 0.05155894
-0.05810332 -0.013980221 -0.03673026 0.02778175 -0.06615683 -0.03886178 -0.059765536 -0.10016468
-0.046708714 0.08182792 -0.00586497 0.032477092 -0.086464845 0.097783454 -0.012370286 -0.07585424
0.08856353 -0.013402906 0.07317456 -0.05520662 -0.06807297 -0.05440147 0.034812313 0.023177752
-0.07638441 0.013897134 0.010082453 0.034374386 -0.040148146 -0.062343102 0.11428929 -0.04761433
0.044025727 0.07266676 -0.06847013 -0.07797098 0.024377044 -0.07624822 0.034819003 -0.032303184
-0.036484927 -0.06522803 0.049691424 -0.045809742 -0.08584325 -0.06442557 -0.038798485 -0.0795131
0.045811772 -0.02176017 0.08782127 0.061332542 -0.056248646 -0.045190997 -0.0432314 0.05827696
0.006087582 -0.025148366 0.09151448 0.10583845 0.08084371 -0.06560326 -0.03531862 -0.012592261
0.0977657 -0.037021197 -0.044285495 0.016949853 -0.019469185 0.0432012 0.016636096 -0.07429349
0.086093694 0.082608745 0.0069288807 -0.0521034 0.03589022 0.054572437 0.062192786 -0.03800731
-0.004897859 -0.025111036 0.08938821 0.12592746 0.003970215 -0.053399988 0.0416095 0.05162835
0.038430937 -0.07673767 0.016716853 -0.03351052 -0.072078444 -0.036138937 0.0558321 0.043038443
-0.0756737 0.016959077 0.08801968 0.107219905 0.07027118 -0.024033908 0.05171745 0.05296476
0.042480014 -0.057895266 -0.03300526 0.077993356 0.07940123 0.08010899 -0.042328194 -0.01763144
-0.05435871 -0.030364176 0.07253459 -0.062898286 0.006565352 0.021152604 -0.04776288 0.03872262
-0.019348769 0.070067786 -0.04304736 0.013704911 -0.078233115 0.048773814 0.08469651 0.024009816
0.0012371587 -0.04568357 -0.040144537 -0.04316632 -0.048475645 0.024358852 0.0123092225 0.080751695
-0.070512414 -0.057760216 -0.037049968 -0.033819634 0.078893825 0.043887652 -0.07757931 -0.005292379
0.0060773697 0.07471226 0.081853434 0.059105046 0.08510774 -0.029067345 -0.0016682062 -0.080581665
0.025708862 0.121454746 0.051149502 0.10607088 -0.03590381 0.029109308 -0.051933948 0.068984136
-0.037713613 -0.041103143 0.01336666 0.016254965 0.060689703 -0.01296431 -0.019303476 0.043318763
0.06106892 0.099979155 0.030734796 -0.0020274427 0.12152388 0.13097256 -0.041195817 0.041468423
0.026738252 -0.03963871 -0.006278221 -0.0144579625 -0.066800825 -0.03247807 0.054336514 0.07519253
0.011222543 -0.07568283 0.013259748 -0.027158864 0.08144026 -0.08537082 -0.011788465 0.086052805
0.013898097 -0.040046927 -0.08239035 9.482159e-05 0.05549848 -0.058551356 -0.08390977 0.054825746
-0.030909052 0.0603523 -0.07739403 -0.01158919 -0.05535966 -0.0032131968 -0.08536088 0.046700913
-0.039921433 -0.063675046 -0.042468492 -0.113214746 0.045364287 -0.019731406 -0.006603181 0.07211693
-0.013376269 0.07979488 0.004684526 -0.0598493 0.024168508 0.02674564 -0.062393546 0.027963405
0.017219866 0.07569917 -0.007692652 -0.06560239 -0.086631805 0.03427491 -0.02364454 -0.021566905
-0.008748985 -0.02385999 0.023942182 0.08139272 0.07343237 -0.0629045 0.091021076 0.0617538
0.014097058 0.04034491 0.05823653 0.07595204 0.04882782 0.030693943 -0.03632983 -0.05828971
00000000: 71b8 423b 9408 28bd 21da 963d d24c 903d
00000010: 7100 683d be33 293d 1db5 93bd 782f 533d
00000020: bffd 6dbd 4c0d 65bc 7872 16bd 8d96 e33c
00000030: 3b7d 87bd 882d 1fbd b5cc 74bd 2423 cdbd
00000040: a351 3fbd 6695 a73d ef2e c0bb b306 053d
00000050: 7b14 b1bd b142 c83d bdac 4abc 7859 9bbd
00000060: cc60 b53d dd97 5bbc 8bdc 953d 5620 62bd
00000070: d769 8bbd 13d4 5ebd 5b97 0e3d 45df bd3c
00000080: 6e6f 9cbd ceb0 633c df30 253c 28cc 0c3d
00000090: 6272 24bd 7b5b 7fbd 8110 ea3d 3e07 43bd
000000a0: 5254 343d 4fd2 943d 113a 8cbd 40af 9fbd
000000b0: 5eb2 c73c 0728 9cbd 5f9e 0e3d 5850 04bd
000000c0: 3871 15bd 4696 85bd 3c89 4b3d ffa2 3bbd
000000d0: 96ce afbd 8ef1 83bd 29eb 1ebd c4d7 a2bd
000000e0: 20a5 3b3d 6242 b2bc a3db b33d d537 7b3d
000000f0: fb64 66bd 321a 39bd 6913 31bd d2b3 6e3d
00000100: 577a c73b f203 cebc f26b bb3d d4c1 d83d
00000110: 6391 a53d 015b 86bd 42aa 10bd c54f 4ebc
00000120: 6239 c83d 8aa3 17bd b564 35bd 6bda 8a3c
00000130: d77d 9fbc bef3 303d 6c48 883c 2f27 98bd
00000140: e451 b03d c62e a93d aa0b e33b 606a 55bd
00000150: a001 133d 5987 5f3d ddbd 7e3d 8ead 1bbd
00000160: 387e a0bb a9b5 cdbc 2a11 b73d 21f3 003e
00000170: 9418 823b f2b9 5abd b96e 2a3d 4078 533d
00000180: c269 1d3d a428 9dbd c8f1 883c 5442 09bd
00000190: dd9d 93bd 6c06 14bd 33b0 643d 1449 303d
000001a0: d0fa 9abd c3ed 8a3c a943 b43d 1c96 db3d
000001b0: 56ea 8f3d c2e2 c4bc add5 533d 94f1 583d
000001c0: 86ff 2d3d 9623 6dbd 8630 07bd fbba 9f3d
000001d0: 1d9d a23d 2f10 a43d 5460 2dbd cf6f 90bc
000001e0: 3da7 5ebd 4bbe f8bc 048d 943d d1d0 80bd
000001f0: 2a22 d73b 3a48 ad3c 02a3 43bd 9c9b 1e3d
00000200: 4f81 9ebc b37f 8f3d 6e52 30bd 908a 603c
00000210: af38 a0bd 0dc7 473d 5d75 ad3d 3cb0 c43c
00000220: 2828 a23a b21e 3bbd 996e 24bd 2bcf 30bd
00000230: 668e 46bd 378c c73c 9fac 493c 2561 a53d
00000240: d068 90bd fa95 6cbd b5c1 17bd 7586 0abd
00000250: 1693 a13d 8ac3 333d e7e1 9ebd b16b adbb
00000260: ac24 c73b be02 993d c6a2 a73d 2218 723d
00000270: f74c ae3d a41e eebc b6a7 daba 0008 a5bd
00000280: 649b d23c 44bd f83d 2482 513d b13b d93d
00000290: e00f 13bd a576 ee3c b1b8 54bd 8e47 8d3d
000002a0: 9779 1abd c55b 28bd d6ff 5a3c 2229 853c
000002b0: c495 783d 4268 54bc 5322 9ebc 046f 313d
000002c0: 6723 7a3d dfc1 cc3d 8ac7 fb3c d8de 04bb
000002d0: 83e1 f83d ac1d 063e f2bc 28bd cbda 293d
000002e0: 2e0a db3c 335c 22bd 89b9 cdbb 17e1 6cbc
000002f0: dfce 88bd ba07 05bd f78f 5e3d 8bfe 993d
00000300: c2de 373c 99ff 9abd 6a3f 593c 447c debc
00000310: 27ca a63d e5d6 aebd 6824 41bc 743c b03d
00000320: d8b4 633c 3f08 24bd 46bc a8bd f4da c638
00000330: 6052 633d 8cd3 6fbd e3d8 abbd f690 603d
00000340: fb34 fdbc f933 773d c380 9ebd 96e0 3dbc
00000350: d0c0 62bd 7f94 52bb afd1 aebd 7549 3f3d
00000360: a884 23bd 1068 82bd 71f3 2dbd 22dd e7bd
00000370: e7cf 393d c2a3 a1bc 7f5f d8bb 0ab2 933d
00000380: 2328 5bbc 7f6b a33d a780 993b 8a24 75bd
00000390: 09fd c53c ac19 db3c 6090 7fbd 8313 e53c
000003a0: ad10 8d3c 2b08 9b3d a412 fcbb 8c5a 86bd
000003b0: 046c b1bd d963 0c3d 32b2 c1bc 14ad b0bc
000003c0: e757 0fbc 0776 c3bc 6522 c43c 3ab1 a63d
000003d0: b663 963d 13d4 80bd 4269 ba3d 8df1 7c3d
000003e0: 59f7 663c b440 253d 6d89 6e3d be8c 9b3d
000003f0: aeff 473d dd71 fb3c 96ce 14bd 31c1 6ebd

SoftmaxPolicy_l2.bias f4 [128]
0.05385835 -0.03581566 0.0033199333 -0.06343335 -0.049114376 0.05488434 0.019459777 0.028060256
0.049659397 0.026833171 0.008070407 -0.010325586 0.0011070669 0.08172314 0.03459011 0.011023
0.035729516 -0.039511874 -0.06919022 -0.017989164 0.09476228 0.022132114 -0.065202616 0.05832165
0.080955535 0.069008306 0.01159901 -0.022373714 0.008716576 0.029180398 -0.03232291 -0.043772355
0.020160789 0.044564616 -0.026208911 -0.008719434 -0.06507965 -0.0011538006 -0.01871336 0.09108319
0.061705533 -0.029027704 -0.0684925 -0.07269894 -0.05040427 0.088620774 -0.025759283 0.065598756
0.06745318 -0.009997979 0.038818527 0.028655026 0.081507936 0.042892165 0.050556228 0.09001031
0.010669145 0.083786264 -0.0024086214 -0.066300064 0.0859884 -0.0662645 0.001222909 0.084565565
-0.025978522 -0.061378893 0.06619079 0.03422423 0.056707013 0.046838306 -0.09286701 0.07225331
-0.073979236 0.011140831 -0.04998717 0.06517351 0.09192261 0.013124314 -0.023144893 0.07653384
0.069742315 -0.016433777 0.07023098 0.0068308357 -0.041189086 0.08382824 -0.051340323 -0.06452186
0.051502932 0.033435263 0.07096495 -0.036103413 0.020511791 0.04678205 0.01827062 -0.072054386
0.0575015 0.023241466 -0.019737631 -0.021340232 -0.09253637 0.0947335 0.013251179 -0.024061123
0.09826942 -0.06337524 0.024530295 -0.013481867 -0.027170882 0.0019350294 -0.012262739 0.07599606
0.06399788 0.030674916 -0.0045945733 -0.014387595 -0.0076238294 -0.0020517127 0.032267597 0.07023961
-0.06265817 -0.08899808 -0.013854542 0.07128145 0.042290125 -0.035462514 0.056166325 0.03875685
00000000: 939a 5c3d 71b3 12bd 3d93 593b 58e9 81bd
00000010: 282c 49bd 67ce 603d 1c6a 9f3c 9fde e53c
00000020: a767 4b3d 3dd1 db3c be39 043c a62c 29bc
00000030: 001b 913a 765e a73d 5cae 0d3d d099 343c
00000040: 1d59 123d 34d7 21bd 9ab3 8dbd 035e 93bc
00000050: ba12 c23d 684e b53c f388 85bd afe2 6e3d
00000060: 04cc a53d 3a54 8d3d c609 3e3c 1449 b7bc
00000070: f8cf 0e3c bb0b ef3c 0765 04bd a44a 33bd
00000080: 3d28 a53c 6389 363d 12b4 d6bc f5db 0ebc
00000090: 7b48 85bd 203b 97ba c34c 99bc d389 ba3d
000000a0: f1be 7c3d 82cb edbc cc45 8cbd 2fe3 94bd
000000b0: b574 4ebd cf7e b53d 2205 d3bc a458 863d
000000c0: e524 8a3d 90ce 23bc 2d00 1f3d f2bd ea3c
000000d0: a2ed a63d b2af 2f3d 0c14 4f3d 5357 b83d
000000e0: a3cd 2e3c 2298 ab3d f6d9 1dbb 54c8 87bd
000000f0: b01a b03d afb5 87bd 044a a03a b630 ad3d
00000100: e9d0 d4bc 6f68 7bbd 098f 873d b52e 0c3d
00000110: 9d45 683d 86d9 3f3d 0f31 bebd 8bf9 933d
00000120: 6d82 97bd 0888 363c 59bf 4cbd b079 853d
00000130: ec41 bc3d 5d07 573c 5c9a bdbc c6bd 9c3d
00000140: 0fd5 8e3d 21a0 86bc 43d5 8f3d 34d5 df3b
00000150: e3b5 28bd 24ae ab3d 3b4a 52bd 0924 84bd
00000160: bdf4 523d 6af3 083d 1256 913d 2ce1 13bd
00000170: 5808 a83c 899e 3f3d 44ac 953c 4091 93bd
00000180: b186 6b3d e364 be3c d0b0 a1bc b6d1 aebc
00000190: b583 bdbd a303 c23d 791b 593c d51b c5bc
000001a0: 7a41 c93d e1ca 81bd c2f3 c83c 0ce3 5cbc
000001b0: 7895 debc d0a0 fd3a a8e9 48bc d3a3 9b3d
000001c0: 5211 833d f649 fb3c 138e 96bb f2b9 6bbc
000001d0: 51d1 f9bb 0776 06bb 072b 043d c9d9 8f3d
000001e0: ed52 80bd a044 b6bd 29fe 62bc 02fc 913d
000001f0: 6938 2d3d 2441 11bd a90e 663d 81bf 1e3d

SoftmaxPolicy_l3.weight f4 [2, 128]
0.052211836 0.014130747 0.124789186 0.014052171 -0.08839384 -0.017759364 0.04065124 0.09347759
0.015826773 0.00770173 0.069229946 0.06991487 0.08999772 0.016009439 0.0042809765 0.095854536
0.055440303 0.09495192 -0.01084038 0.09832512 -0.042406783 0.0977256 -0.038378783 -0.014832794
-0.03553104 0.04260853 0.048267107 0.03450692 -0.087876946 0.0065018497 -0.037881505 -0.03505835
0.053358942 -0.00080464716 0.050569493 -0.078755625 0.012472549 0.06940913 0.058271956 0.10280524
-0.009014647 0.08553776 -0.06952329 -0.009591644 -0.009370993 -0.027508171 0.032830127 0.0026674315
-0.10141714 -0.09612607 0.037586596 -0.059352543 -0.10982247 0.12879018 -0.055545844 0.095509626
0.065846846 0.047415253 -0.07514194 -0.01935877 0.081340484 0.021775218 -0.12364173 0.0073134475
-0.06433181 -0.0692702 -0.083104976 0.08103496 0.07327928 -0.06774214 -0.034445565 0.078817986
-0.0002858134 -0.057209715 0.027072186 -0.10840197 -0.08686837 0.07091798 -0.08784437 0.09918425
-0.032665927 -0.05686219 -0.081162326 0.055218637 -0.11934983 0.040680893 0.027444249 0.033889376
-0.102417015 -0.064694166 0.044211816 -0.07153604 -0.04484476 0.05603899 0.043379586 0.072551765
0.003384603 -0.041599948 0.12680757 0.004852159 -0.020933054 0.07473349 -0.08418797 0.08132237
0.034441534 -0.013845087 -0.0713691 -0.026339876 -0.022824513 0.019298997 -0.05914464 0.04592036
-0.119520195 -0.077517964 -0.006504758 0.10720814 0.070884705 -0.08698404 0.07583961 -0.057143256
0.07517295 0.010204832 -0.024116894 -0.09915735 -0.10170195 -0.10408492 -0.057165507 0.0691111
-0.0049204533 0.10929988 -0.11481829 0.08483629 0.016931303 0.091523625 -0.10129844 -0.07664406
0.108808056 0.050978992 -0.11790583 -0.100215025 -0.026858851 0.12234637 0.085433364 -0.082705885
0.011062055 0.016842064 -0.06492375 -0.08330493 0.10233345 0.00902631 0.036842413 0.104527704
0.03662362 -0.14168333 -0.06476469 -0.061452195 -0.074583724 0.06358127 0.0023720153 0.115228824
-0.03353241 0.019330168 -0.028474115 0.077647105 0.06017489 -0.019735476 -0.053524274 -0.0459645
-0.067526504 -0.1450142 0.042080764 0.054087 -0.10684793 0.12820034 -0.06145005 -0.09266509
0.06864958 0.06397737 -0.01692355 0.018656624 0.036819577 -0.11626686 0.13634028 -0.09094559
-0.04952513 -0.14550948 -0.026433961 0.024630437 -0.1207522 -0.069343515 0.011206989 -0.06567269
0.07766924 0.11037186 -0.0022911206 -0.051147897 0.05416064 0.009517438 0.06775976 0.02242115
0.064223535 0.120096296 -0.06284617 -0.054480173 0.0045423866 -0.09643701 0.072489105 -0.06881766
0.052246455 -0.068705164 0.06827834 0.023725836 0.11297532 -0.067515984 0.018629747 -0.05161284
0.0048025376 0.06830683 -0.09489218 0.08641761 0.03551452 -0.025425736 0.072789915 0.009865809
-0.10885092 0.074046254 0.016161008 -0.04759195 0.056004256 -0.03987559 0.045140408 -0.038904417
-0.14445016 0.096871525 0.10102578 -0.11981543 -0.07457693 0.08429471 0.054121107 -0.047108777
0.013208723 0.08832546 0.1000539 -0.12650748 -0.05869042 -0.015284539 -0.09728217 -0.012927808
-0.0006656154 -0.01607845 -0.05849031 0.0065165344 0.0055352207 -0.035077356 0.065529495 -0.07207254
00000000: 14dc 553d a684 673c 7991 ff3d 143b 663c
00000010: d407 b5bd 167c 91bc ea81 263d 2e71 bf3d
00000020: 26a7 813c cb5e fc3b 6ec8 8d3d 872f 8f3d
00000030: ba50 b83d 3a26 833c 6f47 8c3b 624f c43d
00000040: 5f15 633d 2776 c23d d99b 31bc ae5e c93d
00000050: bcb2 2dbd 5c24 c83d 1233 1dbd 3f05 73bc
00000060: ff88 11bd 4886 2e3d bbb3 453d 2157 0d3d
00000070: d4f8 b3bd 780d d53b a329 1bbd 5899 0fbd
00000080: e88e 5a3d f5ee 52ba f521 4f3d a14a a1bd
00000090: aa59 4c3c 6026 8e3d 93ae 6e3d 8e8b d23d
000000a0: 2cb2 13bc 6c2e af3d 3a62 8ebd 4526 1dbc
000000b0: cb88 19bc d158 e1bc e278 063d 13d0 2e3b
000000c0: cab3 cfbd bfdd c4bd 67f4 193d a71b 73bd
000000d0: 9aea e0bd 93e1 033e 0a84 63bd 8d9a c33d
000000e0: b6da 863d 7f36 423d 04e4 99bd 4996 9ebc
000000f0: d795 a63d f161 b23c e037 fdbd a5a5 ef3b
00000100: 65c0 83bd 89dd 8dbd f132 aabd a8f5 a53d
00000110: 7213 963d 64bc 8abd cb16 0dbd 536b a13d
00000120: 3ad9 95b9 bc54 6abd 7dc6 dd3c da01 debd
00000130: 0be8 b1bd 723d 913d c0e7 b3bd 1d21 cb3d
00000140: b5cc 05bd 54e8 68bd 6f38 a6bd f02c 623d
00000150: af6d f4bd 02a1 263d c3d2 e03c 96cf 0a3d
00000160: 03c0 d1bd 607e 84bd 7317 353d 7d81 92bd
00000170: 24af 37bd 2489 653d cbae 313d 0596 943d
00000180: 37d0 5d3b b564 2abd d8d9 013e dcfe 9e3b
00000190: cc7b abbc df0d 993d be6a acbd 588c a63d
000001a0: 9112 0d3d 81d6 62bc f629 92bd b9c6 d7bc
000001b0: 79fa babc ee18 9e3c a641 72bd fd16 3c3d
000001c0: 01c7 f4bd bdc1 9ebd dd25 d5bb f18f db3d
000001d0: 002c 913d b024 b2bd cc51 9b3d 0c0f 6abd
000001e0: 47f4 993d 2b32 273c cb90 c5bc 0213 cbbd
000001f0: 1d49 d0bd 792a d5bd 6126 6abd 1f8a 8d3d
00000200: c13b a1bb 9ed8 df3d da25 ebbd a6be ad3d
00000210: 84b3 8a3c bd70 bb3d 8e75 cfbd 90f7 9cbd
00000220: c2d6 de3d 59cf 503d 9d78 f1bd 893d cdbd
00000230: 1807 dcbc bc90 fa3d b0f7 ae3d b461 a9bd
00000240: 9f3d 353c 5ef8 893c bef6 84bd c69b aabd
00000250: 3394 d13d 17e3 133c 12e8 163d 9f12 d63d
00000260: a602 163d 6f15 11be 5aa3 84bd 4cb5 7bbd
00000270: 5abf 98bd e636 823d d073 1b3b 17fd eb3d
00000280: 4859 09bd 4d5a 9e3c 8c42 e9bc 7205 9f3d
00000290: f279 763d 4bac a1bc 453c 5bbd 4645 3cbd
000002a0: 564b 8abd 9a7e 14be e15c 2c3d 558a 5d3d
000002b0: 16d3 dabd f346 033e 0cb3 7bbd 32c7 bdbd
000002c0: 2798 8c3d 9106 833d 42a3 8abc c7d5 983c
000002d0: 20d0 163d 521d eebd c99c 0b3e ae41 babd
000002e0: ddda 4abd 7000 15be 098c d8bc c5c5 c93c
000002f0: ee4c f7bd f903 8ebd 859d 373c 677f 86bd
00000300: 0d11 9f3d a40a e23d a026 16bb 7580 51bd
00000310: 8cd7 5d3d 07ef 1b3c a1c5 8a3d 8fac b73c
00000320: a187 833d 0cf5 f53d 7eb5 80bd 9a26 5fbd
00000330: 4dd8 943b c480 c5bd 2b75 943d 46f0 8cbd
00000340: 6100 563d 4bb5 8cbd 84d5 8b3d af5c c23c
00000350: 9b5f e73d d245 8abd 699d 983c fc67 53bd
00000360: 9b5e 9d3b 74e4 8b3d d556 c2bd b7fb b03d
00000370: ac77 113d a249 d0bc e112 953d 34a4 213c
00000380: 3bed debd 90a5 973d 1764 843c c7ef 42bd
00000390: b864 653d 9654 23bd 26e5 383d 3d5a 1fbd
000003a0: beea 13be 9464 c63d 9be6 ce3d cb61 f5bd
000003b0: cabb 98bd b4a2 ac3d 18ae 5d3d 22f5 40bd
000003c0: 6669 583c fbe3 b43d 0fe9 cc3d 2d8b 01be
000003d0: 5e65 70bd 016c 7abc e03b c7bd 28cf 53bc
000003e0: b17c 2eba f4b6 83bc 8993 6fbd a788 d53b
000003f0: cc60 b53b 46ad 0fbd 5434 863d c59a 93bd

SoftmaxPolicy_l3.bias f4 [2]
0.032367546 -0.01659026
00000000: d593 043d 4ce8 87bc
