pytorch_models/model280176.pth (torch, 72107 bytes, 6 tensors)

SoftmaxPolicy_l1.weight f4 [128, 4]
00000000: d722 833e 2f9c 63be 9a96 ebbd 7672 6b3e
00000010: 288c efbe 42d6 a03e 5c9d 54bd 0b3e 833e
00000020: db46 8d3d 72f4 60bd 9e85 533e e965 4c3d
00000030: 4bb6 313e 0dfe 40be c0da e8bc 8442 51bd
00000040: d158 933d e8ce e5ba fce7 de3e a2a8 1d3e
00000050: 44ad 3abe 648e 99be af2b acbd d921 59be
00000060: f39f 25be 2ea5 af3c b798 a03e ec6c 8f3e
00000070: b45d fabe 13e6 a73e d499 843e 32a0 043f
00000080: 9422 a83e 74ef ebbe 9853 fbbe 3eb1 6fbe
00000090: 75c6 d63e 5e77 c6bd 66e3 5f3e 5384 69be
000000a0: 312a f83e 8d4a 70be 159f 983e 79d8 23bc
000000b0: 2ae6 84be f228 843e 7d55 82be 93c8 1f3e
000000c0: d718 07be dcb9 4ebd d02a f0be 914f 6abe
000000d0: c19a 893e 2a04 ecbd e5a1 003f 2884 cd3e
000000e0: 0ed0 f6bc 5ec8 9ebe e093 d43e f4a6 483e
000000f0: fd73 a1be 7d5b af3e f55c da3e 7058 fb3e
00000100: 8ec0 8ebe 0954 a7bd 3b9e f1bc 3d6a 8a3d
00000110: cd8c c1be dcc8 b5be 85c4 7e3e 15ec febd
00000120: 88b8 6b3e 4593 083d a826 9c3e d7ed 373e
00000130: 0481 293e 79e5 813e 796a a1be a3de a53e
00000140: 1f0b b1be 5830 c0be 75cb ab3d 7791 68bd
00000150: 2ef6 943e a9fa 90be 98c7 b6be 3193 d23e
00000160: b5ee 91bd 4baa 8d3e d70d b53d 0ab5 d7be
00000170: daac c63d 62c7 e83d 187f aebe 1e6c 73be
00000180: ac97 343e d877 8b3d 6fe9 b8be 231d 5dbe
00000190: 30e6 e43e ce05 a8bd 1079 cd3e 4d71 883e
000001a0: 4567 a4be 6233 d8be 85d0 eb3e e581 813c
000001b0: 260c ac3e 6386 ec3d 1ac8 893e d3cf d23e
000001c0: 8858 ed3e c6ae a5be 5f23 443e 2e56 e23e
000001d0: f377 b33e df87 983e d4cd bcbe 923d b8be
000001e0: 2306 9dbe 04c0 6c3d 9956 033f 50b9 9fbe
000001f0: 5b7f 8c3e 0441 90be 4fb5 fdbe a552 d4bd
00000200: f04d 903e 6ba8 ed3e 39be 93be 102f e33d
00000210: a40c d63e f664 b53e 4716 d23e 3d83 c03e
00000220: e6cd 9a3e 6b8f e93d e4ca aabe 1ecb d1be
00000230: 121f 71be ab63 63bd af99 3cbe ef82 7c3e
00000240: bf74 1f3e b91b eabd 17c0 573e e02a 333e
00000250: 9ead 973e 2aab b83e c996 76bd ea40 053f
00000260: 4b03 39bd 3cf6 02bd c807 1bbf 8aea bdbe
00000270: 0cfc 93be 40a9 5abe fdff af3e 08d0 27be
00000280: d299 babe 31a7 603e 3802 863e e659 b03e
00000290: 6bcd 85be c646 d53d 5028 3bbe 0674 e3bd
000002a0: 98b0 c9be 81ee 6abe a634 2ebe d4b2 5b3e
000002b0: 6639 a93d 1e82 153e 900a 203f 9f1e 033f
000002c0: 5ad5 a93e 54a6 c13c a5fe 61be 7a90 e53e
000002d0: 659b 06be 9036 42bd c35e e1be 9e44 cbbd
000002e0: 118f aabe 701b e83e 5c27 f4be 42cd d6be
000002f0: 15e8 36bc c87e 88be 6996 313e a9e1 44be
00000300: bcb5 6ebe a129 2b3d 29d0 ae3e 82c7 c2be
00000310: c5eb 6b3e ef58 a23e 32a0 f03e 202b b9be
00000320: 28cb 0b3e e0e7 b9be 09ad c83e 2239 53be
00000330: 2f0f 973e 2fc6 8a3c ad09 53bc f9a8 d3bb
00000340: 7193 953d b1c1 723e 0389 5b3e 13cd 643e
00000350: ad9d e5be d8e3 be3e dc8e 083f eb21 ed3e
00000360: aee8 b23e a633 b8be 38cf 1dbe ae81 e33e
00000370: 6ced c6be 44b8 e93e c304 dfbe 572c c8be
00000380: d2c4 743e 0ad8 b1be 9ced 43bd 5090 c93e
00000390: 2502 cd3e 64f8 ee3e a521 4abe c973 e2be
000003a0: b7cb f73e 7777 05be bafb 76be ba8f 083e
000003b0: 0ae2 b3be 3436 a43e 1423 6d3e 63a6 e4be
000003c0: cc4f d3be 92ce 43bd 001a 463e e1e7 5bbc
000003d0: fd3f 80be edf8 9f3c 7ada f2be 0c72 b9be
000003e0: 1c3e a9be 54aa d43e 54b9 d03e a17d 49be
000003f0: 839a e93c b32e 573e ccab 1d3c c583 89be
0.25612518 -0.22227548 -0.11503334 0.22992882 -0.46786618 0.31413466 -0.051907882 0.25633273
0.0689828 -0.05492062 0.2065644 0.049901877 0.17354695 -0.18846913 -0.02842462 -0.051088825
0.07194675 -0.0017532976 0.43536365 0.1539636 -0.18230158 -0.29991448 -0.084067695 -0.21204318
-0.16174297 0.021441069 0.31366512 0.28012788 -0.48899615 0.3279272 0.25898612 0.5180694
0.3283888 -0.46081126 -0.49087214 -0.23407456 0.41948286 -0.09690736 0.2186409 -0.22804384
0.4846969 -0.23465939 0.2980887 -0.010000342 -0.2595685 0.2581249 -0.25455847 0.15603857
-0.1319307 -0.050470218 -0.46907663 -0.22881915 0.2687588 -0.11524232 0.5024703 0.4013989
-0.030128505 -0.31012243 0.4151907 0.19594938 -0.31533805 0.34249488 0.42649046 0.4909091
-0.27881283 -0.08170325 -0.029494395 0.067585446 -0.37802735 -0.35504806 0.24879654 -0.12447373
0.23019612 0.033343572 0.30498242 0.17961822 0.16553122 0.25370386 -0.31526545 0.3239642
-0.34578797 -0.37536883 0.08388416 -0.05677935 0.2909407 -0.2831624 -0.35699153 0.41127923
-0.07125608 0.27668986 0.0884053 -0.4213031 0.097009376 0.11366154 -0.3408134 -0.23771712
0.17635983 0.06809968 -0.36115596 -0.21593146 0.4470687 -0.08204232 0.40131426 0.26648942
-0.32110038 -0.42226702 0.46057525 0.015809009 0.3360302 0.1154907 0.26910478 0.41174182
0.46356606 -0.32359904 0.19154118 0.44206375 0.35052451 0.2979116 -0.36875784 -0.35984474
-0.30668744 0.057800308 0.5130401 -0.3119607 0.27440915 -0.28174603 -0.4955239 -0.10367326
0.28184462 0.46417555 -0.28856066 0.11092961 0.4180652 0.3542859 0.4103262 0.37600127
0.30235213 0.11404308 -0.33357918 -0.4097528 -0.23547009 -0.055514973 -0.18418 0.24659322
0.15571879 -0.11431069 0.2106937 0.17496824 0.29624647 0.36068088 -0.060202394 0.52052176
-0.045169156 -0.03197311 -0.6055875 -0.37093002 -0.28903234 -0.21353626 0.3437499 -0.16387951
-0.3644548 0.21938778 0.26173568 0.34443587 -0.26133284 0.104138896 -0.18277097 -0.11106114
-0.39392543 -0.22942545 -0.17012271 0.21454936 0.08262901 0.14600417 0.6251612 0.512186
0.33170587 0.023638882 -0.22069795 0.4483679 -0.13145216 -0.047415316 -0.4401761 -0.09925197
-0.33312276 0.45333433 -0.4768628 -0.41953474 -0.011163731 -0.26659226 0.17342533 -0.19226708
-0.23311514 0.041787747 0.3414319 -0.38042837 0.23039158 0.31708476 0.4699722 -0.36165714
0.13651717 -0.3630972 0.39194515 -0.20627263 0.29503772 0.016940204 -0.012880725 -0.006459352
0.07303513 0.237067 0.21438985 0.22343855 -0.4484686 0.37283206 0.53342986 0.4631494
0.34943146 -0.35976905 -0.15411079 0.44434875 -0.38853014 0.45648396 -0.4355832 -0.3909633
0.23903206 -0.34735137 -0.047834024 0.39367914 0.400407 0.46673882 -0.19739397 -0.44228962
0.4839761 -0.13033853 -0.24119464 0.13336077 -0.35133392 0.32072604 0.23157912 -0.44658193
-0.41271818 -0.047804423 0.19345856 -0.013421983 -0.2504882 0.019527877 -0.4743231 -0.36219823
-0.33055198 0.415362 0.40766394 -0.1967683 0.02851606 0.21013908 0.009623479 -0.26858345

SoftmaxPolicy_l1.bias f4 [128]
00000000: 08f8 c1be 57a7 b53e b6cc a93e 39f2 ffbe
00000010: 4cd1 c9be 6b5f adbe d62a 85be 9d3d f33d
00000020: 4d2c f8be ed94 c8be 51cf 6c3e 9ec4 2ebe
00000030: 3bcd 5bbe 6388 d4be 91e2 433e 7bdc e63d
00000040: 34bb 51be 6f50 9fbe 5aca ee3d 8143 1a3e
00000050: 1e09 443e 9503 293e c9f3 4cbd 2ebe c8be
00000060: 633d b33e 79fe 083d 4768 b0be 1c45 f03e
00000070: c38d 923e 4b06 d0be dd6d 7dbe 8c90 23be
00000080: 90fc 94be 3c66 703e 86c2 c1be 6d7c e73e
00000090: 888d 4abe 7657 9b3e b051 c43d e11c 6bbe
000000a0: 4983 b03e da24 c2be 12c4 87be 2eba de3d
000000b0: 6c42 c73e d4f4 53be fd57 91be 900d a5be
000000c0: 5f2b 4cbe 2ddc 22be 0d6a f4bd fae9 95be
000000d0: b176 2d3e 575a ab3d e7d2 aebe f221 82be
000000e0: 6913 cd3d e8fb d43c 59fe c73e ac6a 72bd
000000f0: 0019 cfbe c6ad babe df8d 06be e9eb d8bd
00000100: 1269 b03d 340c 05be 65cf 583e 5995 23be
00000110: 55b8 c83e 0f21 cc3d 043d 25be 1241 f33e
00000120: 2200 273e 2732 b8be 8595 87be 02cd ab3e
00000130: f584 613e 0aa7 c23e 523e 943c a4ec b13e
00000140: 69fb 8b3e 5d3e 113e a3c0 18be 08e2 023f
00000150: 0d85 c53d 0bf8 1dbe 3ab1 883d 696d ff3e
00000160: 599a a33e df78 70bd c228 053f 01c6 803e
00000170: 2e54 84be 234c ebbe 09f0 9f3e 2135 003f
00000180: 8503 9bbe faa1 493e fb1b 2f3d 55b3 02be
00000190: 62ca dfbd 7b6b 2a3e 0125 d13d 4e5b ab3e
000001a0: 635a 3d3e b8bd 843e fd14 f23e 619f 343e
000001b0: e58e ec3d 3ffc 0cbe 1cbd c23e 9772 bf3d
000001c0: 4b46 a73e 2240 f63e 60f4 07be e809 aa3e
000001d0: 12cf 80bd ce03 f53e 82ac c83e d4ad 1fbe
000001e0: da33 373c 154a 5abe 4e76 57be 21b4 b2bd
000001f0: bb8f 0ebb 7c3c 1ebe 91ef f0be ecc6 a0be
-0.37884545 0.35479233 0.33163995 -0.4998949 -0.39417493 -0.3386186 -0.26009244 0.11876986
-0.484713 -0.3917612 0.2312596 -0.17067191 -0.21465008 -0.41510305 0.19129397 0.11272522
-0.20481569 -0.31116053 0.11659689 0.15064813 0.19144103 0.16505273 -0.05003718 -0.39207596
0.35007772 0.03344581 -0.34454557 0.46927726 0.2862378 -0.406298 -0.24748941 -0.15973109
-0.2909894 0.234765 -0.37843722 0.45212117 -0.19780552 0.30340165 0.09585893 -0.22960235
0.34475163 -0.3791874 -0.26516777 0.10875355 0.38917863 -0.20698863 -0.28387442 -0.3223691
-0.1993842 -0.15904303 -0.1193429 -0.29280072 0.16939808 0.0836684 -0.3414528 -0.25416523
0.10013468 0.025999025 0.3906124 -0.05918376 -0.4044876 -0.36460704 -0.13140057 -0.10591871
0.086137906 -0.12992936 0.21172865 -0.1597494 0.39203134 0.09967243 -0.16136557 0.47510582
0.16308644 -0.35975763 -0.26481262 0.33554846 0.22023375 0.38018066 0.018096123 0.34750855
0.27340248 0.14183946 -0.14917235 0.51126146 0.09644518 -0.15426652 0.06674428 0.4988816
0.31953695 -0.05870902 0.52015316 0.25151065 -0.25845474 -0.45956525 0.3123782 0.5008107
-0.30276123 0.19690695 0.042751294 -0.12763722 -0.10927273 0.16642563 0.10212136 0.33468097
0.18491511 0.25925994 0.47281638 0.17638923 0.115506925 -0.13768099 0.38034904 0.09348028
0.32670817 0.48095804 -0.13276815 0.33210683 -0.062894955 0.47854465 0.39194113 -0.15593654
0.011181796 -0.21317323 -0.21041223 -0.08725763 -0.002175315 -0.1545276 -0.47057775 -0.31401765

SoftmaxPolicy_l2.weight f4 [128, 128]
00000000: 9eb3 983a 95e2 28bd c02d 963d 0364 923d
00000010: 7100 683d cb49 2a3d 2ccb 93bd a703 523d
00000020: 4ea2 73bd ecc7 5cbc e6b0 17bd 2244 dc3c
00000030: 9b21 86bd c29f 25bd 06e3 74bd 7013 cfbd
00000040: 6faa 3dbd 6866 a83d 8e0b cebb a495 033d
00000050: 15eb afbd f9c5 c83d 4b81 59bc 540b 9ebd
00000060: 03b7 b43d 6296 62bc ab46 963d fcc7 63bd
00000070: 9aa4 8bbd 18fa 5dbd 48aa 0e3d 96a8 bc3c
00000080: 849f 9cbd 7587 5c3c 127d 293c 4799 0c3d
00000090: 5f90 2cbd 788a 80bd b304 ea3d 4c53 41bd
000000a0: 3ae1 333d 8d41 943d d381 8bbd cdcb a0bd
000000b0: e763 c53c 26a8 9abd fe4b 0c3d abf5 03bd
000000c0: b03f 14bd 0206 86bd bf8c 403d 202f 39bd
000000d0: e414 b1bd 697e 85bd 7aff 24bd 9270 a3bd
000000e0: 14b8 3b3d a73a b5bc dc5b b33d 9aea 7a3d
000000f0: 489d 64bd c820 38bd 22f8 30bd bedb 6c3d
00000100: 08cc b83b bc23 d0bc a583 bb3d effc d73d
00000110: e66e a43d ffaf 85bd 853f 0ebd 1f23 4dbc
00000120: 2fde c63d 1c62 17bd 179b 33bd 34b0 8a3c
00000130: 1f12 9dbc b18a 2e3d 7a87 893c ec87 99bd
00000140: ed34 b03d 4e4d a93d 0a91 eb3b 6049 56bd
00000150: c4ad 153d 4012 603d e0e0 7f3d b769 1abd
00000160: 66a8 a1bb 2a9f cfbc 1a9d b73d 88bf 003e
00000170: 28ba 543b 77c0 5abd f4ee 253d 1b76 533d
00000180: 361b 173d 0007 9dbd bc9b 813c 15a7 0abd
00000190: dca4 94bd d018 13bd a0e7 633d 16a8 2f3d
000001a0: d381 9dbd 6912 833c 0058 b33d 2443 db3d
000001b0: 2f7b 8e3d 925e c9bc 266a 503d 400f 573d
000001c0: 26cd 2f3d 3aba 6ebd 3383 05bd f53d 9f3d
000001d0: 46b4 a03d 921d a43d a45e 2fbd 27fa 8dbc
000001e0: c456 60bd 7c74 f8bc b290 943d 6cad 82bd
000001f0: 4900 d93b 6499 b23c 4a97 42bd 7354 233d
00000200: 78cb 8ebc 70f3 8f3d 1469 2ebd 79dc 4f3c
00000210: af38 a0bd 8cdb 463d 4b7c ad3d 34a3 c63c
00000220: 4218 2a3b c6f4 3bbd fb6b 22bd 8191 2dbd
00000230: 0ff8 48bd 9323 d53c 8790 4a3c 990e a73d
00000240: 4920 91bd 99f8 6dbd 366c 15bd 0381 08bd
00000250: 8f8c a03d e661 333d ecb9 9cbd 6c0a 86bb
00000260: 3108 d83b 3339 9a3d 9847 a73d 1757 743d
00000270: a6d8 ae3d 8ad3 edbc c441 dbba e568 a4bd
00000280: 76d9 d43c deec f93d 794f 513d 995e d93d
00000290: 9889 0abd 5402 f33c f2b0 53bd 0491 8c3d
000002a0: 3716 1abd a33b 27bd 89f8 553c 8349 8a3c
000002b0: 135b 7a3d ab1d 5fbc e3d8 98bc e825 313d
000002c0: 724b 793d 699c cd3d 0a09 083d 9fa8 15bb
000002d0: d559 fa3d f5cb 063e 8458 22bd 3770 2b3d
000002e0: e8e7 db3c 7a1b 20bd 5dd1 bfbb 67ed 68bc
000002f0: 0099 89bd ebf0 05bd f1dc 5e3d b748 9b3d
00000300: 72f1 413c 7526 9abd 4867 5b3c f1e5 d9bc
00000310: 0040 a83d 5664 afbd af94 46bc 9f22 b03d
00000320: 6b6f 713c c65e 23bd 638d a9bd abfd 6939
00000330: 1b51 623d 21d2 6cbd 6403 acbd 4c83 633d
00000340: 8aa5 fbbc 1ba0 773d b1f7 9ebd de6e 37bc
00000350: f319 65bd 339b 59bb 0a04 afbd 6937 3e3d
00000360: cf6c 23bd 758a 81bd e4bc 2ebd 4303 e7bd
00000370: 397d 3d3d 449a a1bc bd4e b3bb f8d5 933d
00000380: 0b08 45bc f24d a33d 17f2 b63b 3113 73bd
00000390: 2682 cb3c 201c da3c 0410 7ebd 7b2c e73c
000003a0: 01ad 973c 2ed2 9c3d f0a2 e7bb ad91 85bd
000003b0: b796 afbd cf37 0f3d 97d3 babc db46 acbc
000003c0: df95 15bc ec0b bfbc ae51 c13c 8b56 a73d
000003d0: 707d 983d a1a1 80bd 21b0 bb3d 9618 7c3d
000003e0: 8a85 6f3c e8f6 253d 1569 6f3d ca97 9d3d
000003f0: 378a 483d 1edb f63c 0eb4 15bd bf17 72bd
0.001165021 -0.04123171 0.07332945 0.07147982 0.056641046 0.04157428 -0.07216486 0.051273014
-0.059480958 -0.013475399 -0.037033938 0.026887957 -0.065493785 -0.04043556 -0.05978682 -0.10111129
-0.046305116 0.082226574 -0.0062879985 0.03212513 -0.0858976 0.09803385 -0.013275455 -0.077170044
0.08823969 -0.013829799 0.073376976 -0.05561064 -0.06818505 -0.054193586 0.03483036 0.023029607
-0.07647613 0.01346003 0.0103447605 0.034325864 -0.04212987 -0.06276411 0.114266776 -0.04719858
0.043915965 0.07239065 -0.068118714 -0.07851372 0.024095489 -0.07551603 0.03425216 -0.03221671
-0.03619355 -0.06544115 0.047009226 -0.045210958 -0.08646563 -0.065182514 -0.040282704 -0.079804555
0.045829847 -0.022122694 0.08757755 0.06125889 -0.055814058 -0.044953138 -0.043205388 0.05782675
0.005639557 -0.025407664 0.091559686 0.1054629 0.08028965 -0.06527709 -0.034728546 -0.012520581
0.09710347 -0.0369588 -0.043849077 0.016929723 -0.01917368 0.042612735 0.016788233 -0.07496628
0.08603845 0.08266698 0.007188921 -0.05231607 0.03654267 0.054704905 0.062470317 -0.037698474
-0.0049334047 -0.02534445 0.089655116 0.12573063 0.003245959 -0.053406205 0.040511087 0.051626306
0.036891185 -0.07667351 0.01582133 -0.033850748 -0.07258007 -0.035912335 0.055640817 0.04288491
-0.07690778 0.01599999 0.08757019 0.107061654 0.06957089 -0.024581227 0.05088248 0.052504778
0.042920254 -0.05828307 -0.032595824 0.07775489 0.078468844 0.080134526 -0.042814866 -0.017331196
-0.054770246 -0.030328982 0.07254161 -0.06380734 0.0066223484 0.021801658 -0.04750756 0.03987546
-0.017431006 0.07028854 -0.04258068 0.012686842 -0.078233115 0.04854922 0.084709726 0.024247743
0.00259544 -0.04588773 -0.03965376 -0.04237509 -0.049064692 0.02601794 0.01236356 0.08157081
-0.07086236 -0.05809841 -0.03648015 -0.03332616 0.078393094 0.043794535 -0.07652649 -0.004090598
0.0065927734 0.07530441 0.08167952 0.059653368 0.08537416 -0.029031534 -0.0016727974 -0.080278195
0.0259826 0.12203382 0.05110118 0.10613746 -0.033822626 0.029664196 -0.05168242 0.06863597
-0.037618842 -0.04082836 0.013059744 0.016880756 0.06112201 -0.013617913 -0.018658107 0.04324904
0.060862966 0.100395985 0.033211745 -0.0022836102 0.12224165 0.13163741 -0.039635196 0.041855063
0.02684398 -0.039088704 -0.0058538155 -0.014216757 -0.067186356 -0.03270046 0.054409925 0.07582229
0.01183735 -0.07526866 0.013391323 -0.026598902 0.08215332 -0.085640594 -0.01212041 0.086003534
0.014736037 -0.039885305 -0.082789205 0.0002231511 0.05525313 -0.057817582 -0.08399084 0.055545136
-0.030718584 0.060455423 -0.07762087 -0.011195866 -0.05593295 -0.0033204078 -0.08545692 0.046439562
-0.03989869 -0.06325237 -0.04266061 -0.11279919 0.046262 -0.01972688 -0.005472033 0.07218546
-0.012025843 0.07973851 0.0055830586 -0.059344474 0.024842333 0.02662474 -0.062026992 0.028219452
0.018515112 0.07657276 -0.007068984 -0.06521926 -0.085736685 0.034965333 -0.022805972 -0.02102988
-0.00912997 -0.023321114 0.023598518 0.08170804 0.074458 -0.06280828 0.09164453 0.061546884
0.014619241 0.04051867 0.058449823 0.07694967 0.048959937 0.03013378 -0.036548667 -0.059104677

SoftmaxPolicy_l2.bias f4 [128]
00000000: dc6a 5b3d 8bf7 10bd bc0a 423b e504 81bd
00000010: d540 47bd 44f3 623d 3d5c 9c3c 4da0 e43c
00000020: 6310 4d3d 3dcf db3c 9679 fb3b f5b1 2fbc
00000030: 001b 913a b937 a83d 3f6c 103d f382 2d3c
00000040: ccc4 133d 9065 23bd 01b5 8dbd 0942 97bc
00000050: 06e0 c23d 2986 b13c f388 85bd 52c4 713d
00000060: 04cc a53d 5577 8c3d a644 3b3c 27d2 babc
00000070: f8cf 0e3c 0011 f33c 35e4 02bd c283 31bd
00000080: 7d5a a13c b4a4 363d 6cd6 d9bc f5db 0ebc
00000090: 7b48 85bd d0f2 08ba 73c8 9cbc 5cc8 ba3d
000000a0: bd55 7c3d 4447 f1bc cc45 8cbd aed4 94bd
000000b0: 8b14 50bd 384d b63d 7e05 d2bc d979 863d
000000c0: 9439 8b3d b837 1dbc 4fae 1f3d 35ee ee3c
000000d0: 102b a83d f361 2e3d 7a2f 513d bbaa b73d
000000e0: b989 2b3c 43a5 aa3d f6d9 1dbb b857 88bd
000000f0: a220 af3d afb5 87bd adbf d23a aa1d ad3d
00000100: c13c c3bc 93b7 7abd 098f 873d 1799 0a3d
00000110: 4640 693d d3c7 413d 1a49 bdbd 31f1 923d
00000120: 6fac 95bd 4905 3c3c b7bd 4ebd 546b 863d
00000130: 9df8 bc3d 5ea2 583c f39c b9bc df03 9c3d
00000140: 66f8 8e3d eb35 85bc adc4 903d f4f4 f23b
00000150: 4020 26bd 9239 ab3d 578c 52bd cf1c 84bd
00000160: 5c9a 543d 6af3 083d 1b71 903d 029d 12bd
00000170: 51e3 aa3c 566d 3d3d 44ac 953c 7eb9 93bd
00000180: 1542 693d dd74 c13c a704 a6bc c62e b6bc
00000190: 2acb bbbd c70a c13d 2748 553c e26b c7bc
000001a0: e599 c83d 0122 82bd 7469 cc3c 1e2a 62bc
000001b0: 4bb2 dcbc d0a0 fd3a 6c6c 41bc 46e2 9a3d
000001c0: c9c4 833d 1a3b fe3c 9e78 87bb cc40 72bc
000001d0: 367b 00bc 5983 c8ba 2015 033d c9d9 8f3d
000001e0: 82d9 80bd a044 b6bd f560 6bbc c6d4 923d
000001f0: 94bd 2e3d c937 0fbd 8dc3 673d e4af 1e3d
0.053568706 -0.035392325 0.002960845 -0.06299762 -0.048645813 0.055407777 0.019086951 0.027908469
0.050064456 0.026832217 0.0076744063 -0.010723581 0.0011070669 0.08213753 0.03525948 0.010590303
0.036076352 -0.03989178 -0.069192894 -0.018464105 0.09515385 0.021670418 -0.065202616 0.059025116
0.080955535 0.06858698 0.011429941 -0.022805287 0.008716576 0.029671192 -0.031955916 -0.043338545
0.019696468 0.044590667 -0.026591502 -0.008719434 -0.06507965 -0.000522417 -0.01913855 0.09120247
0.061605204 -0.029452927 -0.0684925 -0.07267128 -0.05080084 0.08901447 -0.025637385 0.06566209
0.067980915 -0.009595804 0.038984593 0.02916632 0.082113385 0.04257388 0.051070668 0.08968111
0.010469847 0.083323024 -0.0024086214 -0.06657356 0.08551146 -0.0662645 0.0016078852 0.084529236
-0.02383268 -0.061210226 0.06619079 0.033837404 0.05694606 0.047309708 -0.09242459 0.0717491
-0.0730828 0.011475869 -0.050473895 0.0656344 0.09227107 0.013222305 -0.022657847 0.07617926
0.06980972 -0.016261062 0.07068763 0.0074144546 -0.0405581 0.0836059 -0.05140337 -0.06450807
0.05190502 0.033435263 0.07052823 -0.035794266 0.020860346 0.04624685 0.01827062 -0.07213114
0.056947786 0.023615295 -0.02026589 -0.0222391 -0.0916961 0.09425884 0.013017691 -0.024343435
0.09794978 -0.06354142 0.024952628 -0.013803987 -0.026940485 0.0019350294 -0.011805635 0.075626895
0.06434018 0.031034041 -0.0041342517 -0.014785957 -0.007841876 -0.0015297934 0.03200257 0.07023961
-0.06291486 -0.08899808 -0.014366378 0.071694896 0.042661265 -0.03496531 0.056582976 0.03874196

SoftmaxPolicy_l3.weight f4 [2, 128]
00000000: e1ca 553d e1e7 5e3c 9442 ff3d f850 613c
00000010: 3c44 b6bd f36f 96bc d9e0 253d d1c9 bf3d
00000020: 8173 7b3c 346c fc3b b189 8d3d 565f 8e3d
00000030: ba50 b83d 463a 7b3c 2aec 763b 8ae9 c33d
00000040: a2a4 633d 7eb6 c13d 729c 31bc ba81 c93d
00000050: a291 2ebd aa1c c93d 1233 1dbd ff56 76bc
00000060: ff88 11bd 51a7 2e3d 9b19 473d c536 0c3d
00000070: d4f8 b3bd e9cd c03b 4184 1ebd 32d2 11bd
00000080: 5c3d 5b3d b536 54ba 36ef 4d3d a14a a1bd
00000090: aa59 4c3c 203c 8f3d 6b18 6e3d 66ae d23d
000000a0: 7096 16bc ead7 ae3d 3a62 8ebd 1330 1dbc
000000b0: 138d 1dbc 09de e6bc 286a 063d 4c48 243b
000000c0: d526 d0bd 3cfc c5bd ac1d 1b3d cea6 74bd
000000d0: abdf e1bd 15e5 033e f988 66bd bb1b c33d
000000e0: 0da6 863d a6a3 413d 04e4 99bd d8d6 a5bc
000000f0: d566 a63d f161 b23c b774 febd 3592 fe3b
00000100: 7c3c 87bd 537c 8ebd f132 aabd 6f69 a53d
00000110: 4e15 963d 10a2 8cbd 2821 0ebd 36b6 a03d
00000120: 2ac7 90ba 675a 6dbd d78c db3c d052 dfbd
00000130: 5416 b3bd e103 913d ceea b4bd 0abd ca3d
00000140: a9c2 05bd 274c 68bd 3ba6 a7bd 11f0 623d
00000150: 22af f5bd 30fe 263d b6d0 de3c 2082 0b3d
00000160: 9c94 d2bd 607e 84bd 685c 343d 31a6 93bd
00000170: 88ee 39bd 37d8 643d cbae 313d 64ed 943d
00000180: 12ff 593b 3cdb 2abd aa95 013e 2bcd 833b
00000190: 5fb5 adbc 8883 983d 02a0 aebd 2565 a63d
000001a0: 6335 0d3d f448 71bc f83f 93bd 9a13 d9bc
000001b0: 9d7a c1bc ee18 9e3c e089 75bd 43b1 3b3d
000001c0: 6aca f5bd 32da 9fbd 52a6 e2bb 0dbb da3d
000001d0: d47c 903d c4e0 b2bd 8b50 9b3d 0c0f 6abd
000001e0: efa0 993d 2b32 273c b012 c1bc 08f3 cbbd
000001f0: 3054 d1bd 26c4 d5bd 9f2c 6cbd 028a 8d3d
00000200: 3bb2 a0bb 38ec e03d f6d6 eabd ec5b ae3d
00000210: 18a5 8f3c b6ad bc3d 0625 cfbd 3350 9dbd
00000220: 1cd2 df3d b0cd 503d e039 f1bd 586d ccbd
00000230: 1807 dcbc 07f3 fb3d c604 b03d dcfb a8bd
00000240: 8300 333c 07f7 8c3c adf6 84bd d2be aabd
00000250: a403 d23d 8b20 0c3c 12e8 163d cd7c d63d
00000260: a602 163d b01d 11be 4856 85bd f094 7abd
00000270: 5abf 98bd e27a 833d 9d1d 513b 8919 ed3d
00000280: bc07 0abd 8a64 9e3c 18dd e6bc 7205 9f3d
00000290: f279 763d 4003 a6bc 1ca6 5abd f68a 3cbd
000002a0: c6ee 89bd 5d53 14be e15c 2c3d c88c 5d3d
000002b0: 9952 dabd 98f7 033e 52a4 7bbd f472 bdbd
000002c0: 320b 8d3d 0e25 843d d8f5 8cbc 16ec 9b3c
000002d0: 3bba 183d 5024 eebd 025e 0c3e dcc2 b9bd
000002e0: 8371 4abd b6db 14be 098c d8bc 5306 d13c
000002f0: ec1d f7bd f903 8ebd 5f84 413c 356e 87bd
00000300: 248d a23d 6ea9 e23d a026 16bb 1668 50bd
00000310: e5d3 5d3d 4c1c 2b3c c74a 8b3d fc80 ba3c
00000320: e734 853d e077 f73d 1727 80bd a384 5cbd
00000330: 8ebc a73b 3347 c5bd 3978 953d 338c 8cbd
00000340: 55f6 553d 5d03 8dbd 5043 8d3d 73d6 c03c
00000350: 0ea1 e83d 6474 8abd 769f 9a3c 861a 54bd
00000360: 43a8 aa3b 74e4 8b3d 4af9 c1bd 6b20 b23d
00000370: 10b7 133d c0e7 cebc e112 953d 1ae9 1e3c
00000380: b3ce debd d9e0 973d d185 863c 9489 3fbd
00000390: 8381 663d e23f 22bd a24f 3d3d df0b 1fbd
000003a0: 6df3 13be e232 c83d 9dfc cf3d 970e f5bd
000003b0: c51b 97bd b4a2 ac3d 51f6 603d 688f 40bd
000003c0: de84 603c 70fc b53d 19c1 cd3d c020 01be
000003d0: 0007 6fbd 958b 74bc 9f3a c7bd 28cf 53bc
000003e0: b3cf 04ba f4b6 83bc 97d2 71bd c788 e33b
000003f0: 8511 c63b e479 0ebd 6937 873d a89a 93bd
0.052195434 0.013605089 0.12463871 0.013752215 -0.088997334 -0.018363928 0.040497635 0.09364665
0.0153473625 0.0077033285 0.06911028 0.06951778 0.08999772 0.015333718 0.0037677386 0.095660284
0.055576928 0.09458636 -0.010840522 0.098391965 -0.042619355 0.0981992 -0.038378783 -0.01503539
-0.03553104 0.042640034 0.048608404 0.03423192 -0.087876946 0.0058839214 -0.038700346 -0.03560085
0.053525314 -0.000809531 0.050276957 -0.078755625 0.012472549 0.0699389 0.058128756 0.1028717
-0.0091911405 0.08537276 -0.06952329 -0.009593981 -0.009616154 -0.028182046 0.032816082 0.0025067506
-0.101636566 -0.096672505 0.037870094 -0.05972939 -0.110289894 0.12880357 -0.05628297 0.095267735
0.065746404 0.047275208 -0.07514194 -0.020244047 0.081250824 0.021775218 -0.12424605 0.007768894
-0.06603333 -0.06957307 -0.083104976 0.080767505 0.07328282 -0.068668485 -0.03469959 0.07847254
-0.0011045684 -0.057947543 0.026800556 -0.10904467 -0.08744493 0.07080818 -0.08833848 0.098993376
-0.032656346 -0.05671325 -0.08186003 0.055404726 -0.119962946 0.040769756 0.02719913 0.034059644
-0.10282251 -0.064694166 0.044033438 -0.07209433 -0.045393497 0.05587026 0.043379586 0.07271841
0.0033263606 -0.041712984 0.12654749 0.0040222607 -0.021204649 0.074469626 -0.08526613 0.081247605
0.03447474 -0.014726866 -0.071899354 -0.026498605 -0.023618037 0.019298997 -0.05994594 0.045823347
-0.12001498 -0.07805289 -0.0069167996 0.10680208 0.07055059 -0.08734277 0.07583722 -0.057143256
0.07501399 0.010204832 -0.023568481 -0.09958464 -0.102211356 -0.10437803 -0.05765974 0.069110885
-0.004904059 0.10982555 -0.11466782 0.085136265 0.017534778 0.0921282 -0.101144835 -0.076813124
0.10928747 0.05097741 -0.11778617 -0.09981793 -0.026858851 0.12302213 0.085946605 -0.08251163
0.010925415 0.017207636 -0.06492362 -0.08337177 0.10254601 0.008552681 0.036842413 0.104730226
0.03662362 -0.14171481 -0.065105975 -0.061177194 -0.074583724 0.064199224 0.003190852 0.11577136
-0.033698782 0.01933505 -0.028181598 0.077647105 0.06017489 -0.020265222 -0.05338107 -0.04603096
-0.067349955 -0.14484926 0.042080764 0.054089338 -0.106602855 0.12887418 -0.061436005 -0.09250441
0.06886901 0.0645238 -0.017207071 0.019033473 0.03728698 -0.1162802 0.13707736 -0.090703696
-0.04942466 -0.14536938 -0.026433961 0.025515711 -0.12066254 -0.069343515 0.011811345 -0.06612817
0.07937077 0.110674724 -0.0022911206 -0.050880514 0.054157156 0.010443758 0.06801372 0.022766583
0.06504231 0.12083411 -0.06257456 -0.05383743 0.005118913 -0.09632721 0.07298321 -0.068626784
0.052236874 -0.06885407 0.068976045 0.023539757 0.11358844 -0.06760481 0.018874865 -0.051783107
0.0052080466 0.06830683 -0.09471376 0.086975895 0.036063254 -0.025256991 0.072789915 0.00969913
-0.108792685 0.07415933 0.01642123 -0.046762064 0.056275856 -0.039611705 0.046218522 -0.03882968
-0.14448328 0.0977533 0.10155604 -0.119656734 -0.073783435 0.08429471 0.054922406 -0.047011763
0.013703553 0.08886039 0.10046596 -0.1261015 -0.058356285 -0.014925857 -0.09727978 -0.012927808
-0.000506635 -0.01607845 -0.059038725 0.0069437954 0.006044569 -0.034784213 0.066023655 -0.07207233

SoftmaxPolicy_l3.bias f4 [2]
00000000: 113e 033d cb3c 85bc
0.032041613 -0.01626434
