pytorch_models/model280104.pth (torch, 72107 bytes, 6 tensors)

SoftmaxPolicy_l1.weight f4 [128, 4]
000000 75 f0 82 3e 7a 22 63 be 3b 16 eb bd 61 7f 6b 3e
       0.2557408 -0.2218112 -0.114788495 0.2299781
000010 e7 df ef be 88 85 a0 3e cb 76 53 bd 53 5e 83 3e
       -0.4685051 0.31351876 -0.05162696 0.256579
000020 2a ed 8c 3d 68 e5 60 bd 4b ed 52 3e 20 af 47 3d
       0.06881173 -0.05490628 0.20598333 0.048750997
000030 55 df 31 3e c3 74 40 be 6a c6 de bc 45 30 53 bd
       0.1737035 -0.18794541 -0.02719422 -0.051559705
000040 d1 58 93 3d e8 ce e5 ba fc e7 de 3e a2 a8 1d 3e
       0.07194675 -0.0017532976 0.43536365 0.1539636
000050 23 3d 3b be 76 ed 99 be 50 aa ab bd c9 ad 58 be
       -0.1828504 -0.3006398 -0.08382094 -0.21160044
000060 2f 55 26 be 9a 8e aa 3c d8 d7 9f 3e 3d 3e 8f 3e
       -0.16243432 0.02081995 0.31219363 0.27977172
000070 81 98 fa be 25 b8 a7 3e 24 c8 84 3e 2f a6 04 3f
       -0.48944476 0.3275768 0.25933945 0.51816076
000080 89 e6 a7 3e 86 cc eb be 7b 32 fb be be d5 6f be
       0.32793072 -0.46054476 -0.4906195 -0.2342138
000090 7a 0c d7 3e 12 a2 c4 bd 51 c5 5f 3e d6 9e 69 be
       0.42001706 -0.09601225 0.21852614 -0.22814497
0000a0 20 71 f8 3e af a6 6f be e8 6b 98 3e 4a 57 25 bc
       0.48523808 -0.23403428 0.29769826 -0.010091612
0000b0 ea b3 84 be 74 3a 84 3e f6 3e 82 be fc 13 20 3e
       -0.25918514 0.25825846 -0.2543866 0.15632623
0000c0 c4 69 07 be 14 c2 4e bd a8 58 f0 be 05 a8 6a be
       -0.1322394 -0.050478056 -0.4694264 -0.22915657
0000d0 79 b3 89 3e 32 e5 eb bd f7 a6 00 3f 89 0f cd 3e
       0.2689474 -0.11518325 0.5025477 0.40050915
0000e0 bb 6e fd bc f1 84 9f be fb 83 d4 3e a2 c8 48 3e
       -0.03093659 -0.31156114 0.41506943 0.19607785
0000f0 71 d2 a1 be 84 20 af 3e 42 9a da 3e bf 62 fb 3e
       -0.31605867 0.34204495 0.42695814 0.49098775
000100 94 9d 8e be f2 d9 a6 bd 76 54 eb bc 15 19 8b 3d
       -0.27854598 -0.081470385 -0.028726798 0.067918934
000110 9a 5b c1 be 84 81 b5 be 2a 17 7f 3e de 63 ff bd
       -0.377652 -0.35450375 0.2491118 -0.1247022
000120 35 44 6b 3e 6b 5f 07 3d cc 56 9c 3e 44 d6 37 3e
       0.22975238 0.033049982 0.3053497 0.1795283
000130 fd fe 28 3e bb b7 81 3e b0 33 a1 be 4b db a5 3e
       0.1650352 0.25335488 -0.31484747 0.3239387
000140 0a 56 b1 be 41 c2 c0 be be 8c ac 3d 8b fb 65 bd
       -0.34635955 -0.37648204 0.08425282 -0.056148093
000150 b9 75 95 3e 3d 7d 90 be 7f f9 b6 be 2c 44 d2 3e
       0.29191378 -0.2822055 -0.35737225 0.41067636
000160 ec c0 91 bd a2 d9 8d 3e f2 ae b3 3d bf 57 d8 be
       -0.07116875 0.27705103 0.087736025 -0.42254445
000170 55 65 c6 3d 50 49 e8 3d dd af ae be f9 48 73 be
       0.09687296 0.11342108 -0.34118548 -0.23758306
000180 5b e1 34 3e d7 73 8c 3d 7a 37 b9 be 61 9c 5d be
       0.17664091 0.06858032 -0.36175138 -0.21641685
000190 da bd e4 3e 3d a6 a8 bd fc ca cd 3e ff 74 88 3e
       0.44676095 -0.082348324 0.40193927 0.2665176
0001a0 f4 60 a4 be d7 3d d8 be 9c 07 ec 3e ad 95 85 3c
       -0.3210522 -0.4223468 0.46099555 0.016306723
0001b0 72 f8 ab 3e 00 fa eb 3d c2 e2 89 3e b8 c0 d2 3e
       0.33587986 0.11522293 0.26930815 0.41162658
0001c0 ce 11 ed 3e a5 ef a5 be 82 1d 44 3e ca 3d e2 3e
       0.46302646 -0.32409397 0.19151881 0.44187766
0001d0 c4 9e b3 3e 60 c0 98 3e de eb bc be b1 8c b8 be
       0.35082066 0.2983427 -0.36898702 -0.3604484
0001e0 b3 9c 9d be 2c aa 6a 3d 9e 44 03 3f 8a 3f a0 be
       -0.30783615 0.057291195 0.51276577 -0.31298476
0001f0 97 90 8c 3e eb 07 90 be b2 80 fd be 15 41 d4 bd
       0.27454063 -0.2813104 -0.4951225 -0.10363976
000200 a3 33 90 3e 5a 88 ed 3e ac 73 93 be b6 f0 e2 3d
       0.28164396 0.4639309 -0.28799188 0.11081068
000210 db d3 d5 3e f7 38 b5 3e 56 62 d2 3e af 83 c0 3e
       0.41763195 0.35395023 0.4109065 0.37600467
000220 5f d7 9a 3e ad 21 eb 3d 19 d0 aa be 82 39 d2 be
       0.3024244 0.114810325 -0.3336189 -0.410595
000230 c1 f3 71 be ab 46 66 bd 50 84 3c be 1a a0 7c 3e
       -0.23628141 -0.056219738 -0.18409848 0.24670449
000240 6e fa 1f 3e 52 97 e9 bd eb 40 57 3e d1 64 32 3e
       0.15622875 -0.11405815 0.21020858 0.17421271
000250 79 70 97 3e 2b 88 b8 3e 82 26 75 bd e7 3b 05 3f
       0.29577997 0.36041388 -0.059851177 0.5204453
000260 31 14 35 bd 72 c4 fa bc 80 19 1b bf 42 94 be be
       -0.04420871 -0.03061125 -0.60585785 -0.37222487
000270 74 c4 93 be 66 76 5a be 2c 2f b0 3e 4b a0 27 be
       -0.2886082 -0.21334228 0.3441099 -0.1636974
000280 a5 3f bb be b6 d1 5f 3e b6 16 86 3e c2 65 b0 3e
       -0.36571994 0.21857342 0.26189202 0.34452635
000290 2b 79 85 be 14 37 d7 3d 19 76 3a be 9b 74 e3 bd
       -0.26069006 0.10508552 -0.18209113 -0.11106225
0002a0 86 9b c9 be ef da 6a be cc a5 2e be 72 f6 5a 3e
       -0.39376467 -0.22935079 -0.17055434 0.21383074
0002b0 5d 51 a8 3d e8 1e 15 3e 95 1e 20 3f 08 11 03 3f
       0.08218644 0.14562571 0.62546664 0.5119786
0002c0 d1 b3 a9 3e 34 6b be 3c 1b b2 61 be d6 96 e5 3e
       0.33145002 0.023244478 -0.22040598 0.4484164
0002d0 5f a2 05 be bd 0c 3d bd 50 17 e1 be 5b 04 cd bd
       -0.13050221 -0.046154726 -0.439631 -0.10010596
0002e0 c2 98 aa be f0 4a e8 3e fa dd f4 be 79 77 d7 be
       -0.3331967 0.45369673 -0.47825605 -0.42083338
0002f0 04 37 29 bc 54 28 88 be 00 37 32 3e 1c 22 45 be
       -0.010328058 -0.26593268 0.17403793 -0.19251293
000300 e5 7e 6e be 85 46 2f 3d 78 76 ae 3e 96 71 c3 be
       -0.23290594 0.042791862 0.3407476 -0.38172597
000310 e5 ad 6b 3e ea 1f a2 3e 2f b0 f0 3e e6 18 b9 be
       0.23015554 0.31664973 0.47009417 -0.36151809
000320 8e e5 0b 3e dd 91 b9 be 3f d4 c8 3e 6d 33 53 be
       0.13661787 -0.36244097 0.3922443 -0.20625086
000330 fd f8 96 3e 71 90 86 3c 09 eb 54 bc 83 d6 c7 bb
       0.29486838 0.016426297 -0.01299549 -0.00609857
000340 10 0b 95 3d 5f 7c 72 3e d1 b8 5b 3e d1 d4 64 3e
       0.07277501 0.23680256 0.2145722 0.22346808
000350 b5 d5 e5 be 9e dc be 3e 13 b3 08 3f ff 12 ed 3e
       -0.44889608 0.37277693 0.53398246 0.46303555
000360 f4 f4 b2 3e e9 16 b8 be 63 4a 1e be 15 4b e3 3e
       0.3495251 -0.3595498 -0.15458064 0.4439322
000370 60 0d c7 be 16 fa e9 3e 01 84 df be 69 fb c8 be
       -0.38877392 0.45698613 -0.43655398 -0.3925431
000380 eb 72 74 3e c3 07 b2 be 39 5d 45 bd 12 5f c9 3e
       0.23871963 -0.34771547 -0.048184607 0.39330345
000390 7d 3e cd 3e a5 34 ef 3e 9c 83 4a be 90 aa e2 be
       0.40086737 0.46719852 -0.19776767 -0.44270754
0003a0 18 fb f7 3e d1 fd 04 be 22 84 77 be 02 57 08 3e
       0.48433757 -0.12987448 -0.24171498 0.13314441
0003b0 f9 18 b3 be 6d 0f a5 3e 7f e3 6c 3e 5b 73 e5 be
       -0.3497999 0.3223833 0.23133658 -0.44814572
0003c0 4c f2 d2 be 94 0a 40 bd 9c 68 46 3e 64 42 5d bc
       -0.41200483 -0.046885088 0.19375843 -0.013504598
0003d0 ca 29 80 be d2 5d a5 3c c2 de f2 be 1d de b9 be
       -0.25031883 0.020186339 -0.47435576 -0.3630227
0003e0 0c db a8 be f1 d5 d4 3e b5 0f d1 3e 14 57 49 be
       -0.3297962 0.41569474 0.40832296 -0.19662124
0003f0 c0 c1 ea 3c 56 b8 57 3e c1 8e 19 3c d2 1f 8a be
       0.02865684 0.21066412 0.009372414 -0.26977402

SoftmaxPolicy_l1.bias f4 [128]
000000 e5 3a c2 be a0 7c b5 3e 0c 08 aa 3e d4 e3 ff be
       -0.37935558 0.35446644 0.33209264 -0.49978507
000010 4c d1 c9 be af 16 ad be 85 07 85 be 3b 7a f2 3d
       -0.39417493 -0.3380637 -0.259823 0.1183972
000020 48 4e f8 be 59 16 c8 be e5 b9 6d 3e c0 27 2f be
       -0.48497224 -0.3907955 0.23215444 -0.17105007
000030 ef 4f 5b be 45 8e d4 be 2b 06 43 3e 94 2f e5 3d
       -0.21417211 -0.41514793 0.19045322 0.111907154
000040 c6 93 51 be d3 64 9f be 66 43 ed 3d 49 94 19 3e
       -0.20466527 -0.3113161 0.11585121 0.14997973
000050 16 f2 43 3e fa 10 29 3e ad 03 4a bd 58 d8 c8 be
       0.19135317 0.16510382 -0.04931991 -0.39227557
000060 d0 b9 b3 3e 8b 7e 02 3d 72 4a b0 be bd c8 ef 3e
       0.351027 0.031858962 -0.34431797 0.4683284
000070 b5 56 92 3e 93 d4 cf be 6c 0a 7c be 82 1b 23 be
       0.28581777 -0.4059187 -0.2461335 -0.15928462
000080 9f 1d 95 be c0 6b 6f 3e 9b 83 c1 be d0 1f e7 3e
       -0.29124162 0.23380947 -0.3779572 0.4514146
000090 b6 6d 4a be 64 f5 9a 3e c4 81 c5 3d 6a 5c 6b be
       -0.19768414 0.30265343 0.096438915 -0.22984472
0000a0 a3 17 b0 3e 25 6d c2 be 65 dc 87 be 43 37 dd 3d
       0.34393033 -0.37973896 -0.26535335 0.10801556
0000b0 c9 d6 c6 3e 1a d0 54 be 52 b2 90 be 7b 55 a5 be
       0.38835743 -0.2078251 -0.28261048 -0.3229178
0000c0 dc 88 4b be 9e 8d 23 be 93 72 f6 bd ac 0f 96 be
       -0.19876426 -0.15971991 -0.12033572 -0.29308832
0000d0 62 6c 2c 3e 63 0a aa 3d 82 eb ae be ec 44 81 be
       0.1683822 0.08302762 -0.34164053 -0.25247896
0000e0 67 07 ce 3d e8 fd da 3c 1a 71 c8 3e db 6b 71 bd
       0.10060006 0.0267324 0.3914879 -0.05894075
0000f0 8f 6a cf be c8 98 ba be c2 19 07 be a4 df d6 bd
       -0.40510985 -0.36444688 -0.1319342 -0.10491875
000100 f6 b9 b1 3d 4e 30 05 be de ca 59 3e 9f 75 23 be
       0.08678047 -0.13006708 0.21268794 -0.15962838
000110 d3 39 c9 3e 31 57 cd 3d b5 2d 25 be cd 54 f3 3e
       0.3930193 0.10026396 -0.16130717 0.47525635
000120 59 e7 27 3e 2f 25 b8 be 75 9e 87 be 10 2d ac 3e
       0.16396846 -0.3596587 -0.2648808 0.3362813
000130 7e f1 60 3e 2c 2b c3 3e ef 0e 94 3c 4f 79 b1 3e
       0.21967122 0.38118875 0.018073527 0.34662864
000140 5e 5c 8c 3e b6 1d 12 3e 0f 91 18 be 79 1a 03 3f
       0.2741422 0.14269146 -0.14899085 0.5121227
000150 5d 93 c5 3d 9a fb 1d be ac b1 8a 3d 1e 25 ff 3e
       0.09647248 -0.1542801 0.067721695 0.49833006
000160 5b 56 a3 3e ac f3 73 bd e1 56 05 3f bc 3b 81 3e
       0.31901821 -0.059558555 0.5208569 0.25240886
000170 6c 68 84 be 89 32 eb be f4 b0 9f 3e d8 45 00 3f
       -0.25860918 -0.45936993 0.31189692 0.50106573
000180 b1 29 9b be 6b 0b 49 3e 01 0c 2d 3d 0f 31 03 be
       -0.30305246 0.19633262 0.042247776 -0.12811683
000190 77 41 dd bd 76 24 2b 3e 6a f1 cf 3d cc 79 ab 3e
       -0.10803502 0.16713127 0.10153468 0.3349136
0001a0 6b 28 3e 3e 6b 4e 84 3e 09 82 f2 3e cb 61 35 3e
       0.18570106 0.25841078 0.47364834 0.17713086
0001b0 ce 90 ee 3d 88 12 0d be eb 42 c2 3e 2a b7 bd 3d
       0.11648713 -0.137766 0.3794168 0.092634514
0001c0 2e df a6 3e fc d7 f5 3e 1f 64 07 be bb ec a9 3e
       0.32592148 0.48016346 -0.13221787 0.33188424
0001d0 d0 b1 7e bd 47 70 f5 3e 0f 37 c8 3e 5d de 1f be
       -0.062181294 0.47937223 0.39104506 -0.15612169
0001e0 17 b5 3b 3c 83 14 5a be f7 4e 57 be 49 49 b4 bd
       0.011456749 -0.21296887 -0.21026216 -0.088030405
0001f0 07 4e c8 ba 4a 47 1e be 78 1f f1 be 90 d8 a0 be
       -0.0015282043 -0.15456882 -0.4709432 -0.31415224

SoftmaxPolicy_l2.weight f4 [128, 128]
000000 01 46 2d 3a 5e 60 27 bd ca dd 97 3d 76 e2 94 3d
       0.00066098577 -0.040863387 0.0741535 0.072697565
000010 71 00 68 3d b8 b7 25 3d 63 ec 92 bd 28 2c 52 3d
       0.056641046 0.04045841 -0.071739934 0.051311642
000020 5a 99 77 bd 62 c0 62 bc 51 34 15 bd 69 9c de 3c
       -0.06044898 -0.013839813 -0.036426846 0.027174192
000030 12 d1 86 bd 6e 3c 26 bd 59 6c 74 bd 67 9b ce bd
       -0.06582846 -0.040584974 -0.05967364 -0.100882344
000040 8c 35 41 bd 83 94 a6 3d 64 7d b8 bb 25 a5 06 3d
       -0.047170207 0.08133795 -0.005630182 0.032872338
000050 db 4f b0 bd 88 c0 c9 3d b4 c2 49 bc 5a 40 9e bd
       -0.08608981 0.098511755 -0.012314487 -0.07727118
000060 51 a6 b6 3d b6 39 5c bc 2a 8c 94 3d d6 76 60 bd
       0.08918441 -0.013441494 0.07253297 -0.05480083
000070 0c 66 8a bd 57 4b 5c bd 01 78 0e 3d 9c e9 b8 3c
       -0.06757745 -0.053782787 0.034782413 0.022572331
000080 08 db 9b bd 59 97 67 3c c1 73 2f 3c 35 ac 0e 3d
       -0.07610136 0.014135205 0.01070875 0.0348322
000090 23 34 2e bd 27 fe 7d bd 47 f4 eb 3d 2e c7 44 bd
       -0.04253019 -0.062009957 0.115212016 -0.048041515
0000a0 93 68 35 3d 97 e8 93 3d d2 19 8d bd 61 3d 9f bd
       0.044289183 0.07222097 -0.068896905 -0.07775379
0000b0 9a ab cb 3c cd 6f 9c bd be 17 0f 3d d8 ce 07 bd
       0.0248621 -0.07638512 0.03493475 -0.033156246
0000c0 04 0c 13 bd 6d 02 85 bd 03 5f 3d 3d 42 ab 39 bd
       -0.03590013 -0.06494603 0.04623319 -0.04532934
0000d0 5a 63 af bd aa 97 85 bd a8 fb 25 bd 4e ed a1 bd
       -0.08563872 -0.06523068 -0.0405232 -0.079065904
0000e0 2b 69 3d 3d a4 ad af bc 6e d7 b4 3d df 5b 7e 3d
       0.046242874 -0.021445103 0.088301525 0.062099334
0000f0 f4 50 68 bd dd 05 38 bd cb 2c 2e bd d3 8e 6f 3d
       -0.056717828 -0.044927467 -0.042523187 0.058485817
000100 40 58 cf 3b 35 81 cc bc 05 88 bc 3d cf 8e d7 3d
       0.006327659 -0.024963954 0.09205631 0.105252855
000110 46 7b a6 3d 04 02 86 bd 09 47 0e bd c4 57 46 bc
       0.08128981 -0.06543353 -0.034735713 -0.012105886
000120 9e 00 c9 3d 22 c2 15 bd 14 e9 33 bd 86 1f 90 3c
       0.09814571 -0.036562093 -0.043923452 0.017593157
000130 a3 cb 9a bc 00 a0 32 3d 4a 68 86 3c 93 9d 97 bd
       -0.01889593 0.04360962 0.01640715 -0.07403102
000140 72 da b1 3d 40 7d aa 3d b5 22 db 3b f0 58 53 bd
       0.08684243 0.08324671 0.006687487 -0.05159849
000150 75 93 14 3d 34 69 5d 3d c5 52 80 3d 30 9a 19 bd
       0.03627344 0.054055408 0.06265787 -0.03750056
000160 c7 2b 96 bb ca 35 cc bc 5f 1e b8 3d 50 b4 01 3e
       -0.0045828554 -0.024927992 0.08990168 0.1266644
000170 9d b7 35 3b a0 d6 5b bd 41 f8 29 3d b3 1a 55 3d
       0.002772785 -0.05367148 0.04149652 0.052027415
000180 0e ef 17 3d b1 72 9c bd bf 96 80 3c 9b 70 09 bd
       0.037093215 -0.07639063 0.015696881 -0.033554655
000190 bd 30 92 bd d7 87 13 bd c9 64 66 3d 6c 85 31 3d
       -0.07138202 -0.03601822 0.05624846 0.04334013
0001a0 d8 26 9c bd 7e ed 87 3c bb 7c b5 3d 11 29 dd 3d
       -0.07624596 0.016592737 0.08861681 0.107988484
0001b0 82 aa 90 3d 1e 89 c8 bc 94 c1 53 3d e5 34 5a 3d
       0.07063772 -0.024479445 0.051698282 0.0532731
0001c0 84 c5 2f 3d 65 b7 6b bd 2c 18 08 bd c7 fd 9f 3d
       0.042912975 -0.057547946 -0.033226177 0.07812076
0001d0 ef 6e a2 3d 4c 6d a5 3d d9 60 2c bd 48 25 8b bc
       0.07931315 0.08077487 -0.04208455 -0.01698555
0001e0 d4 23 5f bd 0a e1 f9 bc 2d 3b 95 3d f0 9b 82 bd
       -0.054477528 -0.030502815 0.072866775 -0.06377399
0001f0 e5 df dd 3b fd 4c ad 3c b7 eb 46 bd 58 bf 20 3d
       0.006771075 0.021154875 -0.04856464 0.03924498
000200 20 a8 8b bc 23 74 8f 3d df 45 31 bd ff ac 3a 3c
       -0.017047942 0.07004573 -0.043279525 0.011393785
000210 af 38 a0 bd 79 f5 4a 3d 94 d0 ac 3d 44 db c6 3c
       -0.078233115 0.049550507 0.084382206 0.024274476
000220 1f ac 6a 3b e3 af 3a bd e3 9d 24 bd 8b 92 2e bd
       0.0035808159 -0.045577895 -0.040189635 -0.042620223
000230 bf 8d 47 bd 7c d6 d4 3c e5 bd 49 3c 17 c9 a6 3d
       -0.048719164 0.02598118 0.012313341 0.081438236
000240 ed 7d 8f bd 5c 97 6a bd 54 c4 17 bd 4b 20 0b bd
       -0.0700644 -0.057273254 -0.037052467 -0.033966344
000250 78 0f a1 3d d9 7f 31 3d 9d 41 9e bd cc e3 82 bb
       0.078642786 0.043334816 -0.077273585 -0.0039944407
000260 ca e7 bd 3b 46 7d 99 3d 8d dc a8 3d 1d 79 71 3d
       0.0057954537 0.07494597 0.08245192 0.058953393
000270 61 b0 ad 3d 5e 9b f0 bc 22 40 d0 ba 89 87 a3 bd
       0.08480907 -0.02937096 -0.0015888254 -0.07984836
000280 fd 53 d2 3c 1e c3 f8 3d e1 0d 50 3d f5 92 d8 3d
       0.025674814 0.12146591 0.050794486 0.10574905
000290 fd 7c 09 bd 09 bf ed 3c 21 a4 56 bd 73 2d 8e 3d
       -0.033566464 0.029021757 -0.05240262 0.069422625
0002a0 6b 20 1b bd 8a 85 26 bd b4 e4 61 3c b3 07 85 3c
       -0.037872713 -0.040654697 0.013787437 0.016239023
0002b0 0d 93 77 3d 37 79 51 bc 8e 54 9d bc 79 6d 34 3d
       0.060442973 -0.0127852475 -0.019205358 0.044049714
0002c0 05 72 78 3d 4b dd cc 3d 3e 1b 0b 3d 31 86 11 bb
       0.060655612 0.10003146 0.033961527 -0.0022205228
0002d0 f2 f3 f8 3d e0 e8 06 3e 3b b4 21 bd 9f f3 28 3d
       0.12155904 0.13174772 -0.03947852 0.04124796
0002e0 2e a2 d8 3c a3 52 22 bd 25 b3 d4 bb 41 ce 73 bc
       0.02644452 -0.03962959 -0.0064910823 -0.014880718
0002f0 9a e4 87 bd 08 eb 05 bd f9 a7 5c 3d e4 47 9a 3d
       -0.06635399 -0.032694846 0.05387113 0.07533243
000300 00 c4 38 3c 9c ee 9a bd 72 e5 55 3c a1 a9 d8 bc
       0.011277199 -0.075650424 0.013055192 -0.026448073
000310 ff 8f a6 3d 67 eb ae bd b6 87 46 bc 46 75 af 3d
       0.08132934 -0.08540993 -0.012117317 0.0856729
000320 7b bc 63 3c df a4 24 bd 4d 53 a9 bd b7 d5 90 b9
       0.013899918 -0.040196296 -0.082678415 -0.0002762505
000330 11 63 61 3d ec 2c 70 bd 07 11 ab bd 37 63 60 3d
       0.055026118 -0.05863659 -0.08352857 0.05478212
000340 5f 60 00 bd dd 64 75 3d 93 f3 9d bd e3 93 41 bc
       -0.031341907 0.059910644 -0.07712474 -0.011815044
000350 30 da 63 bd 23 b0 30 bb ca 04 af bd 50 cf 3d 3d
       -0.055628 -0.0026960454 -0.08545835 0.046340287
000360 cb 8e 24 bd 1f 46 82 bd 73 42 2f bd 1f a4 e8 bd
       -0.04017524 -0.06361031 -0.04278798 -0.113594286
000370 ed cd 3e 3d 6d 05 a0 bc 17 d6 cc bb a3 48 93 3d
       0.046583105 -0.019533837 -0.0062511074 0.07191589
000380 70 e4 47 bc a1 d8 a2 3d d7 d7 bb 3b d4 29 74 bd
       -0.01220046 0.07951475 0.005732517 -0.059610203
000390 85 69 c3 3c 11 f2 db 3c 50 2d 80 bd cf ea e3 3c
       0.023854027 0.026848825 -0.06258643 0.027821926
0003a0 a9 b7 93 3c 01 e4 9b 3d 6c f5 01 bc d9 22 87 bd
       0.018031912 0.07611848 -0.007932048 -0.065984435
0003b0 5e 59 b1 bd 81 b2 0e 3d 5b 16 c0 bc 52 7f b1 bc
       -0.086596236 0.034838203 -0.02344816 -0.021667156
0003c0 88 6e 14 bc 4c 4c c4 bc 79 54 c6 3c bb b1 a6 3d
       -0.009059556 -0.023962162 0.024210202 0.08139368
0003d0 69 24 97 3d 14 a4 81 bd 25 6f ba 3d f7 24 7b 3d
       0.073799916 -0.063301235 0.091032304 0.06131455
0003e0 87 ad 6a 3c b5 5d 26 3d aa 5e 6e 3d 99 7a 9d 3d
       0.014323599 0.04061671 0.058195747 0.07689399
0003f0 ad d4 47 3d 5a 0f fc 3c 88 d3 11 bd 2b 17 70 bd
       0.048786808 0.030769039 -0.035602123 -0.058615845

SoftmaxPolicy_l2.bias f4 [128]
000000 09 06 5f 3d 76 fb 13 bd e8 91 6e 3b 43 50 82 bd
       0.054449115 -0.036128484 0.0036402885 -0.06362965
000010 36 2b 4a bd e5 37 60 3d f9 ab a2 3c e3 cc eb 3c
       -0.049357615 0.054740805 0.019857394 0.028784221
000020 0c 12 4a 3d ec 79 db 3c ec d7 09 3c d3 21 25 bc
       0.049333617 0.026791535 0.008413296 -0.010078865
000030 00 1b 91 3a ab a3 a6 3d 99 9d 0f 3d 31 ae 38 3c
       0.0011070669 0.08136686 0.035062406 0.011271999
000040 b1 8a 11 3d 9e 1c 20 bd b2 b8 8d bd 4c d1 91 bc
       0.035532657 -0.03908979 -0.069199935 -0.017799996
000050 0b 8b c1 3d 6e 64 b8 3c f3 88 85 bd 33 ef 6e 3d
       0.094503485 0.022508826 -0.065202616 0.058333587
000060 04 cc a5 3d f1 08 8e 3d 79 34 49 3c 3c 31 b5 bc
       0.080955535 0.06935299 0.012280577 -0.022118203
000070 f8 cf 0e 3c 89 02 ee 3c b6 fe 02 bd bf 53 34 bd
       0.008716576 0.029053943 -0.031981193 -0.04402518
000080 8a 91 a8 3c d4 a0 36 3d 6d a3 d3 bc f5 db 0e bc
       0.020577211 0.04458697 -0.025834763 -0.008719434
000090 7b 48 85 bd a4 e5 3c ba 2d de 97 bc 1c 8f bc 3d
       -0.06507965 -0.000720585 -0.018538559 0.092069834
0000a0 29 e7 7f 3d d5 da eb bc cc 45 8c bd 2b 6b 92 bd
       0.06247631 -0.02879087 -0.0684925 -0.07149347
0000b0 1f 11 4d bd f9 f4 b4 3d cf 28 d2 bc b3 f3 87 3d
       -0.050065156 0.08835787 -0.025654225 0.06638279
0000c0 2e c0 89 3d b5 a7 27 bc 16 a9 20 3d f4 e0 e8 3c
       0.067261085 -0.010232856 0.039223753 0.028427579
0000d0 50 c9 a6 3d c8 8f 31 3d 48 2f 4e 3d ee 05 b9 3d
       0.08143866 0.04335001 0.05033806 0.09034334
0000e0 7c 2b 3c 3c 12 0f ac 3d f6 d9 1d bb 75 b9 89 bd
       0.011484977 0.08401312 -0.0024086214 -0.06724826
0000f0 d6 9f b0 3d af b5 87 bd c1 57 78 3a 74 7a af 3d
       0.08624236 -0.0662645 0.00094735256 0.08568278
000100 0b 18 c3 bc 9f 32 7d bd 09 8f 87 3d 9d 47 0d 3d
       -0.023815176 -0.061815854 0.06619079 0.034492124
000110 04 b0 66 3d 9a 92 3e 3d f4 e5 bd bd c2 bb 94 3d
       0.056320205 0.04652653 -0.09272376 0.072623745
000120 36 c3 96 bd 8d 8d 2f 3c 7e f6 4b bd 03 d8 84 3d
       -0.07361452 0.010714901 -0.04979562 0.064865135
000130 ac 93 bb 3d dc a0 6d 3c 4f d9 be bc 11 73 9d 3d
       0.091590255 0.014503684 -0.02329698 0.07687963
000140 d0 e6 8e 3d 2e 27 86 bc 7d 1e 8f 3d e5 cb ff 3b
       0.06977618 -0.016376104 0.06988237 0.0078062885
000150 40 54 29 bd ff dd ac 3d ea 0d 4e bd 21 8b 84 bd
       -0.041340113 0.0844078 -0.05030624 -0.06471849
000160 67 94 51 3d 6a f3 08 3d 73 e5 91 3d 42 9c 15 bd
       0.051166918 0.033435263 0.07123842 -0.036525972
000170 9e a5 a4 3c ae 2e 41 3d 44 ac 95 3c 5b 1a 92 bd
       0.020098504 0.047163658 0.01827062 -0.07133933
000180 dd 55 6c 3d 2c 58 c1 3c d4 ec 9f bc 95 1a b1 bc
       0.057699073 0.023601614 -0.019522108 -0.02161912
000190 9e 28 bc bd 83 7d c2 3d bb 34 48 3c 49 f2 c0 bc
       -0.091874346 0.09496596 0.012219603 -0.02355303
0001a0 c8 33 ca 3d 4d d4 83 bd a4 da c6 3c 4e bb 52 bc
       0.09873158 -0.064369775 0.024274178 -0.01286204
0001b0 28 d9 d6 bc d0 a0 fd 3a be 1f 4d bc 8f 64 9c 3d
       -0.026226595 0.0019350294 -0.012519775 0.076363675
0001c0 f5 71 82 3d 4a 3f f8 3c 6c e6 9c bb 8e 59 66 bc
       0.06369392 0.030303616 -0.0047882106 -0.014059437
0001d0 06 2c e9 bb 29 76 11 bb 02 db 05 3d c9 d9 8f 3d
       -0.0071158437 -0.0022195673 0.032679565 0.07023961
0001e0 69 9c 7e bd a0 44 b6 bd 21 24 65 bc d3 5b 91 3d
       -0.062160883 -0.08899808 -0.013985665 0.07097592
0001f0 c0 95 2b 3d 1f 3d 12 bd a3 de 64 3d da af 1e 3d
       0.04189086 -0.03570282 0.055876385 0.038741924

SoftmaxPolicy_l3.weight f4 [2, 128]
000000 9d bc 59 3d c6 1a 66 3c ef 63 00 3e 61 f4 67 3c
       0.05315839 0.014044469 0.12538122 0.014157386
000010 09 55 b5 bd 10 90 91 bc d9 b8 29 3d a8 42 c0 3d
       -0.0885411 -0.01776889 0.04143605 0.09387714
000020 4b a6 81 3c 49 a7 fe 3b a7 71 8f 3d 6a 6d 90 3d
       0.015826365 0.007771407 0.07004099 0.07052119
000030 ba 50 b8 3d 6a aa 81 3c 06 d3 81 3b 74 ca c5 3d
       0.08999772 0.01582833 0.0039619235 0.096577555
000040 24 57 62 3d 1b 5c c3 3d 74 9c 31 bc 5c 1b cb 3d
       0.055258885 0.09539052 -0.010840524 0.09917328
000050 c0 c4 2c bd 75 77 ca 3d 12 33 1d bd fe c7 70 bc
       -0.042179823 0.09886066 -0.038378783 -0.014696119
000060 ff 88 11 bd 05 bf 31 3d 1d 42 4a 3d 1f f7 0f 3d
       -0.03553104 0.04339506 0.049379457 0.035147782
000070 d4 f8 b3 bd 8b 4b d0 3b b8 c2 20 bd 69 9d 10 bd
       -0.087876946 0.0063566617 -0.0392482 -0.035306368
000080 44 56 5e 3d ad 1a 54 ba 2d 1f 50 3d a1 4a a1 bd
       0.054281488 -0.0008091133 0.05081098 -0.078755625
000090 aa 59 4c 3c 5e 9f 8d 3d 5f fb 71 3d 8e 56 d4 3d
       0.012472549 0.069151625 0.059077617 0.103680715
0000a0 68 90 0c bc 4d 79 b0 3d 3a 62 8e bd 23 d2 1e bc
       -0.008579351 0.08616886 -0.06952329 -0.009693655
0000b0 ee 00 11 bc 57 08 e2 bc e0 69 06 3d 72 6a 61 3b
       -0.008850319 -0.027591867 0.032815814 0.0034395722
0000c0 fa 22 cf bd 6b dd c4 bd c9 2d 1b 3d 53 3e 73 bd
       -0.10114093 -0.096125446 0.03788546 -0.05938561
0000d0 73 43 e1 bd e2 d8 04 3e d5 52 64 bd 55 2c c5 3d
       -0.10999193 0.12973359 -0.055743057 0.09627596
0000e0 20 0d 88 3d 83 43 45 3d 04 e4 99 bd e4 54 a4 bc
       0.066431284 0.048160087 -0.07514194 -0.02006001
0000f0 dd 5c a8 3d f1 61 b2 3c c5 8e fd bd 18 86 05 3c
       0.08220837 0.021775218 -0.12380747 0.008149646
000100 c0 14 88 bd f5 35 8e bd f1 32 aa bd b5 07 a7 3d
       -0.06644583 -0.06943885 -0.083104976 0.08155767
000110 36 af 95 3d b6 a9 8b bd fa 42 0d bd 0a 83 a2 3d
       0.073088095 -0.06819479 -0.034487702 0.0793515
000120 98 0d 2f ba 53 e0 6b bd 74 f4 e2 3c 79 1c de bd
       -0.0006677746 -0.05758698 0.027704455 -0.108452745
000130 7f 18 b2 bd ad d2 91 3d 9a c0 b3 bd dc ef cc 3d
       -0.086960785 0.07120261 -0.0877697 0.10006687
000140 e7 bf 05 bd 07 ef 67 bd 66 e5 a6 bd e8 66 60 3d
       -0.032653715 -0.05662444 -0.08149223 0.05478564
000150 17 62 f4 bd a1 5c 29 3d dd 15 e2 3c 18 07 09 3d
       -0.11932772 0.041348103 0.027598316 0.03345403
000160 93 c2 d1 bd 60 7e 84 bd 36 11 38 3d 14 de 92 bd
       -0.1024219 -0.064694166 0.04493829 -0.07171264
000170 82 8d 37 bd 9e 3b 68 3d cb ae 31 3d 52 e3 95 3d
       -0.044812687 0.05669748 0.043379586 0.073187485
000180 77 c1 87 3b 2c e5 2a bd 90 66 02 3e e4 c4 97 3b
       0.004142936 -0.04172246 0.12734437 0.0046316255
000190 ec f2 ab bc 50 7d 9a 3d 5d 11 ae bd d1 18 a8 3d
       -0.020989858 0.07543433 -0.084994055 0.08207858
0001a0 d9 b8 10 3d e1 5e 6d bc 39 98 92 bd 6e e7 d0 bc
       0.035332534 -0.014487953 -0.071579404 -0.02550098
0001b0 31 02 bd bc ee 18 9e 3c 04 9a 73 bd 9b ce 3f 3d
       -0.023072334 0.019298997 -0.059473053 0.046827894
0001c0 a0 9f f4 bd 77 00 9f bd 0d 7b d5 bb ac c7 dc 3d
       -0.119445086 -0.077637605 -0.006514913 0.10780272
0001d0 b1 8b 92 3d 85 1a b2 bd cd 20 9d 3d 0c 0f 6a bd
       0.0715555 -0.086964644 0.07672272 -0.057143256
0001e0 f6 53 9b 3d 2b 32 27 3c 49 97 c0 bc 6b c5 ca bd
       0.07584374 0.010204832 -0.023509638 -0.09900936
0001f0 93 2b d0 bd f6 3e d5 bd cd 1b 6a bd 02 8a 8d 3d
       -0.10164561 -0.104123995 -0.05715542 0.069110885
000200 17 40 c0 bb db 05 e0 3d 43 5c ec bd 7f 87 ad 3d
       -0.005867015 0.10938617 -0.11541035 0.084731095
000210 44 e8 8b 3c bf 75 bb 3d 05 11 d1 bd 0a c9 9d bd
       0.017078526 0.09153318 -0.10208324 -0.07704361
000220 fc d6 de 3d 4e 86 50 3d d6 21 f3 bd 6c 7b ce bd
       0.10880849 0.050909333 -0.11871688 -0.100821346
000230 18 07 dc bc b5 ef fa 3d f8 9e af 3d c6 dc aa bd
       -0.026858851 0.12252752 0.08575243 -0.083428904
000240 7a 36 38 3c 8d 60 86 3c ad f6 84 bd 74 58 ac bd
       0.011243457 0.01640346 -0.06492362 -0.084153086
000250 35 1d d1 3d 31 4a 01 3c 12 e8 16 3d f0 ca d5 3d
       0.10210649 0.007891224 0.036842413 0.10439098
000260 a6 02 16 3d 9f e3 11 be 8b ea 86 bd 4a 55 7e bd
       0.03662362 -0.14246987 -0.06587704 -0.062093057
000270 5a bf 98 bd 07 83 82 3d 01 05 75 3b 2a 7f ec 3d
       -0.074583724 0.06372648 0.0037387016 0.11547692
000280 a4 20 0d bd ad 63 9e 3c fc 3c eb bc 72 05 9f 3d
       -0.034454957 0.019334638 -0.028715603 0.077647105
000290 f2 79 76 3d 31 90 9f bc 10 89 5e bd 46 db 3f bd
       0.06017489 -0.019477936 -0.05432993 -0.046839975
0002a0 8a 2f 8b bd 10 24 15 be e1 5c 2c 3d 49 f5 5d 3d
       -0.06796177 -0.14564538 0.042080764 0.054189
0002b0 1e e4 db bd df 5c 03 3e 0a a4 7b bd 06 5c bf bd
       -0.10736869 0.12828396 -0.061435737 -0.09343724
0002c0 57 07 8c 3d 3d 06 83 3d 07 16 8d bc 31 1b 99 3c
       0.068373375 0.06397674 -0.017222418 0.018689724
0002d0 bf 81 17 3d ee 0b f0 bd 7c d0 0b 3e 76 d3 bb bd
       0.03698897 -0.117210254 0.13653749 -0.09171192
0002e0 a3 3f 4d bd ae c3 15 be 09 8c d8 bc 5f 84 cf 3c
       -0.050109517 -0.14625427 -0.026433961 0.025331674
0002f0 f4 13 f9 bd f9 03 8e bd d8 54 3a 3c d7 35 88 bd
       -0.12162009 -0.069343515 0.011372767 -0.06650894
000300 68 65 a3 3d 10 63 e2 3d a0 26 16 bb a2 a4 53 bd
       0.07978326 0.11054051 -0.0022911206 -0.051670678
000310 16 a0 5e 3d 6b 59 23 3c b7 db 8a 3d 9f 4d b3 3c
       0.05435189 0.009970049 0.067801885 0.021887599
000320 e7 4f 84 3d dc ba f6 3d fc 00 82 bd 4e f1 5e bd
       0.06460553 0.12047359 -0.06347844 -0.054429345
000330 d4 de 97 3b ff 15 c6 bd 05 4e 94 3d 05 bf 8e bd
       0.0046347175 -0.09672164 0.072414435 -0.06970028
000340 93 f3 55 3d ef 31 8d bd 7b 82 8c 3d c0 e8 c5 3c
       0.052234244 -0.0689429 0.06860825 0.024158835
000350 02 54 e7 3d 94 a3 8b bd 4f 5a 97 3c 7e 9f 51 bd
       0.1129532 -0.068183094 0.01847568 -0.051177494
000360 7d 87 9d 3b 74 e4 8b 3d af d3 c3 bd 4e 58 b1 3d
       0.004807411 0.06830683 -0.0956186 0.08659421
000370 0a 56 11 3d 8d ae d5 bc e1 12 95 3d c0 39 17 3c
       0.035482444 -0.026084209 0.072789915 0.009230077
000380 cf 7a e0 bd cd e5 97 3d 36 fd 7f 3c 8e 08 42 bd
       -0.10960924 0.07416878 0.015624335 -0.04737144
000390 4c a0 65 3d 6e 33 26 bd 5b 32 3c 3d 33 73 22 bd
       0.056061074 -0.04057639 0.04594646 -0.039660644
0003a0 49 d4 14 be 9d b5 c7 3d de 54 cf 3d a3 19 f7 bd
       -0.14534105 0.09751437 0.10123609 -0.12065437
0003b0 e0 39 98 bd b4 a2 ac 3d 75 06 5f 3d c0 ac 44 bd
       -0.07432914 0.08429471 0.054449517 -0.04801631
0003c0 88 2e 57 3c b5 22 b5 3d 69 ee cc 3d 0c 27 02 be
       0.0131336525 0.088445105 0.10006411 -0.12710208
0003d0 c8 24 73 bd 96 bd 7a bc e1 0a c9 bd 28 cf 53 bc
       -0.05936125 -0.01530399 -0.09816528 -0.012927808
0003e0 76 2a af ba f4 b6 83 bc 49 10 72 bd da ae d0 3b
       -0.0013364095 -0.01607845 -0.059097562 0.0063685
0003f0 8c 87 b3 3b 4b 84 0f bd 00 2f 86 3d a8 9a 93 bd
       0.005478805 -0.035038274 0.06551933 -0.07207233

SoftmaxPolicy_l3.bias f4 [2]
000000 18 52 06 3d db 64 8b bc
       0.032793134 -0.017015865
