pytorch_models/model280323.pth (torch, 72107 bytes, 6 tensors)

SoftmaxPolicy_l1.weight f4 [128, 4]
000000 db f8 82 3e 9b f1 66 be 04 1a e8 bd fc e2 6c 3e
       0.25580487 -0.22553103 -0.11333087 0.23133463
000010 df 52 f0 be a1 8a 9f 3e ed 5e 54 bd 87 df 83 3e
       -0.46938226 0.31160453 -0.05184834 0.25756475
000020 41 e0 8c 3d 83 0b 61 bd 26 ca 52 3e 18 42 4b 3d
       0.068787105 -0.05494262 0.20584926 0.04962358
000030 7e 12 32 3e 44 15 42 be 1d 6e ec bc b1 8e 4d bd
       0.17389867 -0.18953425 -0.0288611 -0.05018491
000040 d1 58 93 3d e8 ce e5 ba fc e7 de 3e a2 a8 1d 3e
       0.07194675 -0.0017532976 0.43536365 0.1539636
000050 dd 62 3b be b9 cd 99 be 00 22 ac bd 2f f7 58 be
       -0.18299432 -0.30039766 -0.084049225 -0.21188043
000060 64 23 25 be fa f0 b0 3c 2e 76 a0 3e cf 60 8f 3e
       -0.16126782 0.021599282 0.31340164 0.28003547
000070 9f 4c fa be b1 6f a7 3e d4 5f 84 3e 4f ba 04 3f
       -0.48886582 0.327024 0.2585436 0.51846784
000080 61 df a8 3e 5a 8c ed be 27 6b fb be 42 0b 6c be
       0.32982925 -0.46396142 -0.49105188 -0.2305117
000090 98 c8 d6 3e e4 d3 c5 bd ee 92 60 3e 05 db 69 be
       0.41949916 -0.096595556 0.21931049 -0.22837456
0000a0 d5 3a f8 3e 90 5b 6f be 5b 1e 99 3e 8a 95 2e bc
       0.48482385 -0.23374772 0.29905972 -0.01065577
0000b0 bb cc 84 be d7 10 84 3e 3f 48 82 be 42 17 20 3e
       -0.25937447 0.25794098 -0.25445744 0.15633872
0000c0 6a 34 06 be d9 75 4c bd 1a 2c f0 be 47 3f 6a be
       -0.13105932 -0.049917076 -0.46908647 -0.22875701
0000d0 da 92 89 3e bf 77 e7 bd 70 35 00 3f df 84 cc 3e
       0.2686985 -0.11302137 0.5008154 0.39945123
0000e0 78 3d f0 bc 05 9f 9e be df 08 d4 3e 29 b8 48 3e
       -0.029326186 -0.30980697 0.41413018 0.19601502
0000f0 5e 3a a2 be d6 4c ae 3e 0f 4d da 3e 34 65 fb 3e
       -0.31685156 0.34042996 0.42636916 0.4910065
000100 bd ce 8e be 57 fd a7 bd f4 9a f1 bc 9b 7c 8b 3d
       -0.27892104 -0.082026176 -0.029492833 0.06810876
000110 a1 8a c1 be f8 f0 b5 be fe e3 7e 3e 37 07 fd bd
       -0.37801078 -0.35535407 0.2489166 -0.12354892
000120 33 58 6b 3e a5 89 04 3d b4 d8 9b 3e a3 a6 38 3e
       0.22982864 0.03235783 0.3043877 0.18032317
000130 d5 73 29 3e 3e 56 81 3e fc d2 a1 be 0b 4a a6 3e
       0.16548093 0.2526111 -0.3160628 0.32478365
000140 d5 27 b1 be 20 69 c0 be 59 b2 aa 3d ff fc 67 bd
       -0.34600702 -0.37580204 0.08334798 -0.05663776
000150 a7 7e 94 3e e0 03 91 be 4d 6c b6 be b2 d3 d2 3e
       0.29002878 -0.2832327 -0.35629502 0.41177136
000160 c6 5e 90 bd 13 73 8e 3e 5f 79 b5 3d 28 50 d8 be
       -0.070493266 0.2782217 0.0886104 -0.42248654
000170 42 0e c7 3d 8d 59 e8 3d 27 e0 ae be a0 16 73 be
       0.09719516 0.113452055 -0.3415539 -0.237391
000180 88 f8 34 3e ac 9b 8d 3d 45 87 b8 be 52 93 5d be
       0.17672932 0.06914458 -0.36040702 -0.2163823
000190 e7 c1 e4 3e 3e 58 a9 bd 1e 02 cd 3e 0e 73 88 3e
       0.44679186 -0.08268784 0.40040678 0.2665028
0001a0 54 73 a4 be 23 52 d8 be db f2 eb 3e b6 90 83 3c
       -0.32119238 -0.42250165 0.46083722 0.016060214
0001b0 27 f7 ab 3e d8 96 ea 3d 59 58 89 3e c8 27 d3 3e
       0.33587 0.114545524 0.26825216 0.41241288
0001c0 02 60 ed 3e 3a d5 a5 be eb 8b 43 3e 81 86 e2 3e
       0.4636231 -0.3238924 0.19096343 0.44243243
0001d0 a6 54 b3 3e fe dd 98 3e 11 7e bc be 22 56 b8 be
       0.3502552 0.29856867 -0.3681493 -0.36003214
0001e0 33 ed 9c be 78 3c 6e 3d 14 58 03 3f 44 91 9f be
       -0.3064972 0.058163136 0.5130627 -0.31165516
0001f0 86 f9 8b 3e 55 6d 91 be 24 6b fc be de 52 d1 bd
       0.2733881 -0.28403726 -0.49300492 -0.10220884
000200 ab 57 90 3e 08 0a ed 3e bd 10 94 be 60 28 e4 3d
       0.28191885 0.46296716 -0.2891902 0.111405134
000210 b9 e5 d5 3e 0d e1 b4 3e 62 cb d1 3e b9 e4 c0 3e
       0.41776827 0.3532795 0.4097548 0.37674502
000220 d1 7d 9a 3e 36 fa ea 3d 35 13 aa be b4 23 d2 be
       0.30174115 0.11473505 -0.3321778 -0.41042864
000230 09 c7 71 be 31 bc 66 bd f3 d0 3c be c9 00 7d 3e
       -0.23611082 -0.056331817 -0.18439083 0.24707331
000240 66 fe 1e 3e 04 15 e7 bd c7 cf 55 3e a1 c1 31 3e
       0.15526733 -0.11283305 0.20880042 0.1735902
000250 62 b2 97 3e d6 1d b8 3e be 24 79 bd 4e 7f 05 3f
       0.29628283 0.35960263 -0.060826056 0.52147377
000260 2e 7a 33 bd d8 2f f5 bc 95 f8 1a bf 60 68 be be
       -0.04381769 -0.02993004 -0.60535556 -0.37189007
000270 4c 0a 94 be d2 de 5a be ad 14 b0 3e f6 59 27 be
       -0.28914106 -0.21374062 0.34390774 -0.16342911
000280 67 a0 bb be 7f 7d 5e 3e a3 31 86 3e 5c 89 b0 3e
       -0.36645815 0.2172756 0.26209745 0.34479797
000290 23 b0 85 be 0f 93 d7 3d 25 b9 3a be a9 0e e5 bd
       -0.26110944 0.10526096 -0.1823469 -0.11184437
0002a0 4c 6b c9 be 15 64 6a be cc de 2d be f9 9f 5b 3e
       -0.39339674 -0.22889741 -0.16979522 0.21447743
0002b0 9d 1a a9 3d e5 c9 14 3e f2 cd 1f 3f 48 30 03 3f
       0.08257029 0.14530142 0.6242362 0.51245546
0002c0 a3 b4 a9 3e 72 3c bb 3c 3d b1 62 be 44 cb e5 3e
       0.33145627 0.022855971 -0.22137924 0.44881642
0002d0 92 67 06 be e1 cd 42 bd a7 31 e1 be 2f 46 c9 bd
       -0.13125446 -0.047559623 -0.43983194 -0.098278396
0002e0 c9 85 a9 be e9 04 e9 3e f8 1a f5 be 57 7d d7 be
       -0.33109882 0.4551156 -0.47872138 -0.42087814
0002f0 68 e1 30 bc 8e 6e 88 be ff 90 31 3e 2c 6d 44 be
       -0.010795929 -0.26646847 0.17340468 -0.19182271
000300 b9 ea 6d be 39 58 2e 3d e9 01 af 3e 88 8b c2 be
       -0.23234071 0.042564604 0.34181145 -0.3799708
000310 d1 47 6c 3e f9 cf a1 3e 5c 05 f0 3e 6b e2 b8 be
       0.23074271 0.31603983 0.4687909 -0.36110243
000320 85 ab 0b 3e 75 a4 ba be 34 2b c9 3e 0b 2c 51 be
       0.13639648 -0.36453596 0.39290774 -0.20426957
000330 6a fe 96 3e c1 83 84 3c b5 eb 57 bc c6 df bb bb
       0.29490978 0.016176106 -0.0131787555 -0.005733463
000340 96 4c 95 3d c7 a0 71 3e 8c b1 5a 3e 81 a3 65 3e
       0.07289998 0.23596488 0.21356791 0.22425653
000350 0a c1 e5 be 66 42 be 3e ea 7f 08 3f 1c 45 ed 3e
       -0.4487384 0.37160033 0.5332018 0.4634179
000360 64 e4 b1 3e d7 b0 b8 be bf 85 1b be 00 57 e3 3e
       0.3474456 -0.36072418 -0.15187739 0.44402313
000370 69 e5 c5 be 8e c1 ea 3e 0b a6 df be a9 fa c8 be
       -0.3865159 0.45850796 -0.43681368 -0.3925374
000380 b5 71 74 3e 87 77 b1 be a6 ae 43 bd 4e 44 c9 3e
       0.23871501 -0.34661505 -0.04777398 0.39309925
000390 00 d9 cc 3e 56 b3 ef 3e 8c b0 49 be 03 0e e3 be
       0.40009308 0.4681651 -0.19696254 -0.44346628
0003a0 ed cc f7 3e f5 f7 04 be 56 16 76 be 0c 9b 08 3e
       0.48398533 -0.12985213 -0.24031958 0.13340396
0003b0 02 6f b3 be 8e f2 a4 3e 84 9f 6c 3e ed 3f e5 be
       -0.3504563 0.32216305 0.23107725 -0.44775334
0003c0 2d 32 d3 be d9 45 45 bd 0d 1e 46 3e f3 f0 4e bc
       -0.4124922 -0.048162315 0.19347401 -0.012630689
0003d0 71 ec 7f be a4 17 aa 3c ab c0 f2 be 74 8c b9 be
       -0.24992539 0.020763226 -0.4741262 -0.3623997
0003e0 35 c6 a9 be 01 bb d3 3e 39 3a d0 3e 71 88 48 be
       -0.33159032 0.4135361 0.4066942 -0.19583298
0003f0 f5 43 ec 3c 0d d0 58 3e 00 b0 1c 3c 14 2f 8a be
       0.028840998 0.21173115 0.009563446 -0.26989043

SoftmaxPolicy_l1.bias f4 [128]
000000 00 96 c1 be bf 20 b5 3e e0 4e a9 3e d8 ad ff be
       -0.37809753 0.35376546 0.3306799 -0.4993732
000010 4c d1 c9 be 4e 06 ad be 34 5d 85 be 74 e9 f3 3d
       -0.39417493 -0.33793873 -0.2604767 0.11909762
000020 76 b3 f6 be 92 65 c8 be 0e 38 6d 3e f3 db 2e be
       -0.48183793 -0.39139992 0.23165914 -0.17076091
000030 6f a5 5c be 53 0a d5 be aa 25 44 3e 1a bb e5 3d
       -0.21547483 -0.4160944 0.19154993 0.112173274
000040 a4 a4 51 be 5d 4c 9f be 03 1d ee 3d eb 98 19 3e
       -0.20472962 -0.31112948 0.11626627 0.1499974
000050 70 34 44 3e 06 a8 28 3e 01 61 44 bd 41 b6 c8 be
       0.19160628 0.16470346 -0.047944073 -0.3920155
000060 44 7c b3 3e 8f a3 09 3d b9 55 b0 be 0f ed ef 3e
       0.35055745 0.033603247 -0.344404 0.4686055
000070 8b 38 92 3e 59 f8 cf be 33 c3 7d be aa 0c 24 be
       0.28558764 -0.40619162 -0.24781494 -0.16020456
000080 ab 67 95 be b0 b8 6f 3e a1 c6 c1 be d0 20 e7 3e
       -0.29180655 0.23410296 -0.37846854 0.4514222
000090 5c 00 4c be de eb 9a 3e bc 9f c6 3d e1 2f 6b be
       -0.19922012 0.30258077 0.09698436 -0.22967483
0000a0 9e f2 af 3e da 18 c2 be 34 16 88 be 85 ad dd 3d
       0.3436479 -0.37909585 -0.2657944 0.10824112
0000b0 2e f6 c6 3e 27 37 54 be bf fa 90 be 34 35 a5 be
       0.38859695 -0.20724164 -0.28316304 -0.32267153
0000c0 a3 01 4d be f0 14 23 be b3 26 f3 bd b8 09 96 be
       -0.20020156 -0.15925956 -0.11872616 -0.2930429
0000d0 f1 de 2c 3e 77 8e ab 3d 77 ad af be cc 84 81 be
       0.1688192 0.083767824 -0.3431203 -0.25296628
0000e0 b5 75 cc 3d b2 14 db 3c 02 5a c8 3e c0 11 6b bd
       0.09983388 0.026743267 0.3913117 -0.057389975
0000f0 24 42 cf be 8b df ba be ed 0e 08 be c9 54 d4 bd
       -0.4048015 -0.36498675 -0.13286944 -0.10367734
000100 f8 30 b3 3d 2a 28 06 be f1 45 59 3e d7 77 23 be
       0.087495744 -0.13101259 0.21218087 -0.15963684
000110 cf cd c8 3e 79 f8 cb 3d d4 97 25 be 02 e5 f2 3e
       0.3921952 0.09959502 -0.16171199 0.47440344
000120 6b c5 27 3e 24 28 b8 be 0e cb 87 be ea 1b ac 3e
       0.16383903 -0.35968125 -0.26522106 0.33615047
000130 d2 16 61 3e f7 af c2 3e b3 c0 98 3c 94 8f b1 3e
       0.21981362 0.38024876 0.018646574 0.34679854
000140 dc 49 8c 3e 88 db 11 3e f8 85 18 be 8f 03 03 3f
       0.274001 0.14243901 -0.14894855 0.51177305
000150 76 c3 c4 3d e2 6b 1e be 94 c4 88 3d 44 38 ff 3e
       0.09607594 -0.15470842 0.06678119 0.49847615
000160 28 37 a3 3e 4a 24 74 bd c1 3f 05 3f b3 14 81 3e
       0.31878018 -0.05960492 0.52050406 0.25211105
000170 e9 06 85 be b9 4c eb be a1 d1 9f 3e f3 53 00 3f
       -0.25981835 -0.45956972 0.31214622 0.50128096
000180 2f 73 9b be 62 08 49 3e 46 81 33 3d 84 ed 03 be
       -0.30361316 0.19632104 0.043824457 -0.12883574
000190 d9 49 dc bd 6b 31 2a 3e 48 46 d1 3d f6 36 ab 3e
       -0.10756273 0.16620414 0.10218483 0.3344037
0001a0 2f 20 3f 3e ca 5d 84 3e 53 54 f2 3e ac 3b 35 3e
       0.18664621 0.25852805 0.4732996 0.17698544
0001b0 c1 fc ed 3d 09 93 0d be 47 8b c2 3e cd e8 bd 3d
       0.116204746 -0.1382562 0.37996885 0.09272919
0001c0 27 07 a7 3e 3c e6 f5 3e 52 77 08 be 42 ce a9 3e
       0.32622644 0.48027217 -0.13326767 0.33165175
0001d0 48 52 78 bd ad 34 f5 3e bd 49 c8 3e b7 5d 1e be
       -0.060625345 0.4789175 0.39118758 -0.15465437
0001e0 70 de 24 3c 42 5d 5b be 76 6d 58 be 29 39 b1 bd
       0.010062799 -0.21422294 -0.21135506 -0.086534806
0001f0 e2 d5 01 bb 6e c6 1d be ad 11 f1 be 91 da a0 be
       -0.0019811322 -0.15407726 -0.47083798 -0.31416753

SoftmaxPolicy_l2.weight f4 [128, 128]
000000 e7 83 08 3b 7a 62 26 bd 1b 0c 97 3d e6 01 91 3d
       0.0020830573 -0.04062126 0.07375356 0.0708044
000010 71 00 68 3d f3 f9 2a 3d 13 48 92 bd 77 cf 53 3d
       0.056641046 0.041742276 -0.07142653 0.051711526
000020 4f 34 71 bd ba 98 6d bc ce 5b 17 bd 96 4d e4 3c
       -0.058887776 -0.014501745 -0.036952786 0.027869027
000030 ba f9 86 bd 03 f0 22 bd a3 e9 73 bd 11 e5 cc bd
       -0.065906 -0.039779674 -0.059548985 -0.100046284
000040 2a 33 3d bd e4 a2 a8 3d eb 55 c5 bb b7 64 05 3d
       -0.046191372 0.08234194 -0.006022205 0.032566752
000050 b3 f3 af bd d3 22 c8 3d cc 82 3e bc 1b a6 9c bd
       -0.08591404 0.09772267 -0.011627864 -0.076488696
000060 f3 bb b5 3d c9 4a 61 bc 16 05 97 3d 8b 36 62 bd
       0.08873739 -0.01375074 0.07374017 -0.055227797
000070 77 df 8b bd 7a 9d 5d bd 86 b3 0e 3d 30 ed ba 3c
       -0.06829732 -0.05410526 0.034839176 0.022818178
000080 04 e0 9b bd b3 a0 63 3c 70 78 27 3c b0 1b 0e 3d
       -0.07611087 0.013893294 0.010221586 0.034694374
000090 65 9d 27 bd 74 34 7f bd 7a 3f eb 3d f1 5b 41 bd
       -0.040921587 -0.062305883 0.114867166 -0.047206823
0000a0 2f ae 35 3d 23 35 94 3d 08 ed 8a bd 2d 0c a0 bd
       0.044355568 0.072366975 -0.067834914 -0.07814822
0000b0 a3 59 c7 3c 46 1f 9b bd a3 d6 11 3d dc 4e 04 bd
       0.024334734 -0.07574324 0.035605084 -0.03230177
0000c0 65 f8 14 bd fa e8 84 bd a9 93 48 3d 88 e1 3c bd
       -0.0363697 -0.06489749 0.048968945 -0.04611352
0000d0 ad 95 af bd 05 e6 83 bd 3b ab 20 bd 4c ab a1 bd
       -0.0857347 -0.06440357 -0.039225798 -0.078940004
0000e0 2a 5d 3b 3d 3e 0a b0 bc 14 b5 b3 3d 08 47 7e 3d
       0.045743145 -0.021489259 0.08774772 0.06207946
0000f0 5f a9 64 bd 1d 18 39 bd 66 cc 2d bd 93 9a 71 3d
       -0.055825587 -0.04518901 -0.042431258 0.058985304
000100 fa 56 cd 3b 41 8f cd bc e0 7b bb 3d 47 75 d7 3d
       0.006266472 -0.025092723 0.09154487 0.10520416
000110 ac 1e a6 3d f8 76 85 bd 62 c7 10 bd 4c d2 49 bc
       0.08111319 -0.06516832 -0.035346396 -0.012318205
000120 40 2c c9 3d b2 85 16 bd 10 ee 34 bd 12 7a 8d 3c
       0.09822893 -0.036748596 -0.044172347 0.017270122
000130 d0 ab 9c bc b8 0a 32 3d e2 03 8c 3c 86 7d 97 bd
       -0.019124895 0.043467253 0.017091695 -0.073969886
000140 f8 45 b1 3d da ee a8 3d 69 66 f5 3b 2a a8 55 bd
       0.086559236 0.08248682 0.007489015 -0.052162327
000150 c9 71 15 3d 38 31 62 3d 2c 3d 80 3d 13 06 1a bd
       0.036485467 0.05522272 0.062616676 -0.03760345
000160 33 9e 98 bb b2 4d ce bc cd d8 b7 3d 4d 25 01 3e
       -0.0046575307 -0.025183532 0.08976898 0.12611885
000170 04 92 4e 3b f2 b9 5a bd 97 cc 2b 3d d0 49 54 3d
       0.0031520138 -0.053399988 0.04194316 0.051828206
000180 44 2c 1b 3d 49 93 9c bd e8 81 86 3c 32 66 0a bd
       0.037884012 -0.0764528 0.016419366 -0.033788867
000190 71 fa 91 bd 85 6c 12 bd 63 ab 63 3d ad e6 2f 3d
       -0.07127846 -0.035748024 0.05558337 0.0429446
0001a0 a6 2c 9a bd c9 a4 8d 3c 1d e3 b4 3d 41 0d dc 3d
       -0.07528047 0.01729049 0.08832381 0.107447155
0001b0 90 bb 90 3d 62 d0 c8 bc 82 ec 55 3d c2 a9 59 3d
       0.07067025 -0.024513427 0.052227505 0.05314041
0001c0 52 0a 30 3d d5 96 6d bd b3 be 04 bd 5d 7a 9f 3d
       0.042978592 -0.058005173 -0.032408427 0.07787011
0001d0 14 0a a4 3d a4 8f a4 3d c3 5a 2d bd a9 7c 8d bc
       0.08009735 0.0803521 -0.042322885 -0.017271357
0001e0 41 1a 60 bd 66 88 fb bc 1e 20 95 3d 3d 90 81 bd
       -0.054712538 -0.030704688 0.072815165 -0.063263394
0001f0 71 e8 cc 3b 2e 82 b2 3c 73 fe 43 bd 81 34 1d 3d
       0.006253295 0.02179059 -0.047850084 0.03838015
000200 fc 5c 97 bc 23 ce 8e 3d e6 99 30 bd a0 d4 5a 3c
       -0.018476956 0.06972911 -0.04311552 0.013356358
000210 af 38 a0 bd e0 42 46 3d e4 53 ac 3d 9a ad c3 3c
       -0.078233115 0.04840362 0.08414438 0.02388649
000220 6d d4 02 3b 42 ea 38 bd 97 85 23 bd 36 1b 31 bd
       0.0019963041 -0.04514528 -0.039922323 -0.04323884
000230 23 77 47 bd a0 f9 cd 3c 3c 25 46 3c 9c 1b a5 3d
       -0.048697602 0.025143445 0.012093838 0.08061907
000240 89 53 91 bd 96 69 6e bd 18 21 17 bd e4 cc 0a bd
       -0.07096011 -0.058206163 -0.036896795 -0.033886805
000250 6f 8c a0 3d 4a f5 33 3d dd 06 a0 bd f7 81 9a bb
       0.078392856 0.043935098 -0.07813809 -0.0047152
000260 c2 54 c3 3b 43 ac 99 3d 1a a4 a6 3d eb 39 72 3d
       0.0059610317 0.075035594 0.08136769 0.059137266
000270 1f b8 ae 3d a0 d9 ef bc bb 2b da ba ef 40 a4 bd
       0.08531212 -0.029278576 -0.0016645113 -0.080201976
000280 5a ea d0 3c 67 c8 f8 3d 8d 39 51 3d d4 9f d8 3d
       0.025502373 0.12147599 0.051080275 0.1057736
000290 5e 0d 10 bd 9b 4a ee 3c 7c 96 56 bd 5a 8e 8c 3d
       -0.035168998 0.029088309 -0.052389607 0.06863089
0002a0 60 b0 1b bd 96 2b 27 bd 7b ee 51 3c 1d 5c 86 3c
       -0.03801 -0.04081305 0.012813206 0.016401345
0002b0 a0 c2 78 3d 5e d5 5b bc a7 2d a3 bc d1 6d 31 3d
       0.060732484 -0.01341757 -0.01991923 0.04331762
0002c0 6d 13 7a 3d 71 4d cc 3d 07 7c 00 3d 59 b7 e1 ba
       0.061053682 0.09975708 0.03136828 -0.001722078
0002d0 66 ba f8 3d b3 1d 06 3e 8c 16 27 bd 1e 23 28 3d
       0.12144928 0.13097267 -0.040792987 0.041049115
0002e0 55 7c db 3c 55 1e 23 bd 51 03 cb bb 30 31 76 bc
       0.026792685 -0.03982385 -0.0061954637 -0.015026376
0002f0 08 8f 89 bd c4 ff 04 bd 5b f1 5b 3d c1 ec 98 3d
       -0.06716734 -0.03247048 0.05369697 0.07467032
000300 0a f6 35 3c 24 12 9b bd ec 65 59 3c 8f 8c d9 bc
       0.011106024 -0.075718194 0.013268929 -0.026556281
000310 42 66 a6 3d a2 98 af bd 28 e4 40 bc 5c ad af 3d
       0.08124973 -0.08574034 -0.011773147 0.085779876
000320 0c f1 5d 3c 62 c9 24 bd 82 eb a8 bd e8 89 32 b9
       0.01354624 -0.040231116 -0.082480446 -0.00017026777
000330 1c eb 61 3d 58 9a 70 bd e0 98 ac bd 60 77 5f 3d
       0.05515586 -0.058740944 -0.08427596 0.054557204
000340 db 31 00 bd 13 a5 77 3d 9f 81 9f bd 36 9c 3c bc
       -0.031297546 0.06046016 -0.07788395 -0.011511853
000350 a6 f7 64 bd ff 16 78 bb d2 7f af bd 7a cc 3d 3d
       -0.05590024 -0.0037855504 -0.08569302 0.046337582
000360 55 7e 24 bd a3 38 82 bd b2 59 2f bd 63 20 e8 bd
       -0.040159542 -0.06358459 -0.04281015 -0.11334302
000370 6c 29 3d 3d c2 a3 a1 bc 66 8e e0 bb f3 56 93 3d
       0.04618208 -0.019731406 -0.0068529127 0.071943186
000380 8c 5c 53 bc ee d6 a2 3d 8d 56 a2 3b dd 1c 74 bd
       -0.012900483 0.07951151 0.0049541653 -0.05959784
000390 d1 0c c1 3c ee 49 d8 3c 68 9d 7e bd 9e b6 e5 3c
       0.023565682 0.02640244 -0.062161833 0.02804118
0003a0 bd c6 8a 3c 1c 6b 9a 3d 73 a6 01 bc f3 a8 86 bd
       0.016940469 0.07539961 -0.00791322 -0.06575193
0003b0 24 fd b1 bd 75 07 0e 3d bb 4c c5 bc 23 ef b1 bc
       -0.08690861 0.03467508 -0.02408444 -0.021720475
0003c0 ae f1 16 bc 17 8d c2 bc 00 d4 bf 3c b8 e6 a6 3d
       -0.009212894 -0.023748918 0.02341652 0.08149475
0003d0 70 52 95 3d 67 3d 81 bd 09 71 ba 3d 22 f0 7b 3d
       0.07291114 -0.0631054 0.09103591 0.061508305
0003e0 e0 4f 6c 3c ef 87 26 3d 91 be 6d 3d 7b 41 9c 3d
       0.014423341 0.04065698 0.058043066 0.07629677
0003f0 43 32 49 3d d7 cb f6 3c 79 80 14 bd 37 5a 6d bd
       0.0491202 0.030126495 -0.036255334 -0.057947364

SoftmaxPolicy_l2.bias f4 [128]
000000 a3 89 5d 3d a8 75 13 bd bf c1 66 3b 18 31 82 bd
       0.05408634 -0.036000878 0.0035210697 -0.0635702
000010 36 c4 49 bd 12 64 60 3d 23 c6 a0 3c f1 d6 e8 3c
       -0.049259387 0.054782934 0.019625729 0.028422805
000020 6e cb 4a 3d 3d d1 db 3c 52 01 07 3c d9 af 26 bc
       0.049510412 0.026833171 0.008240061 -0.010173761
000030 00 1b 91 3a 03 02 a7 3d b6 c9 0a 3d 27 03 37 3c
       0.0011070669 0.081546806 0.033883773 0.011170185
000040 a1 d0 13 3d 2d 5a 21 bd f1 b3 8d bd a4 fa 91 bc
       0.036087636 -0.03939264 -0.06919087 -0.01781971
000050 23 d9 c1 3d a6 24 b7 3c f3 88 85 bd 47 41 6f 3d
       0.09465244 0.022356343 -0.065202616 0.058411863
000060 04 cc a5 3d 29 ac 8d 3d bb a2 42 3c 54 16 b6 bc
       0.080955535 0.069176026 0.011879618 -0.022227444
000070 f8 cf 0e 3c 4e 6d ee 3c 70 6e 04 bd 4a 23 34 bd
       0.008716576 0.029104855 -0.032331884 -0.043978967
000080 4f fa a6 3c ab 89 36 3d 05 fa d4 bc f5 db 0e bc
       0.020383028 0.044564884 -0.025998125 -0.008719434
000090 7b 48 85 bd d4 fa 68 ba 86 db 97 bc 31 e3 bb 3d
       -0.06507965 -0.0008887474 -0.018537294 0.09174193
0000a0 59 eb 7d 3d 6e d9 ec bc cc 45 8c bd 2f e3 94 bd
       0.061992023 -0.028912272 -0.0684925 -0.07269894
0000b0 bc e8 4d bd 52 1e b5 3d 5c 75 d1 bc 18 bd 86 3d
       -0.05027078 0.08843674 -0.025568657 0.065790355
0000c0 f6 db 89 3d dc e0 26 bc fc 31 21 3d ee af e9 3c
       0.06731407 -0.010185447 0.03935431 0.028526273
0000d0 43 d7 a6 3d eb 5d 30 3d f9 b9 4e 3d 21 bf b8 3d
       0.08146527 0.043058317 0.050470326 0.0902083
0000e0 e4 56 36 3c 1d e7 ab 3d f6 d9 1d bb fa e2 88 bd
       0.011129115 0.08393691 -0.0024086214 -0.06683917
0000f0 a2 52 b0 3d af b5 87 bd 32 df 81 3a b1 9c ad 3d
       0.08609511 -0.0662645 0.0009908436 0.08477152
000100 d3 4e cf bc 3f cf 7b bd 09 8f 87 3d ba 26 0d 3d
       -0.025306141 -0.061476942 0.06619079 0.03446076
000110 94 41 69 3d 7f 28 3f 3d 9a 7b be bd d6 3e 94 3d
       0.056947306 0.04666948 -0.09300919 0.072385475
000120 ee ec 97 bd 69 ef 32 3c 24 41 4c bd 1a 17 85 3d
       -0.074182376 0.010921338 -0.04986681 0.06498547
000130 ff d3 bb 3d 49 f9 59 3c 58 db be bc cd 16 9d 3d
       0.091712944 0.013304063 -0.02329795 0.076703645
000140 9c a1 8e 3d 13 62 81 bc e6 70 8f 3d 3c 08 f6 3b
       0.06964418 -0.015793836 0.070039555 0.007508306
000150 42 fc 28 bd 4c 1b ac 3d 5f ec 51 bd 3d ae 83 bd
       -0.041256197 0.08403644 -0.05125081 -0.06429718
000160 40 5e 52 3d 6a f3 08 3d 65 aa 91 3d 74 9d 14 bd
       0.051359415 0.033435263 0.07112578 -0.03628297
000170 7e 59 a6 3c d3 64 40 3d 44 ac 95 3c 6d d4 92 bd
       0.020306345 0.046971153 0.01827062 -0.07169423
000180 f3 f1 6b 3d d9 74 be 3c 21 a9 a0 bc ae 08 ab bc
       0.057603788 0.023249077 -0.019611897 -0.020878162
000190 e4 80 bd bd bd 3d c2 3d c5 e1 53 3c 46 39 c3 bc
       -0.092530996 0.09484432 0.012932246 -0.023831021
0001a0 56 be c9 3d 8a 62 82 bd 2d a2 c7 3c be b3 59 bc
       0.09850757 -0.06366451 0.024369324 -0.013287483
0001b0 0d fd d7 bc d0 a0 fd 3a 11 29 4b bc cd 13 9c 3d
       -0.026365781 0.0019350294 -0.012399928 0.07620964
0001c0 87 8b 82 3d 75 c7 f9 3c df 62 98 bb bd d3 68 bc
       0.06374269 0.030490616 -0.004650458 -0.014210639
0001d0 6d ac f5 bb 7b 61 0c bb 8b f8 04 3d c9 d9 8f 3d
       -0.0074973614 -0.0021420408 0.03246359 0.07023961
0001e0 29 86 7f bd a0 44 b6 bd ff 7c 61 bc a4 99 91 3d
       -0.062383804 -0.08899808 -0.013762712 0.07109383
0001f0 8c 69 2c 3d 09 95 11 bd f2 47 65 3d 73 bf 1e 3d
       0.042092845 -0.03554252 0.055976816 0.0387568

SoftmaxPolicy_l3.weight f4 [2, 128]
000000 42 69 57 3d 03 3e 68 3c 58 3b 00 3e ad ba 65 3c
       0.052590616 0.014174941 0.12522638 0.014021558
000010 4d 17 b5 bd 0d 65 92 bc 9d 49 27 3d 7c cd c0 3d
       -0.08842335 -0.01787045 0.040841687 0.09414193
000020 db 30 81 3c cb 5e fc 3b 52 72 8e 3d c0 b4 8f 3d
       0.015770366 0.00770173 0.069553986 0.07016897
000030 ba 50 b8 3d 69 f0 83 3c 40 d7 95 3b a8 18 c5 3d
       0.08999772 0.016105847 0.004572779 0.096238434
000040 3d a7 64 3d f2 5b c3 3d fe 9b 31 bc ba 2d ca 3d
       0.055823553 0.095390216 -0.010840414 0.09872003
000050 4c a7 2d bd 83 14 c9 3d 12 33 1d bd 76 c5 71 bc
       -0.042395875 0.098183654 -0.038378783 -0.014756551
000060 ff 88 11 bd c5 33 30 3d d5 af 47 3d 30 2f 0e 3d
       -0.03553104 0.04301812 0.04875167 0.03471297
000070 d4 f8 b3 bd e1 ac ce 3b a4 ff 1c bd b2 2a 0f bd
       -0.087876946 0.00630723 -0.038329735 -0.034952827
000080 17 d6 5b 3d f7 f0 52 ba 3c 16 50 3d a1 4a a1 bd
       0.05367097 -0.0008046771 0.050802454 -0.078755625
000090 aa 59 4c 3c 7d 04 8f 3d cf 80 70 3d 0a e9 d3 3d
       0.012472549 0.06983278 0.05871659 0.10347183
0000a0 74 04 0d bc fe 94 af 3d 3a 62 8e bd 45 26 1d bc
       -0.008607019 0.0857334 -0.06952329 -0.009591644
0000b0 91 79 15 bc 05 19 e1 bc c5 77 06 3d da 32 4b 3b
       -0.009123222 -0.02747775 0.032829065 0.0031005652
0000c0 ae b1 cf bd 9b df c4 bd 66 3a 1b 3d bd ab 72 bd
       -0.101413116 -0.09612962 0.03789749 -0.059245814
0000d0 b5 a2 e0 bd 02 4c 04 3e a5 8d 63 bd 93 4f c4 3d
       -0.10968534 0.1291962 -0.055555005 0.0958549
0000e0 20 23 88 3d 5b 93 43 3d 04 e4 99 bd 38 97 9c bc
       0.066473246 0.04774795 -0.07514194 -0.019115075
0000f0 84 07 a7 3d f1 61 b2 3c f4 46 fd bd eb fe f5 3b
       0.0815573 0.021775218 -0.12367049 0.007507195
000100 ea 8d 84 bd 18 ce 8d bd f1 32 aa bd 8f 66 a6 3d
       -0.064723805 -0.06924075 -0.083104976 0.0812503
000110 2d 8a 96 3d 84 6f 8a bd 35 2c 0d bd 02 c4 a1 3d
       0.07350574 -0.06759551 -0.034465987 0.07898714
000120 45 17 31 b9 95 91 69 bd 03 6a df 3c 17 ed dd bd
       -0.00016888704 -0.057023603 0.02727223 -0.10836237
000130 ba 03 b2 bd f5 b5 90 3d 08 f8 b3 bd ad 99 cb 3d
       -0.08692117 0.070659555 -0.087875426 0.09941421
000140 ac c3 05 bd 3e 24 67 bd 05 e1 a5 bd 7f 1c 64 3d
       -0.03265731 -0.056431048 -0.0809956 0.05569124
000150 07 93 f4 bd 10 06 28 3d 61 7b de 3c 28 19 0c 3d
       -0.11942106 0.041021407 0.027158441 0.03420368
000160 3b b8 d1 bd 60 7e 84 bd d5 5b 37 3d a5 4d 92 bd
       -0.10240217 -0.064694166 0.044765312 -0.07143716
000170 d7 41 37 bd 6b bb 65 3d cb ae 31 3d 7f a5 95 3d
       -0.044740524 0.05608694 0.043379586 0.073069565
000180 db dd 6e 3b d2 62 2a bd 7e 1f 02 3e ce 18 9f 3b
       0.0036448154 -0.04159815 0.12707326 0.004855252
000190 f1 7d ab bc 76 8d 99 3d 46 d2 ab bd cd f3 a6 3d
       -0.020934077 0.07497685 -0.08389716 0.0815197
0001a0 84 7a 0e 3d 49 08 5c bc 93 47 92 bd 19 63 d6 bc
       0.03478481 -0.01342971 -0.07142558 -0.0261703
0001b0 c9 43 bb bc ee 18 9e 3c 88 c8 72 bd 4e 50 3d 3d
       -0.02285947 0.019298997 -0.059273273 0.046219163
0001c0 e2 cd f4 bd 2e a7 9e bd d8 4a d8 bb 58 65 dc 3d
       -0.119533315 -0.07746731 -0.006600719 0.10761517
0001d0 8c 24 92 3d 1a 23 b2 bd f1 6e 9c 3d 0c 0f 6a bd
       0.07135877 -0.08698101 0.07638348 -0.057143256
0001e0 58 d2 9a 3d 2b 32 27 3c 48 c9 c3 bc 32 08 cb bd
       0.07559651 0.010204832 -0.02389969 -0.099136725
0001f0 f4 44 d0 bd 5a 45 d5 bd 47 4b 6a bd 1f 8a 8d 3d
       -0.10169402 -0.104136184 -0.057200696 0.0691111
000200 33 a5 ad bb 73 c1 df 3d 13 0b ec bd b4 ce ad 3d
       -0.0052992343 0.109255694 -0.1152555 0.08486691
000210 62 f1 8a 3c fe aa bb 3d 66 d9 cf bd de 53 9e bd
       0.016960803 0.091634735 -0.10148887 -0.0773084
000220 53 f4 de 3d 59 cf 50 3d 81 22 f2 bd c2 c2 cd bd
       0.10886445 0.050978992 -0.11822987 -0.10046913
000230 18 07 dc bc 32 5e fa 3d b3 5e ae 3d fa 2a aa bd
       -0.026858851 0.122249976 0.08514156 -0.083089784
000240 30 f6 2e 3c 40 61 86 3c bd f6 84 bd d2 6a ab bd
       0.010678813 0.016403794 -0.06492374 -0.08369984
000250 7a 8e d1 3d df 61 0c 3c 12 e8 16 3d a7 ea d5 3d
       0.102322534 0.008568256 0.036842413 0.10445147
000260 a6 02 16 3d cd 80 11 be 68 a1 85 bd 5b 8d 7c bd
       0.03662362 -0.1420929 -0.065249264 -0.061658245
000270 5a bf 98 bd f0 9c 82 3d df d3 38 3b c7 c5 eb 3d
       -0.074583724 0.0637759 0.0028202457 0.115123324
000280 77 a0 0a bd 5a 5a 9e 3c 1b 2b eb bc 72 05 9f 3d
       -0.033844437 0.019330192 -0.028707078 0.077647105
000290 f2 79 76 3d be 24 a5 bc 80 0e 5d bd 41 00 3f bd
       0.06017489 -0.020159122 -0.053968906 -0.0466311
0002a0 0b 21 8b bd e1 b1 14 be e1 5c 2c 3d 55 8a 5d 3d
       -0.06793412 -0.1452098 0.042080764 0.054087
0002b0 ff 54 db bd fa 3e 03 3e ef b1 7b bd 48 aa be bd
       -0.10709571 0.12816992 -0.061448988 -0.09309822
0002c0 0b 96 8c 3d 6d 08 83 3d 49 2f 8d bc f4 f5 97 3c
       0.06864556 0.063980915 -0.017234461 0.018549897
0002d0 54 40 16 3d 2f f2 ee bd 31 9f 0b 3e b4 f6 ba bd
       0.03668244 -0.116672866 0.13634945 -0.09129086
0002e0 b9 6b 4d bd a5 57 15 be 09 8c d8 bc b4 c6 c7 3c
       -0.05015156 -0.14584215 -0.026433961 0.024386741
0002f0 9b be f7 bd f9 03 8e bd 32 16 38 3c fd e4 86 bd
       -0.12096902 -0.069343515 0.0112357605 -0.06586645
000300 92 de 9f 3d 33 fb e1 3d a0 26 16 bb 3f 62 52 bd
       0.07806124 0.110342406 -0.0022911206 -0.051363226
000310 1b ea 5c 3d 00 88 19 3c 56 d0 8a 3d da 49 b6 3c
       0.053934198 0.009370804 0.06778018 0.022252012
000320 50 4a 83 3d 76 93 f5 3d 5f 1e 81 bd 1b 50 5f bd
       0.06410658 0.119910166 -0.06304621 -0.054519754
000330 31 93 96 3b 47 f9 c4 bd 73 85 94 3d d6 68 8d bd
       0.0045951833 -0.096178584 0.07252016 -0.069047615
000340 58 f7 55 3d 50 97 8d bd 1a 7e 8b 3d 8f 7d be 3c
       0.05223784 -0.06913626 0.06811161 0.02325323
000350 f3 84 e7 3d 59 f8 8a bd cb f4 9a 3c 8e b1 54 bd
       0.11304655 -0.0678565 0.018915555 -0.05192714
000360 77 e2 9c 3b 74 e4 8b 3d 02 79 c3 bd df c7 b0 3d
       0.004787739 0.06830683 -0.09544565 0.086318724
000370 5f 0a 11 3d 2b ae d0 bc e1 12 95 3d 67 28 19 3c
       0.03541028 -0.025473675 0.072789915 0.009348012
000380 a9 75 df bd a1 a4 97 3d eb 36 82 3c 0a f3 42 bd
       -0.10911114 0.07404447 0.015895328 -0.04759506
000390 cb 65 65 3d bf 53 24 bd 31 b4 37 3d 30 29 20 bd
       0.05600528 -0.04011893 0.04484958 -0.03910178
0003a0 ba 44 14 be ce 8a c5 3d 38 04 cf 3d b8 ba f5 bd
       -0.14479342 0.096456155 0.101082265 -0.119985044
0003b0 79 a9 98 bd b4 a2 ac 3d fa 34 5e 3d 73 2e 42 bd
       -0.07454199 0.08429471 0.05424974 -0.04740758
0003c0 7a a0 58 3c 6c c9 b4 3d 5e 1b cd 3d df f5 01 be
       0.013221854 0.08827481 0.100149855 -0.12691449
0003d0 77 56 72 bd c3 78 7a bc 05 59 c8 bd 28 cf 53 bc
       -0.05916449 -0.015287581 -0.09782604 -0.012927808
0003e0 8f c3 8e ba f4 b6 83 bc 4d 77 70 bd b5 db d4 3b
       -0.0010892021 -0.01607845 -0.058707524 0.0064959177
0003f0 20 1e b5 3b 82 77 0f bd c5 46 86 3d c5 9a 93 bd
       0.005527273 -0.03502608 0.06556467 -0.07207254

SoftmaxPolicy_l3.bias f4 [2]
000000 93 6a 05 3d c6 95 89 bc
       0.03257234 -0.01679505
