pytorch_models/model280231.pth (torch, 72107 bytes, 6 tensors)

SoftmaxPolicy_l1.weight f4 [128, 4]
0.25726175 -0.2241357 -0.114956036 0.2313654 -0.46834928 0.31293088 -0.05246714 0.25666583
0.06840056 -0.054982223 0.2062 0.049772162 0.17354329 -0.18848138 -0.028453419 -0.051077805
0.07194675 -0.0017532976 0.43536365 0.1539636 -0.1828599 -0.30035383 -0.08412128 -0.21184266
-0.16194315 0.021358825 0.31362972 0.27989846 -0.48922193 0.32696825 0.2582524 0.518322
0.32941756 -0.4636626 -0.4910224 -0.23167014 0.420515 -0.09661646 0.21926962 -0.22805612
0.48530918 -0.23454748 0.29909912 -0.009401511 -0.259605 0.25751394 -0.25449163 0.1564748
-0.13132904 -0.050063927 -0.46909055 -0.2287269 0.26761788 -0.11388961 0.5021895 0.3995263
-0.03089088 -0.30947092 0.41490313 0.19487345 -0.31552997 0.34173834 0.42568615 0.49093363
-0.2786554 -0.08197053 -0.02975894 0.06808332 -0.37773848 -0.35516846 0.24872954 -0.12385801
0.22949103 0.033090845 0.30412853 0.17932962 0.1650641 0.2533378 -0.3162173 0.32381868
-0.34611177 -0.3751632 0.083845206 -0.057368092 0.2908781 -0.28324887 -0.35630575 0.41178712
-0.070945285 0.27745143 0.08920181 -0.42161906 0.0967991 0.11337936 -0.34085196 -0.23742457
0.17697832 0.06830769 -0.36030734 -0.2155027 0.4464975 -0.08220131 0.40005472 0.2660724
-0.32102433 -0.42244452 0.46065778 0.01605964 0.3355032 0.11528408 0.26821402 0.41154402
0.46315873 -0.3233325 0.19088092 0.44162625 0.35050347 0.29826823 -0.367712 -0.36010098
-0.30684888 0.058128335 0.5131728 -0.31204623 0.2748056 -0.28330427 -0.4945952 -0.10228433
0.28148 0.46349624 -0.28934166 0.11093208 0.41744038 0.35406575 0.40950745 0.37573054
0.30222088 0.11434921 -0.33260036 -0.41005412 -0.23608245 -0.055518147 -0.18470645 0.24615937
0.1545826 -0.11332157 0.21012308 0.17380297 0.295712 0.36021063 -0.061096583 0.52056664
-0.044557385 -0.031195778 -0.6046878 -0.37113097 -0.28905046 -0.21368463 0.3437231 -0.16354822
-0.36520565 0.21880944 0.26140973 0.3439952 -0.26093227 0.10538271 -0.18258709 -0.11169766
-0.39341515 -0.22899719 -0.1698488 0.21460052 0.0819331 0.14577264 0.6241461 0.5120175
0.33112234 0.023580706 -0.22143684 0.4480123 -0.13130507 -0.04749531 -0.44021183 -0.09871961
-0.3323719 0.4540562 -0.47734347 -0.4198522 -0.010855355 -0.26649722 0.17343293 -0.19189027
-0.23249234 0.04247104 0.341314 -0.37988847 0.23009142 0.31640962 0.46915376 -0.36167365
0.13760889 -0.36416537 0.3921859 -0.20500506 0.29466406 0.016647123 -0.013144875 -0.006125843
0.07245138 0.23664688 0.21347985 0.22335863 -0.4489911 0.37166563 0.5326079 0.46331805
0.34942624 -0.35987172 -0.1537695 0.44468006 -0.3877626 0.45742488 -0.43566784 -0.39138243
0.23860602 -0.3466399 -0.047894936 0.39314106 0.40062907 0.4674975 -0.19657287 -0.44244668
0.48451167 -0.13046804 -0.24020459 0.13422656 -0.35071167 0.32156962 0.23183012 -0.4465817
-0.41245097 -0.048120238 0.19298309 -0.012752689 -0.24980398 0.020904187 -0.47432053 -0.3623616
-0.33129096 0.4141035 0.40736797 -0.19631937 0.02843192 0.21087945 0.010424139 -0.26907957
00000000: d0b7 833e d483 65be 126e ebbd 0deb 6c3e
00000010: 7acb efbe 7a38 a03e c9e7 56bd b469 833e
00000020: 9815 8c3d 0a35 61bd 1826 533e e5dd 4b3d
00000030: 55b5 313e 4301 41be 2517 e9bc f636 51bd
00000040: d158 933d e8ce e5ba fce7 de3e a2a8 1d3e
00000050: a03f 3bbe fac7 99be c747 acbd 48ed 58be
00000060: 6dd4 25be b4f8 ae3c 1394 a03e da4e 8f3e
00000070: 4c7b fabe 6268 a73e a939 843e c0b0 043f
00000080: 6ba9 a83e 2f65 edbe 4a67 fbbe f03a 6dbe
00000090: be4d d73e dade c5bd 3788 603e 8b87 69be
000000a0: 727a f83e 372d 70be 8523 993e cc08 1abc
000000b0: f2ea 84be ded8 833e ba4c 82be ee3a 203e
000000c0: 1f7b 06be d50f 4dbd a32c f0be 6237 6abe
000000d0: 3605 893e f53e e9bd 7e8f 003f b68e cc3e
000000e0: df0e fdbc f972 9ebe 2f6e d43e e88c 473e
000000f0: 258d a1be 54f8 ae3e 89f3 d93e a75b fb3e
00000100: ecab 8ebe 2ae0 a7bd 05c9 f3bc 456f 8b3d
00000110: f066 c1be a4d8 b5be f5b2 7e3e 45a9 fdbd
00000120: b2ff 6a3e 448a 073d bcb6 9b3e 2fa2 373e
00000130: 9006 293e 7eb5 813e 3ce7 a1be 90cb a53e
00000140: 9035 b1be 6415 c0be 09b7 ab3d cefa 6abd
00000150: f9ed 943e ff05 91be b56d b6be c3d5 d23e
00000160: c34b 91bd 1d0e 8e3e 70af b63d 74de d7be
00000170: 9b3e c63d 7033 e83d 2684 aebe 6d1f 73be
00000180: ce39 353e e7e4 8b3d 347a b8be bdac 5cbe
00000190: 529b e43e 2959 a8bd f9d3 cc3e a43a 883e
000001a0: 4d5d a4be a64a d8be 56db eb3e 828f 833c
000001b0: 13c7 ab3e 0f1a ec3d 5953 893e e6b5 d23e
000001c0: 2423 ed3e d68b a5be 4a76 433e d61c e23e
000001d0: 3175 b33e 9db6 983e bf44 bcbe 285f b8be
000001e0: 4c1b 9dbe fa17 6e3d 4b5f 033f 86c4 9fbe
000001f0: 52b3 8c3e 420d 91be 953b fdbe 727a d1bd
00000200: 261e 903e 614f ed3e 9724 94be 5c30 e33d
00000210: bfba d53e 1b48 b53e f6aa d13e c15f c03e
00000220: b2bc 9a3e eb2f ea3d 984a aabe 9df2 d1be
00000230: 99bf 71be ff66 63bd b023 3dbe 3411 7c3e
00000240: e74a 1e3e 2415 e8bd 812a 573e 68f9 313e
00000250: 9067 973e 876d b83e 6940 7abd db43 053f
00000260: ce81 36bd 4a8e ffbc d2cc 1abf e104 bebe
00000270: 6cfe 93be 25d0 5abe 79fc af3e 2f79 27be
00000280: 3cfc babe 950f 603e 7fd7 853e 2420 b03e
00000290: ea98 85be e4d2 d73d 1cf8 3abe bec1 e4bd
000002a0: b66d c9be 3d7e 6abe d8ec 2dbe 3dc0 5b3e
000002b0: 8bcc a73d 6c45 153e 0ac8 1f3f 9413 033f
000002c0: de88 a93e 532c c13c 57c0 62be de61 e53e
000002d0: d674 06be 718a 42bd 7263 e1be 822d cabd
000002e0: a62c aabe 0e7a e83e 5d66 f4be def6 d6be
000002f0: a9da 31bc 5372 88be 6798 313e e27e 44be
00000300: 7912 6ebe 1df6 2d3d b5c0 ae3e be80 c2be
00000310: 169d 6b3e 7100 a23e ec34 f03e 4a2d b9be
00000320: 58e9 0c3e e273 babe 97cc c83e d9ec 51be
00000330: 35de 963e 8c5f 883c 9a5d 57bc 4cbb c8bb
00000340: 6461 943d 8f53 723e 769a 5a3e 20b8 643e
00000350: 29e2 e5be f54a be3e fe58 083f 0638 ed3e
00000360: ffe7 b23e 1b41 b8be c075 1dbe 1bad e33e
00000370: d288 c6be 9833 ea3e db0f dfbe 4763 c8be
00000380: 2355 743e c97a b1be 7b2d 44bd c949 c93e
00000390: 411f cd3e d55b ef3e 664a 49be 5f88 e2be
000003a0: ea11 f83e 6a99 05be 31f8 75be b072 093e
000003b0: 7b90 b3be c6a4 a43e e064 6d3e 5ba6 e4be
000003c0: c62c d3be ba19 45bd 5c9d 453e a8f0 50bc
000003d0: 9dcc 7fbe 423f ab3c 24da f2be 7687 b9be
000003e0: f89e a9be 6005 d43e 8992 d03e f207 49be
000003f0: 0fea e83c c8f0 573e 02ca 2a3c ccc4 89be

SoftmaxPolicy_l1.bias f4 [128]
-0.37704197 0.35484654 0.3308031 -0.4998974 -0.39417493 -0.33809066 -0.25996605 0.118970014
-0.4824827 -0.39042842 0.2315408 -0.17083934 -0.21518935 -0.41692406 0.19156766 0.11295343
-0.20491073 -0.3114227 0.116489954 0.1502008 0.191858 0.16521302 -0.04960162 -0.3922925
0.35037088 0.03289115 -0.3445084 0.46882293 0.28573486 -0.4062986 -0.24722388 -0.15890135
-0.29162654 0.23435006 -0.37854406 0.45190337 -0.19953966 0.30295536 0.0959126 -0.22960968
0.34465507 -0.37929052 -0.2656168 0.10834072 0.38877547 -0.207021 -0.28391042 -0.32260594
-0.20009194 -0.15945746 -0.11806004 -0.29322657 0.16907616 0.083583795 -0.3413847 -0.25386366
0.09978565 0.026379569 0.39110968 -0.05896405 -0.40468365 -0.36510688 -0.13204004 -0.10541657
0.08680094 -0.13109711 0.2118727 -0.15971717 0.392046 0.099294744 -0.16144069 0.47471768
0.16308995 -0.35969892 -0.26531887 0.33589694 0.22005412 0.38014263 0.017395439 0.34728444
0.27367663 0.1421023 -0.1488904 0.51146954 0.09649972 -0.15404601 0.06641417 0.4985562
0.31920063 -0.059563253 0.52025473 0.25183818 -0.2577122 -0.45956972 0.3126391 0.5009011
-0.30336457 0.19658233 0.04267771 -0.12861226 -0.10904954 0.1660774 0.10212452 0.33443442
0.185341 0.25950572 0.47300714 0.17672868 0.11577323 -0.13820037 0.38062245 0.093101114
0.32649538 0.48054957 -0.13305342 0.3318914 -0.06237307 0.47881743 0.39146644 -0.15590422
0.010706879 -0.21289462 -0.21096344 -0.087242566 -0.0018500397 -0.15422447 -0.47097367 -0.31442758
00000000: a50b c1be 72ae b53e 065f a93e 8df2 ffbe
00000010: 4cd1 c9be 381a adbe 451a 85be 8da6 f33d
00000020: f907 f7be 3ce6 c7be 0819 6d3e 82f0 2ebe
00000030: 995a 5cbe 1277 d5be 502a 443e 2154 e73d
00000040: 1ed4 51be cc72 9fbe 4992 ee3d 3dce 193e
00000050: 6c76 443e 9a2d 293e 112b 4bbd 90da c8be
00000060: d063 b33e dfb8 063d 6863 b0be 8f09 f03e
00000070: d74b 923e 5f06 d0be 4228 7dbe 09b7 22be
00000080: 1350 95be 76f9 6f3e 87d0 c1be e15f e73e
00000090: 2054 4cbe f71c 9b3e d36d c43d cd1e 6bbe
000000a0: a176 b03e 5e32 c2be edfe 87be bde1 dd3d
000000b0: 940d c73e 50fd 53be b55c 91be 9b2c a5be
000000c0: e7e4 4cbe d148 23be 76c9 f1bd cb21 96be
000000d0: 4d22 2d3e fb2d ab3d fac9 aebe 6bfa 81be
000000e0: 6b5c cc3d f719 d83c 873f c83e 4a84 71bd
000000f0: b232 cfbe 4aef babe 8135 07be a5e4 d7bd
00000100: b1c4 b13d 523e 06be 28f5 583e e68c 23be
00000110: 41ba c83e 0b5b cb3d b550 25be 320e f33e
00000120: 0d01 273e 752a b8be e0d7 87be affa ab3e
00000130: de55 613e 0ea2 c23e e180 8e3c 44cf b13e
00000140: 581f 8c3e 4483 113e ba76 18be abef 023f
00000150: a5a1 c53d 3dbe 1dbe 2704 883d c242 ff3e
00000160: 446e a33e 99f8 73bd 6a2f 053f eff0 803e
00000170: daf2 83be b94c ebbe 3b12 a03e 0e3b 003f
00000180: 9a52 9bbe e14c 493e d3ce 2e3d efb2 03be
00000190: 5d55 dfbd 3210 2a3e a926 d13d fd3a ab3e
000001a0: 08ca 3d3e efdd 843e fe2d f23e 5df8 343e
000001b0: 841a ed3d 6684 0dbe f2e0 c23e ccab be3d
000001c0: 672a a73e 980a f63e 283f 08be abed a93e
000001d0: e77a 7fbd 8f27 f53e 4a6e c83e 5ba5 1fbe
000001e0: e86b 2f3c 0c01 5abe cd06 58be 3bac b2bd
000001f0: 087d f2ba 05ed 1dbe 7623 f1be a7fc a0be

SoftmaxPolicy_l2.weight f4 [128, 128]
0.00251418 -0.04128402 0.07375709 0.07145133 0.056641046 0.04158036 -0.07179285 0.051495336
-0.05856544 -0.013240262 -0.036332212 0.0277273 -0.065910205 -0.03926873 -0.05924017 -0.1005062
-0.046408042 0.08216901 -0.0055496357 0.032660607 -0.08601015 0.09874961 -0.012402399 -0.07674494
0.08860048 -0.012970153 0.073521025 -0.055030674 -0.06744427 -0.053928453 0.034532316 0.024061538
-0.07605709 0.014080157 0.010547512 0.034392778 -0.04044318 -0.062180348 0.113845736 -0.04738096
0.043836784 0.07242988 -0.0680661 -0.07774109 0.02466691 -0.075800516 0.035076827 -0.032293174
-0.03656534 -0.06489675 0.04907466 -0.045020018 -0.08588466 -0.06462062 -0.038405247 -0.079206444
0.04679156 -0.02160361 0.08814063 0.061438303 -0.056164596 -0.04521251 -0.04253461 0.05862313
0.006198432 -0.024864184 0.09179065 0.10658673 0.08067804 -0.065568045 -0.03462906 -0.012288783
0.097168766 -0.03656718 -0.04425218 0.01697152 -0.018715587 0.043025628 0.016480314 -0.07466078
0.08593217 0.08329987 0.0071404073 -0.051804353 0.036503814 0.05522937 0.061927512 -0.03782073
-0.004688242 -0.024747275 0.089641735 0.12603554 0.0039264406 -0.053399995 0.04094907 0.051772483
0.037704617 -0.07629515 0.017101642 -0.03322798 -0.07194412 -0.035951696 0.056385927 0.043475624
-0.07648306 0.01641519 0.08780258 0.10726363 0.06988427 -0.023706794 0.05112274 0.053064443
0.043092772 -0.05763737 -0.03259309 0.07842508 0.0793776 0.08025446 -0.042197328 -0.01750604
-0.053606387 -0.029233105 0.072989374 -0.062166527 0.0074809175 0.021681476 -0.0478481 0.040146217
-0.018719062 0.07027716 -0.04308242 0.012717106 -0.078233115 0.048539776 0.084420465 0.024043944
0.0016939779 -0.04611233 -0.040372342 -0.04311282 -0.048676297 0.025020711 0.011829611 0.080999725
-0.070774734 -0.05805278 -0.037179507 -0.0338416 0.078483984 0.043085635 -0.07744355 -0.004463913
0.0061471895 0.074506335 0.08155202 0.05905518 0.08464338 -0.029277483 -0.0013665594 -0.081307694
0.025623417 0.12143997 0.050909076 0.10601293 -0.035402566 0.02909742 -0.051459815 0.06878997
-0.037595153 -0.040867556 0.013010584 0.016185498 0.06053917 -0.013364893 -0.019475397 0.0433108
0.0612119 0.09986412 0.031282526 -0.0024609002 0.12166915 0.13111736 -0.04142687 0.041249514
0.025906375 -0.039624177 -0.006448417 -0.014512916 -0.06687927 -0.032425195 0.05373724 0.07505405
0.011274188 -0.07574559 0.0130280405 -0.027677363 0.08169487 -0.08538813 -0.012184873 0.085747264
0.0145077575 -0.040227856 -0.0823799 7.073068e-05 0.054795764 -0.058292013 -0.083763205 0.055180795
-0.030747421 0.05981441 -0.07758163 -0.011776813 -0.055905048 -0.003792044 -0.08509295 0.04651556
-0.04015317 -0.063801125 -0.042710073 -0.11319661 0.04559947 -0.019731397 -0.0059692976 0.07197122
-0.012745459 0.07936141 0.0043542366 -0.05989063 0.024120135 0.026576824 -0.06273789 0.027602145
0.017995533 0.076146 -0.00741002 -0.0655521 -0.08617862 0.03422502 -0.023111174 -0.021532794
-0.0093073165 -0.023978446 0.023591947 0.081023365 0.073583014 -0.06303131 0.09103998 0.061689436
0.01348976 0.03947117 0.058053967 0.0753694 0.048123978 0.030240778 -0.036257114 -0.05937071
00000000: f1c4 243b 6f19 29bd f50d 973d 1355 923d
00000010: 7100 683d 2b50 2a3d 2108 93bd c6ec 523d
00000020: 51e2 6fbd afed 58bc 16d1 14bd 5d24 e33c
00000030: eefb 86bd 3fd8 20bd d2a5 72bd 32d6 cdbd
00000040: 5c16 3ebd 3a48 a83d b8d9 b5bb 21c7 053d
00000050: 1726 b0bd 3c3d ca3d 6f33 4bbc 732c 9dbd
00000060: 2b74 b53d c480 54bc 3192 963d d867 61bd
00000070: 3920 8abd 15e4 5cbd c271 0d3d b41c c53c
00000080: d2c3 9bbd 75b0 663c 79cf 2c3c 71df 0c3d
00000090: bfa7 25bd d2b0 7ebd f427 e93d 8a12 42bd
000000a0: 338e 333d 1e56 943d 3d66 8bbd b836 9fbd
000000b0: 4212 ca3c 4d3d 9bbd b8ac 0f3d d945 04bd
000000c0: 8ac5 15bd 96e8 84bd 8302 493d e966 38bd
000000d0: 4ce4 afbd d157 84bd d24e 1dbd fd36 a2bd
000000e0: 82a8 3f3d 0efa b0bc 1383 b43d bba6 7b3d
000000f0: d90c 66bd c130 39bd c538 2ebd cf1e 703d
00000100: 371c cb3b f9af cbbc bcfc bb3d 254a da3d
00000110: 873a a53d 8a48 86bd 34d7 0dbd e456 49bc
00000120: 6b00 c73d 78c7 15bd c641 35bd db07 8b3c
00000130: 6e51 99bc a43b 303d b901 873c c0e7 98bd
00000140: 35fd af3d 1f99 aa3d 14fa e93b cd30 54bd
00000150: 0685 153d 3138 623d b4a7 7d3d e9e9 1abd
00000160: d39f 99bb ccba cabc 1696 b73d 760f 013e
00000170: 5fa9 803b f4b9 5abd 36ba 273d 620f 543d
00000180: 2870 1a3d a240 9cbd be18 8c3c 101a 08bd
00000190: 7057 93bd 1642 13bd eef4 663d 7f13 323d
000001a0: 27a3 9cbd 2679 863c d7d1 b33d 09ad db3d
000001b0: 7c1f 8f3d c034 c2bc 1466 513d 1a5a 593d
000001c0: 0c82 303d 2a15 6cbd 5580 05bd 549d a03d
000001d0: b990 a23d 735c a43d 1bd7 2cbd d468 8fbc
000001e0: 5f92 5bbd 447a efbc 747b 953d 54a2 7ebd
000001f0: 7c22 f53b 5a9d b13c 5ffc 43bd 5c70 243d
00000200: b858 99bc 79ed 8f3d 3177 30bd 695b 503c
00000210: af38 a0bd a5d1 463d a3e4 ac3d cef7 c43c
00000220: 7708 de3a 48e0 3cbd 785d 25bd 1197 30bd
00000230: cc60 47bd 3cf8 cc3c fcd0 413c 2fe3 a53d
00000240: 58f2 90bd c0c8 6dbd 8a49 18bd 7d9d 0abd
00000250: 36bc a03d 907a 303d b99a 9ebd 0446 92bb
00000260: 5d6e c93b c796 983d bf04 a73d d8e3 713d
00000270: 8259 ad3d 55d7 efbc 201e b3ba a684 a6bd
00000280: 33e8 d13c 85b5 f83d 0986 503d 4f1d d93d
00000290: 4802 11bd b65d ee3c 87c7 52bd c1e1 8c3d
000002a0: 60fd 19bd bd64 27bd 582a 553c 7397 843c
000002b0: ecf7 773d 6df8 5abc de8a 9fbc aa66 313d
000002c0: 54b9 7a3d 8f85 cc3d 1b22 003d 0e47 21bb
000002d0: ad2d f93d a143 063e 39af 29bd 40f5 283d
000002e0: 9b39 d43c f64c 22bd 3e4d d3bb 95c7 6dbc
000002f0: 00f8 88bd 48d0 04bd 951b 5c3d f0b5 993d
00000300: 5fb7 383c 8120 9bbd 9073 553c a3bb e2bc
00000310: a44f a73d f9df aebd 10a3 47bc 439c af3d
00000320: f2b1 6d3c f7c5 24bd cbb6 a8bd 3f55 9438
00000330: 8671 603d 9bc3 6ebd 0b8c abbd 4205 623d
00000340: 04e2 fbbc f4ff 743d 1ee3 9ebd 89f3 40bc
00000350: b1fc 64bd f183 78bb 3645 aebd 1a87 3e3d
00000360: a677 24bd 2aaa 82bd c2f0 2ebd a0d3 e7bd
00000370: 83c6 3a3d bda3 a1bc 199a c3bb a665 933d
00000380: 54d2 50bc 3c88 a23d fcad 8e3b e14f 75bd
00000390: 9797 c53c a4b7 d93c b97c 80bd e51d e23c
000003a0: 5e6b 933c 6ff2 9b3d c1cf f2bb 2e40 86bd
000003b0: 6b7e b0bd 892f 0c3d a553 bdbc 8b65 b0bc
000003c0: b77d 18bc 726e c4bc e643 c13c 94ef a53d
000003d0: b1b2 963d 8f16 81bd 2b73 ba3d 10ae 7c3d
000003e0: 2804 5d3c 86ac 213d ffc9 6d3d 465b 9a3d
000003f0: a61d 453d 82bb f73c 5782 14bd b42e 73bd

SoftmaxPolicy_l2.bias f4 [128]
0.053863015 -0.035775628 0.0032609599 -0.06334668 -0.04899165 0.05504494 0.019423088 0.027776787
0.049762156 0.026833171 0.0079829125 -0.01043596 0.0011070669 0.08179963 0.034275062 0.010928138
0.03596586 -0.03971942 -0.06919283 -0.018133407 0.094865665 0.021954954 -0.065202616 0.05873675
0.080955535 0.06892321 0.01167435 -0.02248383 0.008716576 0.029326307 -0.031997334 -0.04373723
0.020032598 0.044590667 -0.026258046 -0.008719434 -0.06507965 -0.0007165192 -0.01880898 0.09142753
0.06195156 -0.029142128 -0.0684925 -0.07269887 -0.050457828 0.08869428 -0.025609296 0.065647475
0.06762892 -0.009931172 0.03920719 0.02880864 0.08180023 0.042817764 0.050766736 0.08993586
0.0103013655 0.08367537 -0.0024086214 -0.0665131 0.08590455 -0.0662645 0.0012171768 0.08451862
-0.025486093 -0.061515674 0.06619079 0.034203924 0.056685973 0.046950724 -0.09246178 0.07214653
-0.074131 0.011212151 -0.050105933 0.065276615 0.0919463 0.013199271 -0.023015669 0.07646815
0.069953516 -0.016420333 0.07032563 0.0074967886 -0.041021954 0.08385556 -0.051259976 -0.06442838
0.05160562 0.033435263 0.07086269 -0.036141142 0.020560075 0.046700493 0.01827062 -0.07188165
0.057301544 0.023321167 -0.019890152 -0.02151193 -0.09191841 0.09464499 0.013175932 -0.024023054
0.098278485 -0.06332747 0.024600811 -0.013530621 -0.026247028 0.0019350294 -0.012113539 0.075947225
0.06392138 0.030746145 -0.004467716 -0.014391832 -0.0077547845 -0.0019178146 0.032245904 0.07023961
-0.06255453 -0.08899808 -0.013998502 0.07134784 0.042343996 -0.035367467 0.056221753 0.03874196
00000000: 779f 5c3d 7789 12bd d4b5 553b e7bb 81bd
00000010: 78ab 48bd ce76 613d 2b1d 9f3c 258c e33c
00000020: 67d3 4b3d 3dd1 db3c c3ca 023c 97fb 2abc
00000030: 001b 913a 9086 a73d 0264 0c3d ef0b 333c
00000040: f050 133d d5b0 22bd f8b4 8dbd 838c 94bc
00000050: ee48 c23d e0da b33c f388 85bd f295 703d
00000060: 04cc a53d 9d27 8d3d c645 3f3c 0230 b8bc
00000070: f8cf 0e3c b93d f03c a30f 03bd cf25 33bd
00000080: 671b a43c b4a4 363d 1d1b d7bc f5db 0ebc
00000090: 7b48 85bd cad4 3bba 4a15 9abc 5b3e bb3d
000000a0: ebc0 7d3d 79bb eebc cc45 8cbd 25e3 94bd
000000b0: deac 4ebd 59a5 b53d 96ca d1bc 2f72 863d
000000c0: 0881 8a3d 5bb6 22bc b897 203d 1900 ec3c
000000d0: e186 a73d ae61 2f3d c8f0 4f3d 4b30 b83d
000000e0: 0fc7 283c fe5d ab3d f6d9 1dbb 0538 88bd
000000f0: baee af3d afb5 87bd ad89 9f3a 1918 ad3d
00000100: 36c8 d0bc dcf7 7bbd 098f 873d 6a19 0c3d
00000110: 8d2f 683d 674f 403d 9a5c bdbd 8fc1 933d
00000120: fed1 97bd 2bb3 373c e13b 4dbd bfaf 853d
00000130: 574e bc3d c141 583c 5b8b bcbc 559b 9c3d
00000140: ca43 8f3d ef83 86bc e206 903d 9fa7 f53b
00000150: a306 28bd 77bc ab3d fbf5 51bd 07f3 83bd
00000160: 6a60 533d 6af3 083d 7520 913d bc08 14bd
00000170: 9a6d a83c 0449 3f3d 44ac 953c b036 93bd
00000180: 06b5 6a3d 080c bf3c acf0 a2bc c939 b0bc
00000190: b83f bcbd 3cd5 c13d dddf 573c ffcb c4bc
000001a0: 3b46 c93d d5b1 81bd a487 c93c 8aaf 5dbc
000001b0: 0204 d7bc d0a0 fd3a dd77 46bc 388a 9b3d
000001c0: 36e9 823d 57df fb3c eb65 92bb b8cb 6bbc
000001d0: d91b febb 2e5f fbba 4814 043d c9d9 8f3d
000001e0: 971c 80bd a044 b6bd f959 65bc d11e 923d
000001f0: e670 2d3d 7add 10bd c848 663d e4af 1e3d

SoftmaxPolicy_l3.weight f4 [2, 128]
0.052209333 0.014392501 0.12470523 0.014435398 -0.08834819 -0.017782638 0.040770635 0.09346617
0.016035497 0.007701734 0.0693111 0.069650844 0.08999772 0.015988337 0.0043784217 0.09587092
0.05555563 0.09469097 -0.010840522 0.09850067 -0.042136565 0.0981971 -0.038378783 -0.014521253
-0.03553104 0.0427153 0.048602708 0.03440635 -0.087876946 0.0066275676 -0.03850207 -0.035003573
0.053601433 -0.000809531 0.050682757 -0.078755625 0.012472549 0.0696666 0.058143966 0.10295111
-0.008928246 0.08560554 -0.06952329 -0.009591649 -0.009276855 -0.02758303 0.032821674 0.002467866
-0.10116457 -0.09600258 0.0379251 -0.059138343 -0.109797694 0.12887129 -0.055780903 0.09530456
0.06554148 0.047376543 -0.07514194 -0.019693352 0.08139354 0.021775218 -0.12349427 0.0078358585
-0.06495376 -0.068932496 -0.083104976 0.08119821 0.07323584 -0.06785694 -0.034615602 0.07882345
-0.00041200878 -0.057386212 0.027032904 -0.1084638 -0.086683616 0.07158921 -0.08762441 0.09900146
-0.03267365 -0.056693513 -0.08128787 0.05541016 -0.119339556 0.040842194 0.027750345 0.0340885
-0.10227427 -0.064694166 0.044180688 -0.07131275 -0.044819064 0.056302536 0.043379586 0.07289788
0.0033574544 -0.041604117 0.1268644 0.0050134673 -0.021116287 0.07474238 -0.08465804 0.08160787
0.03459456 -0.01412774 -0.07115211 -0.026114428 -0.023221133 0.019298997 -0.059045814 0.045839436
-0.11935681 -0.0774263 -0.0062955995 0.10715812 0.07063096 -0.08676874 0.07583848 -0.057143256
0.07537192 0.010204832 -0.023975797 -0.09895551 -0.101710044 -0.10378452 -0.057037614 0.069110885
-0.0049179513 0.10903812 -0.114734344 0.08445308 0.016885644 0.09154693 -0.10141785 -0.07663264
0.10859934 0.050978992 -0.117986985 -0.099951 -0.026858851 0.122367516 0.08533594 -0.08272227
0.010946715 0.017103024 -0.06492362 -0.08348048 0.10206325 0.008554786 0.036842413 0.10421612
0.03662362 -0.1417901 -0.06510026 -0.061351623 -0.074583724 0.06345557 0.0029925797 0.11517407
-0.0337749 0.01933505 -0.028587395 0.077647105 0.06017489 -0.019992944 -0.05339628 -0.04611039
-0.06761285 -0.145082 0.042080764 0.054087 -0.106942125 0.12827522 -0.061441597 -0.092465535
0.068397015 0.063853875 -0.017262062 0.018442431 0.036794793 -0.11634796 0.13657533 -0.090740524
-0.049219772 -0.14547072 -0.026433961 0.024965016 -0.120805256 -0.069343515 0.011059552 -0.066195145
0.07829119 0.11003415 -0.0022911206 -0.051311165 0.054204132 0.00963222 0.06792976 0.022415705
0.06434973 0.12027277 -0.06280691 -0.054418325 0.0043576085 -0.09710824 0.07226914 -0.06863487
0.052254178 -0.0688738 0.068403885 0.023534307 0.11296505 -0.06767722 0.01832365 -0.051811963
0.0046598343 0.06830683 -0.09486103 0.086194314 0.03548882 -0.025689267 0.072789915 0.009519642
-0.10882379 0.07405046 0.016104242 -0.04775326 0.056187477 -0.039884448 0.04561044 -0.039189946
-0.14460318 0.09715419 0.1008088 -0.1200409 -0.07418032 0.08429471 0.05402228 -0.047027852
0.013045372 0.0882338 0.099844754 -0.12645751 -0.05843667 -0.015499873 -0.09728104 -0.012927808
-0.00086459046 -0.01607845 -0.0586314 0.0063146795 0.0055432785 -0.035377745 0.06540157 -0.07207233
00000000: 74d9 553d 86ce 6b3c 7565 ff3d 7382 6c3c
00000010: e5ef b4bd e5ac 91bc 1cff 263d 316b bf3d
00000020: e05c 833c d45e fc3b faf2 8d3d 1aa5 8e3d
00000030: ba50 b83d f9f9 823c dd78 8f3b f957 c43d
00000040: 4d8e 633d 57ed c13d 729c 31bc b8ba c93d
00000050: 6497 2cbd 901b c93d 1233 1dbd 8dea 6dbc
00000060: ff88 11bd 3df6 2e3d a213 473d aced 0c3d
00000070: d4f8 b3bd 112c d93b 59b4 1dbd e85f 0fbd
00000080: 2d8d 5b3d b536 54ba b998 4f3d a14a a1bd
00000090: aa59 4c3c 5dad 8e3d 5e28 6e3d 08d8 d23d
000000a0: c747 12bc f551 af3d 3a62 8ebd 4b26 1dbc
000000b0: f3fd 17bc cef5 e1bc 0570 063d ecbb 213b
000000c0: 5f2f cfbd 009d c4bd 5a57 1b3d 0c3b 72bd
000000d0: 9ddd e0bd d6f6 033e 847a 64bd 0a2f c33d
000000e0: 9d3a 863d e80d 423d 04e4 99bd f453 a1bc
000000f0: a8b1 a63d f161 b23c 90ea fcbd f961 003c
00000100: 7a06 85bd 7b2c 8dbd f132 aabd 3f4b a63d
00000110: acfc 953d 94f8 8abd 17c9 0dbd 306e a13d
00000120: e202 d8b9 ce0d 6bbd 1c74 dd3c 4522 debd
00000130: 2e87 b1bd 5d9d 923d 6d74 b3bd 47c1 ca3d
00000140: ced4 05bd 7537 68bd 417a a6bd c4f5 623d
00000150: 4c68 f4bd 254a 273d b154 e33c 62a0 0b3d
00000160: 2c75 d1bd 607e 84bd cff6 343d 6b0c 92bd
00000170: 3294 37bd 7d9d 663d cbae 313d 7c4b 953d
00000180: bd08 5c3b 1469 2abd bee8 013e 0348 a43b
00000190: 10fc acbc 8812 993d 3261 adbd 0722 a73d
000001a0: 06b3 0d3d 0978 67bc 33b8 91bd eded d5bc
000001b0: 3f3a bebc ee18 9e3c 06da 71bd 22c2 3b3d
000001c0: 5871 f4bd ae91 9ebd 514b cebb b775 db3d
000001d0: f7a6 903d cfb3 b1bd 3451 9b3d 0c0f 6abd
000001e0: 985c 9a3d 2b32 273c e468 c4bc 30a9 cabd
000001f0: 5b4d d0bd fa8c d4bd 46a0 69bd 028a 8d3d
00000200: c426 a1bb 614f df3d d7f9 eabd bdf5 ac3d
00000210: c353 8a3c f57c bb3d 29b4 cfbd 93f1 9cbd
00000220: 5569 de3d 59cf 503d 29a3 f1bd 1cb3 ccbd
00000230: 1807 dcbc d29b fa3d 9cc4 ae3d 4b6a a9bd
00000240: da59 333c a41b 8c3c adf6 84bd d0f7 aabd
00000250: 8a06 d13d 6029 0c3c 12e8 163d 436f d53d
00000260: a602 163d 6d31 11be 4953 85bd d74b 7bbd
00000270: 5abf 98bd fef4 813d 281f 443b 62e0 eb3d
00000280: 8d57 0abd 8a64 9e3c 1d30 eabc 7205 9f3d
00000290: f279 763d 3ec8 a3bc 0fb6 5abd 40de 3cbd
000002a0: 9b78 8abd 6090 14be e15c 2c3d 558a 5d3d
000002b0: 7904 dbbd 945a 033e 2faa 7bbd 925e bdbd
000002c0: bc13 8c3d d2c5 823d 2b69 8dbc 9514 973c
000002d0: 23b6 163d d747 eebd 67da 0b3e 2bd6 b9bd
000002e0: ac9a 49bd 47f6 14be 098c d8bc 6f83 cc3c
000002f0: bf68 f7bd f903 8ebd 2033 353c 5291 87bd
00000300: 2257 a03d 9659 e13d a026 16bb a82b 52bd
00000310: 2705 5e3d 75d0 1d3c c21e 8b3d 24a1 b73c
00000320: cbc9 833d 9251 f63d e9a0 80bd c0e5 5ebd
00000330: 45ca 8e3b afe0 c6bd d801 943d 7090 8cbd
00000340: 7a08 563d b50d 8dbd 5617 8c3d 05cb c03c
00000350: 385a e73d 5b9a 8abd 7b1b 963c c838 54bd
00000360: 86b1 983b 74e4 8b3d 8046 c2bd a586 b03d
00000370: ba5c 113d 4c72 d2bc e112 953d 46f8 1b3c
00000380: 02df debd c4a7 973d 0bed 833c ec98 43bd
00000390: d724 663d e05d 23bd 03d2 3a3d a385 20bd
000003a0: db12 14be c7f8 c63d d874 ce3d 01d8 f5bd
000003b0: daeb 97bd b4a2 ac3d 7746 5d3d 47a0 40bd
000003c0: 42bc 553c ecb3 b43d 687b cc3d 147e 01be
000003d0: 4a5b 6fbd 2ef3 7dbc 483b c7bd 28cf 53bc
000003e0: afa5 62ba f4b6 83bc 7b27 70bd 5feb ce3b
000003f0: 64a4 b53b 41e8 10bd 42f1 853d a89a 93bd

SoftmaxPolicy_l3.bias f4 [2]
0.032328438 -0.016551167
00000000: d36a 043d 5096 87bc
