pytorch_models/model280622.pth (torch, 72107 bytes, 6 tensors)

SoftmaxPolicy_l1.weight f4 [128, 4]
0	0x3e82118d	0.25404015
1	0xbe66e21e	-0.22547194
2	0xbde5ccb6	-0.11220686
3	0x3e6a39db	0.22873633
4	0xbef0778c	-0.46966207
5	0x3e9f6b21	0.3113642
6	0xbd4902b1	-0.049074832
7	0x3e84ef64	0.2596389
8	0x3d8f1597	0.0698654
9	0xbd60f667	-0.054922488
10	0x3e54acaa	0.20768991
11	0x3d548f25	0.051894326
12	0x3e33fda9	0.17577232
13	0xbe44599f	-0.19174813
14	0xbcf57a66	-0.02996559
15	0xbd475dcd	-0.04867344
16	0x3d9358d1	0.07194675
17	0xbae5cee8	-0.0017532976
18	0x3edee7fc	0.43536365
19	0x3e1da8a2	0.1539636
20	0xbe3a28a4	-0.18179566
21	0xbe994ca6	-0.2994129
22	0xbda9ae24	-0.08285168
23	0xbe596e66	-0.2123352
24	0xbe25795f	-0.1615958
25	0x3cabbc6f	0.020963876
26	0x3ea0454b	0.31302866
27	0x3e902df9	0.28160074
28	0xbef9b744	-0.48772633
29	0x3ea79d34	0.32737124
30	0x3e85ae4b	0.26109537
31	0x3f0548ac	0.52064013
32	0x3ea8befc	0.3295821
33	0xbeeda02c	-0.46411264
34	0xbefb2ae3	-0.49056157
35	0xbe6efe2e	-0.2333915
36	0x3ed5c4a7	0.41751596
37	0xbdc5f016	-0.096649334
38	0x3e5ed2bd	0.21760078
39	0xbe6f04ed	-0.23341723
40	0x3ef7cdd6	0.48399228
41	0xbe6f4cb6	-0.23369107
42	0x3e980f41	0.29699138
43	0xbc67a502	-0.014138462
44	0xbe8478c0	-0.25873375
45	0x3e843950	0.25824976
46	0xbe8200d4	-0.25391257
47	0x3e205e21	0.15660907
48	0xbe05a575	-0.13051398
49	0xbd4b5981	-0.049645904
50	0xbef07437	-0.46963665
51	0xbe6aca93	-0.22928838
52	0x3e8b407c	0.27197635
53	0xbde7e1b9	-0.1132235
54	0x3efeb51b	0.49747548
55	0x3ecea354	0.40358984
56	0xbce82a8c	-0.0283406
57	0xbe9de8c5	-0.30841652
58	0x3ed5a7d8	0.41729617
59	0x3e4c8aa0	0.19974756
60	0xbea24ac7	-0.31697676
61	0x3eae4765	0.34038845
62	0x3edbcc8d	0.42929497
63	0x3efc50a6	0.4928028
64	0xbe8eef7c	-0.27917087
65	0xbda75c4c	-0.08171901
66	0xbcfa48f5	-0.030552367
67	0x3d888a3c	0.06666991
68	0xbec20312	-0.37892967
69	0xbeb5fe1b	-0.3554543
70	0x3e7dd0f6	0.24786744
71	0xbdffc898	-0.12489432
72	0x3e6ba012	0.2301028
73	0x3d031e1a	0.03201113
74	0x3e9d379f	0.30706498
75	0x3e3c5bf7	0.18394457
76	0x3e2a16be	0.16610238
77	0x3e8114aa	0.25211078
78	0xbea08ae3	-0.31355962
79	0x3ea84138	0.32862258
80	0xbeb01d3d	-0.34397307
81	0xbec01257	-0.37513992
82	0x3daf6523	0.08564212
83	0xbd5f2707	-0.05448058
84	0x3e941271	0.2892032
85	0xbe916aec	-0.28401887
86	0xbeb5e5ea	-0.35526973
87	0x3ed35eff	0.41283414
88	0xbd8e4e31	-0.069485076
89	0x3e8ebd6e	0.27878898
90	0x3db005ca	0.08594854
91	0xbed8c8a8	-0.4234059
92	0x3dc6ffde	0.097167715
93	0x3de82ed3	0.11337056
94	0xbeaeb22e	-0.34120315
95	0xbe72c31a	-0.23707238
96	0x3e3441ad	0.17603178
97	0x3d8dd4e1	0.06925369
98	0xbeb9ffed	-0.36328068
99	0xbe611d1b	-0.21983759
100	0x3ee4e15d	0.4470319
101	0xbdaa8aa4	-0.08327225
102	0x3ece6327	0.40310022
103	0x3e8a5ca4	0.27023804
104	0xbea4733f	-0.32119176
105	0xbed8583b	-0.42254815
106	0x3eeb9b16	0.4601676
107	0x3c7e7e91	0.0155331055
108	0x3eac52ce	0.33656925
109	0x3de9cd26	0.11416082
110	0x3e8ad7ea	0.27117854
111	0x3ed51a89	0.41621807
112	0x3eed9111	0.4639974
113	0xbea5e2e5	-0.3239967
114	0x3e45ffc4	0.19335848
115	0x3ee4669b	0.44609532
116	0x3eb31394	0.34975874
117	0x3e98cb4a	0.29842597
118	0xbebd5ab3	-0.3698326
119	0xbeb962e6	-0.36208266
120	0xbe9d0552	-0.30668122
121	0x3d6cafc3	0.057784807
122	0x3f02b81d	0.51062185
123	0xbe9f5df1	-0.3112636
124	0x3e8b6112	0.27222496
125	0xbe9183f4	-0.28420985
126	0xbefc62fe	-0.49294275
127	0xbdda40dd	-0.10656903
128	0x3e908003	0.28222665
129	0x3eeca683	0.46220788
130	0xbe937e92	-0.28807503
131	0x3de9f0cc	0.114228815
132	0x3ed61f2b	0.41820654
133	0x3eb4b083	0.35290918
134	0x3ed33ab7	0.41255733
135	0x3ec2ccc2	0.38046843
136	0x3e9a9636	0.30192727
137	0x3de9ee67	0.11422425
138	0xbeaa917a	-0.33314115
139	0xbed2d83a	-0.41180593
140	0xbe70a37a	-0.23499861
141	0xbd64efa4	-0.0558926
142	0xbe39c920	-0.1814313
143	0x3e7fef49	0.24993624
144	0x3e21e48b	0.15809838
145	0xbde4f8b8	-0.11180252
146	0x3e5582f7	0.2085074
147	0x3e34f7b9	0.17672624
148	0x3e97d908	0.2965777
149	0x3eb7f409	0.35928372
150	0xbd6dc94d	-0.058053304
151	0x3f066074	0.52490926
152	0xbd2e9ff1	-0.042633
153	0xbcf06b9e	-0.02934819
154	0xbf1bac38	-0.6080966
155	0xbebf42b6	-0.37355584
156	0xbe94519b	-0.2896851
157	0xbe5b07de	-0.2138972
158	0x3eafacf4	0.3431164
159	0xbe27de04	-0.16393286
160	0xbebb3fa5	-0.36571994
161	0x3e5e3fc6	0.21704015
162	0x3e87b7aa	0.26507312
163	0x3eb1c1d5	0.34718195
164	0xbe864f8b	-0.2623256
165	0x3dd67dab	0.10473188
166	0xbe3a747f	-0.18208502
167	0xbde89c75	-0.11357967
168	0xbec9af90	-0.39391756
169	0xbe6ac737	-0.22927557
170	0xbe2cc671	-0.16872574
171	0x3e5c2906	0.21500024
172	0x3daa94fc	0.08329198
173	0x3e1485f7	0.14504229
174	0x3f207ac8	0.6268735
175	0x3f0421f9	0.5161434
176	0x3ea9fea6	0.33202094
177	0x3cb8a824	0.022541113
178	0xbe601704	-0.2188378
179	0x3ee79ef7	0.45238468
180	0xbe07e3c7	-0.13270484
181	0xbd465c25	-0.04842772
182	0xbee1d8b7	-0.44110653
183	0xbdcc6c34	-0.099815756
184	0xbea9e658	-0.3318355
185	0x3ee9257d	0.45536414
186	0xbef5f319	-0.4803703
187	0xbed82e9e	-0.42223066
188	0xbc394a2e	-0.01130919
189	0xbe889809	-0.26678494
190	0x3e312f3a	0.17303172
191	0xbe4489a4	-0.1919313
192	0xbe6f464f	-0.23366664
193	0x3d2e1fbe	0.04251074
194	0x3ead88da	0.33893472
195	0xbec389ce	-0.38191074
196	0x3e6bd0cd	0.2302887
197	0x3ea16af6	0.31526917
198	0x3eefbffa	0.46826154
199	0xbeb7db55	-0.35909525
200	0x3e0a7c6a	0.13524023
201	0xbebaefcd	-0.36511078
202	0x3ec857fe	0.39129633
203	0xbe546a88	-0.20743763
204	0x3e96d1a6	0.29456824
205	0x3c81723b	0.01580154
206	0xbc3d1bbc	-0.011542257
207	0xbb8a6d73	-0.004224473
208	0x3d969c45	0.07354025
209	0x3e71683f	0.23574923
210	0x3e5d42d4	0.21607524
211	0x3e693f54	0.22778064
212	0xbee46ef4	-0.446159
213	0x3ebf1f8a	0.3732875
214	0x3f095fb9	0.53661686
215	0x3eee3a6d	0.4652895
216	0x3eb0f521	0.3456202
217	0xbeb8b6e6	-0.3607704
218	0xbe1bfe1b	-0.15233652
219	0x3ee2a86a	0.44269115
220	0xbec6ae49	-0.38804844
221	0x3eeac259	0.458514
222	0xbee0816c	-0.4384874
223	0xbec984dc	-0.39359176
224	0x3e7535a6	0.23946247
225	0xbeb142ff	-0.34621426
226	0xbd3c2c7c	-0.04594086
227	0x3ecb7917	0.39740822
228	0x3ecc98bc	0.39960277
229	0x3eefa401	0.46804813
230	0xbe4cc0bc	-0.19995397
231	0xbee4ac59	-0.4466274
232	0x3ef74f25	0.4830257
233	0xbe04f47d	-0.1298389
234	0xbe7855e9	-0.24251522
235	0x3e054a4e	0.13016626
236	0xbeb3c69d	-0.35112467
237	0x3ea4d4fe	0.3219375
238	0x3e6b6186	0.22986421
239	0xbee591d7	-0.4483783
240	0xbed3625f	-0.4128599
241	0xbd467107	-0.048447635
242	0x3e455a7c	0.19272798
243	0xbc57701c	-0.013149288
244	0xbe8108a3	-0.25201902
245	0x3c9e1dfe	0.01930141
246	0xbef36414	-0.4753729
247	0xbeba3b00	-0.36373138
248	0xbea9283d	-0.33038512
249	0x3ed3f0c3	0.41394624
250	0x3ed0fafd	0.4081649
251	0xbe488550	-0.19582105
252	0x3ce95324	0.028482027
253	0x3e58b219	0.21161689
254	0x3c0248be	0.007951913
255	0xbe8ab08a	-0.27087814

SoftmaxPolicy_l1.bias f4 [128]
0	0xbec243b4	-0.37942278
1	0x3eb50645	0.35356346
2	0x3ea9f801	0.33197024
3	0xbefea4f5	-0.49735227
4	0xbec9d14c	-0.39417493
5	0xbeada1dd	-0.33912554
6	0xbe84e8e9	-0.25958946
7	0x3df4e198	0.11957091
8	0xbef67357	-0.48134872
9	0xbec97b67	-0.3935196
10	0x3e6c2889	0.23062338
11	0xbe2f3703	-0.17110829
12	0xbe5cf21a	-0.2157673
13	0xbed3411b	-0.4126061
14	0x3e44d4b2	0.19221762
15	0x3de5d552	0.11222328
16	0xbe51f1d4	-0.20502406
17	0xbe9f18f7	-0.31073734
18	0x3def9cc5	0.11699823
19	0x3e1a6101	0.15076067
20	0x3e44e2be	0.1922712
21	0x3e293f5a	0.16528073
22	0xbd41514b	-0.047196668
23	0xbec8c0eb	-0.39209685
24	0x3eb3491b	0.35016713
25	0x3d0ca5b2	0.034337707
26	0xbeb061a6	-0.344495
27	0x3ef064bf	0.46951863
28	0x3e926a8d	0.28596917
29	0xbecffdf9	-0.40623453
30	0xbe7e2f2a	-0.24822679
31	0xbe25281b	-0.1612858
32	0xbe954606	-0.29154986
33	0x3e703247	0.2345668
34	0xbec17725	-0.37786213
35	0x3ee752fd	0.45180503
36	0xbe48c645	-0.19606884
37	0x3e9b2823	0.3030406
38	0x3dca3ac1	0.09874488
39	0xbe6af657	-0.22945534
40	0x3eb01824	0.34393418
41	0xbec17230	-0.3778243
42	0xbe87bad1	-0.26509717
43	0x3ddf6f33	0.109098814
44	0x3ec733af	0.3890662
45	0xbe528fe7	-0.20562707
46	0xbe905629	-0.28190735
47	0xbea502c9	-0.32228687
48	0xbe4b9d13	-0.19884138
49	0xbe23e915	-0.16006882
50	0xbdf2f2dd	-0.11862729
51	0xbe963bd7	-0.2934253
52	0x3e2d8d57	0.16948448
53	0x3daeca5b	0.0853469
54	0xbeb0a9c5	-0.34504524
55	0xbe80e3bb	-0.25173745
56	0x3dcf0524	0.10108402
57	0x3cd875d3	0.02642337
58	0x3ec7fbd3	0.39059314
59	0xbd6bdf27	-0.05758586
60	0xbecf45b7	-0.40482876
61	0xbeb9d75a	-0.36297113
62	0xbe086d9d	-0.13323064
63	0xbdd4f7aa	-0.10398801
64	0x3db20ca5	0.08693818
65	0xbe056df5	-0.13030227
66	0x3e58e63e	0.2118158
67	0xbe229788	-0.15878117
68	0x3ec897e7	0.39178392
69	0x3dcb1b82	0.09917356
70	0xbe258cc1	-0.16166975
71	0x3ef3dff6	0.47631806
72	0x3e28640e	0.16444418
73	0xbeb85324	-0.3600093
74	0xbe86d7ab	-0.26336417
75	0x3eabfd9e	0.33591932
76	0x3e61f9ab	0.22067897
77	0x3ec281a9	0.37989548
78	0x3ca11801	0.019664766
79	0x3eb1f386	0.34756106
80	0x3e8c34bf	0.27383992
81	0x3e10f2a3	0.14155059
82	0xbe19eb8c	-0.1503126
83	0x3f02ec3b	0.5114171
84	0x3dc420b2	0.09576549
85	0xbe1f7c57	-0.15574776
86	0x3d8c205c	0.068421096
87	0x3efff175	0.49988905
88	0x3ea37ed6	0.31932706
89	0xbd721b52	-0.059108086
90	0x3f0535bc	0.5203512
91	0x3e80fef9	0.2519453
92	0xbe8688b2	-0.26276165
93	0xbeeb4cb9	-0.45956972
94	0x3ea03521	0.31290534
95	0x3f008cbb	0.5021474
96	0xbe9bb2bf	-0.3040981
97	0x3e4a3032	0.19744948
98	0x3d383ace	0.044977956
99	0xbe02b347	-0.12763701
100	0xbddc77f1	-0.107650645
101	0x3e2b5962	0.16733316
102	0x3dcf3842	0.10118152
103	0x3eab8573	0.3350025
104	0x3e3f96b3	0.18709831
105	0x3e8429d9	0.25813177
106	0x3ef21eb6	0.47289056
107	0x3e350e53	0.17681246
108	0x3dee76da	0.11643763
109	0xbe0af02e	-0.13568184
110	0x3ec29fbd	0.38012496
111	0x3dbff2ca	0.0937248
112	0x3ea7ca6c	0.32771623
113	0x3ef62df3	0.4808193
114	0xbe09a70c	-0.1344263
115	0x3eaa24de	0.33231252
116	0xbd75e72b	-0.060034912
117	0x3ef4fab3	0.47847518
118	0x3ec8abe6	0.39193648
119	0xbe1ecd68	-0.15508044
120	0x3c449e9f	0.012000709
121	0xbe5cd8a4	-0.21567017
122	0xbe59acfb	-0.21257393
123	0xbdafa302	-0.08576013
124	0xbb4d0710	-0.0031284727
125	0xbe1da8a4	-0.15396363
126	0xbef09a87	-0.46992895
127	0xbea02759	-0.3128002

SoftmaxPolicy_l2.weight f4 [128, 128]
0	0xba2b676f	-0.0006538545
1	0xbd27d9c4	-0.04097916
2	0x3d9522d5	0.07282034
3	0x3d910206	0.07080464
4	0x3d680071	0.056641046
5	0x3d2f1f2d	0.04275434
6	0xbd92bc5c	-0.07164833
7	0x3d4f78b4	0.05065222
8	0xbd7133d5	-0.05888732
9	0xbc6ee1ac	-0.014580172
10	0xbd1b13bb	-0.037860613
11	0x3cf45774	0.029826857
12	0xbd83d90a	-0.06437881
13	0xbd2e4ea3	-0.042555463
14	0xbd78dab4	-0.060755447
15	0xbdd11cf0	-0.102105975
16	0xbd39d871	-0.04537243
17	0x3daa2bae	0.083091125
18	0xbbf206d0	-0.007386066
19	0x3d0116a0	0.031515718
20	0xbdaf11a4	-0.085482866
21	0x3dc4688b	0.095902525
22	0xbc34f6ad	-0.01104514
23	0xbd97919b	-0.07400819
24	0x3db5c008	0.08874518
25	0xbc795980	-0.015219092
26	0x3d97bb3c	0.07408759
27	0xbd6762ea	-0.056490816
28	0xbd8f576a	-0.06999095
29	0xbd5bcf42	-0.053664453
30	0x3d154ad9	0.036448333
31	0x3cb51bed	0.022108043
32	0xbd9bff44	-0.076170474
33	0x3c52b87a	0.012861365
34	0x3c317992	0.010832207
35	0x3d0bbc60	0.034115195
36	0xbd328d27	-0.043591645
37	0xbd820fc9	-0.06350667
38	0x3df0c82b	0.11756929
39	0xbd3d56c5	-0.046225328
40	0x3d3326c0	0.043738127
41	0x3d978de1	0.07400108
42	0xbd89fc63	-0.06737592
43	0xbda655d4	-0.08121839
44	0x3cbc93cf	0.0230197
45	0xbd986314	-0.07440773
46	0x3d189033	0.037246894
47	0xbd02dd2d	-0.03194921
48	0xbd0d3332	-0.03447265
49	0xbd83dc70	-0.064385295
50	0x3d4d9b71	0.05019707
51	0xbd3fa979	-0.04679248
52	0xbdb1f9e1	-0.08690239
53	0xbd86e292	-0.065861836
54	0xbd2af5bc	-0.041738257
55	0xbd9dce0e	-0.077053174
56	0x3d32dbed	0.04366677
57	0xbcace42b	-0.021104893
58	0x3db1e5e9	0.0868643
59	0x3d8154ab	0.06314977
60	0xbd602da5	-0.05473103
61	0xbd31af6b	-0.043380182
62	0xbd2a12da	-0.041521885
63	0x3d746cdb	0.059674125
64	0x3bcdd225	0.0062811547
65	0xbcd2785c	-0.025692157
66	0x3dbce65e	0.092236266
67	0x3dd3a405	0.103340186
68	0x3da68dcf	0.081325166
69	0xbd83e145	-0.06439451
70	0xbd10c541	-0.035344366
71	0xbc5abef4	-0.013351191
72	0x3dcc2b50	0.09969199
73	0xbd151650	-0.036398232
74	0xbd2cc4e7	-0.04217997
75	0x3c8f768c	0.017512582
76	0xbca9da8b	-0.020734092
77	0x3d32260d	0.04349332
78	0x3c977945	0.018490443
79	0xbd998722	-0.07496478
80	0x3db3481e	0.0875399
81	0x3da64c06	0.08119969
82	0x3c0368ff	0.0080206385
83	0xbd586d13	-0.052838396
84	0x3d16b9e7	0.036798384
85	0x3d60d42d	0.054889847
86	0x3d853a97	0.06505316
87	0xbd1b7b28	-0.037959248
88	0xbbc7f231	-0.0061018695
89	0xbcd2110c	-0.025642894
90	0x3db7f67a	0.089825585
91	0x3e0187b4	0.12649423
92	0x39900e08	0.00027476274
93	0xbd5ab9f2	-0.053399988
94	0x3d2b4c98	0.041821092
95	0x3d52c404	0.051456466
96	0x3d20d0d7	0.039261665
97	0xbda03bbb	-0.07823893
98	0x3c6ebdaf	0.014571591
99	0xbd0f5a06	-0.034997962
100	0xbd8f53fc	-0.069984406
101	0xbd0c266b	-0.034216326
102	0x3d5d8820	0.054084897
103	0x3d29a41e	0.04141628
104	0xbd98618a	-0.07440479
105	0x3c862225	0.016373703
106	0x3db60524	0.08887699
107	0x3dddddc2	0.108333126
108	0x3d92a1e8	0.071597874
109	0xbcde3c09	-0.027128236
110	0x3d560a40	0.05225587
111	0x3d52d2d9	0.05147061
112	0x3d2cf8ce	0.042229466
113	0xbd731ce9	-0.059353743
114	0xbd017597	-0.031606283
115	0x3d9c5dfe	0.07635115
116	0x3da6528e	0.08121215
117	0x3da4d470	0.08048332
118	0xbd31b607	-0.043386485
119	0xbc817f85	-0.015807876
120	0xbd685282	-0.05671931
121	0xbd078d04	-0.033093467
122	0x3d95b932	0.07310714
123	0xbd864c99	-0.065575786
124	0x3b9b61fa	0.0047419043
125	0x3cb98006	0.022644054
126	0xbd407668	-0.04698792
127	0x3d15bb5a	0.036555625
128	0xbc7efc1d	-0.015563038
129	0x3d8f1bfa	0.06987758
130	0xbd2ce95a	-0.04221473
131	0x3c5af5ee	0.013364298
132	0xbda038af	-0.078233115
133	0x3d42758c	0.047475383
134	0x3daca8c2	0.084306255
135	0x3ccafe23	0.024779385
136	0x3b16f5d1	0.0023034702
137	0xbd3873aa	-0.04503218
138	0xbd1f725e	-0.03892743
139	0xbd386e33	-0.04502697
140	0xbd4da5bb	-0.05020688
141	0x3ce6e260	0.028184116
142	0x3c59d4b6	0.013295343
143	0x3da900d2	0.082521096
144	0xbd92eb0c	-0.07173738
145	0xbd7160a7	-0.058930065
146	0xbd117bf2	-0.035518594
147	0xbd069f28	-0.032866627
148	0x3d9f6f04	0.077848464
149	0x3d3c1097	0.04591426
150	0xbda1ac17	-0.07894152
151	0xbbe6d361	-0.0070442413
152	0x3bc17a0e	0.0059044426
153	0x3d9cd2b7	0.07657378
154	0x3da5ef9e	0.08102344
155	0x3d7764be	0.06039881
156	0x3db2714d	0.08713017
157	0xbcf3f4a8	-0.029779747
158	0xbb589ca8	-0.0033052359
159	0xbda2529f	-0.07925915
160	0x3cd144cf	0.025545506
161	0x3dfada19	0.1224863
162	0x3d4e7976	0.050408803
163	0x3dd991d1	0.106235154
164	0xbd04186a	-0.032249846
165	0x3cf7dfcb	0.03025808
166	0xbd623ed3	-0.055235695
167	0x3d8aa1d1	0.06769145
168	0xbd19c844	-0.037544504
169	0xbd2db8ad	-0.04241245
170	0x3c4a788c	0.012357842
171	0x3c9e4e00	0.019324303
172	0x3d7e47e9	0.062080298
173	0xbc713249	-0.014721462
174	0xbcb0b209	-0.021569269
175	0x3d303b87	0.04302552
176	0x3d71feff	0.059081074
177	0x3dcb2324	0.09918812
178	0x3cf95ee2	0.030440751
179	0xba895be3	-0.0010479655
180	0x3dfaf426	0.12253599
181	0x3e076634	0.13222581
182	0xbd1c1e55	-0.038114864
183	0x3d204cbf	0.03913569
184	0x3cedc830	0.02902612
185	0xbd24c866	-0.040230177
186	0xbbac35e7	-0.005255449
187	0xbc85906b	-0.016304215
188	0xbd8ba94b	-0.068193994
189	0xbd0c94a4	-0.034321442
190	0x3d58178b	0.052756827
191	0x3d9751bd	0.07388637
192	0x3c35af92	0.0110892225
193	0xbd99ccff	-0.07509803
194	0x3c4db6b6	0.012555769
195	0xbcc8b4ff	-0.024500368
196	0x3da5ca5a	0.08095236
197	0xbdb176ed	-0.086652614
198	0xbc416f65	-0.011806344
199	0x3db1ab80	0.08675289
200	0x3c42a828	0.011880912
201	0xbd2697f3	-0.040672254
202	0xbdad15dc	-0.08451435
203	0xba0c4b3a	-0.0005351786
204	0x3d6888ea	0.056771196
205	0xbd711352	-0.058856316
206	0xbdafa834	-0.08577004
207	0x3d62f891	0.055412833
208	0xbd04e1d6	-0.032441936
209	0x3d7d741c	0.06187831
210	0xbda092f9	-0.07840533
211	0xbc30ea83	-0.010798099
212	0xbd668eae	-0.056288414
213	0xbb673817	-0.0035281235
214	0xbdb48469	-0.08814318
215	0x3d3e91d2	0.046525784
216	0xbd1eef0c	-0.03880219
217	0xbd813839	-0.06309552
218	0xbd300ed8	-0.042982906
219	0xbde8f83f	-0.11375474
220	0x3d49390f	0.04912668
221	0xbca1a3c2	-0.019731406
222	0xbbe2a015	-0.006916056
223	0x3d93f63d	0.072247006
224	0xbc672fdb	-0.014110531
225	0x3da673ae	0.08127533
226	0x3be2d2da	0.006922108
227	0xbd6f2a21	-0.058389787
228	0x3cb4e6bc	0.022082679
229	0x3ccc13a6	0.024911713
230	0xbd781a5c	-0.060572013
231	0x3cf2e582	0.029650453
232	0x3c81a076	0.015823584
233	0x3d9c01f3	0.07617559
234	0xbc0cc33e	-0.008591471
235	0xbd88b241	-0.06674624
236	0xbdb43de0	-0.08800864
237	0x3d1874e2	0.037220843
238	0xbcc6f074	-0.024284579
239	0xbca4e10c	-0.020126842
240	0xbc0cbdfb	-0.008590217
241	0xbcb74a9c	-0.022374444
242	0x3cb93ae5	0.02261109
243	0x3daa33e9	0.08310682
244	0x3d92df4a	0.07171495
245	0xbd81a795	-0.06330792
246	0x3dbc8ef9	0.09206957
247	0x3d7589b6	0.059945785
248	0x3c8827a2	0.01662046
249	0x3d31174b	0.043235105
250	0x3d6c33b5	0.0576665
251	0x3da15f60	0.078795195
252	0x3d503341	0.05083013
253	0x3cefc0c0	0.029266715
254	0xbd17a9e4	-0.037027255
255	0xbd65684f	-0.05600768

SoftmaxPolicy_l2.bias f4 [128]
0	0x3d5b6f24	0.05357279
1	0xbd11ad45	-0.035565633
2	0x3b639004	0.0034723291
3	0xbd810756	-0.06300227
4	0xbd4752b6	-0.048662864
5	0x3d630052	0.055420227
6	0x3c9c74ac	0.019098602
7	0x3cef5c53	0.029218828
8	0x3d4d634a	0.050143518
9	0x3ccf2bad	0.02528938
10	0x3c009668	0.00784836
11	0xbc2c5ed5	-0.010520657
12	0x3a911b00	0.0011070669
13	0x3da84190	0.0821563
14	0x3d0b6b3f	0.034037825
15	0x3c30fcaa	0.010802427
16	0x3d168704	0.036749855
17	0xbd216128	-0.039399296
18	0xbd8db39a	-0.06919022
19	0xbc9391a9	-0.018013792
20	0x3dc31ef9	0.09527392
21	0x3cb32693	0.02186898
22	0xbd8588f3	-0.065202616
23	0x3d7387b7	0.0594556
24	0x3da5cc04	0.080955535
25	0x3d8d33cf	0.06894647
26	0x3c3f5f92	0.011680501
27	0xbcb90d59	-0.022589372
28	0x3c0ecff8	0.008716576
29	0x3cf2d108	0.02964069
30	0xbd09426f	-0.03351062
31	0xbd3202d8	-0.043459743
32	0x3ca3ba8d	0.019986415
33	0x3d374109	0.044739757
34	0xbcd97867	-0.02654667
35	0xbc0edbf5	-0.008719434
36	0xbd85487b	-0.06507965
37	0xb88ce012	-6.7174566e-05
38	0xbc9a8e54	-0.018866695
39	0x3dbc2cb6	0.091882154
40	0x3d7d9c9b	0.06191693
41	0xbceebebb	-0.029143682
42	0xbd8c45cc	-0.0684925
43	0xbd94e32f	-0.07269894
44	0xbd4f5565	-0.050618548
45	0x3db6973e	0.08915566
46	0xbcd32511	-0.02577451
47	0x3d879c99	0.066216655
48	0x3d8b0ccf	0.067895524
49	0xbc1f56d6	-0.009725293
50	0x3d1dbf57	0.038512554
51	0x3ced7ac2	0.0289892
52	0x3da8cd91	0.08242334
53	0x3d2f8eef	0.04286092
54	0x3d51260b	0.05106167
55	0x3db7d1dd	0.08975575
56	0x3c481d69	0.012214043
57	0x3dab3482	0.083596244
58	0xbb1dd9f6	-0.0024086214
59	0xbd8783cc	-0.06616935
60	0x3daf8fb2	0.085723296
61	0xbd87b5af	-0.0662645
62	0x3ac67378	0.0015140614
63	0x3dac72d8	0.08420342
64	0xbcc61c59	-0.02418344
65	0xbd787a62	-0.06066359
66	0x3d878f09	0.06619079
67	0x3d0acd48	0.033887178
68	0x3d698a7d	0.05701684
69	0x3d410817	0.047126856
70	0xbdb5c6ec	-0.08875832
71	0x3d9371e3	0.071994565
72	0xbd95f1d1	-0.073215134
73	0x3c3ef665	0.011655425
74	0xbd4dd4b1	-0.050251666
75	0x3d863066	0.065522
76	0x3dbcecce	0.092248544
77	0x3c56746c	0.013089281
78	0xbcba9d52	-0.022780094
79	0x3d9c10e7	0.07620411
80	0x3d8e0a8a	0.06935604
81	0xbc7d8a81	-0.015474916
82	0x3d910588	0.07081133
83	0x3c066342	0.008202376
84	0xbd2609b1	-0.040536586
85	0x3dab303a	0.08358808
86	0xbd52f84a	-0.05150632
87	0xbd817551	-0.063212045
88	0x3d54c42d	0.0519449
89	0x3d08f36a	0.033435263
90	0x3d91a9ed	0.07112489
91	0xbd12be47	-0.035825994
92	0x3caa3d06	0.020781051
93	0x3d3e131f	0.046404954
94	0x3c95ac44	0.01827062
95	0xbd936172	-0.071963206
96	0x3d6a89af	0.05726021
97	0x3cbe676f	0.02324268
98	0xbca30e18	-0.019904181
99	0xbcab448f	-0.020906715
100	0xbdbde47d	-0.09272096
101	0x3dc19245	0.09451727
102	0x3c6204d1	0.013795094
103	0xbcc76079	-0.024337994
104	0x3dc94cc6	0.098290965
105	0xbd80d11c	-0.062898844
106	0x3ccb37de	0.024806913
107	0xbc5eb76a	-0.013593534
108	0xbcd62eac	-0.026145302
109	0x3afda0d0	0.0019350294
110	0xbc4077b2	-0.011747288
111	0x3d9b02b9	0.07568879
112	0x3d83ee68	0.06441957
113	0x3cfe0f05	0.031013021
114	0xbb867e1c	-0.004104389
115	0xbc6ce3aa	-0.014458576
116	0xbbe1942a	-0.0068841176
117	0xbacffbd2	-0.0015867895
118	0x3d040c76	0.032238446
119	0x3d8fd9c9	0.07023961
120	0xbd809c9d	-0.062798716
121	0xbdb644a0	-0.08899808
122	0xbc4ed1bf	-0.01262325
123	0x3d925681	0.071454056
124	0x3d2e5f52	0.042571373
125	0xbd0fbb0a	-0.035090484
126	0x3d67e841	0.05661798
127	0x3d1ebf81	0.03875685

SoftmaxPolicy_l3.weight f4 [2, 128]
0	0x3d5b2f4e	0.05351191
1	0x3c44d12b	0.01201276
2	0x3e01748d	0.12642117
3	0x3c4716b2	0.012151407
4	0xbdb976ff	-0.090559
5	0xbca44efb	-0.020057192
6	0x3d28c94b	0.041207593
7	0x3dc31fa3	0.095275186
8	0x3c5d8772	0.013521062
9	0x3c15a1f7	0.009132854
10	0x3d90a7d2	0.07063259
11	0x3d915748	0.07096726
12	0x3db850ba	0.08999772
13	0x3c6cb735	0.014447977
14	0x3ba69097	0.0050831544
15	0x3dc6bdc2	0.09704162
16	0x3d65e5a0	0.05612719
17	0x3dc57863	0.096421026
18	0xbc319bd9	-0.01084038
19	0x3dccbb81	0.09996701
20	0xbd36158b	-0.04445414
21	0x3dcb0a75	0.09914104
22	0xbd1d3312	-0.038378783
23	0xbc87cc20	-0.016576827
24	0xbd1188ff	-0.03553104
25	0x3d350481	0.04419375
26	0x3d4b4a83	0.049631607
27	0x3d10a0c2	0.03530956
28	0xbdb3f8d4	-0.087876946
29	0x3b858c0f	0.004075534
30	0xbd18bf28	-0.037291676
31	0xbd16027d	-0.036623467
32	0x3d60ef15	0.054915506
33	0xba58aa8b	-0.0008265159
34	0x3d518df0	0.051160753
35	0xbda14aa1	-0.078755625
36	0x3c4c59aa	0.012472549
37	0x3d90d853	0.070725106
38	0x3d759e20	0.059965253
39	0x3dd70420	0.10498834
40	0xbbee8bb7	-0.007279839
41	0x3db105eb	0.08643707
42	0xbd8e623a	-0.06952329
43	0xbc1d2645	-0.009591644
44	0xbc0ebc31	-0.0087118605
45	0xbcf2b49f	-0.029627142
46	0x3d0678e9	0.032830153
47	0x3b8a5523	0.004221575
48	0xbdd3d78f	-0.10343849
49	0xbdc8f390	-0.09812081
50	0x3d1a0385	0.037601013
51	0xbd79cac1	-0.060984377
52	0xbde4ea5f	-0.11177515
53	0x3e057222	0.1303182
54	0xbd6bd74e	-0.057578377
55	0x3dc66cb3	0.096887015
56	0x3d8b346e	0.067971095
57	0x3d47848c	0.04871039
58	0xbd99e404	-0.07514194
59	0xbc9df9ac	-0.019284092
60	0x3da862d0	0.08221972
61	0x3cb261f1	0.021775218
62	0xbe00ae16	-0.12566409
63	0x3c044221	0.008072407
64	0xbd89001d	-0.06689475
65	0xbd91f426	-0.07126646
66	0xbdaa32f1	-0.083104976
67	0x3da6d666	0.08146362
68	0x3d96d264	0.073643476
69	0xbd8db7c8	-0.06919819
70	0xbd1df072	-0.038559385
71	0x3da227f3	0.07917776
72	0xb9a2ea38	-0.00031073554
73	0xbd701991	-0.058618132
74	0x3ce43217	0.027855916
75	0xbde23354	-0.11044946
76	0xbdb5cc91	-0.088769086
77	0x3d8e7311	0.06955541
78	0xbdb7852c	-0.089609474
79	0x3dcd55e9	0.10026152
80	0xbd057393	-0.032580923
81	0xbd6783f5	-0.05652233
82	0xbda938e1	-0.08262802
83	0x3d6928b8	0.056923598
84	0xbdf8a3eb	-0.1214064
85	0x3d2a2055	0.04153474
86	0x3cd56066	0.026046943
87	0x3d0d2f53	0.03446896
88	0xbdd54326	-0.10413198
89	0xbd847e60	-0.064694166
90	0x3d3ceb8b	0.04612307
91	0xbd96624a	-0.07342966
92	0xbd3bf32d	-0.045886207
93	0x3d6532e7	0.055956747
94	0x3d31aecb	0.043379586
95	0x3d9829e6	0.074298665
96	0x3b9004c4	0.0043950994
97	0xbd2a64fe	-0.04160022
98	0x3e02f66a	0.12789312
99	0x3baa1714	0.0051907394
100	0xbcab0f8a	-0.020881433
101	0x3d9a4677	0.07532971
102	0xbdad76f8	-0.08469957
103	0x3da7611a	0.081728175
104	0x3d12c3fb	0.035831433
105	0xbc63eb77	-0.01391112
106	0xbd968f06	-0.07351498
107	0xbcd4d40e	-0.025980022
108	0xbcb5ff44	-0.022216447
109	0x3c9e18ee	0.019298997
110	0xbd7c9f5b	-0.06167541
111	0x3d4015c4	0.046895757
112	0xbdf9b08e	-0.12191878
113	0xbda260c8	-0.07928616
114	0xbc10c385	-0.008835678
115	0x3dde558e	0.10856162
116	0x3d94921b	0.0725443
117	0xbdb619e2	-0.088916555
118	0x3d9ee46e	0.07758413
119	0xbd6a0f0c	-0.057143256
120	0x3d9c75d1	0.07639659
121	0x3c27322b	0.010204832
122	0xbcba3228	-0.022728994
123	0xbdce8524	-0.10083988
124	0xbdd3d451	-0.103432305
125	0xbdd8f629	-0.10593826
126	0xbd731917	-0.0593501
127	0x3d8d8a1f	0.0691111
128	0xbbcbd597	-0.0062205303
129	0x3de42f0c	0.11141786
130	0xbdee7d74	-0.11645022
131	0x3db1a339	0.086737104
132	0x3c9c700d	0.019096399
133	0x3dc02578	0.093821466
134	0xbdd0993e	-0.10185479
135	0xbda0a606	-0.078441665
136	0x3de38fa0	0.11111379
137	0x3d4af2b7	0.049547877
138	0xbdf45802	-0.11930849
139	0xbdcf654a	-0.10126741
140	0xbcdc0718	-0.026858851
141	0x3dfdc35e	0.12390779
142	0x3dad5321	0.08463121
143	0xbdabd014	-0.08389297
144	0x3c29fcb2	0.010375189
145	0x3c7bdec1	0.015372933
146	0xbd84f6be	-0.06492375
147	0xbdadf899	-0.08494682
148	0x3dd5c59a	0.1043808
149	0x3bf964aa	0.007610877
150	0x3d16e812	0.036842413
151	0x3dd9a506	0.10627179
152	0x3d1602a6	0.03662362
153	0xbe12b4fa	-0.1432685
154	0xbd876eb7	-0.06612914
155	0xbd7efeec	-0.06225483
156	0xbd98bf5a	-0.074583724
157	0x3d872ef9	0.06600756
158	0x3ae997e1	0.0017821753
159	0x3def31a9	0.11679394
160	0xbd0fb975	-0.035088975
161	0x3c9e8827	0.019352032
162	0xbcee1a86	-0.029065382
163	0x3d9f0572	0.077647105
164	0x3d7679f2	0.06017489
165	0xbcac7425	-0.021051476
166	0xbd622bd2	-0.05521757
167	0xbd453675	-0.048147637
168	0xbd8dd8e0	-0.06926131
169	0xbe156a64	-0.14591366
170	0x3d2c5ce1	0.042080764
171	0x3d5d8a55	0.054087
172	0xbddc2ca5	-0.10750703
173	0x3e057274	0.13031942
174	0xbd7bb313	-0.061450075
175	0xbdc0f5ff	-0.0942192
176	0x3d90bbec	0.07067093
177	0x3d871c62	0.065972105
178	0xbc8ac17c	-0.016937964
179	0x3ca63404	0.020288475
180	0x3d1ecfbc	0.03877233
181	0xbdf13e64	-0.11779478
182	0x3e0db18c	0.1383726
183	0xbdbd13d4	-0.092322975
184	0xbd538e4e	-0.051649384
185	0xbe1653f5	-0.14680465
186	0xbcd88c09	-0.026433961
187	0x3cc92928	0.024555758
188	0xbdf919e7	-0.121631436
189	0xbd8e03f9	-0.069343515
190	0x3c58c007	0.013229377
191	0xbd880d50	-0.06643164
192	0x3da450c5	0.08023218
193	0x3de62140	0.11236811
194	0xbb1626a0	-0.0022911206
195	0xbd5341fa	-0.051576592
196	0x3d5c59aa	0.053796448
197	0x3c33ca40	0.010973513
198	0x3d93326d	0.07187352
199	0x3cb4ba21	0.02206141
200	0x3d8394bd	0.06424854
201	0x3df8d777	0.12150472
202	0xbd825063	-0.06362989
203	0xbd56c39b	-0.052432638
204	0x3bd32065	0.0064430707
205	0xbdc2b663	-0.09507444
206	0x3d981297	0.07425421
207	0xbd8f2512	-0.069894925
208	0x3d55a73f	0.05216145
209	0xbd8d6774	-0.06904498
210	0x3d8ed5f6	0.069744036
211	0x3cb46511	0.022020848
212	0x3deb95d7	0.11503189
213	0xbd8c0584	-0.068369895
214	0x3ca40fc6	0.020027053
215	0xbd55c7b9	-0.052192423
216	0x3bd590ac	0.0065174904
217	0x3d8be474	0.06830683
218	0xbdc640df	-0.09680342
219	0x3db4dc83	0.08831122
220	0x3d15bbb5	0.036555964
221	0xbccf9d1d	-0.025343472
222	0x3d9512e1	0.072789915
223	0x3c050528	0.008118905
224	0xbde0ff0c	-0.10986146
225	0x3d97a5b2	0.07404651
226	0x3c76fef8	0.015075438
227	0xbd4452d2	-0.047930546
228	0x3d652e97	0.055952635
229	0xbd25c5c7	-0.04047182
230	0x3d3afd8f	0.04565197
231	0xbd2103bb	-0.0393102
232	0xbe15570c	-0.14583987
233	0x3dc68739	0.096937604
234	0x3dd34bab	0.10317167
235	0xbdf61e6f	-0.120175235
236	0xbd99fa90	-0.07518494
237	0x3daca2b4	0.08429471
238	0x3d680bcd	0.05665188
239	0xbd44f3e9	-0.048084173
240	0x3c7fb5d2	0.015607314
241	0x3db88306	0.09009366
242	0x3dd1af1d	0.10238478
243	0xbe02ee01	-0.12786104
244	0xbd773194	-0.060350016
245	0xbc5ac256	-0.013351997
246	0xbdcace82	-0.099026695
247	0xbc53cf28	-0.012927808
248	0xbaf7a083	-0.0018892441
249	0xbc83b6f4	-0.01607845
250	0xbd7542da	-0.059878208
251	0x3c065548	0.008199044
252	0x3bee144d	0.0072656036
253	0xbd0815ed	-0.033224035
254	0x3d8aadb6	0.06771414
255	0xbd939ac5	-0.07207254

SoftmaxPolicy_l3.bias f4 [2]
0	0x3d03634d	0.032077122
1	0xbc858744	-0.016299851
