pytorch_models/model280412.pth (torch, 72107 bytes, 6 tensors)

SoftmaxPolicy_l1.weight f4 [128, 4]
0.25550526 -0.22608039 -0.11215846 0.23128293 -0.4692257 0.31151024 -0.05170563 0.25757036
0.06835677 -0.055727705 0.20515431 0.051378127 0.176703 -0.19241881 -0.03046629 -0.047536198
0.07194675 -0.0017532976 0.43536365 0.1539636 -0.18254934 -0.2999354 -0.0833143 -0.21248165
-0.16217414 0.020735316 0.3122719 0.28118008 -0.48917288 0.3262313 0.25847152 0.5189225
0.33050507 -0.4642558 -0.49029613 -0.22971389 0.41928214 -0.09634557 0.2200489 -0.2292564
0.48461118 -0.23380214 0.29988652 -0.010567282 -0.25931805 0.25799495 -0.2544319 0.15631777
-0.13044095 -0.04976933 -0.46908468 -0.22845449 0.2686111 -0.113109976 0.4989477 0.39981982
-0.029904941 -0.31078395 0.4135617 0.1971115 -0.31707397 0.34010532 0.42673445 0.491063
-0.2782491 -0.08117977 -0.029266777 0.06702623 -0.37748381 -0.35471684 0.24925658 -0.12411993
0.22991008 0.032321505 0.3040435 0.1804377 0.16549684 0.25243932 -0.3165565 0.3250897
-0.345495 -0.37643695 0.08370914 -0.056328855 0.28988552 -0.2835022 -0.35571545 0.41244325
-0.07031111 0.27818128 0.087948896 -0.42182302 0.097102486 0.11334612 -0.3413253 -0.23716262
0.17659317 0.06927133 -0.3599431 -0.2163069 0.44684386 -0.08302843 0.39965332 0.26703236
-0.32063842 -0.4221436 0.46095613 0.015695605 0.3360089 0.11438725 0.2678954 0.41280892
0.46355027 -0.3243663 0.18992287 0.44297653 0.35061812 0.2980673 -0.3681437 -0.35902575
-0.3066662 0.05746786 0.51212525 -0.30982697 0.27277648 -0.28460723 -0.49109364 -0.10275654
0.28161427 0.46305376 -0.28925294 0.11108102 0.41791672 0.3533597 0.40940392 0.37668785
0.30154818 0.11417393 -0.33145317 -0.41028386 -0.23576848 -0.05655712 -0.18488243 0.24766748
0.15598175 -0.112241395 0.20808865 0.17409003 0.2964647 0.35956848 -0.061223514 0.5215528
-0.043603186 -0.029526377 -0.605366 -0.37176958 -0.28877315 -0.21350242 0.3441119 -0.16371685
-0.3667636 0.21678665 0.26215765 0.34472018 -0.26049176 0.10622101 -0.1809196 -0.11283106
-0.39316338 -0.22892642 -0.16953455 0.21481135 0.0827695 0.14525989 0.623723 0.5127499
0.33165777 0.022726217 -0.2219517 0.44912407 -0.13096674 -0.047057543 -0.43963075 -0.09884141
-0.33144134 0.4548086 -0.4801737 -0.42037204 -0.010780179 -0.2664512 0.17339216 -0.19183405
-0.23183395 0.041856434 0.34079432 -0.3781018 0.2303926 0.31640518 0.46806282 -0.3614352
0.1363344 -0.364334 0.39306262 -0.20433362 0.2944177 0.015788076 -0.013421946 -0.0056850063
0.07302479 0.23581392 0.21297868 0.2245334 -0.44853333 0.37150338 0.5336007 0.46335754
0.34658384 -0.3609904 -0.15110043 0.44362468 -0.38711 0.45808375 -0.43775305 -0.391821
0.23844154 -0.3470364 -0.04883692 0.39419624 0.40003908 0.4680704 -0.19646327 -0.44358492
0.4839246 -0.12985706 -0.2396765 0.13387503 -0.35032892 0.3222017 0.23111784 -0.4468606
-0.411836 -0.04753755 0.19423003 -0.012916252 -0.24959831 0.021392368 -0.4735676 -0.3629539
-0.33148977 0.41310596 0.40693325 -0.1947723 0.028682088 0.2113671 0.0095375525 -0.2694532
00000000: 96d1 823e 9e81 67be 56b3 e5bd 6fd5 6c3e
00000010: 5a3e f0be 457e 9f3e 48c9 53bd 43e0 833e
00000020: a2fe 8b3d bc42 64bd f913 523e df71 523d
00000030: a2f1 343e 7009 45be 7194 f9bc 51b5 42bd
00000040: d158 933d e8ce e5ba fce7 de3e a2a8 1d3e
00000050: 37ee 3abe 2291 99be b0a0 aabd ca94 59be
00000060: fa10 26be 1cdd a93c 1ae2 9f3e d6f6 8f3e
00000070: de74 fabe ca07 a73e 6156 843e 1bd8 043f
00000080: f637 a93e f0b2 edbe 1808 fbbe 1e3a 6bbe
00000090: 26ac d63e d450 c5bd 8054 613e 31c2 6abe
000000a0: f51e f83e d469 6fbe ba8a 993e 6522 2dbc
000000b0: 56c5 84be ea17 843e e644 82be c411 203e
000000c0: 5092 05be edda 4bbd de2b f0be f9ef 69be
000000d0: 6587 893e 34a6 e7bd 1376 ff3e 2fb5 cc3e
000000e0: 35fb f4bc 131f 9fbe 5cbe d33e 99d7 493e
000000f0: 8557 a2be 4922 ae3e f07c da3e 9c6c fb3e
00000100: ab76 8ebe 9441 a6bd e1c0 efbc 0c45 893d
00000110: 8f45 c1be 729d b5be 1e3d 7f3e 9732 febd
00000120: 8c6d 6b3e 8e63 043d 97ab 9b3e a9c4 383e
00000130: 0178 293e ba3f 813e b213 a2be 2872 a63e
00000140: b8e4 b0be 58bc c0be b36f ab3d 16b9 66bd
00000150: e06b 943e 3327 91be 5620 b6be c32b d33e
00000160: 45ff 8fbd c76d 8e3e 8d1e b43d 30f9 d7be
00000170: abdd c63d 0322 e83d 31c2 aebe c2da 72be
00000180: d7d4 343e 21de 8d3d 764a b8be 8e7f 5dbe
00000190: b8c8 e43e cf0a aabd 5c9f cc3e 77b8 883e
000001a0: b82a a4be 3523 d8be 7102 ec3e 1294 803c
000001b0: 5c09 ac3e dd43 ea3d 9629 893e b15b d33e
000001c0: 7656 ed3e 5713 a6be 247b 423e d2cd e23e
000001d0: 3884 b33e 479c 983e 557d bcbe 39d2 b7be
000001e0: 5a03 9dbe 6b63 6b3d a41a 033f a4a1 9ebe
000001f0: 5ca9 8b3e 0ab8 91be a070 fbbe 0572 d2bd
00000200: bf2f 903e 6215 ed3e f618 94be 727e e33d
00000210: 2ef9 d53e 90eb b43e 649d d13e 3bdd c03e
00000220: 8664 9a3e 05d4 e93d 3bb4 a9be ba10 d2be
00000230: 4b6d 71be 70a8 67bd d251 3dbe 8b9c 7d3e
00000240: aeb9 1f3e d1de e5bd 3115 553e a844 323e
00000250: 39ca 973e 5c19 b83e 82c5 7abd 7c84 053f
00000260: 4199 32bd 4de1 f1bc 44f9 1abf 9558 bebe
00000270: 13da 93be 61a0 5abe 6f2f b03e 64a5 27be
00000280: 70c8 bbbe 52fd 5d3e 8739 863e 2a7f b03e
00000290: 2d5f 85be 678a d93d fd42 39be f913 e7bd
000002a0: b64c c9be b06b 6abe 779a 2dbe 82f7 5b3e
000002b0: 0e83 a93d 02bf 143e 4fac 1f3f 9443 033f
000002c0: 0ccf a93e 552c ba3c 4e47 63be 97f3 e53e
000002d0: 251c 06be 69bf 40bd 4817 e1be 5d6d cabd
000002e0: aeb2 a9be acdc e83e 54d9 f5be 013b d7be
000002f0: 599f 30bc 4b6c 88be b78d 313e 2570 44be
00000300: e165 6dbe a771 2b3d 987c ae3e 8f96 c1be
00000310: 0aec 6b3e dcff a13e eea5 ef3e 090e b9be
00000320: 3f9b 0b3e fc89 babe 813f c93e d53c 51be
00000330: ebbd 963e ff55 813c b9e7 5bbc 4a49 babb
00000340: 058e 953d 3479 713e 1517 5a3e 15ec 653e
00000350: 29a6 e5be b135 be3e 0e9a 083f 333d ed3e
00000360: 7073 b13e bcd3 b8be 12ba 1abe c622 e33e
00000370: 4833 c6be f489 ea3e 2b21 e0be c39c c8be
00000380: 052a 743e c1ae b1be 3909 48bd 17d4 c93e
00000390: ecd1 cc3e eca6 ef3e ab2d 49be 901d e3be
000003a0: f7c4 f73e 40f9 04be c26d 75be 8916 093e
000003b0: 505e b3be 9ff7 a43e 28aa 6c3e eaca e4be
000003c0: 2bdc d2be bcb6 42bd 3de4 463e b09e 53bc
000003d0: b396 7fbe 0c3f af3c 7477 f2be 18d5 b9be
000003e0: 07b9 a9be a082 d33e 8e59 d03e 6472 47be
000003f0: b3f6 ea3c 9e70 583e 6543 1c3c c5f5 89be

SoftmaxPolicy_l1.bias f4 [128]
-0.3783343 0.35407642 0.33031777 -0.49651578 -0.39417493 -0.3381469 -0.25945875 0.11888206
-0.48112458 -0.39181972 0.23107815 -0.1707048 -0.2160192 -0.41618562 0.19138326 0.11209977
-0.20555036 -0.31185102 0.11646269 0.1501464 0.19187355 0.16528751 -0.047872797 -0.39210898
0.3503247 0.03382247 -0.34493518 0.46873108 0.2854863 -0.40621027 -0.24850315 -0.16087377
-0.29168394 0.23410913 -0.378746 0.45156094 -0.19827965 0.3027191 0.09683876 -0.22989422
0.34375226 -0.37967148 -0.26583326 0.1082793 0.38877496 -0.20731987 -0.28307527 -0.32269573
-0.2019778 -0.15940891 -0.119550526 -0.29347485 0.16897085 0.08398531 -0.34377658 -0.25294742
0.10034768 0.026713893 0.39102137 -0.057596054 -0.40546212 -0.36523315 -0.13373803 -0.103899755
0.08716627 -0.13039552 0.2118118 -0.15939486 0.39183918 0.099810615 -0.16163877 0.4742285
0.1636554 -0.35964894 -0.26529807 0.33607832 0.21991578 0.3799776 0.018544456 0.34705344
0.27385584 0.14241141 -0.14900787 0.5114486 0.09625111 -0.1553043 0.06709336 0.49896494
0.3185061 -0.059284285 0.52016824 0.25206807 -0.26031858 -0.45956972 0.31244224 0.50017554
-0.30378303 0.19602387 0.044105012 -0.12782378 -0.107604675 0.16628768 0.1022805 0.3339055
0.18658149 0.2588294 0.4730522 0.17679581 0.11603076 -0.1376482 0.37988532 0.09281928
0.32628235 0.480488 -0.13295922 0.33163545 -0.061057787 0.47865546 0.39137536 -0.15524612
0.009688296 -0.21445538 -0.21085572 -0.085971974 -0.0022184195 -0.15453264 -0.47125718 -0.31416067
00000000: 09b5 c1be 8149 b53e 691f a93e 5137 febe
00000010: 4cd1 c9be 9721 adbe c7d7 84be 7078 f33d
00000020: f655 f6be 989c c8be c09f 6c3e 3dcd 2ebe
00000030: 2334 5dbe 4816 d5be f9f9 433e 9094 e53d
00000040: cb7b 52be f0aa 9fbe fe83 ee3d fabf 193e
00000050: 807a 443e 2141 293e 4416 44bd 82c2 c8be
00000060: c25d b33e 6e89 0a3d 589b b0be 85fd ef3e
00000070: 432b 923e cbfa cfbe 9c77 7ebe 18bc 24be
00000080: 9957 95be 4eba 6f3e ffea c1be ff32 e73e
00000090: d209 4bbe fffd 9a3e 6653 c63d 6469 6bbe
000000a0: 4c00 b03e 4d64 c2be 4c1b 88be 8ac1 dd3d
000000b0: 830d c73e a94b 54be 3eef 90be 6038 a5be
000000c0: 45d3 4ebe 173c 23be e8d6 f4bd 5642 96be
000000d0: b206 2d3e 7d00 ac3d 7c03 b0be 5382 81be
000000e0: 1683 cd3d 18d7 da3c f433 c83e d7e9 6bbd
000000f0: bb98 cfbe d7ff babe 9ff2 08be 65c9 d4bd
00000100: 3b84 b23d 6786 05be 31e5 583e 6838 23be
00000110: 259f c83e 8269 cc3d a284 25be 14ce f23e
00000120: 4895 273e e823 b8be 26d5 87be 7512 ac3e
00000130: 9a31 613e 6d8c c23e 8bea 973c fdb0 b13e
00000140: d536 8c3e 4cd4 113e 8595 18be 4cee 023f
00000150: 4d1f c53d 1708 1fbe 3e68 893d 5578 ff3e
00000160: 3b13 a33e 14d4 72bd bf29 053f 110f 813e
00000170: 7a48 85be b94c ebbe 6ef8 9f3e 810b 003f
00000180: 7389 9bbe 7bba 483e 75a7 343d 3de4 02be
00000190: d75f dcbd 5147 2a3e 7078 d13d a9f5 aa3e
000001a0: 380f 3f3e 4a85 843e e633 f23e f609 353e
000001b0: 89a1 ed3d a6f3 0cbe 5480 c23e 0918 be3d
000001c0: 7b0e a73e 8602 f63e 7626 08be 1fcc a93e
000001d0: bb17 7abd 5412 f53e 5a62 c83e d7f8 1ebe
000001e0: a9bb 1e3c 319a 5bbe 90ea 57be 1312 b0bd
000001f0: e762 11bb ce3d 1ebe 9f48 f1be abd9 a0be

SoftmaxPolicy_l2.weight f4 [128, 128]
0.0022998627 -0.0408273 0.073426746 0.07043026 0.056641046 0.041251544 -0.07225875 0.051660918
-0.058775946 -0.014225385 -0.03716356 0.028133444 -0.066164106 -0.039440006 -0.06009935 -0.10004418
-0.04670195 0.08176947 -0.0061599826 0.032418795 -0.08639929 0.09716512 -0.012215119 -0.07562147
0.08847677 -0.01391677 0.073082194 -0.055433355 -0.06864217 -0.054176696 0.03476903 0.022403652
-0.076122314 0.013775565 0.010240701 0.03430708 -0.040765297 -0.062452946 0.11441224 -0.04765118
0.044147708 0.07273029 -0.06849395 -0.078297034 0.024093062 -0.076281644 0.03505919 -0.032303337
-0.03664882 -0.065015465 0.049183156 -0.045927573 -0.08583131 -0.064354904 -0.039529655 -0.07931264
0.04514756 -0.021621909 0.087488666 0.061477255 -0.056307156 -0.045180824 -0.043011013 0.058524966
0.006133795 -0.025174696 0.091006115 0.10501414 0.0809523 -0.06549671 -0.0352814 -0.012779193
0.09801117 -0.036785517 -0.0442254 0.016795127 -0.019768484 0.043318857 0.01650042 -0.07410458
0.08611495 0.082063965 0.006938317 -0.05249329 0.035959218 0.05457912 0.06220644 -0.037948392
-0.0050658477 -0.025263244 0.08932914 0.1258106 0.0031553307 -0.053399988 0.041915786 0.05138387
0.03865321 -0.07701511 0.016055128 -0.033754744 -0.07178297 -0.036239658 0.055350266 0.042524625
-0.07532286 0.017243508 0.088126265 0.10709347 0.07042401 -0.024425441 0.052089028 0.053039648
0.042349514 -0.058215443 -0.033043552 0.07743459 0.07980213 0.07985498 -0.042440806 -0.017664498
-0.055162158 -0.031086568 0.07275854 -0.06374142 0.005855371 0.021177497 -0.047791097 0.038201418
-0.01869908 0.06977161 -0.042895835 0.013733938 -0.078233115 0.04882381 0.08480676 0.023894891
0.0018935936 -0.045420606 -0.03974212 -0.043485902 -0.048490863 0.024929527 0.012610252 0.08062315
-0.070520476 -0.05771227 -0.036764625 -0.033750437 0.07879315 0.04449138 -0.07793092 -0.0055049723
0.006072157 0.07520738 0.08193381 0.05930349 0.085660554 -0.029245587 -0.0017142765 -0.07982183
0.025528453 0.121573105 0.051016413 0.10605758 -0.035287816 0.029219007 -0.05233135 0.0690099
-0.037914317 -0.041165296 0.013385991 0.016566854 0.0609601 -0.012944233 -0.019770846 0.043318886
0.06100603 0.09976063 0.031198712 -0.0018681668 0.121499725 0.13088147 -0.040481392 0.04102463
0.027376596 -0.039807756 -0.0059779338 -0.01488525 -0.06674899 -0.032512885 0.053933073 0.07486539
0.011153656 -0.07562086 0.013602909 -0.026350424 0.08124816 -0.08555414 -0.011807492 0.086194724
0.013424247 -0.04022585 -0.08247326 0.00010424155 0.055773307 -0.0587447 -0.08394564 0.05456892
-0.031105831 0.060881473 -0.0774053 -0.011268228 -0.055434126 -0.0032201682 -0.085612275 0.046583902
-0.039786573 -0.06351512 -0.042493884 -0.11319405 0.046154056 -0.019731406 -0.0069972766 0.07226483
-0.013571316 0.080040276 0.005286395 -0.05959952 0.023606611 0.026721254 -0.061923917 0.028445274
0.016671535 0.07536994 -0.007924061 -0.0656288 -0.08696705 0.03465394 -0.024106927 -0.021598343
-0.008639773 -0.023566723 0.023965504 0.08191558 0.07292586 -0.06278331 0.09112022 0.061584864
0.01486758 0.041065633 0.05806125 0.07675551 0.04952563 0.030662011 -0.036305122 -0.05773794
00000000: 4bb9 163b 873a 27bd c360 963d bd3d 903d
00000010: 7100 683d 61f7 283d 65fc 93bd 669a 533d
00000020: 0cbf 70bd 9711 69bc d138 18bd 1c78 e63c
00000030: 0c81 87bd d88b 21bd bc2a 76bd f7e3 ccbd
00000040: 8b4a 3fbd c076 a73d aed9 c9bb 92c9 043d
00000050: 1cf2 b0bd 82fe c63d ec21 48bc 6edf 9abd
00000060: 4f33 b53d 2a03 64bc 1eac 953d 160e 63bd
00000070: 4494 8cbd 62e8 5dbd f869 0e3d dd87 b73c
00000080: 04e6 9bbd e8b2 613c 9dc8 273c 9585 0c3d
00000090: 83f9 26bd a9ce 7fbd f750 ea3d e22d 43bd
000000a0: 3ad4 343d 9ef3 943d 8e46 8cbd 325a a0bd
000000b0: d05e c53c 8d39 9cbd 3a9a 0f3d 8150 04bd
000000c0: 131d 16bd d426 85bd 4774 493d 8d1e 3cbd
000000d0: 53c8 afbd 81cc 83bd d9e9 21bd aa6e a2bd
000000e0: a6ec 383d 6e20 b1bc 422d b33d 93cf 7b3d
000000f0: 55a2 66bd 870f 39bd 512c 30bd e0b7 6f3d
00000100: 00fe c83b 2a3b cebc 6a61 ba3d a711 d73d
00000110: 52ca a53d 2423 86bd 3b83 10bd d25f 51bc
00000120: 15ba c83d 69ac 16bd b125 35bd ef95 893c
00000130: 84f1 a1bc 1d6f 313d e42b 873c 24c4 97bd
00000140: 095d b03d 2711 a83d d25a e33b 3403 57bd
00000150: f949 133d 5b8e 5f3d 2ecc 7e3d c66f 1bbd
00000160: 69ff a5bb ddf4 cebc 32f2 b63d 7ed4 003e
00000170: aac9 4e3b f2b9 5abd e3af 2b3d e577 523d
00000180: d452 1e3d 19ba 9dbd 0b86 833c 6a42 0abd
00000190: f302 93bd 0970 14bd f6b6 623d 4d2e 2e3d
000001a0: df42 9abd 4242 8d3c 8b7b b43d d253 db3d
000001b0: 773a 903d dd17 c8bc 4e5b 553d 1a40 593d
000001c0: af76 2d3d 5173 6ebd ad58 07bd 0796 9e3d
000001d0: 4d6f a33d 028b a33d 69d6 2dbd 23b5 90bc
000001e0: b7f1 61bd 42a9 febc 6e02 953d dd8a 82bd
000001f0: 69de bf3b 6e7c ad3c 99c0 43bd 1779 1c3d
00000200: d02e 99bc 6be4 8e3d 8bb3 2fbd 5004 613c
00000210: af38 a0bd 7afb 473d 2baf ad3d 38bf c33c
00000220: 7532 f83a f50a 3abd a2c8 22bd 461e 32bd
00000230: 5b9e 46bd 0239 cc3c 3b9b 4e3c c01d a53d
00000240: 0a6d 90bd b463 6cbd 8196 16bd e63d 0abd
00000250: 4e5e a13d 983c 363d 3f9a 9fbd 0e63 b4bb
00000260: f2f8 c63b 5406 9a3d eacc a73d 37e8 723d
00000270: cd6e af3d 7194 efbc 93b1 e0ba a179 a3bd
00000280: 0c21 d13c 52fb f83d 96f6 503d b734 d93d
00000290: f589 10bd b35c ef3c 6659 56bd 1055 8d3d
000002a0: 0b4c 1bbd f19c 28bd ea50 5b3c 36b7 873c
000002b0: 4cb1 793d 0c14 54bc 78f6 a1bc 256f 313d
000002c0: 75e1 793d 4d4f cc3d 7194 ff3c 47dd f4ba
000002d0: d9d4 f83d cb05 063e d1cf 25bd 7109 283d
000002e0: e244 e03c 750d 23bd 8be2 c3bb 43e1 73bc
000002f0: b2b3 88bd 3b2c 05bd ede8 5c3d 0753 993d
00000300: d3bd 363c 1cdf 9abd bcde 5e3c d8dc d7bc
00000310: 6f65 a63d 0237 afbd 3674 41bc dc86 b03d
00000320: 5ff1 5b3c dcc3 24bd bee7 a8bd 429c da38
00000330: 8d72 643d 489e 70bd b1eb abbd a983 5f3d
00000340: a8d1 febc da5e 793d ac86 9ebd 609e 38bc
00000350: e50e 63bd 7509 53bb 7d55 afbd c3ce 3e3d
00000360: 3ff7 22bd 3714 82bd 110e 2ebd 48d2 e7bd
00000370: 090c 3d3d c2a3 a1bc 6949 e5bb 95ff 933d
00000380: 3a5a 5ebc 28ec a33d 7f39 ad3b a01e 74bd
00000390: a762 c13c 88e6 da3c efa3 7dbd 1006 e93c
000003a0: be92 883c 8e5b 9a3d ecd3 01bc 6468 86bd
000003b0: c81b b2bd 4af1 0d3d e47b c5bc 02ef b0bc
000003c0: d68d 0dbc 000f c1bc 4e53 c43c 5bc3 a73d
000003d0: 275a 953d 8994 80bd 3d9d ba3d 6940 7c3d
000003e0: 2697 733c 7034 283d a2d1 6d3d fe31 9d3d
000003f0: 63db 4a3d e62e fb3c aeb4 14bd 9e7e 6cbd

SoftmaxPolicy_l2.bias f4 [128]
0.053745046 -0.03580245 0.003204648 -0.06341928 -0.049103875 0.054896697 0.019372018 0.028545488
0.049713455 0.026833171 0.007983863 -0.010478985 0.0011070669 0.081798404 0.034507465 0.01094998
0.035669617 -0.039538268 -0.06919022 -0.018065004 0.09481925 0.022007782 -0.065202616 0.058405884
0.080955535 0.0688915 0.011538023 -0.022460144 0.008716576 0.029232876 -0.032345008 -0.04371932
0.020061295 0.044564616 -0.026304137 -0.008719434 -0.06507965 -0.00096422475 -0.018816916 0.090918265
0.061648134 -0.02912494 -0.0684925 -0.07269894 -0.0504498 0.08869151 -0.025774166 0.06549185
0.06748336 -0.009962238 0.038786616 0.028661001 0.08149751 0.042837743 0.05059812 0.08987922
0.010894968 0.08367879 -0.0024086214 -0.0665192 0.08593222 -0.0662645 0.0012294541 0.08451686
-0.025925001 -0.061234687 0.06619079 0.03409993 0.05662929 0.04691346 -0.09253387 0.07219535
-0.07413772 0.011265262 -0.050101098 0.06525506 0.09196924 0.013067791 -0.023124415 0.07640632
0.06968711 -0.016401628 0.07035919 0.006972375 -0.04110804 0.08377268 -0.051419206 -0.064545825
0.051586315 0.033435263 0.0709443 -0.036059443 0.020622425 0.046711106 0.01827062 -0.072177984
0.05739626 0.02324266 -0.01986014 -0.021382678 -0.09254928 0.09467324 0.0131988395 -0.024134854
0.09824788 -0.06333621 0.024532473 -0.013506254 -0.02683348 0.0019350294 -0.012203239 0.075899914
0.06400372 0.03077459 -0.004570999 -0.014414558 -0.0076502655 -0.0020417832 0.032255773 0.07023961
-0.06273541 -0.08899808 -0.013757606 0.07129958 0.04237475 -0.03548997 0.056192726 0.03875685
00000000: c423 5c3d 97a5 12bd 1205 523b f8e1 81bd
00000010: 2521 49bd 5cdb 603d 11b2 9e3c 3ad8 e93c
00000020: 56a0 4b3d 3dd1 db3c c0ce 023c 0cb0 2bbc
00000030: 001b 913a ec85 a73d b357 0d3d 8b67 333c
00000040: 4e1a 123d e1f2 21bd 9ab3 8dbd 0ffd 93bc
00000050: 9830 c23d aa49 b43c f388 85bd 023b 6f3d
00000060: 04cc a53d fd16 8d3d fa09 3d3c 56fe b7bc
00000070: f8cf 0e3c c979 ef3c 337c 04bd 0813 33bd
00000080: 9657 a43c 6389 363d c67b d7bc f5db 0ebc
00000090: 7b48 85bd 07c4 7cba ef25 9abc 5b33 ba3d
000000a0: c182 7c3d 6d97 eebc cc45 8cbd 2fe3 94bd
000000b0: 73a4 4ebd e5a3 b53d 5824 d3bc 9720 863d
000000c0: b734 8a3d a838 23bc b7de 1e3d 7aca ea3c
000000d0: 2be8 a63d a176 2f3d f93f 4f3d 9912 b83d
000000e0: cf80 323c c95f ab3d f6d9 1dbb 383b 88bd
000000f0: 3bfd af3d afb5 87bd a225 a13a 2d17 ad3d
00000100: ab60 d4bc 39d1 7abd 098f 873d 5eac 0b3d
00000110: 1df4 673d 5428 403d 6682 bdbd 28db 933d
00000120: 84d5 97bd ef91 383c cf36 4dbd 72a4 853d
00000130: 5e5a bc3d 4a1a 563c 6a6f bdbc eb7a 9c3d
00000140: 1eb8 8e3d b55c 86bc 7b18 903d 8578 e43b
00000150: e760 28bd 0391 ab3d f29c 52bd 9a30 84bd
00000160: 2c4c 533d 6af3 083d 3f4b 913d 11b3 13bd
00000170: 5cf0 a83c 2554 3f3d 44ac 953c 0dd2 93bd
00000180: 5718 6b3d 6467 be3c bbb1 a2bc ba2a afbc
00000190: 7a8a bdbd 0be4 c13d f23f 583c 75b6 c5bc
000001a0: 2f36 c93d 6ab6 81bd 53f8 c83c 5649 5dbc
000001b0: e3d1 dbbc d0a0 fd3a 18f0 47bc 6a71 9b3d
000001c0: 6214 833d fe1a fc3c 52c8 95bb 0a2b 6cbc
000001d0: 14af fabb 70cf 05bb a11e 043d c9d9 8f3d
000001e0: 6c7b 80bd a044 b6bd 9567 61bc 8405 923d
000001f0: 2591 2d3d ee5d 11bd 582a 663d 81bf 1e3d

SoftmaxPolicy_l3.weight f4 [2, 128]
0.052052848 0.013876572 0.1248021 0.013673855 -0.08861531 -0.017982496 0.04042026 0.09354767
0.01550221 0.00770173 0.069022335 0.069945686 0.08999772 0.01598949 0.004572001 0.09579749
0.05545849 0.09497759 -0.01084038 0.09813933 -0.042666137 0.09757457 -0.038378783 -0.015114022
-0.03553104 0.042503037 0.048117466 0.034298863 -0.087876946 0.006066377 -0.037797276 -0.035112444
0.053190574 -0.00080464716 0.050397042 -0.078755625 0.012472549 0.069371 0.058282275 0.10288758
-0.009063688 0.085336395 -0.06952329 -0.009591644 -0.009592486 -0.027621007 0.032830153 0.0028298162
-0.10165869 -0.096319884 0.03757384 -0.059568353 -0.109969966 0.12860325 -0.055618487 0.09554259
0.06608772 0.047337204 -0.07514194 -0.01902293 0.08107996 0.021775218 -0.12382226 0.0068448456
-0.0647494 -0.06962283 -0.083104976 0.08071084 0.07328678 -0.06777164 -0.034729518 0.078666985
-0.00013396688 -0.057127003 0.02695438 -0.10853335 -0.08713366 0.07021207 -0.0881131 0.099125504
-0.032644946 -0.056943297 -0.08110202 0.055186175 -0.11955742 0.04048432 0.02686924 0.033844978
-0.1026185 -0.064694166 0.044175383 -0.071721725 -0.044947613 0.05559042 0.043379586 0.07262214
0.0032234977 -0.04160022 0.12663691 0.004476711 -0.020930478 0.07460016 -0.08392056 0.08087104
0.034265846 -0.013583828 -0.071694605 -0.026733188 -0.022600705 0.019298997 -0.059495933 0.045756325
-0.11976233 -0.07774861 -0.0068792906 0.10710229 0.07106023 -0.08722475 0.07591772 -0.057143256
0.07502104 0.010204832 -0.023983771 -0.099370085 -0.101846404 -0.10442825 -0.057414114 0.0691111
-0.0047614626 0.10955405 -0.1148312 0.08521462 0.017152773 0.09174674 -0.10106744 -0.07671415
0.10913263 0.050978992 -0.11769822 -0.10024584 -0.026858851 0.122366324 0.085142344 -0.082648836
0.011043864 0.01681638 -0.06492375 -0.08311914 0.10259278 0.009177353 0.036842413 0.104808964
0.03662362 -0.14157785 -0.064615056 -0.061244138 -0.074583724 0.06401674 0.002287782 0.115282945
-0.033364043 0.019330168 -0.028301671 0.077647105 0.06017489 -0.019697335 -0.053534593 -0.04604683
-0.067477494 -0.14481288 0.042080764 0.054087 -0.10662643 0.1283132 -0.061450075 -0.09282748
0.06889113 0.06417118 -0.016910793 0.018872434 0.03696707 -0.11607992 0.1364129 -0.09097855
-0.04976602 -0.1454314 -0.026433961 0.024294596 -0.120491676 -0.069343515 0.011387511 -0.065204084
0.07808683 0.11072448 -0.0022911206 -0.050823804 0.054153137 0.009546961 0.068043716 0.02257217
0.06407171 0.1200136 -0.06272837 -0.054348797 0.004807679 -0.0957311 0.07275783 -0.06875891
0.052225474 -0.06862404 0.06821804 0.02375829 0.11318291 -0.0673194 0.019204756 -0.05156844
0.0050040055 0.06830683 -0.094855756 0.08660329 0.03561737 -0.024977162 0.072789915 0.009795433
-0.10868983 0.07404651 0.016331684 -0.0472165 0.056001667 -0.03974229 0.044872984 -0.038453076
-0.14427447 0.09661027 0.10135129 -0.11942213 -0.07480075 0.08429471 0.0544724 -0.04694474
0.013450861 0.08855611 0.10042842 -0.12640165 -0.05886595 -0.015043807 -0.09736028 -0.012927808
-0.00051373587 -0.01607845 -0.058623426 0.006729251 0.005679675 -0.034734033 0.065778114 -0.07207254
00000000: 5e35 553d 905a 633c 3e98 ff3d 4e08 603c
00000010: f27b b5bd 0750 93bc b78f 253d ec95 bf3d
00000020: fbfc 7d3c cb5e fc3b 955b 8d3d af3f 8f3d
00000030: ba50 b83d 64fc 823c b9d0 953b 7931 c43d
00000040: 7128 633d 9c83 c23d d99b 31bc 46fd c83d
00000050: b0c2 2ebd 2dd5 c73d 1233 1dbd cea0 77bc
00000060: ff88 11bd aa17 2e3d d216 453d f77c 0c3d
00000070: d4f8 b3bd 75c8 c63b 51d1 1abd 11d2 0fbd
00000080: 5cde 593d f5ee 52ba 216d 4e3d a14a a1bd
00000090: aa59 4c3c 6212 8e3d 65b9 6e3d b9b6 d23d
000000a0: dd7f 14bc d9c4 ae3d 3a62 8ebd 4526 1dbc
000000b0: cd29 1dbc 7345 e2bc e978 063d 7074 393b
000000c0: 6e32 d0bd 5c43 c5bd 07e7 193d f2fd 73bd
000000d0: ef37 e1bd 92b0 033e 36d0 63bd d5ab c33d
000000e0: 0059 873d a8e4 413d 04e4 99bd fad5 9bbc
000000f0: 400d a63d f161 b23c 8696 fdbd ba4a e03b
00000100: 559b 84bd 6a96 8ebd f132 aabd ba4b a53d
00000110: 6117 963d dccb 8abd 8a40 0ebd 281c a13d
00000120: 7679 0cb9 01fe 69bd 6fcf dc3c bc46 debd
00000130: 2273 b2bd 59cb 8f3d a474 b4bd 5002 cb3d
00000140: b5b6 05bd 603d 69bd d118 a6bd e60a 623d
00000150: 85da f4bd e3d2 253d e11c dc3c 08a1 0a3d
00000160: a629 d2bd 607e 84bd 3ff1 343d d7e2 92bd
00000170: fd1a 38bd c8b2 633d cbae 313d ebba 943d
00000180: 5141 533b fe64 2abd 1bad 013e 60b1 923b
00000190: 6576 abbc f8c7 983d 8bde abbd b79f a53d
000001a0: 585a 0c3d b48e 5ebc 9fd4 92bd 8fff dabc
000001b0: 1d25 b9bc ee18 9e3c 02b2 73bd fc6a 3b3d
000001c0: f445 f5bd aa3a 9fbd ac6b e1bb 7258 db3d
000001d0: 0788 913d e4a2 b2bd c07a 9b3d 0c0f 6abd
000001e0: a2a4 993d 2b32 273c 9d79 c4bc 8b82 cbbd
000001f0: d994 d0bd 7ade d5bd 102b 6bbd 1f8a 8d3d
00000200: 0b06 9cbb e05d e03d 9f2c ebbd 0185 ae3d
00000210: f983 8c3c b7e5 bb3d 72fc cebd 4f1c 9dbd
00000220: ee80 df3d 59cf 503d c40b f1bd b14d cdbd
00000230: 1807 dcbc 329b fa3d 1c5f ae3d cb43 a9bd
00000240: 53f1 343c 81c2 893c bef6 84bd 5e3a aabd
00000250: 2a1c d23d 9c5c 163c 12e8 163d 15a6 d63d
00000260: a602 163d c9f9 10be e654 84bd 22db 7abd
00000270: 5abf 98bd 351b 833d 9dee 153b 7719 ec3d
00000280: bca8 08bd 4d5a 9e3c e8d8 e7bc 7205 9f3d
00000290: f279 763d 4e5c a1bc 1747 5bbd 9a9b 3cbd
000002a0: a431 8abd d449 14be e15c 2c3d 558a 5d3d
000002b0: f55e dabd 8964 033e 13b3 7bbd 551c bebd
000002c0: cb16 8d3d 2e6c 833d 8188 8abc 5d9a 9a3c
000002d0: c86a 173d 4fbb edbd d3af 0b3e f652 babd
000002e0: 74d7 4bbd f8eb 14be 098c d8bc 7605 c73c
000002f0: 57c4 f6bd f903 8ebd af92 3a3c b889 85bd
00000300: fdeb 9f3d 84c3 e23d a026 16bb 9f2c 50bd
00000310: aecf 5d3d db6a 1c3c 815a 8b3d 45e9 b83c
00000320: 0738 833d b1c9 f53d bb77 80bd d89c 5ebd
00000330: bc89 9d3b ab0e c4bd 0f02 953d 79d1 8cbd
00000340: 61ea 553d c38a 8cbd e6b5 8b3d bfa0 c23c
00000350: 71cc e73d c1de 89bd 4b53 9d3c 6e39 53bd
00000360: a4f8 a33b 74e4 8b3d bc43 c2bd 115d b13d
00000370: 85e3 113d e89c ccbc e112 953d 067d 203c
00000380: c698 debd b2a5 973d 06ca 853c 1766 41bd
00000390: 0162 653d d0c8 22bd bccc 373d f980 1dbd
000003a0: b0bc 13be 9bdb c53d 4491 cf3d 9793 f4bd
000003b0: 2331 99bd b4a2 ac3d 741e 5f3d 2149 40bd
000003c0: 0061 5c3c e85c b53d 6aad cd3d 6f6f 01be
000003d0: 6c1d 71bd 4d7a 76bc d464 c7bd 28cf 53bc
000003e0: 3bac 06ba f4b6 83bc 1e1f 70bd 0c81 dc3b
000003f0: 911c ba3b 4645 0ebd adb6 863d c59a 93bd

SoftmaxPolicy_l3.bias f4 [2]
0.032258295 -0.016481012
00000000: 4621 043d 3003 87bc
