pytorch_models/model280173.pth (torch, 72107 bytes, 6 tensors)

SoftmaxPolicy_l1.weight f4 [128, 4]
000000 2b 22 83 3e 01 98 63 be 48 98 eb bd 72 6a 6b 3e
       0.25612006 -0.22225954 -0.11503655 0.22989824
000010 82 8d ef be 91 e3 a0 3e 27 b9 54 bd ab 37 83 3e
       -0.4678765 0.3142362 -0.051934388 0.2562841
000020 ab 48 8d 3d 21 c4 60 bd ab 74 53 3e 57 3c 4c 3d
       0.06898626 -0.054874543 0.20649974 0.049862232
000030 a6 b6 31 3e dc fc 40 be 59 c4 e8 bc cd 46 51 bd
       0.17354831 -0.18846458 -0.028413938 -0.05109291
000040 d1 58 93 3d e8 ce e5 ba fc e7 de 3e a2 a8 1d 3e
       0.07194675 -0.0017532976 0.43536365 0.1539636
000050 cf ae 3a be b0 8e 99 be 5a 29 ac bd df 23 59 be
       -0.18230747 -0.29991674 -0.08406325 -0.2120509
000060 b7 ab 25 be e3 61 af 3c 5b 98 a0 3e 43 6f 8f 3e
       -0.16178785 0.02140898 0.31366238 0.28014573
000070 1f 5d fa be 90 f7 a7 3e 56 97 84 3e 7a 9c 04 3f
       -0.4889917 0.32806063 0.2589671 0.51801264
000080 fb 24 a8 3e c9 ef eb be 74 56 fb be b1 b5 6f be
       0.32840714 -0.4608138 -0.49089396 -0.23409154
000090 31 d3 d6 3e 54 3f c6 bd 47 d2 5f 3e 15 a1 69 be
       0.41958 -0.09680048 0.21857558 -0.22815354
0000a0 4f 30 f8 3e 7a 3d 70 be 62 98 98 3e 18 7c 25 bc
       0.48474357 -0.23460951 0.2980376 -0.010100387
0000b0 8d ea 84 be 8f 3c 84 3e 51 60 82 be aa aa 1f 3e
       -0.25960198 0.25827453 -0.2546411 0.15592447
0000c0 36 1b 07 be 06 b4 4e bd c2 2a f0 be 47 54 6a be
       -0.13193974 -0.050464652 -0.46907622 -0.22883712
0000d0 74 9c 89 3e 4b ee eb bd 73 a3 00 3f 8d 88 cd 3e
       0.26877177 -0.1152006 0.50249404 0.40143242
0000e0 53 05 f6 bc 26 cc 9e be e0 86 d4 3e ba bd 48 3e
       -0.030031836 -0.31015128 0.4150915 0.19603625
0000f0 24 75 a1 be b5 69 af 3e 57 59 da 3e 17 4f fb 3e
       -0.31534684 0.34260336 0.42646286 0.49083778
000100 29 cd 8e be 85 54 a7 bd d8 95 f0 bc 3e 63 8a 3d
       -0.278909 -0.08170418 -0.029368326 0.0675721
000110 3c 93 c1 be 40 c7 b5 be 6a d6 7e 3e 9a fd fe bd
       -0.37807643 -0.35503578 0.2488648 -0.124507144
000120 0f ac 6b 3e 74 73 08 3d fd 2c 9c 3e c0 00 38 3e
       0.23014854 0.03331323 0.30503073 0.17969036
000130 c8 66 29 3e a0 e9 81 3e 9b 63 a1 be 54 de a5 3e
       0.16543114 0.25373554 -0.31521305 0.32396185
000140 c4 0f b1 be 3c 2d c0 be f6 b4 ab 3d 5c 63 68 bd
       -0.3458234 -0.3753451 0.08384125 -0.05673538
000150 92 fc 94 3e ed f6 90 be 74 cb b6 be 82 90 d2 3e
       0.29098946 -0.2831339 -0.35702097 0.41125876
000160 b2 c1 91 bd 99 a7 8d 3e 29 f7 b4 3d f2 b1 d7 be
       -0.071170226 0.2766693 0.088362046 -0.4212795
000170 c6 9c c6 3d 1d b6 e8 3d 97 7f ae be b9 67 73 be
       0.09697871 0.1136286 -0.34081718 -0.23770036
000180 4f a3 34 3e 24 67 8b 3d 80 ea b8 be a8 23 5d be
       0.17640422 0.06806782 -0.3611641 -0.21595633
000190 f7 df e4 3e 96 17 a8 bd ea 82 cd 3e 3f 7a 88 3e
       0.44702122 -0.08207624 0.40138942 0.26655766
0001a0 9f 67 a4 be 5d 33 d8 be 18 d2 eb 3e e4 82 81 3c
       -0.32110307 -0.42226687 0.46058726 0.015809484
0001b0 76 05 ac 3e 90 8f ec 3d cb c7 89 3e fa d1 d2 3e
       0.33597916 0.1155082 0.26910242 0.41175824
0001c0 53 53 ed 3e 18 b2 a5 be 7f 2a 44 3e 73 5e e2 3e
       0.46352634 -0.32362437 0.19156836 0.44212684
0001d0 f2 81 b3 3e bf 8f 98 3e db d7 bc be c0 45 b8 be
       0.35060078 0.2979717 -0.36883435 -0.35990715
0001e0 f9 02 9d be 4c 57 6c 3d 6d 56 03 3f ea b3 9f be
       -0.3066633 0.05770044 0.5130375 -0.3119195
0001f0 8f 83 8c 3e 2c 39 90 be d5 b5 fd be fe 80 d4 bd
       0.2744412 -0.2816862 -0.4955279 -0.10376166
000200 5e 46 90 3e 64 a2 ed 3e 7c b5 93 be 7c 4d e3 3d
       0.28178686 0.46412957 -0.288494 0.11098763
000210 17 02 d6 3e 19 65 b5 3e e9 1b d2 3e 52 88 c0 3e
       0.4179847 0.35428694 0.4103692 0.37604004
000220 ed d9 9a 3e 04 bc e9 3d 7f d4 aa be f6 d2 d1 be
       0.3024439 0.11412814 -0.33365247 -0.40981263
000230 3c 1f 71 be ca 07 63 bd 53 a0 3c be bc 7f 7c 3e
       -0.23547071 -0.05542735 -0.18420534 0.24658102
000240 47 81 1f 3e 96 08 ea bd 06 be 57 3e e5 30 33 3e
       0.15576659 -0.11427419 0.21068582 0.1749912
000250 91 a0 97 3e b8 b1 b8 3e 07 67 76 bd 6b 3e 05 3f
       0.2961469 0.3607309 -0.06015685 0.5204837
000260 68 d1 38 bd f7 2e 03 bd 78 0a 1b bf ba e9 bd be
       -0.04512158 -0.03202721 -0.6056285 -0.37092382
000270 c9 fc 93 be 71 a8 5a be 0d 02 b0 3e 62 d0 27 be
       -0.28903797 -0.21353318 0.34376565 -0.16388085
000280 cb 99 ba be 0a bc 60 3e bc fe 85 3e 63 58 b0 3e
       -0.3644546 0.21946731 0.2617091 0.34442434
000290 fc bd 85 be d9 f1 d4 3d a1 3a 3b be f3 f0 e2 bd
       -0.2612151 0.10397691 -0.18284084 -0.11081114
0002a0 d0 ad c9 be 70 f1 6a be f4 41 2e be 68 b7 5b 3e
       -0.3939042 -0.22943664 -0.17017347 0.21456683
0002b0 7e 25 a9 3d f2 75 15 3e 48 0b 20 3f d3 23 03 3f
       0.08259104 0.14595774 0.62517214 0.5122654
0002c0 c0 d0 a9 3e af 83 c1 3c c7 fa 61 be bb 98 e5 3e
       0.33167076 0.023622362 -0.2206832 0.44843087
0002d0 29 97 06 be ab 28 42 bd 27 5f e1 be 01 44 cb bd
       -0.131436 -0.047402065 -0.44017908 -0.0992508
0002e0 15 85 aa be 0e 15 e8 3e 04 23 f4 be 31 c5 d6 be
       -0.3330466 0.45328563 -0.47682965 -0.4194732
0002f0 d6 de 36 bc 88 7e 88 be 4a 97 31 3e 5f e3 44 be
       -0.011161527 -0.26659036 0.17342868 -0.1922736
000300 26 b0 6e be f2 63 2a 3d f6 da ae 3e 42 bc c2 be
       -0.23309383 0.04159922 0.3415143 -0.38034254
000310 03 e2 6b 3e fc 51 a2 3e 15 a2 f0 3e dd 1f b9 be
       0.23035435 0.31703174 0.4699866 -0.36157122
000320 97 d5 0b 3e 52 e5 b9 be 0b a9 c8 3e af 39 53 be
       0.13655697 -0.3630777 0.3919147 -0.20627473
000330 8b 08 97 3e 5f 53 8a 3c 78 d4 52 bc e1 22 d2 bb
       0.29498705 0.016885458 -0.012868039 -0.0064128493
000340 81 75 95 3d 44 c7 72 3e 03 8a 5b 3e f6 cf 64 3e
       0.07297803 0.23708826 0.21439366 0.22344956
000350 ca 9c e5 be 7c f7 be 3e 95 8e 08 3f bb 18 ed 3e
       -0.44846183 0.3729819 0.5334256 0.4630793
000360 14 e6 b2 3e c7 34 b8 be a5 cf 1d be 0a 7f e3 3e
       0.3494116 -0.35977766 -0.15411241 0.4443286
000370 c3 df c6 be f4 b0 e9 3e a7 00 df be bd 24 c8 be
       -0.38842592 0.45642817 -0.43555185 -0.3909053
000380 19 bd 74 3e 31 de b1 be 9e 0a 44 bd 7a 95 c9 3e
       0.2390026 -0.3473983 -0.047861688 0.39371854
000390 bc 0d cd 3e 7c f2 ee 3e d7 2d 4a be bb 6d e2 be
       0.4004954 0.46669376 -0.19744049 -0.44224343
0003a0 a5 d1 f7 3e 2e 6f 05 be 70 09 77 be 41 78 08 3e
       0.48402134 -0.13030693 -0.24124694 0.13327123
0003b0 ca d9 b3 be 30 2e a4 3e 65 29 6d 3e f8 a0 e4 be
       -0.35127097 0.32066488 0.23160322 -0.4465406
0003c0 76 5c d3 be 39 d1 43 bd bc 3e 46 3e 08 b0 5b bc
       -0.4128148 -0.047806952 0.19359869 -0.013408668
0003d0 03 31 80 be 24 72 9e 3c 07 dd f2 be 98 52 b9 be
       -0.25037393 0.019341536 -0.47434255 -0.36195827
0003e0 12 43 a9 be 70 bb d4 3e 9a b9 d0 3e 3d 94 49 be
       -0.33058983 0.41549253 0.40766603 -0.19685455
0003f0 24 41 ea 3c a5 28 57 3e 72 bf 1c 3c df 7e 89 be
       0.028595515 0.21011598 0.0095671285 -0.26854607

SoftmaxPolicy_l1.bias f4 [128]
000000 ae fa c1 be 9d ae b5 3e 61 d2 a9 3e 18 f2 ff be
       -0.37886566 0.35484782 0.3316832 -0.4998939
000010 4c d1 c9 be 0a 5f ad be dd 24 85 be 4a 62 f3 3d
       -0.39417493 -0.33861572 -0.26004687 0.118839815
000020 08 2a f8 be 15 88 c8 be 70 d0 6c 3e 35 af 2e be
       -0.48469567 -0.39166322 0.23126388 -0.17059024
000030 7c c9 5b be a4 86 d4 be f8 d6 43 3e f6 fa e6 3d
       -0.21463579 -0.41508973 0.19124973 0.11278336
000040 65 99 51 be 57 48 9f be 22 c5 ee 3d e7 51 1a 3e
       -0.20468672 -0.31109878 0.11658694 0.15070306
000050 65 13 44 3e 49 03 29 3e 44 03 4d bd fb c1 c8 be
       0.19148023 0.1650516 -0.050051942 -0.39210495
000060 28 3c b3 3e 90 ef 08 3d 23 67 b0 be e7 46 f0 3e
       0.35006833 0.03343159 -0.34453687 0.46929094
000070 f9 8d 92 3e 44 fe cf be 56 7a 7d be 48 8e 23 be
       0.28623942 -0.40623677 -0.24753699 -0.15972245
000080 37 fe 94 be a2 6d 70 3e 62 b6 c1 be 99 80 e7 3e
       -0.291002 0.23479322 -0.3783446 0.452153
000090 8a 81 4a be b9 5d 9b 3e f7 45 c4 3d 57 19 6b be
       -0.19775978 0.30344942 0.09583657 -0.22958885
0000a0 6d 8a b0 3e c5 40 c2 be 74 c2 87 be 1d b9 de 3d
       0.3448061 -0.3794004 -0.26515543 0.10875151
0000b0 38 42 c7 3e 7c f7 53 be 40 5c 91 be 6a 0c a5 be
       0.38917708 -0.20699877 -0.28390694 -0.32236034
0000c0 03 35 4c be 24 e9 22 be ba 70 f4 bd 45 f0 95 be
       -0.19942097 -0.15909249 -0.119355634 -0.29284874
0000d0 52 7c 2d 3e c9 75 ab 3d f1 d5 ae be 32 29 82 be
       0.16941956 0.08372075 -0.341476 -0.25422055
0000e0 3b 03 cd 3d 7b ce d4 3c 3f fe c7 3e 07 a1 72 bd
       0.10010382 0.025977364 0.39061162 -0.0592356
0000f0 b7 07 cf be de c5 ba be 83 74 06 be 95 fa d8 bd
       -0.40435573 -0.36479086 -0.13130383 -0.1059467
000100 07 4d b0 3d d5 06 05 be 89 d1 58 3e 2e 94 23 be
       0.08608442 -0.12990887 0.21173681 -0.15974495
000110 bb b7 c8 3e 7b 15 cc 3d 1b 3d 25 be 3c 50 f3 3e
       0.39202675 0.099650346 -0.16136591 0.4752215
000120 24 02 27 3e 30 34 b8 be 20 a2 87 be 60 ca ab 3e
       0.1630941 -0.35977316 -0.2649088 0.33552837
000130 e8 83 61 3e 38 a5 c2 3e 12 5f 94 3c fc ee b1 3e
       0.22022974 0.38016677 0.01811174 0.34752643
000140 57 fa 8b 3e 33 40 11 3e 84 bb 18 be c9 e2 02 3f
       0.27339432 0.14184646 -0.14915282 0.51127297
000150 0e 8c c5 3d 9c fc 1d be ea a6 88 3d 4b 74 ff 3e
       0.09645854 -0.15428394 0.06672461 0.49893412
000160 a7 a0 a3 3e e2 81 70 bd 48 27 05 3f 4c c3 80 3e
       0.31958506 -0.058717616 0.52013063 0.25149
000170 72 55 84 be ea 4b eb be 3f f4 9f 3e 44 32 00 3f
       -0.2584644 -0.45956355 0.31241032 0.500767
000180 26 f3 9a be 98 a7 49 3e 5c 07 2f 3d c1 bf 02 be
       -0.30263633 0.19692838 0.042731628 -0.12768461
000190 2e e9 df bd 13 64 2a 3e 97 1d d1 3d b4 5d ab 3e
       -0.10933147 0.16639738 0.10210722 0.33469927
0001a0 5d 52 3d 3e df bf 84 3e 2c 13 f2 3e bf 9b 34 3e
       0.1848845 0.25927636 0.47280252 0.17637537
0001b0 ff 96 ec 3d 1a 0e 0d be ef bf c2 3e 37 86 bf 3d
       0.11552238 -0.1377491 0.3803706 0.09351771
0001c0 c2 45 a7 3e 0c 3e f6 3e 0a ff 07 be 95 0b aa 3e
       0.32670408 0.48094213 -0.13280883 0.3321196
0001d0 3b ec 80 bd fb 01 f5 3e 65 b1 c8 3e 8a ae 1f be
       -0.062950574 0.47853073 0.3919784 -0.15593925
0001e0 e3 5f 37 3c 52 41 5a be f2 6b 57 be 3f b0 b2 bd
       0.011192295 -0.2131398 -0.21037272 -0.087250225
0001f0 fb 70 0d bb 0c 32 1e be 4c f1 f0 be 9a c6 a0 be
       -0.0021582234 -0.15448779 -0.47059095 -0.3140152

SoftmaxPolicy_l2.weight f4 [128, 128]
000000 6c 7b 98 3a b3 39 29 bd 05 2f 96 3d 8d 69 92 3d
       0.0011633462 -0.041314792 0.07333187 0.071490385
000010 71 00 68 3d cb 34 2a 3d df d0 93 bd 25 ad 51 3d
       0.056641046 0.041554254 -0.072175734 0.051190514
000020 8e 90 73 bd 2e bd 5b bc bf 8e 17 bd 8e ce d9 3c
       -0.05946403 -0.013411803 -0.037001368 0.02658775
000030 b2 28 86 bd 36 b7 25 bd 0d da 74 bd 7c 4f cf bd
       -0.06550731 -0.040457927 -0.059778262 -0.10122582
000040 71 8c 3d bd ed 6e a8 3d 77 32 cd bb 26 a1 03 3d
       -0.046276513 0.082242824 -0.0062621194 0.032136105
000050 15 dd af bd bc c2 c8 3d 22 88 5a bc f5 fe 9d bd
       -0.0858709 0.09802768 -0.013338121 -0.07714645
000060 7c bd b4 3d 87 0b 62 bc 1a 48 96 3d 1a bc 63 bd
       0.08825204 -0.013796694 0.07337971 -0.05559931
000070 dd a0 8b bd fa 98 5d bd a5 61 0e 3d f3 bc bc 3c
       -0.068177916 -0.054100968 0.03476109 0.023039317
000080 f1 79 9c bd 41 fa 5c 3c a5 1b 2b 3c 0a 74 0c 3d
       -0.07640446 0.0134874 0.010443603 0.03429035
000090 01 9c 2c bd 4a 85 80 bd 93 01 ea 3d 65 2a 41 bd
       -0.042140964 -0.06275423 0.114260815 -0.04715957
0000a0 0f 9a 33 3d 04 28 94 3d 13 7c 8b bd c9 d0 a0 bd
       0.043848094 0.07234195 -0.06810775 -0.078523226
0000b0 dd 7d c5 3c cb b1 9a bd d7 51 0b 3d 7c 0e 04 bd
       0.024107868 -0.075534426 0.034013595 -0.032240376
0000c0 e5 a6 14 bd 71 ed 85 bd d9 87 40 3d 95 e7 38 bd
       -0.036291976 -0.06539429 0.047004554 -0.04514273
0000d0 4b 1a b1 bd 09 ba 85 bd c7 15 25 bd c5 ee a3 bd
       -0.08647593 -0.06529624 -0.04030397 -0.08004526
0000e0 18 a1 3b 3d 76 f6 b4 bc 12 6a b3 3d 69 4b 7a 3d
       0.045807928 -0.022090178 0.08760466 0.061107073
0000f0 9f 86 64 bd 84 6c 38 bd dc cb 31 bd 8d d7 6c 3d
       -0.055792447 -0.045025364 -0.043407306 0.057822753
000100 59 d8 b9 3b ee b1 cf bc e5 9c bb 3d 23 01 d8 3d
       0.0056715426 -0.025353398 0.09160785 0.10547092
000110 92 6e a4 3d 10 bb 85 bd 2b 6d 0e bd 70 54 4d bc
       0.08028902 -0.0652982 -0.03477208 -0.0125323385
000120 25 ce c6 3d 2d 05 17 bd eb fc 33 bd 63 9d 8a 3c
       0.09707288 -0.03687017 -0.043942373 0.016920751
000130 2e 38 9d bc 5a 85 2e 3d ea 85 89 3c d4 a2 99 bd
       -0.019191828 0.042607643 0.016787488 -0.0750176
000140 b6 2a b0 3d 80 53 a9 3d f0 25 ed 3b 4d 2d 56 bd
       0.086018965 0.082678795 0.0072371885 -0.052289296
000150 58 d1 15 3d e7 fd 5f 3d 6b ef 7f 3d bf 69 1a bd
       0.0365766 0.0546855 0.062484186 -0.037698504
000160 1a a1 a1 bb 08 2d cf bc e9 a2 b7 3d 0c c7 00 3e
       -0.004932535 -0.025290027 0.089666195 0.1257593
000170 f9 9d 54 3b e1 c2 5a bd 99 bb 25 3d c4 7f 53 3d
       0.0032442792 -0.053408507 0.04046211 0.05163552
000180 64 ea 15 3d 33 08 9d bd 5a 90 81 3c 62 70 0a bd
       0.036600485 -0.076675795 0.015815903 -0.033798583
000190 c5 f6 94 bd 77 f0 12 bd 05 03 64 3d fc a6 2f 3d
       -0.0727363 -0.035873856 0.055666942 0.042883858
0001a0 c1 bd 9d bd 9e 39 82 3c e1 55 b3 3d 93 50 db 3d
       -0.07702208 0.015896615 0.087566145 0.10708728
0001b0 58 79 8e 3d 91 29 c9 bc 5a 13 50 3d fe f5 56 3d
       0.06956738 -0.024555953 0.050799705 0.05248069
0001c0 bf e2 2f 3d 29 a9 6e bd a9 60 05 bd cb 3c 9f 3d
       0.04294085 -0.058266792 -0.032562885 0.07775267
0001d0 66 93 a0 3d c8 1f a4 3d 01 4e 2f bd b9 c0 8e bc
       0.07840614 0.08013874 -0.042799 -0.017425882
0001e0 7a 6b 60 bd 91 86 f8 bc 2c b7 94 3d 31 ba 82 bd
       -0.054789998 -0.030337604 0.072615 -0.063831694
0001f0 33 48 d9 3b 73 d0 b2 3c e6 b2 42 bd aa 5a 23 3d
       0.0066309213 0.021827912 -0.047533892 0.039881386
000200 5d c7 8e bc 0f 20 90 3d 8e 63 2e bd 63 ad 4f 3c
       -0.017429048 0.07037365 -0.04257541 0.012675616
000210 af 38 a0 bd 5f ee 46 3d d8 80 ad 3d 49 44 c7 3c
       -0.078233115 0.048567172 0.084718406 0.024324553
000220 24 06 29 3b 0b 30 3c bd ea 86 22 bd 87 75 2c bd
       0.0025791014 -0.045944255 -0.039679445 -0.04210427
000230 59 ea 48 bd 9d 4f d5 3c 6e 7a 4a 3c 78 46 a7 3d
       -0.049051616 0.02603894 0.012358291 0.08167738
000240 1e 2d 91 bd f1 06 6e bd 40 81 15 bd 0d 88 08 bd
       -0.070886835 -0.05811209 -0.036500216 -0.033332873
000250 eb 81 a0 3d 2c 6a 33 3d ea 97 9c bd 4d b8 86 bb
       0.0783728 0.043802425 -0.07646163 -0.004111326
000260 26 eb d7 3b 0f 2b 9a 3d a6 46 a7 3d 62 51 74 3d
       0.006589311 0.07527744 0.08167772 0.059647925
000270 aa d6 ae 3d e2 78 ee bc d2 da d2 ba a1 6d a4 bd
       0.08537038 -0.029110376 -0.0016086942 -0.080287226
000280 dc 62 d4 3c 16 e2 f9 3d 20 f3 50 3d 92 73 d9 3d
       0.025926046 0.122013256 0.051013112 0.106177464
000290 75 7d 0a bd 3f f7 f2 3c 0c 9a 53 bd 4a 7f 8c 3d
       -0.03381105 0.029658912 -0.051660582 0.06860216
0002a0 f6 cc 19 bd 9d 09 27 bd d9 d2 55 3c f0 60 8a 3c
       -0.03754898 -0.040780652 0.013050758 0.016891927
0002b0 80 53 7a 3d 96 d4 5e bc 3f f8 96 bc 07 3b 31 3d
       0.061114788 -0.013600489 -0.01842892 0.043269183
0002c0 06 b3 79 3d 69 89 cd 3d de 0d 08 3d 53 69 19 bb
       0.060961746 0.100359745 0.03321635 -0.0023408725
0002d0 d0 60 fa 3d 9b e7 06 3e 8f 42 22 bd c5 63 2c 3d
       0.12225497 0.13174288 -0.039614256 0.042087335
0002e0 dc 16 dc 3c 80 34 20 bd 2d 7a c0 bb 7a 65 66 bc
       0.026866369 -0.039112568 -0.0058739395 -0.01406228
0002f0 af a2 89 bd 94 a7 05 bd 62 a2 5f 3d 77 4c 9b 3d
       -0.067204826 -0.032630518 0.05459822 0.07582944
000300 41 8e 41 3c ec 3c 9a bd 7d d3 5a 3c c2 f1 d9 bc
       0.011813701 -0.07531151 0.013356087 -0.026604537
000310 53 44 a8 3d 9b 57 af bd 5b 3a 46 bc 9d 2a b0 3d
       0.08216157 -0.08561631 -0.012098874 0.08601878
000320 40 23 72 3c ce ab 23 bd 91 5e a9 bd 1a 66 7d 39
       0.014778912 -0.039958768 -0.0826999 0.00024165996
000330 8f 65 62 3d 91 c5 6c bd 6d fe ab bd fb bb 63 3d
       0.055272635 -0.0578056 -0.08398137 0.055599194
000340 40 66 fb bc e9 97 77 3d a6 0d 9f bd a4 bc 37 bc
       -0.030688405 0.060447607 -0.07766275 -0.011214409
000350 40 38 65 bd 0f 6d 58 bb 29 03 af bd 1f 3d 3e 3d
       -0.055961847 -0.0033023988 -0.085455246 0.04644501
000360 15 6b 23 bd 19 a2 81 bd 78 c0 2e bd 27 0d e7 bd
       -0.039897043 -0.06329746 -0.04266402 -0.112818055
000370 22 7f 3d 3d c0 96 a1 bc 2d 99 b1 bb 3d d5 93 3d
       0.04626382 -0.019725204 -0.0054198713 0.07218406
000380 e8 d0 40 bc 33 50 a3 3d ac 24 b7 3b 38 3e 73 bd
       -0.011768557 0.07974281 0.0055890884 -0.05938551
000390 65 c8 cc 3c 71 e5 d9 3c 59 26 7e bd 04 38 e7 3c
       0.0249979 0.026598664 -0.06204829 0.028224953
0003a0 02 a5 98 3c 39 06 9d 3d 5e 33 e7 bb 05 99 85 bd
       0.01863337 0.076672025 -0.007055684 -0.06523327
0003b0 3a 8f af bd bd 25 0f 3d 11 22 ba bc 74 16 ac bc
       -0.0857224 0.0349481 -0.022721322 -0.0210068
0003c0 a9 db 15 bc 84 21 bf bc 45 15 c1 3c cb 59 a7 3d
       -0.009146609 -0.023331411 0.023569712 0.081714235
0003d0 75 9c 98 3d e0 9e 80 bd e4 aa bb 3d 1f 7a 7c 3d
       0.07451717 -0.06280303 0.09163454 0.0616399
0003e0 f2 d9 6f 3c 98 01 26 3d 84 2a 6f 3d 62 a4 9d 3d
       0.014639365 0.040528864 0.058390155 0.07697369
0003f0 d7 83 48 3d 09 ab f6 3c 5e 9b 15 bd 01 1c 72 bd
       0.048953857 0.030110853 -0.036525123 -0.059108738

SoftmaxPolicy_l2.bias f4 [128]
000000 39 61 5b 3d 85 e5 10 bd 09 4a 41 3b f2 ff 80 bd
       0.053559516 -0.035375137 0.0029493591 -0.06298818
000010 1c 33 47 bd d1 01 63 3d 6e 26 9c 3c a7 b7 e4 3c
       -0.048632726 0.055421654 0.019061293 0.027919604
000020 04 1f 4d 3d 7f ce db 3c fa 46 fb 3b 8d e7 2f bc
       0.050078407 0.026831863 0.007668373 -0.010736358
000030 00 1b 91 3a ca 3e a8 3d 29 7d 10 3d 15 40 2d 3c
       0.0011070669 0.08215101 0.035275612 0.01057436
000040 1a b3 13 3d 9c 65 23 bd 05 b5 8d bd 8e 52 97 bc
       0.036059476 -0.039891824 -0.06919292 -0.018471982
000050 7b e8 c2 3d 31 86 b1 3c f3 88 85 bd c7 f2 71 3d
       0.095169984 0.021670433 -0.065202616 0.05906942
000060 04 cc a5 3d f7 72 8c 3d e5 2f 3b 3c 8d ec ba bc
       0.080955535 0.06857865 0.011424993 -0.022817874
000070 f8 cf 0e 3c b8 3b f3 3c 7c a0 02 bd 6c 70 31 bd
       0.008716576 0.029691562 -0.03189133 -0.043320104
000080 3f 4f a1 3c b4 a4 36 3d 22 f1 d9 bc f5 db 0e bc
       0.019691108 0.044590667 -0.026604239 -0.008719434
000090 7b 48 85 bd 70 a4 d6 b9 7c eb 9c bc b8 ce ba 3d
       -0.06507965 -0.00040939776 -0.019155256 0.0912146
0000a0 b6 41 7c 3d 29 63 f1 bc cc 45 8c bd 52 cf 94 bd
       0.061586104 -0.029466229 -0.0684925 -0.07266106
0000b0 c0 25 50 bd f9 54 b6 3d ac 05 d2 bc 0c 75 86 3d
       -0.05081725 0.08902926 -0.02563747 0.06565294
0000c0 a2 40 8b 3d ff f4 1c bc cd b8 1f 3d 32 02 ef 3c
       0.06799437 -0.009579896 0.0389946 0.029175851
0000d0 86 33 a8 3d c6 58 2e 3d 3f 3a 51 3d cf a5 b7 3d
       0.08212952 0.04256513 0.05108094 0.08967172
0000e0 03 4a 2b 3c da 9b aa 3d f6 d9 1d bb 75 51 88 bd
       0.0104546575 0.083305076 -0.0024086214 -0.06656162
0000f0 38 12 af 3d af b5 87 bd 30 50 d5 3a 93 37 ad 3d
       0.08548397 -0.0662645 0.0016274508 0.084578656
000100 27 62 c3 bc c6 a8 7a bd 09 8f 87 3d d3 85 0a 3d
       -0.023850514 -0.06119611 0.06619079 0.03381903
000110 73 62 69 3d 98 d3 41 3d 80 48 bd bd 79 e1 92 3d
       0.056978654 0.047320932 -0.09242344 0.07171912
000120 ca 8c 95 bd f6 35 3c 3c b4 d7 4e bd dc 71 86 3d
       -0.07302244 0.011487475 -0.05049868 0.06564686
000130 4c ff bc 3d 29 ee 58 3c 0e 7e b9 bc 0a fe 9b 3d
       0.092283815 0.013240376 -0.022643115 0.076168135
000140 63 f8 8e 3d 5d 5d 85 bc 4a ca 90 3d fb cf f0 3b
       0.0698097 -0.01627987 0.070698336 0.007349012
000150 d2 0c 26 bd b0 35 ab 3d a1 77 52 bd e6 1e 84 bd
       -0.04053957 0.083598495 -0.05138362 -0.06451206
000160 bd a5 54 3d 6a f3 08 3d db 6a 90 3d 56 8a 12 bd
       0.051915873 0.033435263 0.07051631 -0.03577646
000170 d3 f8 aa 3c e0 52 3d 3d 44 ac 95 3c 18 c1 93 bd
       0.020870602 0.046221614 0.01827062 -0.07214564
000180 9d 35 69 3d a7 59 c2 3c a7 1d a6 bc 8b 4a b6 bc
       0.056935895 0.02372439 -0.020277811 -0.022252342
000190 ad bc bb bd a0 fa c0 3d d2 7d 55 3c c4 8f c7 bc
       -0.091668464 0.09422803 0.013030486 -0.024360545
0001a0 19 97 c8 3d 14 1e 82 bd 48 87 cc 3c 98 6f 62 bc
       0.097944446 -0.06353393 0.02496685 -0.013820551
0001b0 fd 1f dc bc d0 a0 fd 3a 1c 3e 41 bc 8c da 9a 3d
       -0.026870722 0.0019350294 -0.011794593 0.07561216
0001c0 1e ce 83 3d 72 52 fe 3c f9 09 87 bb 7f 9a 72 bc
       0.06435798 0.031045172 -0.004121062 -0.014807343
0001d0 d5 7c 00 bc dc 75 c6 ba 05 0d 03 3d c9 d9 8f 3d
       -0.007842262 -0.0015141326 0.03199484 0.07023961
0001e0 a8 dd 80 bd a0 44 b6 bd f3 a8 6b bc 9d dc 92 3d
       -0.062922776 -0.08899808 -0.014383542 0.07170985
0001f0 c3 c7 2e 3d 00 2a 0f bd 20 d4 67 3d e4 af 1e 3d
       0.042670976 -0.034952164 0.056598783 0.03874196

SoftmaxPolicy_l3.weight f4 [2, 128]
000000 dc ca 55 3d 57 3f 5e 3c 0c 47 ff 3d 8e 41 61 3c
       0.052195415 0.013564906 0.12464723 0.01374854
000010 ce 47 b6 bd 69 a0 96 bc 92 ff 25 3d 96 b5 bf 3d
       -0.089004144 -0.018387036 0.040526934 0.09360807
000020 0b da 7a 3c 2a 71 fc 3b c3 86 8d 3d 8e 5f 8e 3d
       0.015310775 0.00770392 0.069104694 0.06951819
000030 ba 50 b8 3d cd b8 7a 3c cd e3 79 3b b6 e7 c3 3d
       0.08999772 0.015302849 0.0038130165 0.0956568
000040 e9 9c 63 3d 38 ab c1 3d 72 9c 31 bc 9b 8b c9 3d
       0.055569563 0.094564855 -0.010840522 0.09841081
000050 c9 ab 2e bd 66 3a c9 3d 12 33 1d bd 02 ab 76 bc
       -0.042644296 0.09825592 -0.038378783 -0.01505542
000060 ff 88 11 bd 8b c2 2e 3d 3b 25 47 3d e6 2b 0c 3d
       -0.03553104 0.042666 0.04861949 0.034221552
000070 d4 f8 b3 bd 94 ff bf 3b d6 10 1f bd df ee 11 bd
       -0.087876946 0.0058593247 -0.038834415 -0.035628196
000080 31 6d 5b 3d b4 36 54 ba fd fd 4d 3d a1 4a a1 bd
       0.05357093 -0.00080953096 0.05029105 -0.078755625
000090 aa 59 4c 3c 9a 3f 8f 3d 0d 0f 6e 3d 53 a3 d2 3d
       0.012472549 0.06994553 0.058119822 0.10285058
0000a0 d7 3e 16 bc 1b de ae 3d 3a 62 8e bd b5 33 1d bc
       -0.009170256 0.08538457 -0.06952329 -0.009594847
0000b0 8f 6b 1d bc 0c 63 e7 bc 28 6a 06 3d 08 a3 26 3b
       -0.0096081635 -0.028245471 0.032816082 0.0025426764
0000c0 57 32 d0 bd c3 04 c6 bd 4c 1c 1b 3d 3c ab 74 bd
       -0.101658516 -0.09668877 0.037868783 -0.059733614
0000d0 a0 ed e1 bd f8 e5 03 3e 40 a0 66 bd b5 14 c3 3d
       -0.110316515 0.12880695 -0.05630517 0.09525434
0000e0 eb b5 86 3d e9 c2 41 3d 04 e4 99 bd 2e 35 a6 bc
       0.06577667 0.04730502 -0.07514194 -0.02028903
0000f0 47 73 a6 3d f1 61 b2 3c 21 87 fe bd c0 26 00 3c
       0.08127456 0.021775218 -0.124281175 0.007821739
000100 78 40 87 bd 0d 85 8e bd f1 32 aa bd 64 67 a5 3d
       -0.06604093 -0.06958971 -0.083104976 0.08076361
000110 4c 17 96 3d c6 b5 8c bd 64 21 0e bd 6d c1 a0 3d
       0.07328662 -0.06870608 -0.034699813 0.07849393
000120 13 41 8f ba 94 89 6d bd 23 bc db 3c 8c 67 df bd
       -0.0010929428 -0.057992533 0.026823109 -0.10908422
000130 2d 13 b3 bd f0 0f 91 3d a2 ed b4 bd c6 be ca 3d
       -0.08743892 0.07083118 -0.08834387 0.098996684
000140 a9 c2 05 bd 3f 4e 68 bd d2 b8 a7 bd a2 76 62 3d
       -0.032656346 -0.056715246 -0.081895486 0.05528892
000150 c7 ba f5 bd 93 08 27 3d cb 09 df 3c 35 75 0b 3d
       -0.119985156 0.04077966 0.02722635 0.034047324
000160 e3 9a d2 bd 60 7e 84 bd 52 6d 34 3d 5e b4 93 bd
       -0.102834485 -0.064694166 0.04404957 -0.07212137
000170 3e f6 39 bd 57 e9 64 3d cb ae 31 3d f8 02 95 3d
       -0.04540085 0.055886593 0.043379586 0.07275957
000180 b3 fa 5a 3b 94 05 2b bd 33 97 01 3e 82 62 84 3b
       0.0033413589 -0.041753367 0.12655334 0.0040400634
000190 f9 cc ad bc b5 8c 98 3d b0 be ae bd 8e 65 a6 3d
       -0.021215903 0.07448713 -0.085324645 0.08124839
0001a0 8a 51 0d 3d d4 17 71 bc 21 46 93 bd fb 1b d9 bc
       0.03450159 -0.014715154 -0.071911104 -0.0265026
0001b0 3b 06 c1 bc ee 18 9e 3c 6d ac 75 bd 1f b8 3b 3d
       -0.023562541 0.019298997 -0.05997889 0.04582989
0001c0 d6 e4 f5 bd 24 e4 9f bd ec 20 e3 bb 92 bb da 3d
       -0.120065376 -0.07807186 -0.006931415 0.106803074
0001d0 c8 6e 90 3d da e5 b2 bd 3d 4b 9b 3d 0c 0f 6a bd
       0.0705238 -0.08735247 0.0758271 -0.057143256
0001e0 14 ad 99 3d 2b 32 27 3c 4d a4 c0 bc ba f0 cb bd
       0.07503715 0.010204832 -0.023515845 -0.09958024
0001f0 e2 61 d1 bd 6f bf d5 bd 7a 51 6c bd 02 8a 8d 3d
       -0.10223748 -0.10436904 -0.05769489 0.069110885
000200 14 b2 a0 bb 4a 01 e1 3d 6e db ea bd d9 5d ae 3d
       -0.004904041 0.10986574 -0.11467634 0.08513994
000210 5f b3 8f 3c d3 b9 bc 3d 62 34 cf bd f8 3b 9d bd
       0.017541585 0.09215131 -0.10117413 -0.07677454
000220 4b e5 df 3d 11 cd 50 3d f2 36 f1 bd 90 6d cc bd
       0.10932406 0.050976817 -0.11778058 -0.09981835
000230 18 07 dc bc 36 03 fc 3d 08 ed af 3d 08 fa a8 bd
       -0.026858851 0.123053 0.08590132 -0.08250815
000240 6a 1f 33 3c 1b 24 8d 3c ad f6 84 bd b3 c8 aa bd
       0.010932783 0.01722913 -0.06492362 -0.083390616
000250 b7 10 d2 3d a4 32 0b 3c 12 e8 16 3d 4d 87 d6 3d
       0.10257094 0.00849596 0.036842413 0.10475025
000260 a6 02 16 3d 7f 24 11 be 17 5c 85 bd 11 8a 7a bd
       0.03662362 -0.14174078 -0.06511705 -0.061166827
000270 5a bf 98 bd c7 87 83 3d f1 e6 59 3b e0 27 ed 3d
       -0.074583724 0.06422382 0.0033249224 0.11579871
000280 91 37 0a bd 8a 64 9e 3c a7 fa e6 bc 72 05 9f 3d
       -0.0337444 0.01933505 -0.028195692 0.077647105
000290 f2 79 76 3d 23 11 a6 bc be 9c 5a bd d1 74 3c bd
       0.06017489 -0.020271843 -0.053372137 -0.046009842
0002a0 b9 f9 89 bd 76 56 14 be e1 5c 2c 3d b0 8d 5d 3d
       -0.06737084 -0.14486107 0.042080764 0.0540902
0002b0 ca 56 da bd 39 08 04 3e 52 a4 7b bd ca 85 bd bd
       -0.10661085 0.12893762 -0.061436005 -0.09254034
0002c0 b4 16 8d 3d 95 2d 84 3d 16 f3 8c bc f5 f4 9b 3c
       0.06889096 0.064540066 -0.017205756 0.019037703
0002d0 25 d6 18 3d 15 26 ee bd d4 63 0c 3e d6 bb b9 bd
       0.0373136 -0.11628357 0.13709956 -0.0906903
0002e0 3e 91 4a bd 87 e3 14 be 09 8c d8 bc a9 64 d1 3c
       -0.04945492 -0.1453992 -0.026433961 0.025560694
0002f0 5e 2a f7 bd f9 03 8e bd b2 17 42 3c ea 89 87 bd
       -0.12068628 -0.069343515 0.01184647 -0.06618102
000300 20 91 a2 3d 28 b2 e2 3d a0 26 16 bb 00 64 50 bd
       0.07937837 0.11069137 -0.0022911206 -0.050876617
000310 ea cf 5d 3d fa b9 2b 3c e5 4a 8b 3d 21 54 ba 3c
       0.05415336 0.010481352 0.068013944 0.022745194
000320 cf 2e 85 3d 76 8f f7 3d eb 32 80 bd 2a 5b 5c bd
       0.06503069 0.1208791 -0.06259712 -0.05379788
000330 1a 8a a7 3b 42 53 c5 bd 0d 7b 95 3d ef 8d 8c bd
       0.0051128985 -0.09635021 0.07298861 -0.06863009
000340 55 f6 55 3d 51 02 8d bd e7 55 8d 3d 50 c9 c1 3c
       0.052236874 -0.068852074 0.0690115 0.023655564
000350 b3 ac e8 3d 96 79 8a bd 61 66 9a 3c 9b 0d 54 bd
       0.11361065 -0.06761472 0.018847646 -0.051770788
000360 b2 0c ab 3b 74 e4 8b 3d bf 01 c2 bd 98 2e b2 3d
       0.0052200193 0.06830683 -0.09472989 0.08700293
000370 c6 be 13 3d 00 0a cf bc e1 12 95 3d 78 3c 1e 3c
       0.036070608 -0.025273323 0.072789915 0.009657972
000380 8f d6 de bd 05 f6 97 3d 86 79 86 3c 3f 9c 3f bd
       -0.108807676 0.074199714 0.016415369 -0.046779867
000390 4f 8d 66 3d 3c 52 22 bd fe 8c 3d 3d af 0c 1f bd
       0.056287106 -0.039629206 0.04627704 -0.038830455
0003a0 77 fa 13 be be 2c c8 3d c6 02 d0 3d 7f 0c f5 bd
       -0.14451014 0.09774159 0.10156779 -0.11965274
0003b0 de 38 97 bd b4 a2 ac 3d de 18 61 3d 44 96 40 bd
       -0.073838934 0.08429471 0.054955356 -0.047018304
0003c0 40 58 61 3c 62 06 b6 3d c3 c8 cd 3d 02 21 01 be
       0.013753951 0.08887936 0.10048058 -0.12610248
0003d0 e8 ea 6e bd e6 62 74 bc 51 35 c7 bd 28 cf 53 bc
       -0.058329493 -0.014916157 -0.09726966 -0.012927808
0003e0 6e e2 0a ba f4 b6 83 bc c8 09 72 bd e2 63 e3 3b
       -0.0005298023 -0.01607845 -0.05909136 0.006939397
0003f0 a3 ec c6 3b 52 83 0e bd d6 49 87 3d a8 9a 93 bd
       0.0060706898 -0.034793206 0.0660588 -0.07207233

SoftmaxPolicy_l3.bias f4 [2]
000000 01 34 03 3d aa 28 85 bc
       0.032032017 -0.016254742
