pytorch_models/model280410.pth (torch, 72107 bytes, 6 tensors)

SoftmaxPolicy_l1.weight f4 [128, 4]
00000000: abd0 823e f698 67be 0afb e5bd ccf0 6c3e
00000010: 653b f0be 5481 9f3e 53bf 53bd 05d8 833e
00000020: 90fb 8b3d 8129 64bd 051f 523e fc1d 523d
00000030: 50f1 343e 1d09 45be fd92 f9bc 83b6 42bd
00000040: d158 933d e8ce e5ba fce7 de3e a2a8 1d3e
00000050: f7ee 3abe 3a91 99be 9fa0 aabd 1195 59be
00000060: 4410 26be 66e4 a93c 6be2 9f3e 33f6 8f3e
00000070: c075 fabe bd07 a73e 0d56 843e 2bd4 043f
00000080: ad3b a93e 75bf edbe df19 fbbe 2d08 6bbe
00000090: d1ac d63e 2461 c5bd 393e 613e daac 6abe
000000a0: ab1e f83e 7473 6fbe 3983 993e 2e61 2bbc
000000b0: 52c5 84be 9115 843e 3245 82be cb14 203e
000000c0: 4390 05be 20d7 4bbd 2d2b f0be bbf0 69be
000000d0: 3286 893e 5978 e7bd ab86 ff3e 8da6 cc3e
000000e0: 1ee3 f4bc 3622 9fbe bcc0 d33e 5cc0 493e
000000f0: 3456 a2be 0b23 ae3e 407b da3e 3a65 fb3e
00000100: 0077 8ebe 7343 a6bd 05be efbc 9f46 893d
00000110: 2a46 c1be 669e b5be e53e 7f3e b62f febd
00000120: 286e 6b3e 6082 043d 8bb3 9b3e 29aa 383e
00000130: 3f77 293e 3744 813e 640b a2be 8363 a63e
00000140: 21e5 b0be 53bd c0be 2a7f ab3d 3dbe 66bd
00000150: 2a6a 943e d725 91be e720 b6be b12b d33e
00000160: f702 90bd 966b 8e3e ec1e b43d dff4 d7be
00000170: 2dda c63d 3020 e83d 7ec1 aebe 29d9 72be
00000180: b1d3 343e a7ce 8d3d b751 b8be e068 5dbe
00000190: 35c9 e43e e5fa a9bd 88a5 cc3e 8caa 883e
000001a0: d22a a4be 0c23 d8be 2b03 ec3e 9e8c 803c
000001b0: 360a ac3e 9655 ea3d 9a30 893e c54e d33e
000001c0: 1156 ed3e 0810 a6be f889 423e babf e23e
000001d0: 2882 b33e 2399 983e 4c80 bcbe c9cd b7be
000001e0: 0704 9dbe 8b70 6b3d 091c 033f f5a6 9ebe
000001f0: e2ab 8b3e 48bd 91be 837e fbbe 9d49 d2bd
00000200: 1834 903e 7c17 ed3e f317 94be 505e e33d
00000210: 12f9 d53e 4cf0 b43e 17a6 d13e 8dcf c03e
00000220: 8e60 9a3e a3ca e93d 27b5 a9be 920f d2be
00000230: 3b65 71be a286 67bd d946 3dbe 1682 7d3e
00000240: 5bc0 1f3e 00c5 e5bd c326 553e d437 323e
00000250: 0acb 973e d41c b83e a78b 7abd 3c7e 053f
00000260: 34ad 32bd ca2c f2bc 1efd 1abf 5d53 bebe
00000270: 06da 93be 89a0 5abe 8f2f b03e 2da5 27be
00000280: 4dc7 bbbe c301 5e3e 723b 863e 1076 b03e
00000290: 245f 85be 528a d93d 3c45 39be f211 e7bd
000002a0: 0d4c c9be e36b 6abe 729a 2dbe 89f9 5b3e
000002b0: 7384 a93d b2c7 143e 50b0 1f3f cd3b 033f
000002c0: 72cf a93e 8373 ba3c fb37 63be f7e6 e53e
000002d0: c21b 06be 3ec0 40bd 0b17 e1be 356d cabd
000002e0: 08b7 a9be 5dd8 e83e 99dc f5be dc36 d7be
000002f0: 639f 30bc 4b6c 88be b78d 313e 2570 44be
00000300: 666b 6dbe b889 2b3d 3b81 ae3e f29a c1be
00000310: 5cf4 6b3e 6aff a13e b8a4 ef3e 8c12 b9be
00000320: a6a1 0b3e 5192 babe e328 c93e e703 51be
00000330: 8ebe 963e 3977 813c 507e 5bbc b26d bbbb
00000340: 1190 953d 3481 713e 8325 5a3e 25d2 653e
00000350: 8ca7 e5be 4e35 be3e fe98 083f b235 ed3e
00000360: 9a6f b13e b4d6 b8be 76c1 1abe 7c23 e33e
00000370: d237 c6be d284 ea3e c526 e0be 8b9a c8be
00000380: f11d 743e cbb0 b1be add5 47bd 3fc5 c93e
00000390: 0bcf cc3e 91a4 ef3e 0e35 49be 8814 e3be
000003a0: 4ec5 f73e 5602 05be cc7f 75be f430 093e
000003b0: 1a62 b3be 36f2 a43e 62a2 6c3e 18c8 e4be
000003c0: d4dc d2be 6bba 42bd 20e3 463e b6a1 53bc
000003d0: 3897 7fbe 933c af3c bc77 f2be 64d5 b9be
000003e0: 80ba a9be 987f d33e 825c d03e 5582 47be
000003f0: b2f7 ea3c c369 583e dffe 1b3c 02f3 89be
0.25549826 -0.22616944 -0.112295225 0.23138732 -0.46920314 0.31153357 -0.051696133 0.25750747
0.06835091 -0.055703644 0.20519646 0.051298127 0.17670178 -0.19241758 -0.030465597 -0.047537338
0.07194675 -0.0017532976 0.43536365 0.1539636 -0.1825522 -0.29993612 -0.08331417 -0.2124827
-0.16217142 0.020738792 0.3122743 0.28117523 -0.4891796 0.3262309 0.25846902 0.5188624
0.33053342 -0.46435133 -0.49043176 -0.22952338 0.41928723 -0.09637669 0.21996392 -0.229175
0.48460898 -0.23383886 0.29982927 -0.010460181 -0.25931793 0.25797704 -0.25443417 0.15632932
-0.13043313 -0.049765706 -0.4690794 -0.22845738 0.26860195 -0.11302251 0.4990743 0.39970818
-0.029893454 -0.31080788 0.41357982 0.19702286 -0.31706393 0.3401111 0.42672157 0.49100667
-0.27825165 -0.08118334 -0.029265413 0.06702923 -0.37748843 -0.3547241 0.24926336 -0.12411444
0.2299124 0.032350898 0.30410418 0.18033661 0.16549395 0.25247356 -0.31649315 0.32497796
-0.3454981 -0.37644443 0.08373864 -0.05633377 0.28987247 -0.28349182 -0.35571977 0.4124427
-0.070318155 0.27816457 0.087949604 -0.4217901 0.097095825 0.11334264 -0.34131998 -0.23715653
0.17658879 0.069241814 -0.35999843 -0.21622038 0.4468476 -0.082998075 0.3997004 0.26692617
-0.3206392 -0.4221424 0.46096167 0.015692052 0.3360154 0.114421055 0.26794893 0.41271034
0.46354726 -0.32434106 0.18997943 0.442869 0.3506024 0.29804334 -0.36816633 -0.3589919
-0.30667135 0.057480376 0.51214653 -0.30986753 0.27279574 -0.28464723 -0.49119958 -0.10267947
0.28164744 0.4630698 -0.28924522 0.11101973 0.41791588 0.35339582 0.4094703 0.3765835
0.3015179 0.11415603 -0.3314602 -0.41027504 -0.23573773 -0.05652488 -0.18484057 0.24756655
0.15600722 -0.112192154 0.20815568 0.17404109 0.29647094 0.35959494 -0.06116834 0.52145743
-0.04362221 -0.029562373 -0.60542476 -0.37172976 -0.28877276 -0.21350302 0.34411284 -0.16371603
-0.36675492 0.2168036 0.26217228 0.34465075 -0.2604915 0.10622086 -0.18092817 -0.1128272
-0.39315835 -0.22892718 -0.16953447 0.21481909 0.08277216 0.14529303 0.62378407 0.51263124
0.3316608 0.022760158 -0.22189324 0.44902775 -0.13096526 -0.047058336 -0.43962893 -0.09884111
-0.33147454 0.45477572 -0.48019865 -0.42034042 -0.010780188 -0.2664512 0.17339216 -0.19183405
-0.231855 0.041879386 0.3408297 -0.37813526 0.23042434 0.31640178 0.46805358 -0.36146963
0.13635883 -0.36439756 0.39289007 -0.20411645 0.29442257 0.01580392 -0.013396814 -0.005719864
0.07302869 0.23584443 0.21303372 0.22443445 -0.4485439 0.37150043 0.5335845 0.4633003
0.34655458 -0.36101305 -0.15112862 0.4436301 -0.38714463 0.4580446 -0.4377958 -0.39180407
0.23839547 -0.34705195 -0.04878776 0.394083 0.4000171 0.46805242 -0.19649145 -0.44351602
0.4839272 -0.12989172 -0.23974532 0.1339758 -0.35035783 0.32216042 0.23108819 -0.4468391
-0.41184103 -0.047541063 0.19422579 -0.012916973 -0.24960029 0.021391189 -0.47356975 -0.36295617
-0.331501 0.41308284 0.40695578 -0.19483311 0.028682563 0.21134095 0.009521215 -0.26943213

SoftmaxPolicy_l1.bias f4 [128]
00000000: ebb6 c1be 534f b53e f01e a93e 7b37 febe
00000010: 4cd1 c9be 5a21 adbe 44d8 84be 3781 f33d
00000020: 1f54 f6be 3b9d c8be db95 6c3e 97d1 2ebe
00000030: a335 5dbe 2d16 d5be d1ff 433e 09a9 e53d
00000040: a57a 52be c3a8 9fbe cc9b ee3d bfca 193e
00000050: a586 443e 993a 293e 7023 44bd 4ec3 c8be
00000060: 6358 b33e f4b5 0a3d 5c9b b0be 8502 f03e
00000070: 3c31 923e a0ff cfbe 5870 7ebe 24b4 24be
00000080: 3e55 95be b7c8 6f3e 7cf0 c1be 4a39 e73e
00000090: fe05 4bbe 5104 9b3e cf28 c63d 3569 6bbe
000000a0: 9605 b03e 5664 c2be 3b1b 88be 88dc dd3d
000000b0: f212 c73e 174c 54be 01f3 90be 6038 a5be
000000c0: aec6 4ebe 3738 23be ffe9 f4bd 2b41 96be
000000d0: ec0f 2d3e db04 ac3d f005 b0be f885 81be
000000e0: 2672 cd3d 7779 da3c 6e30 c83e 2c22 6cbd
000000f0: fd97 cfbe 76ff babe 27f5 08be 0bd9 d4bd
00000100: 3b72 b23d 1e82 05be 37d9 583e 7639 23be
00000110: 9b99 c83e f650 cc3d a885 25be 75cd f23e
00000120: fa83 273e c021 b8be 7dd4 87be e20d ac3e
00000130: c537 613e 9e86 c23e db45 973c 5ab7 b13e
00000140: cb30 8c3e f4c6 113e 0292 18be edeb 023f
00000150: 7d2f c53d 2e01 1fbe 184c 893d 7978 ff3e
00000160: 5b15 a33e 1fba 72bd a427 053f 8809 813e
00000170: 2e3e 85be b94c ebbe ecf9 9f3e c60a 003f
00000180: 3c89 9bbe e5be 483e b3ce 343d 3fe4 02be
00000190: c66f dcbd 9436 2a3e d59e d13d 74f5 aa3e
000001a0: 27fd 3e3e 638c 843e d72e f23e 4500 353e
000001b0: 3a76 ed3d 6601 0dbe 0c87 c23e c024 be3d
000001c0: 7a0c a73e c606 f63e fa1a 08be c5ce a93e
000001d0: af36 7abd b80d f53e b067 c83e 16f7 1ebe
000001e0: f1ac 1e3c d28c 5bbe 9ddc 57be 6510 b0bd
000001f0: 00fb 10bb 2f3f 1ebe 9b47 f1be cfdc a0be
-0.37834868 0.35412082 0.33031416 -0.49651703 -0.39417493 -0.33814508 -0.25946248 0.1188988
-0.48111054 -0.39182457 0.2310404 -0.1707214 -0.21602492 -0.4161848 0.19140555 0.112138815
-0.20554598 -0.31183442 0.1165081 0.15018748 0.19191988 0.1652626 -0.04788536 -0.39211506
0.3502837 0.03386493 -0.3449353 0.46876922 0.28553188 -0.40624714 -0.24847543 -0.16084343
-0.29166597 0.2341641 -0.37878788 0.45160896 -0.19826505 0.3027673 0.09675752 -0.22989352
0.34379262 -0.37967175 -0.26583275 0.108330786 0.38881642 -0.20732151 -0.28310397 -0.32269573
-0.20192978 -0.15939413 -0.11958694 -0.29346594 0.16900605 0.083993636 -0.3437953 -0.25297523
0.10031538 0.026669247 0.3909945 -0.057649776 -0.40545645 -0.36523026 -0.13374768 -0.1039296
0.08713194 -0.13037917 0.21176611 -0.15939888 0.39179692 0.099763796 -0.16164267 0.47422376
0.16358939 -0.3596325 -0.26529303 0.33604342 0.2199393 0.3799333 0.018465927 0.347102
0.27380976 0.14236051 -0.14899448 0.51141244 0.09628198 -0.15527794 0.06703967 0.498966
0.3185223 -0.05925953 0.5201361 0.25202584 -0.26024002 -0.45956972 0.31245363 0.5001644
-0.3037814 0.1960407 0.044142436 -0.12782381 -0.107635066 0.16622382 0.10235373 0.3339039
0.18651257 0.25888357 0.4730136 0.17675884 0.115948156 -0.13770065 0.37993658 0.09284353
0.32626706 0.48052043 -0.1329154 0.33165565 -0.061087307 0.4786203 0.39141607 -0.15523943
0.009684787 -0.21440437 -0.21080251 -0.08596877 -0.0022122264 -0.1545379 -0.47124943 -0.31418464

SoftmaxPolicy_l2.weight f4 [128, 128]
00000000: 7955 203b 404e 27bd 2853 963d d23d 903d
00000010: 7100 683d 60f9 283d f1fa 93bd d4b1 533d
00000020: 924c 70bd b20b 69bc c142 18bd b27e e63c
00000030: 8f80 87bd 2e10 21bd 5225 76bd 39d5 ccbd
00000040: e248 3fbd b978 a73d 6df4 c9bb 30c9 043d
00000050: 27fb b0bd 1e11 c73d bc9b 48bc 90d4 9abd
00000060: 2d20 b53d 6ead 63bc 26ae 953d 821a 63bd
00000070: 2b8b 8cbd b0fb 5dbd 6b73 0e3d 2913 b83c
00000080: 66ef 9bbd ad8a 613c 3dac 273c 9e7a 0c3d
00000090: 9097 26bd 66d4 7fbd ac35 ea3d 1c2b 43bd
000000a0: 80c5 343d 3ff3 943d 2e45 8cbd 164d a0bd
000000b0: 085c c53c 0039 9cbd f592 0f3d 8150 04bd
000000c0: 710f 16bd 7039 85bd 3186 493d 3317 3cbd
000000d0: f7d1 afbd ccbe 83bd 1486 21bd b66f a2bd
000000e0: 6e18 393d ec63 b1bc 3c28 b33d 5cbd 7b3d
000000f0: 9ea0 66bd 0f0f 39bd c638 30bd f69c 6f3d
00000100: cb22 c83b 3b32 cebc f048 ba3d b42a d73d
00000110: b5b3 a53d 0125 86bd 5385 10bd 8141 51bc
00000120: 719c c83d 2bbc 16bd 5425 35bd f53c 893c
00000130: b3ae a1bc 5443 313d c633 873c a9d4 97bd
00000140: 3441 b03d af19 a83d 2465 e33b 9118 57bd
00000150: 3f3e 133d 9da9 5f3d 70a1 7e3d b885 1bbd
00000160: e3b5 a5bb 5f09 cfbc 82e5 b63d f4ca 003e
00000170: 3326 5b3b f2b9 5abd 5a8c 2b3d d65f 523d
00000180: 874c 1e3d 6fac 9dbd ca9b 833c f437 0abd
00000190: af0e 93bd 9889 14bd aacc 623d 4730 2e3d
000001a0: e352 9abd 5d38 8d3c 2460 b43d 5137 db3d
000001b0: c91f 903d 99d0 c7bc 873f 553d c74a 593d
000001c0: 0d77 2d3d 937d 6ebd cb52 07bd 0f97 9e3d
000001d0: af62 a33d 3d79 a33d 38e5 2dbd 9c88 90bc
000001e0: a4c1 61bd 7b14 febc 88f3 943d 7069 82bd
000001f0: 7a4a c13b ba86 ad3c 1dbf 43bd 16b9 1c3d
00000200: c858 9abc dfef 8e3d df94 2fbd a503 613c
00000210: af38 a0bd bdf9 473d fdad ad3d 5995 c33c
00000220: 1c2e ea3a bb0a 3abd 68bc 22bd 4821 32bd
00000230: 119f 46bd 375f cb3c 398b 4e3c bc10 a53d
00000240: c46d 90bd 2467 6cbd af91 16bd 223c 0abd
00000250: be67 a13d d619 363d 5488 9fbd 3ff7 b4bb
00000260: bb46 c83b 24fd 993d 22cb a73d 65f6 723d
00000270: e466 af3d 6a6e efbc 4d6a e1ba 2d9b a3bd
00000280: a442 d13c c100 f93d 90ff 503d ae3b d93d
00000290: f8e6 10bd 6e6a ef3c 3118 56bd e853 8d3d
000002a0: 933a 1bbd 379c 28bd 3447 5b3c 8f8a 873c
000002b0: 99b4 793d bc17 54bc 5cdc a1bc 256f 313d
000002c0: 13da 793d 2e61 cc3d fc74 ff3c df98 f5ba
000002d0: b4de f83d bbff 053e 7b2f 26bd 0812 283d
000002e0: 2bf2 df3c 41eb 22bd 527f c3bb 2578 73bc
000002f0: 75b4 88bd 892c 05bd 42fa 5c3d 5261 993d
00000300: 6b2d 373c 9ee0 9abd 54be 5f3c 973a d8bc
00000310: 187d a63d d433 afbd 0470 41bc 3384 b03d
00000320: 5eff 5c3c 98b4 24bd d5e7 a8bd 66f1 1e39
00000330: 5753 643d c870 70bd 9aea abbd 84a6 5f3d
00000340: dc55 febc 5050 793d 3b87 9ebd 7d3a 38bc
00000350: 6c03 63bd a693 54bb 083c afbd 92e6 3e3d
00000360: 7bfe 22bd dd0e 82bd 28f2 2dbd 45bd e7bd
00000370: 7b4a 3c3d c2a3 a1bc 571a e4bb 430d 943d
00000380: 0244 5ebc 93df a33d 23f2 ac3b d826 74bd
00000390: ac9f c13c 8b21 db3c ddb6 7dbd c206 e93c
000003a0: 32de 883c 3f5f 9a3d 38e9 00bc d348 86bd
000003b0: 2afe b1bd 52d3 0d3d 9f3e c5bc a000 b1bc
000003c0: 3b8b 0dbc d8f6 c0bc 8049 c43c 77c3 a73d
000003d0: f767 953d 4580 80bd 0da5 ba3d f730 7c3d
000003e0: 60e1 723c 01ee 273d f1ec 6d3d 0d12 9d3d
000003f0: e8b0 4a3d 0326 fb3c f8b5 14bd 11bb 6cbd
0.0024465008 -0.04084611 0.073400795 0.07043041 0.056641046 0.041253448 -0.07225598 0.051683262
-0.058666773 -0.01422398 -0.037173036 0.028136585 -0.066163175 -0.03932207 -0.060094185 -0.100016065
-0.046700366 0.08177323 -0.006163171 0.03241843 -0.086416535 0.09720062 -0.012244161 -0.07560074
0.08844028 -0.013896329 0.07308607 -0.0554452 -0.06862482 -0.054195106 0.03477804 0.022470074
-0.07614021 0.013765973 0.010233936 0.034296624 -0.040671885 -0.06245842 0.11436018 -0.047648534
0.044133663 0.07272958 -0.068491325 -0.07827203 0.024091735 -0.076280594 0.03505226 -0.032303337
-0.03663582 -0.06505096 0.04920024 -0.045920562 -0.085849695 -0.06432876 -0.039434507 -0.079314634
0.045189314 -0.021654092 0.087479085 0.061459884 -0.05630552 -0.045180377 -0.043022893 0.0584993
0.0061076633 -0.025170436 0.09095943 0.10506192 0.08090917 -0.06550027 -0.035283398 -0.012771965
0.09795464 -0.036800545 -0.044225052 0.0167527 -0.019736623 0.0432771 0.01650418 -0.074136086
0.086061865 0.08208024 0.006939547 -0.052513663 0.035948034 0.054605115 0.062165678 -0.03796932
-0.005057083 -0.025273023 0.08930494 0.1257742 0.0033439517 -0.053399988 0.041881897 0.051360928
0.0386472 -0.07698905 0.016065497 -0.033744767 -0.07180535 -0.036264032 0.055370964 0.04252651
-0.07535341 0.01723879 0.088074 0.1070391 0.070373125 -0.02439146 0.052062538 0.05304983
0.042349864 -0.058225226 -0.033037942 0.07743656 0.07977807 0.07982109 -0.04245493 -0.017643265
-0.05511631 -0.031015625 0.072730124 -0.06367767 0.005898771 0.021182407 -0.04778968 0.03826245
-0.018841162 0.069793455 -0.042866584 0.013733779 -0.078233115 0.048822153 0.08480451 0.023874925
0.0017866525 -0.04542039 -0.03973046 -0.04348877 -0.04849154 0.024825675 0.012606435 0.080598325
-0.07052186 -0.05771555 -0.03676003 -0.033748753 0.078811154 0.044458233 -0.077896744 -0.005522638
0.0061119474 0.07518986 0.081930414 0.05931701 0.08564547 -0.029227454 -0.0017197818 -0.07988582
0.025544472 0.12158347 0.051024973 0.10607086 -0.03537652 0.029225554 -0.052269164 0.069007695
-0.037897658 -0.041164603 0.013383675 0.016545562 0.060963247 -0.012945112 -0.019758396 0.043318886
0.060998987 0.09979473 0.031183712 -0.0018737576 0.12151852 0.13085835 -0.040572625 0.04103282
0.027337154 -0.039775137 -0.0059661055 -0.014860188 -0.066750444 -0.032513175 0.053949602 0.074892655
0.011180262 -0.075623736 0.013656218 -0.026395125 0.081293285 -0.08554807 -0.011806492 0.08618965
0.013488619 -0.04021129 -0.082473435 0.00015157982 0.05574354 -0.058701307 -0.08394356 0.05460216
-0.0310468 0.060867608 -0.07740637 -0.011244413 -0.055423185 -0.0032436638 -0.08556372 0.046606608
-0.039793473 -0.06350491 -0.042467266 -0.11315397 0.045969468 -0.019731406 -0.0069611478 0.07229092
-0.013566019 0.08001628 0.0052778884 -0.059607357 0.023635708 0.026749393 -0.06194197 0.028445605
0.016707513 0.07537698 -0.007868104 -0.06556859 -0.08691056 0.03462536 -0.024077712 -0.021606743
-0.008639152 -0.023555204 0.023960829 0.08191579 0.0729522 -0.062744655 0.09113512 0.061570134
0.014824241 0.040998463 0.058087293 0.076694585 0.049485117 0.030657774 -0.03630635 -0.057795588

SoftmaxPolicy_l2.bias f4 [128]
00000000: 9001 5c3d 747f 12bd 87d1 4f3b 41cf 81bd
00000010: 34fe 48bd c5fe 603d 6274 9e3c 5c35 e93c
00000020: 8fc4 4b3d 3dd1 db3c aa44 023c ee49 2cbc
00000030: 001b 913a 5597 a73d a673 0d3d e2de 323c
00000040: ff1b 123d b220 22bd 9ab3 8dbd 9f4c 94bc
00000050: 5742 c23d 66ed b33c f388 85bd 2752 6f3d
00000060: 04cc a53d 6c08 8d3d a240 3c3c 8141 b8bc
00000070: f8cf 0e3c bdbd ef3c f07e 04bd 55f6 32bd
00000080: 9cf4 a33c 6389 363d 9abd d7bc f5db 0ebc
00000090: 7b48 85bd ca01 7dba 2f6f 9abc 8b17 ba3d
000000a0: be4c 7c3d b2d2 eebc cc45 8cbd 2fe3 94bd
000000b0: d5c9 4ebd f2b6 b53d 2c24 d3bc 9e06 863d
000000c0: 8e45 8a3d 35a6 22bc 29df 1e3d ee11 eb3c
000000d0: 94fb a63d 6d47 2f3d da65 4f3d 9c02 b83d
000000e0: 9cc6 313c 234f ab3d f6d9 1dbb cf17 88bd
000000f0: dfec af3d afb5 87bd 1ab7 a53a 9301 ad3d
00000100: 36e3 d4bc d1b6 7abd 098f 873d f98e 0b3d
00000110: 55f6 673d a84a 403d dbae bdbd e2c8 933d
00000120: bfc9 97bd c90a 393c 9b57 4dbd 8ab6 853d
00000130: a26b bc3d 473f 553c e72b bdbc f96a 9c3d
00000140: 56b7 8e3d 4061 86bc 7126 903d a47c e43b
00000150: cb3e 28bd 117c ab3d 94d2 52bd 4330 84bd
00000160: 7c6d 533d 6af3 083d 4837 913d ba8e 13bd
00000170: 5832 a93c a934 3f3d 44ac 953c c9ee 93bd
00000180: fafa 6a3d 6067 be3c 58ec a2bc d4b0 afbc
00000190: 718a bdbd fcd2 c13d 41e9 583c 8e0c c6bc
000001a0: 821b c93d b99f 81bd d93e c93c eb01 5ebc
000001b0: 2dfa dbbc d0a0 fd3a 2762 47bc 7460 9b3d
000001c0: 2a27 833d dd5d fc3c 25a9 94bb fbaa 6cbc
000001d0: 4ab8 fcbb 53a4 03bb fbef 033d c9d9 8f3d
000001e0: 8b8c 80bd a044 b6bd b710 61bc 6d18 923d
000001f0: a0b2 2d3d e638 11bd 424f 663d 81bf 1e3d
0.053712428 -0.03576608 0.0031710581 -0.06338359 -0.049070552 0.054930467 0.019342605 0.028467827
0.049748 0.026833171 0.007950941 -0.010515673 0.0011070669 0.08183161 0.03453412 0.010917397
0.03567123 -0.039581962 -0.06919022 -0.018102942 0.094853096 0.021963786 -0.065202616 0.058427956
0.080955535 0.06886372 0.011490019 -0.022492172 0.008716576 0.029265279 -0.03234762 -0.04369195
0.0200141 0.044564616 -0.026335526 -0.008719434 -0.06507965 -0.00096514507 -0.018851845 0.09086522
0.061596625 -0.029153202 -0.0684925 -0.07269894 -0.05048545 0.08872785 -0.025774084 0.06544231
0.06751548 -0.009927322 0.03878704 0.028695073 0.081534535 0.042792726 0.050634243 0.08984873
0.010850575 0.083647035 -0.0024086214 -0.06645166 0.085901015 -0.0662645 0.001264307 0.08447566
-0.025987249 -0.061209504 0.06619079 0.034071896 0.056631405 0.046946198 -0.09261867 0.0721605
-0.07411527 0.011294075 -0.050132375 0.06528957 0.09200217 0.013015575 -0.023092223 0.07637591
0.06968562 -0.016403794 0.07038582 0.006972866 -0.04107551 0.08373273 -0.051470354 -0.06454518
0.051618084 0.033435263 0.07090622 -0.036024787 0.020653889 0.04668108 0.01827062 -0.07223279
0.057368256 0.023242652 -0.019888088 -0.021446623 -0.09254921 0.0946407 0.013239206 -0.024175908
0.098197 -0.06329293 0.0245661 -0.013550262 -0.026852692 0.0019350294 -0.012169397 0.07586756
0.06403954 0.030806476 -0.004536765 -0.014445062 -0.0077123987 -0.0020086959 0.032211285 0.07023961
-0.062768064 -0.08899808 -0.013736895 0.07133565 0.04240668 -0.035454653 0.05622793 0.03875685

SoftmaxPolicy_l3.weight f4 [2, 128]
00000000: 77fb 543d 699d 633c 787a ff3d 5839 603c
00000010: 7b79 b5bd 994c 93bc 0e65 253d 7b81 bf3d
00000020: ea32 7e3c cb5e fc3b e93c 8d3d ca24 8f3d
00000030: ba50 b83d b3fa 823c b767 953b 181d c43d
00000040: 6727 633d 7f6a c23d d99b 31bc b6e0 c83d
00000050: 74bd 2ebd 14bc c73d 1233 1dbd 8b60 77bc
00000060: ff88 11bd 6fe0 2d3d c5e5 443d ab4d 0c3d
00000070: d4f8 b3bd 523c c73b 7ad3 1abd 61c6 0fbd
00000080: 50b5 593d f5ee 52ba da50 4e3d a14a a1bd
00000090: aa59 4c3c 5113 8e3d 977f 6e3d 049c d23d
000000a0: 9a57 15bc afae ae3d 3a62 8ebd 4526 1dbc
000000b0: c3b0 1dbc a133 e2bc e978 063d d4f2 353b
000000c0: 6a2d d0bd e140 c5bd d9e6 193d 99f2 73bd
000000d0: 1b32 e1bd 49a1 033e 3ed4 63bd 248e c33d
000000e0: 373e 873d 81ad 413d 04e4 99bd 03da 9bbc
000000f0: 6ef4 a53d f161 b23c 9192 fdbd ef95 df3b
00000100: 1065 84bd 198a 8ebd f132 aabd 4c3f a53d
00000110: 2817 963d efcb 8abd e9dd 0dbd 7109 a13d
00000120: 1d79 17b9 1601 6abd 706d dc3c 2a46 debd
00000130: 196f b2bd afd3 8f3d 2371 b4bd 49e3 ca3d
00000140: c8b6 05bd 043b 69bd d715 a6bd 0f10 623d
00000150: b4d7 f4bd 2ca3 253d d32e dc3c 29a2 0a3d
00000160: 2227 d2bd 607e 84bd 1eba 343d cbd9 92bd
00000170: 5126 38bd dc94 633d cbae 313d 0aa7 943d
00000180: 121c 503b fe64 2abd 64a0 013e c74f 923b
00000190: 6d76 abbc 9eb3 983d 6ae1 abbd de91 a53d
000001a0: 2d28 0c3d b1cf 5ebc c0c9 92bd 0632 dbbc
000001b0: 632a b9bc ee18 9e3c 2da4 73bd e93b 3b3d
000001c0: 1e3c f5bd 6e34 9fbd b3d4 e0bb f23f db3d
000001d0: 1e6e 913d 41a0 b2bd 1760 9b3d 0c0f 6abd
000001e0: ee94 993d 2b32 273c c66f c4bc f57f cbbd
000001f0: 1a95 d0bd f0d4 d5bd 471a 6bbd 1f8a 8d3d
00000200: d036 9abb 8455 e03d d90e ebbd e07e ae3d
00000210: 1f7a 8c3c dbe4 bb3d 1de7 cebd de07 9dbd
00000220: 307a df3d 59cf 503d 18ed f0bd cc32 cdbd
00000230: 1807 dcbc 9e9b fa3d ac65 ae3d 6a2f a9bd
00000240: 7ff5 343c f426 8a3c bef6 84bd ce1d aabd
00000250: 8c19 d23d 6625 173c 12e8 163d 0d9e d63d
00000260: a602 163d faeb 10be 5f3c 84bd d6ab 7abd
00000270: 5abf 98bd f713 833d 2811 163b 9f13 ec3d
00000280: b07f 08bd 4d5a 9e3c 5aa0 e7bc 7205 9f3d
00000290: f279 763d 0860 a1bc 490d 5bbd 3066 3cbd
000002a0: ac16 8abd bf3e 14be e15c 2c3d 558a 5d3d
000002b0: 164e dabd 4f62 033e 13b3 7bbd 4800 bebd
000002c0: c711 8d3d b369 833d 2688 8abc ab83 9a3c
000002d0: 225f 173d bd9c edbd d6b0 0b3e 4535 babd
000002e0: e0a1 4bbd 2fde 14be 098c d8bc 7f09 c73c
000002f0: 85ab f6bd f903 8ebd 0c73 3a3c 6b7e 85bd
00000300: b8b5 9f3d 33b7 e23d a026 16bb c313 50bd
00000310: 20d0 5d3d 6f6b 1c3c 3129 8b3d 2134 b93c
00000320: 873d 833d 3bcb f53d 3b5f 80bd fd9d 5ebd
00000330: 2b49 9d3b 0117 c4bd 8efe 943d 72b2 8cbd
00000340: 74ea 553d f18b 8cbd ecb2 8b3d 6c96 c23c
00000350: a0c9 e73d e5c6 89bd 5941 9d3c 8f3a 53bd
00000360: 65d0 a33b 74e4 8b3d 2c28 c2bd 0554 b13d
00000370: d9ee 113d 1161 ccbc e112 953d 101c 213c
00000380: 9c7f debd b2a5 973d c02f 863c e459 41bd
00000390: 0562 653d 1ca0 22bd 79d2 373d 4565 1dbd
000003a0: 25b0 13be bbe3 c53d 6586 cf3d f986 f4bd
000003b0: d12f 99bd b4a2 ac3d 9f10 5f3d 0e1a 40bd
000003c0: 4c12 5c3c ac56 b53d fba3 cd3d 2f63 01be
000003d0: 9be9 70bd 668f 76bc 2b4a c7bd 28cf 53bc
000003e0: 2aa4 fdb9 f4b6 83bc 0a24 70bd ad57 dc3b
000003f0: 9b20 ba3b 5b58 0ebd 48ae 863d c59a 93bd
0.051997628 0.01389251 0.12474531 0.013685547 -0.08861061 -0.01798086 0.040379576 0.09350868
0.015515069 0.00770173 0.06896383 0.06989439 0.08999772 0.015988683 0.004559483 0.09575862
0.0554575 0.09492969 -0.01084038 0.09808485 -0.042661145 0.0975267 -0.038378783 -0.015098701
-0.03553104 0.042450365 0.048070688 0.034253757 -0.087876946 0.006080189 -0.037799336 -0.0351013
0.05315143 -0.00080464716 0.050370075 -0.078755625 0.012472549 0.06937278 0.058227148 0.10283664
-0.009115124 0.08529412 -0.06952329 -0.009591644 -0.009624663 -0.02761251 0.032830153 0.0027763145
-0.10164912 -0.09631515 0.03757367 -0.05955753 -0.10995885 0.12854494 -0.05562233 0.095485955
0.066036634 0.047284607 -0.07514194 -0.019024855 0.08103262 0.021775218 -0.12381471 0.0068232934
-0.06464589 -0.06959934 -0.083104976 0.080687135 0.073286355 -0.067771785 -0.03463546 0.07863129
-0.000144456 -0.057129942 0.026907653 -0.108532265 -0.087125964 0.07022797 -0.088106416 0.099066325
-0.032645017 -0.056941047 -0.08109634 0.055191096 -0.119552046 0.040438816 0.026877796 0.033846054
-0.1026137 -0.064694166 0.044122808 -0.07170447 -0.044958416 0.055561885 0.043379586 0.07258423
0.0031755012 -0.04160022 0.1265884 0.0044650766 -0.020930493 0.07456134 -0.08392604 0.080844626
0.034218002 -0.013599322 -0.07167387 -0.026757251 -0.02260322 0.019298997 -0.059482742 0.04571143
-0.11974357 -0.07773672 -0.006861293 0.10705556 0.07101081 -0.08721972 0.07586687 -0.057143256
0.07499109 0.010204832 -0.023979079 -0.09936515 -0.10184689 -0.10441005 -0.057398107 0.0691111
-0.004706241 0.10953811 -0.11477441 0.08520293 0.017148076 0.0917451 -0.10102675 -0.07667516
0.10911977 0.050978992 -0.11763972 -0.10019454 -0.026858851 0.12236713 0.08515486 -0.08260997
0.011044859 0.016864277 -0.06492375 -0.08306466 0.10258779 0.009225225 0.036842413 0.104793645
0.03662362 -0.14152518 -0.06456827 -0.06119903 -0.074583724 0.06400292 0.002289841 0.1152718
-0.033324897 0.019330168 -0.028274704 0.077647105 0.06017489 -0.019699112 -0.053479467 -0.04599589
-0.067426056 -0.1447706 0.042080764 0.054087 -0.10659425 0.1283047 -0.061450075 -0.092773974
0.068881564 0.06416645 -0.016910624 0.018861612 0.03695596 -0.11602161 0.13641676 -0.090921916
-0.049714923 -0.14537881 -0.026433961 0.02429652 -0.120444335 -0.069343515 0.011379968 -0.06518253
0.07798332 0.11070099 -0.0022911206 -0.050800096 0.05415356 0.009547099 0.06794966 0.022607865
0.0640822 0.12001654 -0.06268164 -0.054349888 0.004799982 -0.095747 0.07275115 -0.06869973
0.052225545 -0.06862629 0.06821236 0.023753367 0.11317754 -0.06727389 0.0191962 -0.051569518
0.004999208 0.06830683 -0.094803184 0.086586036 0.035628174 -0.024948629 0.072789915 0.009833351
-0.10864183 0.07404651 0.01638019 -0.047204867 0.05600168 -0.039703473 0.044878457 -0.038426656
-0.14422663 0.09662577 0.101330556 -0.119398065 -0.074798234 0.08429471 0.05445921 -0.046899848
0.013432097 0.08854422 0.100410424 -0.12635492 -0.058816534 -0.015048837 -0.09730943 -0.012927808
-0.00048378232 -0.01607845 -0.05862812 0.006724319 0.0056801564 -0.03475223 0.0657621 -0.07207254

SoftmaxPolicy_l3.bias f4 [2]
00000000: 2401 043d edc2 86bc
0.03222765 -0.01645037
