pytorch_models/model280070.pth (torch, 72107 bytes, 6 tensors)

SoftmaxPolicy_l1.weight f4 [128, 4]
0.2554417 -0.22148338 -0.11458274 0.22915566 -0.46831545 0.31341812 -0.05169753 0.25718904
0.068802476 -0.05526811 0.2059287 0.04904127 0.1737035 -0.18794541 -0.02719422 -0.051559705
0.07194675 -0.0017532976 0.43536365 0.1539636 -0.18292806 -0.3007761 -0.08386025 -0.21139103
-0.16214892 0.02087182 0.31212372 0.27995834 -0.4894804 0.3272682 0.2594805 0.5187834
0.32795727 -0.46044418 -0.49054587 -0.23435377 0.42006958 -0.095589906 0.21897608 -0.22890593
0.48533314 -0.23346137 0.29817787 -0.010969612 -0.25928366 0.25829703 -0.2541019 0.15621518
-0.13230978 -0.05049181 -0.46936408 -0.22920826 0.2693884 -0.115695395 0.5020363 0.4012825
-0.03055904 -0.311762 0.41546595 0.19682473 -0.31618503 0.3416301 0.42656758 0.49175027
-0.27874002 -0.08148925 -0.02879628 0.0677961 -0.37780342 -0.35450816 0.24913745 -0.12462752
0.22966662 0.032560796 0.3050535 0.18041497 0.16504624 0.25291917 -0.31501102 0.32484102
-0.34631175 -0.37692603 0.08460041 -0.055255927 0.2917817 -0.2822034 -0.3574472 0.41027352
-0.07101593 0.2772117 0.0882456 -0.4227696 0.09724181 0.113712505 -0.3418443 -0.23776238
0.17657106 0.06895279 -0.36156568 -0.21728323 0.44677734 -0.08277409 0.40139258 0.2674684
-0.32107463 -0.42233303 0.46101066 0.016251469 0.3360142 0.114866205 0.26902923 0.41241407
0.46312904 -0.32448587 0.1911639 0.4426939 0.35105616 0.2987412 -0.3681169 -0.36082685
-0.30775794 0.057209082 0.5124982 -0.31300646 0.27441144 -0.28083363 -0.49497586 -0.10465349
0.2818504 0.46381867 -0.28813827 0.11121414 0.4176243 0.35372567 0.41069412 0.37656257
0.30232462 0.114902966 -0.33304688 -0.41061348 -0.23636815 -0.056625497 -0.18389173 0.24750747
0.15657534 -0.114593945 0.20968612 0.17500672 0.29571342 0.35992178 -0.06015704 0.5213485
-0.044205885 -0.03063057 -0.605245 -0.37250853 -0.28871572 -0.21337163 0.34406435 -0.16379422
-0.36573207 0.21815518 0.26204142 0.3452405 -0.26073882 0.10508064 -0.1820369 -0.11115592
-0.3937152 -0.22960308 -0.17071377 0.21435659 0.082238555 0.14520653 0.6250011 0.5128675
0.33150426 0.022820637 -0.22063379 0.44918263 -0.13046236 -0.046113227 -0.43963602 -0.10014178
-0.33278424 0.4537717 -0.47818708 -0.42047712 -0.010322133 -0.26593378 0.1740156 -0.1924966
-0.23298419 0.042197645 0.34012568 -0.38121662 0.2301133 0.31636083 0.46996024 -0.36133897
0.13658407 -0.36197665 0.3925598 -0.20691426 0.2948838 0.016317287 -0.013054412 -0.0056834673
0.07275082 0.23632212 0.2143834 0.22438993 -0.44877952 0.3727031 0.53412205 0.4636352
0.34979308 -0.35950366 -0.15465957 0.44407293 -0.3888084 0.45685646 -0.436475 -0.39221662
0.23897862 -0.34760442 -0.04813346 0.39333034 0.40091014 0.46741208 -0.19738539 -0.4430188
0.48424894 -0.12943958 -0.24145326 0.13222277 -0.3493534 0.32292533 0.23199357 -0.44838366
-0.41217205 -0.047109403 0.19371201 -0.013298978 -0.25006697 0.020269997 -0.47471166 -0.36287263
-0.33014184 0.41528502 0.40830484 -0.19643675 0.028750038 0.21077368 0.010108637 -0.2699819
00000000: 41c9 823e 8acc 62be 5baa eabd c8a7 6a3e
00000010: 0bc7 efbe 5778 a03e cac0 53bd 48ae 833e
00000020: 50e8 8c3d d060 62bd f9de 523e 80df 483d
00000030: 55df 313e c374 40be 6ac6 debc 4530 53bd
00000040: d158 933d e8ce e5ba fce7 de3e a2a8 1d3e
00000050: 7e51 3bbe 53ff 99be ecbe abbd e476 58be
00000060: 5e0a 26be 61fb aa3c aece 9f3e b356 8f3e
00000070: 2d9d fabe b38f a73e a1da 843e fdce 043f
00000080: 04ea a73e 57bf ebbe d428 fbbe 6ffa 6fbe
00000090: 5c13 d73e a4c4 c3bd 443b 603e 5166 6abe
000000a0: 967d f83e 7f10 6fbe c5aa 983e e3b9 33bc
000000b0: d4c0 84be 823f 843e a519 82be dff6 1f3e
000000c0: 377c 07be 80d0 4ebd 7d50 f0be 92b5 6abe
000000d0: 47ed 893e b5f1 ecbd 7385 003f e674 cd3e
000000e0: f456 fabc 459f 9fbe f4b7 d43e 6c8c 493e
000000f0: 01e3 a1be 24ea ae3e 1167 da3e b1c6 fb3e
00000100: 03b7 8ebe d6e3 a6bd 2de6 ebbc afd8 8a3d
00000110: 736f c1be 1882 b5be e31d 7f3e b73c ffbd
00000120: ba2d 6b3e 785e 053d f92f 9c3e b4be 383e
00000130: e201 293e 9f7e 813e 2049 a1be 9051 a63e
00000140: c64f b1be 73fc c0be fb42 ad3d 0a54 62bd
00000150: 6964 953e f77c 90be 5203 b7be 5f0f d23e
00000160: cd70 91bd b1ee 8d3e 1cba b43d 4275 d8be
00000170: b726 c73d 1ae2 e83d 3706 afbe fb77 73be
00000180: 0bcf 343e 1f37 8d3d 231f b9be 7f7f 5ebe
00000190: 00c0 e43e 7685 a9bd 5483 cd3e 9ef1 883e
000001a0: e563 a4be 093c d8be 9709 ec3e cd21 853c
000001b0: 0e0a ac3e f93e eb3d 33be 893e f027 d33e
000001c0: 401f ed3e 0323 a6be 78c0 433e c6a8 e23e
000001d0: a2bd b33e 9bf4 983e d179 bcbe 4cbe b8be
000001e0: 7392 9dbe 1254 6a3d 1533 033f 6242 a0be
000001f0: a87f 8c3e 6dc9 8fbe 7a6d fdbe 9254 d6bd
00000200: b24e 903e a479 ed3e dc86 93be 3dc4 e33d
00000210: dad2 d53e 881b b53e 8046 d23e cfcc c03e
00000220: 4bca 9a3e 3f52 eb3d 1f85 aabe ee3b d2be
00000230: 7e0a 72be 23f0 67bd 1d4e 3cbe 9972 7d3e
00000240: 4955 203e 3bb0 eabd f5b7 563e f634 333e
00000250: c067 973e ab47 b83e 3a67 76bd 1877 053f
00000260: 3b11 35bd f6ec fabc 56f1 1abf 70b9 bebe
00000270: 8cd2 93be 187e 5abe 3429 b03e acb9 27be
00000280: 3c41 bbbe 1264 5f3e 4b2a 863e 5dc3 b03e
00000290: 8f7f 85be 8534 d73d e267 3abe b7a5 e3bd
000002a0: 0a95 c9be 121d 6bbe 97cf 2ebe 4b80 5b3e
000002b0: b06c a83d 05b1 143e 1200 203f 494b 033f
000002c0: edba a93e 58f2 ba3c d3ed 61be 44fb e53e
000002d0: ed97 05be 39e1 3cbd f917 e1be 2217 cdbd
000002e0: b262 aabe c454 e83e f0d4 f4be c748 d7be
000002f0: 2a1e 29bc 7928 88be 2531 323e d41d 45be
00000300: 6893 6ebe 70d7 2c3d f424 ae3e d32e c3be
00000310: d2a2 6b3e 0cfa a13e a19e f03e 6c01 b9be
00000320: b2dc 0b3e 0155 b9be 99fd c83e 55e1 53be
00000330: 02fb 963e d5ab 853c 2ce2 55bc 613c babb
00000340: 62fe 943d 6dfe 713e 5287 5b3e 79c6 653e
00000350: 6ec6 e5be f1d2 be3e 39bc 083f 9861 ed3e
00000360: 1418 b33e dd10 b8be 145f 1ebe 875d e33e
00000370: e511 c7be 17e9 e93e a779 dfbe 9ed0 c8be
00000380: d0b6 743e 35f9 b1be 9727 45bd 9862 c93e
00000390: 1844 cd3e a350 ef3e 651f 4abe 5cd3 e2be
000003a0: 7aef f73e cf8b 04be 863f 77be 6865 073e
000003b0: 73de b2be 7856 a53e b98f 6d3e 8b92 e5be
000003c0: 3708 d3be caf5 40bd 715c 463e f5e3 59bc
000003d0: c708 80be 440d a63c 680d f3be 71ca b9be
000003e0: 5a08 a9be 3da0 d43e 550d d13e b726 49be
000003f0: 3385 eb3c 0ed5 573e b29e 253c 113b 8abe

SoftmaxPolicy_l1.bias f4 [128]
-0.3799228 0.35469505 0.3320643 -0.49978507 -0.39417493 -0.33791375 -0.26001287 0.11854181
-0.48497087 -0.39072853 0.23191075 -0.1709678 -0.21408221 -0.41447106 0.19053437 0.11207158
-0.20449193 -0.3112785 0.11615425 0.15025395 0.19173719 0.16497077 -0.049264934 -0.39192954
0.35084105 0.03212236 -0.34433946 0.4684666 0.28588095 -0.4055831 -0.24619567 -0.15943651
-0.29107484 0.23397636 -0.37785015 0.45152047 -0.19698568 0.30282736 0.09659939 -0.22969247
0.34416488 -0.37965375 -0.26507127 0.10834724 0.38847575 -0.20784643 -0.2829565 -0.32291627
-0.19906597 -0.15974756 -0.120803475 -0.29310197 0.1686409 0.08312579 -0.34133038 -0.25250906
0.1008109 0.026618104 0.3912604 -0.058229048 -0.4048444 -0.36469483 -0.13247985 -0.10473778
0.08668182 -0.12975205 0.21250069 -0.15941302 0.39298362 0.10034845 -0.16130859 0.4756803
0.16426623 -0.35946456 -0.26497313 0.33599073 0.21986637 0.38110006 0.018201528 0.3467601
0.2739643 0.14253631 -0.14904626 0.51195836 0.096739 -0.15454371 0.06810808 0.498712
0.3194931 -0.05962529 0.5206043 0.2522965 -0.25935295 -0.45936993 0.31195888 0.50132114
-0.30249944 0.19671749 0.042893637 -0.12772869 -0.10750434 0.16702801 0.101494774 0.3350035
0.18577273 0.2584233 0.47353488 0.17702964 0.11673625 -0.13709436 0.37947097 0.09291312
0.32612282 0.48030537 -0.13212393 0.33218834 -0.061696723 0.47909158 0.3912746 -0.15584235
0.0114564 -0.21362181 -0.2103269 -0.087777734 -0.001853901 -0.15447511 -0.4709226 -0.31400546
00000000: 3e85 c2be 979a b53e 5504 aa3e d4e3 ffbe
00000010: 4cd1 c9be 0803 adbe 6820 85be 0cc6 f23d
00000020: 1a4e f8be 920d c8be 037a 6d3e 2f12 2fbe
00000030: 5e38 5bbe 8d35 d4be 711b 433e c985 e53d
00000040: 5566 51be e55f 9fbe 48e2 ed3d 2cdc 193e
00000050: c156 443e 19ee 283e 07ca 49bd fdaa c8be
00000060: 70a1 b33e bc92 033d 434d b0be dbda ef3e
00000070: fd5e 923e 97a8 cfbe b81a 7cbe 5343 23be
00000080: c307 95be 8097 6f3e 9375 c1be b12d e73e
00000090: 9db6 49be 300c 9b3e e7d5 c53d 8134 6bbe
000000a0: 6136 b03e fa61 c2be 6cb7 87be 28e5 dd3d
000000b0: 4be6 c63e b2d5 54be addf 90be 4855 a5be
000000c0: f3d7 4bbe dd94 23be d067 f7bd 7611 96be
000000d0: 33b0 2c3e db3d aa3d dbc2 aebe de48 81be
000000e0: f275 ce3d 360e da3c 4853 c83e 9581 6ebd
000000f0: c447 cfbe 48b9 babe cca8 07be c380 d6bd
00000100: 3d86 b13d b9dd 04be c899 593e 2b3d 23be
00000110: 2635 c93e 7d83 cd3d 142e 25be 5e8c f33e
00000120: 6835 283e bd0b b8be 8faa 87be fa06 ac3e
00000130: a624 613e 8c1f c33e 5f1b 953c 8a8a b13e
00000140: 0c45 8c3e 0af5 113e 959f 18be b40f 033f
00000150: 191f c63d b540 1ebe 407c 8b3d 2e57 ff3e
00000160: 9994 a33e a639 74bd 5346 053f 022d 813e
00000170: e9c9 84be 8932 ebbe 13b9 9f3e 9556 003f
00000180: 35e1 9abe 4f70 493e 3db1 2f3d 4fcb 02be
00000190: 3c2b dcbd 6409 2b3e 7edc cf3d 9485 ab3e
000001a0: 353b 3e3e 0f50 843e 2a73 f23e 4247 353e
000001b0: 6a13 ef3d 7762 0cbe 054a c23e 3c49 be3d
000001c0: 92f9 a63e 96ea f53e 7f4b 07be 9714 aa3e
000001d0: b4b5 7cbd 7e4b f53e 2555 c83e 2395 1fbe
000001e0: a0b3 3b3c adbf 5abe ef5f 57be d0c4 b3bd
000001f0: 98fe f2ba b92e 1ebe c41c f1be 53c5 a0be

SoftmaxPolicy_l2.weight f4 [128, 128]
0.000291269 -0.041042738 0.07380777 0.072697565 0.056641046 0.040523294 -0.07181867 0.05104108
-0.060488895 -0.014150884 -0.036832325 0.027056957 -0.065819226 -0.041209508 -0.06021406 -0.10123374
-0.04701327 0.081467696 -0.0060432283 0.03251536 -0.08625258 0.09772604 -0.012278585 -0.07784571
0.08902247 -0.013922649 0.0725564 -0.055226203 -0.06824049 -0.053859714 0.034505885 0.022124158
-0.07625079 0.01384539 0.010561184 0.034458335 -0.0431825 -0.062391326 0.11531964 -0.047880627
0.044016033 0.07214987 -0.06888707 -0.07846411 0.0243653 -0.07643223 0.034588132 -0.033174824
-0.036221568 -0.064966135 0.04594231 -0.045710787 -0.08594663 -0.06546468 -0.04142542 -0.07943647
0.04545547 -0.021502385 0.08788406 0.062171083 -0.056714695 -0.04498996 -0.042615023 0.058429603
0.006204708 -0.025281833 0.092017 0.10462389 0.0812196 -0.065411896 -0.034802537 -0.0126101235
0.098284155 -0.03661513 -0.044035528 0.01747271 -0.01952922 0.04351813 0.016412076 -0.07424811
0.086869575 0.08261946 0.006766099 -0.05195378 0.03602886 0.05369777 0.06278954 -0.03774175
-0.005071769 -0.025142884 0.0896389 0.12655532 0.0023647586 -0.05367148 0.041450217 0.05168517
0.036701903 -0.07697458 0.014893249 -0.033886064 -0.071408756 -0.036006086 0.05565356 0.04278084
-0.076254494 0.016373998 0.08859362 0.10797469 0.070746765 -0.025174296 0.051623985 0.05278721
0.042534385 -0.058003347 -0.033168662 0.077551454 0.07911266 0.08057754 -0.042388618 -0.017134132
-0.055188578 -0.031307522 0.072825536 -0.064678214 0.0061177723 0.021252366 -0.048596423 0.0386159
-0.016688125 0.07019595 -0.043073222 0.011393785 -0.078233115 0.049498305 0.08444065 0.024504885
0.0036221482 -0.045506783 -0.039977152 -0.042520188 -0.04872129 0.026293965 0.012793459 0.08162903
-0.070194185 -0.057379387 -0.036914684 -0.03390272 0.07879191 0.043971166 -0.07750736 -0.003601672
0.005790356 0.075145096 0.08243322 0.059136204 0.08527992 -0.029551495 -0.0013419227 -0.07941193
0.025499318 0.121468596 0.050701294 0.10607005 -0.03305466 0.02911212 -0.052523956 0.0692909
-0.037648715 -0.040587045 0.0137799475 0.01654852 0.06070741 -0.012743815 -0.018932391 0.04406449
0.060929712 0.099796236 0.034223143 -0.0021635701 0.121574916 0.13195288 -0.038699448 0.04154991
0.027117115 -0.039808016 -0.006274511 -0.014991174 -0.06635605 -0.03263436 0.05387656 0.075132795
0.011151351 -0.07567155 0.013090561 -0.025992574 0.08120119 -0.08543289 -0.01209885 0.086112045
0.013702816 -0.040422194 -0.08257206 -0.0001733946 0.05556925 -0.058754887 -0.08354252 0.054799553
-0.031379476 0.06039044 -0.07718962 -0.011586127 -0.055407103 -0.0023931712 -0.08558973 0.04655418
-0.03975112 -0.06366667 -0.042554412 -0.11363195 0.046983607 -0.019533837 -0.006402258 0.072221346
-0.011873731 0.08001248 0.0064444067 -0.059619453 0.023782691 0.026838144 -0.062249146 0.02828615
0.017984292 0.07617121 -0.008058691 -0.066053726 -0.08684517 0.03506162 -0.023501607 -0.021545414
-0.008718097 -0.023740692 0.024170356 0.081891485 0.07374751 -0.06312769 0.09105601 0.06142261
0.014935856 0.041227236 0.057958934 0.07768887 0.049274527 0.03069487 -0.035575565 -0.05817014
00000000: 77b5 9839 6e1c 28bd 8728 973d 76e2 943d
00000010: 7100 683d c1fb 253d ab15 93bd 7410 513d
00000020: 34c3 77bd 1cd9 67bc 7edd 16bd 8da6 dd3c
00000030: 3bcc 86bd 4dcb 28bd 05a3 76bd a353 cfbd
00000040: fd90 40bd 89d8 a63d 4606 c6bb d32e 053d
00000050: 31a5 b0bd 9724 c83d 1e2c 49bc 926d 9fbd
00000060: 6a51 b63d d31b 64bc 7398 943d df34 62bd
00000070: acc1 8bbd 019c 5cbd 0b56 0d3d b93d b53c
00000080: 6029 9cbd c6d7 623c d108 2d3c 2f24 0d3d
00000090: 22e0 30bd 0c8e 7fbd b42c ec3d 7a1e 44bd
000000a0: 284a 343d 50c3 933d aa14 8dbd cbb1 a0bd
000000b0: bd99 c73c 8088 9cbd 49ac 0d3d 53e2 07bd
000000c0: 115d 14bd f70c 85bd 012e 3c3d 3c3b 3bbd
000000d0: c904 b0bd 5912 86bd b4ad 29bd 97af a2bd
000000e0: 842f 3a3d c525 b0bc 8ffc b33d 1ba7 7e3d
000000f0: ab4d 68bd 6447 38bd 178d 2ebd e153 6f3d
00000100: dd50 cb3b d91b cfbc 6973 bc3d 0d45 d63d
00000110: 7656 a63d acf6 85bd 1b8d 0ebd b19a 4ebc
00000120: 3449 c93d bff9 15bd 995e 34bd ee22 8f3c
00000130: befb 9fbc 1140 323d 9e72 863c 650f 98bd
00000140: ade8 b13d 6434 a93d 27b6 dd3b 7dcd 54bd
00000150: ff92 133d 31f2 5b3d cd97 803d 1897 1abd
00000160: 1531 a6bb 73f8 cdbc 9994 b73d b897 013e
00000170: 11fa 1a3b a0d6 5bbd b4c7 293d d4b3 533d
00000180: bc54 163d d9a4 9dbd d002 743c 1dcc 0abd
00000190: c13e 92bd 1e7b 13bd fdf4 633d f63a 2f3d
000001a0: 512b 9cbd c322 863c 9270 b53d d621 dd3d
000001b0: aee3 903d 533a cebc ac73 533d 6737 583d
000001c0: 8938 2e3d eb94 6dbd dddb 07bd 4cd3 9e3d
000001d0: d105 a23d d605 a53d b09f 2dbd e15c 8cbc
000001e0: 6b0d 62bd 513c 00bd 8e25 953d 0376 84bd
000001f0: 9877 c83b 7119 ae3c 0b0d 47bd b52b 1e3d
00000200: 89b5 88bc e5c2 8f3d 8c6d 30bd ffac 3a3c
00000210: af38 a0bd bcbe 4a3d 38ef ac3d 78be c83c
00000220: 9061 6d3b 5265 3abd 15bf 23bd a629 2ebd
00000230: fa8f 47bd 7166 d73c a89b 513c 1f2d a73d
00000240: f8c1 8fbd a606 6bbd da33 17bd 94dd 0abd
00000250: a75d a13d 1c1b 343d 2ebc 9ebd 070a 6cbb
00000260: 07bd bd3b ace5 993d c0d2 a83d ce38 723d
00000270: 3da7 ae3d fa15 f2bc 74e3 afba b9a2 a2bd
00000280: f2e3 d03c 87c4 f83d 29ac 4f3d 413b d93d
00000290: 5364 07bd 8a7c ee3c 5c23 57bd 63e8 8d3d
000002a0: 8a35 1abd 9a3e 26bd 4ac5 613c c390 873c
000002b0: 55a8 783d 6fcb 50bc 1a18 9bbc f77c 343d
000002c0: 6f91 793d f861 cc3d 912d 0c3d afca 0dbb
000002d0: 45fc f83d a81e 073e 5083 1ebd 3d30 2a3d
000002e0: b624 de3c bb0d 23bd 6a9a cdbb 8b9d 75bc
000002f0: aee5 87bd 9bab 05bd abad 5c3d 39df 993d
00000300: 28b4 363c b0f9 9abd cb79 563c 61ee d4bc
00000310: cf4c a63d 70f7 aebd 413a 46bc 835b b03d
00000320: c781 603c be91 25bd 8a1b a9bd 42d1 35b9
00000330: 959c 633d f7a8 70bd 5718 abbd 7f75 603d
00000340: c487 00bd f75b 773d 9715 9ebd bdd3 3dbc
00000350: 8ff2 62bd c0d6 1cbb ab49 afbd 99af 3e3d
00000360: 12d2 22bd ac63 82bd 894d 2ebd deb7 e8bd
00000370: e271 403d 6d05 a0bc 08ca d1bb c9e8 933d
00000380: 0a8a 42bc 95dd a33d 9a2b d33b 8733 74bd
00000390: ebd3 c23c abdb db3c f6f8 7ebd 5bb8 e73c
000003a0: cb53 933c a7ff 9b3d 9a08 04bc 2d47 87bd
000003b0: e1db b1bd c69c 0f3d 7186 c0bc 0280 b0bc
000003c0: 59d6 0ebc d77b c2bc e900 c63c b9b6 a73d
000003d0: ef08 973d 1749 81bd 937b ba3d 4696 7b3d
000003e0: 85b5 743c e4dd 283d 5966 6d3d 581b 9f3d
000003f0: 16d4 493d cf73 fb3c afb7 11bd d043 6ebd

SoftmaxPolicy_l2.bias f4 [128]
0.05418665 -0.035986215 0.0035440503 -0.06349682 -0.0492285 0.05490115 0.019591128 0.029096458
0.049472377 0.026791535 0.00813507 -0.010157657 0.0011070669 0.08145633 0.034846496 0.011128752
0.035569575 -0.0391341 -0.069199935 -0.018034343 0.0946427 0.022349672 -0.065202616 0.05860827
0.080955535 0.06921443 0.012086073 -0.022267913 0.008716576 0.0292421 -0.031587906 -0.043922517
0.020421585 0.044549353 -0.025986591 -0.008719434 -0.06507965 -0.00048575146 -0.018693144 0.091997854
0.062380157 -0.028935624 -0.0684925 -0.07149347 -0.050162222 0.088524446 -0.025654225 0.066411614
0.06740086 -0.010127621 0.039278667 0.028561946 0.08155595 0.04314802 0.050525803 0.09018186
0.0116182 0.08388947 -0.0024086214 -0.0671181 0.086094245 -0.0662645 0.0010490417 0.085513495
-0.023123119 -0.06160963 0.06619079 0.034389 0.0563794 0.04664608 -0.09265746 0.072404325
-0.07359462 0.010817025 -0.049971774 0.0650127 0.09170341 0.014080055 -0.023149645 0.07674041
0.06973725 -0.0164133 0.07005391 0.00782431 -0.041224338 0.08418518 -0.050372187 -0.064585075
0.051312286 0.033435263 0.071031705 -0.03639695 0.020246169 0.046915483 0.01827062 -0.07137083
0.057610437 0.023601614 -0.019581748 -0.02158451 -0.09119314 0.09479295 0.0124161495 -0.023784062
0.09863208 -0.06420897 0.024421053 -0.013102655 -0.026146576 0.0019350294 -0.012324028 0.0761973
0.0638118 0.030439755 -0.004616285 -0.014172516 -0.006949648 -0.0020646127 0.032458924 0.07023961
-0.06229753 -0.08899808 -0.013626563 0.071108304 0.042034756 -0.03557508 0.05603044 0.03874009
00000000: d2f2 5d3d 4866 13bd 4c43 683b 9f0a 82bd
00000010: d3a3 49bd 07e0 603d 937d a03c b25b ee3c
00000020: 8ca3 4a3d ec79 db3c f548 053c 4d6c 26bc
00000030: 001b 913a 94d2 a63d 33bb 0e3d 5e55 363c
00000040: 67b1 113d 144b 20bd b2b8 8dbd c2bc 93bc
00000050: 08d4 c13d a916 b73c f388 85bd 3a0f 703d
00000060: 04cc a53d 4cc0 8d3d aa04 463c 336b b6bc
00000070: f8cf 0e3c 218d ef3c 5262 01bd 19e8 33bd
00000080: 2b4b a73c 6279 363d d5e1 d4bc f5db 0ebc
00000090: 7b48 85bd 75ac feb9 5d22 99bc 5f69 bc3d
000000a0: 5682 7f3d 670a edbc cc45 8cbd 2b6b 92bd
000000b0: e776 4dbd 4e4c b53d cf28 d2bc d002 883d
000000c0: 7609 8a3d 52ee 25bc abe2 203d befa e93c
000000d0: ce06 a73d fabb 303d 25f4 4e3d 44b1 b83d
000000e0: 435a 3e3c 3ece ab3d f6d9 1dbb 3775 89bd
000000f0: 2e52 b03d afb5 87bd 0080 893a b321 af3d
00000100: b26c bdbc 615a 7cbd 098f 873d 7bdb 0c3d
00000110: 16ee 663d f60f 3f3d 32c3 bdbd b848 943d
00000120: c7b8 96bd e439 313c 34af 4cbd 6125 853d
00000130: ffce bb3d 08b0 663c 53a4 bdbc 132a 9d3d
00000140: 67d2 8e3d 2f75 86bc 6d78 8f3d 8931 003c
00000150: dada 28bd 4869 ac3d 1153 4ebd 2e45 84bd
00000160: d52c 523d 6af3 083d 1279 913d f814 15bd
00000170: 4bdb a53c 732a 403d 44ac 953c df2a 92bd
00000180: ecf8 6b3d 2c58 c13c e769 a0bc 00d2 b0bc
00000190: 78c3 babd ce22 c23d 1b6d 4b3c cbd6 c2bc
000001a0: 9eff c93d fe7f 83bd a90e c83c 85ac 56bc
000001b0: 5831 d6bc d0a0 fd3a b8ea 49bc 540d 9c3d
000001c0: c3af 823d cb5c f93c 3544 97bb d733 68bc
000001d0: dfb9 e3bb 744e 07bb a6f3 043d c9d9 8f3d
000001e0: b22b 7fbd a044 b6bd f341 5fbc 3ba1 913d
000001f0: a32c 2c3d 2db7 11bd 2d80 653d eead 1e3d

SoftmaxPolicy_l3.weight f4 [2, 128]
0.053123284 0.013588557 0.1255451 0.013747396 -0.088915505 -0.018122949 0.04143242 0.093987465
0.015336408 0.007771407 0.07005327 0.07065427 0.08999772 0.015610185 0.0041522537 0.096609965
0.05523112 0.09557808 -0.010840524 0.09920129 -0.042599615 0.098805994 -0.038378783 -0.015242171
-0.03553104 0.043496042 0.04927583 0.035144392 -0.087876946 0.0058983685 -0.03958021 -0.03557063
0.054304417 -0.0008048714 0.050827112 -0.078755625 0.012472549 0.06919122 0.059190143 0.10369851
-0.008441394 0.08615522 -0.06952329 -0.009693655 -0.008864192 -0.027973933 0.032815814 0.0036721334
-0.101581104 -0.09641488 0.037869174 -0.059710767 -0.11037854 0.12974481 -0.055984054 0.096364796
0.06665431 0.04825528 -0.07514194 -0.02001977 0.08213382 0.021775218 -0.12414558 0.008068052
-0.06687699 -0.06994694 -0.083104976 0.08145975 0.07309786 -0.068385914 -0.034531236 0.079393834
-0.00057123764 -0.05777103 0.027761243 -0.10876172 -0.08726238 0.0708645 -0.08811182 0.10010889
-0.032652326 -0.05663458 -0.08169115 0.05472603 -0.11965456 0.04124939 0.027483964 0.033428367
-0.102800965 -0.064694166 0.04503291 -0.072055504 -0.044978194 0.056550384 0.043379586 0.07329145
0.0041920305 -0.04172246 0.12738442 0.0046740826 -0.021390121 0.07544951 -0.085016996 0.081837825
0.03532742 -0.01433129 -0.071975514 -0.025752254 -0.022951433 0.019298997 -0.059907317 0.04681706
-0.11996697 -0.07795328 -0.006967068 0.10785295 0.071718656 -0.08729508 0.07677585 -0.057143256
0.07587145 0.010204832 -0.02342224 -0.099260025 -0.101990946 -0.10449922 -0.057529513 0.069110684
-0.0058319215 0.109842084 -0.11557424 0.0851411 0.017452922 0.09188724 -0.10207963 -0.077153936
0.10929844 0.050909333 -0.11872916 -0.10095443 -0.026858851 0.12274566 0.0855621 -0.083461314
0.011271223 0.01621591 -0.06492362 -0.0841811 0.102526255 0.007945882 0.036842413 0.104937024
0.03662362 -0.14257085 -0.06577341 -0.062089667 -0.074583724 0.06418479 0.004070718 0.11574118
-0.034477886 0.01933039 -0.028731734 0.077647105 0.06017489 -0.019517515 -0.054442458 -0.046857797
-0.06809974 -0.14563178 0.042080764 0.054189 -0.10735483 0.12866606 -0.061435737 -0.09366981
0.06881355 0.064266175 -0.01720614 0.019014884 0.037375588 -0.117221445 0.1367785 -0.09180076
-0.050332528 -0.1463495 -0.026433961 0.025291434 -0.12154554 -0.069343515 0.011710856 -0.06642736
0.080214426 0.111048594 -0.0022911206 -0.051572762 0.0543421 0.010161164 0.067845404 0.02184526
0.064509004 0.12065765 -0.06353523 -0.05412036 0.0049363095 -0.09638353 0.07275655 -0.0697423
0.052232854 -0.06893274 0.06880717 0.024218436 0.11328004 -0.06808439 0.018590031 -0.05115183
0.005186465 0.06830683 -0.095713206 0.08693707 0.03564795 -0.025937116 0.072789915 0.009126109
-0.109658346 0.07416878 0.015584294 -0.047413882 0.056461338 -0.040591575 0.0459694 -0.039419897
-0.14533596 0.09735769 0.1016322 -0.120403096 -0.07445007 0.08429471 0.05488378 -0.048005477
0.013655538 0.08876078 0.10051627 -0.1271523 -0.05952439 -0.014973546 -0.09821841 -0.012927808
-0.0013641453 -0.01607845 -0.059184972 0.006619176 0.0058241407 -0.03466305 0.06589343 -0.072072126
00000000: cd97 593d 8aa2 5e3c e58e 003e c23c 613c
00000010: 5519 b6bd 9476 94bc 0bb5 293d 807c c03d
00000020: 8f45 7b3c 49a7 fe3b 1778 8f3d 30b3 903d
00000030: ba50 b83d ddc1 7f3c a10f 883b 72db c53d
00000040: 073a 623d 71be c33d 749c 31bc 0c2a cb3d
00000050: ef7c 2ebd cc5a ca3d 1233 1dbd 4cba 79bc
00000060: ff88 11bd e828 323d 74d5 493d 91f3 0f3d
00000070: d4f8 b3bd 1a47 c13b dc1e 22bd 82b2 11bd
00000080: 4f6e 5e3d 01fe 52ba 1730 503d a14a a1bd
00000090: aa59 4c3c 20b4 8d3d 5d71 723d e25f d43d
000000a0: c64d 0abc 2672 b03d 3a62 8ebd 23d2 1ebc
000000b0: 1e3b 11bc 9729 e5bc e069 063d 2da8 703b
000000c0: c109 d0bd 2a75 c5bd b51c 1b3d 4793 74bd
000000d0: 250e e2bd d3db 043e 894f 65bd e85a c53d
000000e0: 0e82 883d 54a7 453d 04e4 99bd 8000 a4bc
000000f0: c735 a83d f161 b23c 0a40 febd dd2f 043c
00000100: cef6 88bd 5740 8fbd f132 aabd 5fd4 a63d
00000110: 55b4 953d ea0d 8cbd a070 0dbd 3c99 a23d
00000120: 1cbf 15ba 51a1 6cbd 8c6b e33c 77be debd
00000130: 9eb6 b2bd 6821 913d f873 b4bd e405 cd3d
00000140: 72be 05bd a9f9 67bd b14d a7bd 6728 603d
00000150: 730d f5bd 1ff5 283d 0d26 e13c 2fec 083d
00000160: 5089 d2bd 607e 84bd 6e74 383d d691 93bd
00000170: 0e3b 38bd 60a1 673d cbae 313d d419 963d
00000180: 4d5d 893b 2ce5 2abd 1071 023e 0c29 993b
00000190: 563a afbc 4685 9a3d 641d aebd 979a a73d
000001a0: 7cb3 103d c9cd 6abc e667 93bd 64f6 d2bc
000001b0: a504 bcbc ee18 9e3c 6061 75bd 3fc3 3f3d
000001c0: 3eb1 f5bd f8a5 9fbd 014c e4bb 02e2 dc3d
000001d0: 3be1 923d c3c7 b2bd a83c 9d3d 0c0f 6abd
000001e0: 7e62 9b3d 2b32 273c ffdf bfbc d748 cbbd
000001f0: a1e0 d0bd b003 d6bd 11a4 6bbd e789 8d3d
00000200: b419 bfbb e3f4 e03d 30b2 ecbd 755e ae3d
00000210: 6ef9 8e3c 612f bc3d 200f d1bd e202 9ebd
00000220: dcd7 df3d 4e86 503d 4628 f3bd 32c1 cebd
00000230: 1807 dcbc 1462 fb3d 2f3b af3d c4ed aabd
00000240: f0aa 383c 3ad7 843c adf6 84bd 2467 acbd
00000250: 49f9 d13d 722f 023c 12e8 163d 39e9 d63d
00000260: a602 163d 18fe 11be 36b4 86bd bc51 7ebd
00000270: 5abf 98bd 5173 833d a863 853b b609 ed3d
00000280: af38 0dbd c45a 9e3c d05e ebbc 7205 9f3d
00000290: f279 763d 32e3 9fbc 0eff 5ebd f6ed 3fbd
000002a0: e077 8bbd 7f20 15be e15c 2c3d 49f5 5d3d
000002b0: d9dc dbbd 09c1 033e 0aa4 7bbd f5d5 bfbd
000002c0: 1eee 8c3d fc9d 833d e4f3 8cbc 1ac5 9b3c
000002d0: 2517 193d cc11 f0bd aa0f 0c3e 0902 bcbd
000002e0: 7b29 4ebd a5dc 15be 098c d8bc fb2f cf3c
000002f0: deec f8bd f903 8ebd e4de 3f3c 110b 88bd
00000300: 7647 a43d 726d e33d a026 16bb f63d 53bd
00000310: d295 5e3d 037b 263c 88f2 8a3d d5f4 b23c
00000320: 4c1d 843d 5c1b f73d c21e 82bd 50ad 5dbd
00000330: c4c0 a13b ba64 c5bd 6301 953d 0dd5 8ebd
00000340: 1ef2 553d 9c2c 8dbd c6ea 8c3d be65 c63c
00000350: 5eff e73d d46f 8bbd 1f4a 983c 9584 51bd
00000360: 39f3 a93b 74e4 8b3d 4905 c4bd 100c b23d
00000370: 9603 123d 137a d4bc e112 953d ad85 153c
00000380: 8e94 e0bd cde5 973d 4455 7f3c 0f35 42bd
00000390: 0144 673d 5a43 26bd 694a 3c3d c276 21bd
000003a0: f3d2 14be 7863 c73d 8b24 d03d e695 f6bd
000003b0: 4779 98bd b4a2 ac3d d1cd 603d 64a1 44bd
000003c0: 7abb 5f3c 36c8 b53d 79db cd3d 3634 02be
000003d0: d9cf 73bd 9b53 75bc bc26 c9bd 28cf 53bc
000003e0: 1fcd b2ba f4b6 83bc f16b 72bd ace5 d83b
000003f0: 6fd8 be3b d8fa 0dbd 22f3 863d 8d9a 93bd

SoftmaxPolicy_l3.bias f4 [2]
0.032651205 -0.016873932
00000000: 45bd 053d 333b 8abc
