pytorch_models/model279662.pth (torch, 72107 bytes, 6 tensors)

SoftmaxPolicy_l1.weight f4 [128, 4]
0.25466624 -0.21994911 -0.11301265 0.2291115 -0.46796405 0.31344172 -0.056500062 0.25664374
0.0683321 -0.0558509 0.20311056 0.04819504 0.17369045 -0.18792862 -0.027182708 -0.05157009
0.07194675 -0.0017532976 0.43536365 0.1539636 -0.18331935 -0.301368 -0.082299836 -0.21070153
-0.16272213 0.02134546 0.31210512 0.27854306 -0.48992458 0.32682237 0.25738913 0.5184114
0.32553524 -0.4597582 -0.4887065 -0.23502868 0.42174026 -0.09191931 0.22388747 -0.22695148
0.48534128 -0.23206487 0.30383983 -0.007822315 -0.26076555 0.25712067 -0.254243 0.15627898
-0.13327695 -0.051317997 -0.47035688 -0.22866364 0.2677386 -0.11944392 0.5002609 0.39928207
-0.028422821 -0.30958015 0.41239074 0.19519676 -0.3195642 0.33892494 0.4223057 0.4909457
-0.27935338 -0.08238874 -0.028064802 0.068591446 -0.37871277 -0.35541514 0.24948435 -0.12389815
0.23055427 0.031584285 0.30032164 0.1785798 0.16540779 0.25180793 -0.32011506 0.32320616
-0.3458783 -0.37609035 0.08473822 -0.055368148 0.2911541 -0.28322238 -0.35690764 0.41080794
-0.07119887 0.277772 0.09158165 -0.42010945 0.09878779 0.11475136 -0.34309217 -0.2394297
0.1749279 0.06919834 -0.35621282 -0.21540926 0.4476965 -0.083939895 0.39668742 0.26612136
-0.32154498 -0.42262408 0.46120808 0.016492298 0.3376198 0.11494711 0.26354307 0.41018575
0.46482986 -0.324521 0.18635114 0.44009265 0.35061923 0.3009816 -0.3605127 -0.35783416
-0.3091043 0.056121133 0.51219535 -0.31239414 0.27224448 -0.28102413 -0.49087012 -0.103460476
0.28318366 0.46364456 -0.29053053 0.11045624 0.41874167 0.35307434 0.40582603 0.37468442
0.30178806 0.11626822 -0.3292559 -0.40917316 -0.23673718 -0.057295196 -0.18836519 0.24596275
0.15393938 -0.11912434 0.2066173 0.17299624 0.2961502 0.3589299 -0.06559788 0.5196424
-0.04846772 -0.034008402 -0.6013026 -0.37001592 -0.2894107 -0.21408036 0.3442835 -0.16267905
-0.36637783 0.21717845 0.2572427 0.3442903 -0.25989065 0.1060688 -0.18320602 -0.11112033
-0.3943142 -0.22980651 -0.17143427 0.2148239 0.08365968 0.1449438 0.6193958 0.5109539
0.3330273 0.022872139 -0.22555754 0.44696993 -0.13017908 -0.04589472 -0.44079217 -0.100357704
-0.33047578 0.45620754 -0.47482914 -0.42050064 -0.010080376 -0.2659114 0.17326337 -0.19226041
-0.23304465 0.04196655 0.3404777 -0.3805111 0.23083429 0.31692758 0.46771312 -0.3646223
0.1347692 -0.3618792 0.39363828 -0.20713459 0.29650065 0.016784815 -0.014914391 -0.006868551
0.073380195 0.23545218 0.20898217 0.22234684 -0.44966814 0.37227383 0.53137255 0.46251202
0.35070786 -0.36147645 -0.15727323 0.44411975 -0.3865887 0.45926675 -0.4336973 -0.39246604
0.24012318 -0.34742486 -0.0508829 0.3912502 0.40035912 0.46819603 -0.19115393 -0.43982288
0.48328063 -0.12883356 -0.2356996 0.1347967 -0.34682748 0.32520655 0.23674896 -0.4481175
-0.41287988 -0.048331562 0.19359988 -0.012427003 -0.25035104 0.02092898 -0.47626123 -0.3641358
-0.32984498 0.41526625 0.4082459 -0.1967274 0.027763674 0.2114652 0.013780584 -0.26703686
00000000: 9d63 823e 573a 61be 2d73 e7bd 349c 6a3e
00000010: fc98 efbe 6f7b a03e 9c6c 67bd cf66 833e
00000020: b3f1 8b3d eac3 64bd 37fc 4f3e 2a68 453d
00000030: e9db 313e 5c70 40be 45ae debc 293b 53bd
00000040: d158 933d e8ce e5ba fce7 de3e a2a8 1d3e
00000050: 11b8 3bbe e84c 9abe d18c a8bd 24c2 57be
00000060: a1a0 26be addc ae3c 3ecc 9f3e 329d 8e3e
00000070: 65d7 fabe 4355 a73e 82c8 833e 9cb6 043f
00000080: 8eac a63e 6d65 ebbe bd37 fabe 5cab 70be
00000090: 57ee d73e 3140 bcbd c242 653e f865 68be
000000a0: a77e f83e 6aa2 6dbe e590 9b3e 2b29 00bc
000000b0: 1083 85be 52a5 833e 232c 82be 9907 203e
000000c0: c179 08be d232 52bd 9ed2 f0be cd26 6abe
000000d0: 0915 893e 049f f4bd 1911 003f b36e cc3e
000000e0: fad6 e8bc 4a81 9ebe e124 d33e a9e1 473e
000000f0: eb9d a3be 9287 ad3e 7438 d83e 3c5d fb3e
00000100: 6807 8fbe 6dbb a8bd 28e8 e5bc ac79 8c3d
00000110: a4e6 c1be f9f8 b5be d378 7f3e 50be fdbd
00000120: 6b16 6c3e 865e 013d c2c3 993e a0dd 363e
00000130: a960 293e f8ec 803e 1fe6 a3be 477b a53e
00000140: f616 b1be ea8e c0be 3b8b ad3d b6c9 62bd
00000150: 2612 953e 8602 91be 99bc b6be 6b55 d23e
00000160: b7d0 91bd 2238 8e3e 298f bb3d 9618 d7be
00000170: 4151 ca3d c302 eb3d c7a9 afbe 0f2d 75be
00000180: 4d20 333e dcb7 8d3d 8761 b6be 3f94 5cbe
00000190: 7a38 e53e aee8 abbd 9d1a cb3e 0f41 883e
000001a0: 8ba1 a4be 2f62 d8be 7723 ec3e db1a 873c
000001b0: 81dc ac3e 6469 eb3d 1eef 863e de03 d23e
000001c0: 2efe ed3e 9e27 a6be d5d2 3e3e d353 e13e
000001d0: 5d84 b33e 431a 9a3e 1f95 b8be 0a36 b7be
000001e0: eb42 9ebe 46df 653d 3c1f 033f 20f2 9fbe
000001f0: a163 8b3e 65e2 8fbe 5453 fbbe 16e3 d3bd
00000200: 73fd 903e d262 ed3e 6bc0 94be e236 e23d
00000210: 4f65 d63e 29c6 b43e 6ec8 cf3e a3d6 bf3e
00000220: f783 9a3e 081e ee3d 3b94 a8be 257f d1be
00000230: 3b6b 72be 5eae 6abd cee2 40be a9dd 7b3e
00000240: 49a2 1d3e 76f7 f3bd 7c93 533e ed25 313e
00000250: 00a1 973e a9c5 b73e 2e58 86bd 4907 053f
00000260: 1786 46bd 654c 0bbd f8ee 19bf ba72 bdbe
00000270: a42d 94be e237 5bbe ed45 b03e 5695 26be
00000280: e095 bbbe 0764 5e3e 51b5 833e d146 b03e
00000290: 6310 85be 993a d93d 5c9a 3bbe 0e93 e3bd
000002a0: 8de3 c9be 6652 6bbe 778c 2fbe ccfa 5b3e
000002b0: c455 ab3d 266c 143e b990 1e3f e0cd 023f
000002c0: 8e82 aa3e 5a5e bb3c 8ef8 66be 3ed9 e43e
000002d0: aa4d 05be 1afc 3bbd 83af e1be 5788 cdbd
000002e0: 1f34 a9be 0994 e93e ce1c f3be dc4b d7be
000002f0: 2928 25bc 8a25 88be f46b 313e eadf 44be
00000300: 42a3 6ebe 1ee5 2b3d 1853 ae3e 5ad2 c2be
00000310: d35f 6c3e 5544 a23e 1878 ef3e c6af babe
00000320: f000 0a3e 3b48 b9be f58a c93e 171b 54be
00000330: efce 973e 4f80 893c 7d5b 74bc 9511 e1bb
00000340: 5b48 963d 601a 713e 6cff 553e e4ae 633e
00000350: e73a e6be ad9a be3e 0808 083f 60ce ec3e
00000360: fb8f b33e 7113 b9be 3c0c 21be aa63 e33e
00000370: f4ee c5be 0325 eb3e 930d debe 4ff1 c8be
00000380: dae2 753e ace1 b1be 966a 50bd f251 c83e
00000390: dffb cc3e 64b7 ef3e dbbd 43be 7730 e1be
000003a0: 8f70 f73e f2ec 03be 3c5b 71be 2508 0a3e
000003b0: 5f93 b1be 7981 a63e 526e 723e a86f e5be
000003c0: fe64 d3be 51f7 45bd 0c3f 463e a19a 4bbc
000003d0: 032e 80be 4173 ab3c 83d8 f3be 0270 babe
000003e0: 71e1 a8be c79d d43e 9b05 d13e e872 49be
000003f0: a570 e33c 558a 583e f5c7 613c 0eb9 88be

SoftmaxPolicy_l1.bias f4 [128]
-0.3810774 0.35533637 0.3313172 -0.4997996 -0.39417493 -0.33718953 -0.26020524 0.117474094
-0.48729584 -0.38870347 0.23152284 -0.17006499 -0.21352762 -0.41595438 0.19170567 0.110477395
-0.20359497 -0.3100291 0.1172453 0.15165927 0.19289757 0.16476457 -0.050922457 -0.39046624
0.35009253 0.032507293 -0.3441061 0.468918 0.28617802 -0.4056627 -0.24523619 -0.16198707
-0.2908352 0.23509312 -0.37722525 0.45169267 -0.1988337 0.30442828 0.09338431 -0.22881365
0.3443402 -0.3804067 -0.26477125 0.1083859 0.38918093 -0.20788744 -0.28235036 -0.32308456
-0.19916597 -0.1598948 -0.12218706 -0.29193208 0.16982965 0.08199866 -0.3406929 -0.25161505
0.10067824 0.025286619 0.39013135 -0.058355916 -0.40358284 -0.36358145 -0.13315879 -0.10541371
0.08557977 -0.12852125 0.21087286 -0.15825315 0.39213103 0.09981683 -0.15990569 0.4751306
0.16389832 -0.35840136 -0.2651939 0.33525786 0.22021998 0.38038614 0.01775313 0.34712887
0.2728606 0.1415623 -0.14955653 0.51133156 0.09689856 -0.15471354 0.06706054 0.50001234
0.3203439 -0.05868015 0.51918554 0.2511947 -0.26089126 -0.45936993 0.31166112 0.5013838
-0.30164734 0.19645178 0.042346932 -0.12666252 -0.10878657 0.16555169 0.10290148 0.33535045
0.18570065 0.2576877 0.47300804 0.17627132 0.11530097 -0.13726388 0.37890252 0.09468469
0.32685468 0.48075476 -0.13337994 0.3336 -0.06286358 0.47764596 0.39255634 -0.15448238
0.012217937 -0.21560101 -0.21014805 -0.089569256 -0.001871458 -0.15363736 -0.47109628 -0.31244764
00000000: 941c c3be a6ee b53e 68a2 a93e bce5 ffbe
00000010: 4cd1 c9be 1ba4 acbe 9f39 85be 4296 f03d
00000020: d77e f9be 2404 c7be 5314 6d3e 8425 2ebe
00000030: fca6 5abe f9f7 d4be 7e4e 443e f941 e23d
00000040: 337b 50be 22bc 9ebe 4e1e f03d 914c 1b3e
00000050: f186 453e 0bb8 283e 1194 50bd 31eb c7be
00000060: 543f b33e 5e26 053d ad2e b0be 0516 f03e
00000070: ed85 923e 05b3 cfbe 321f 7bbe f0df 25be
00000080: 5ae8 94be 40bc 703e ab23 c1be 4344 e73e
00000090: 109b 4bbe 06de 9b3e 4640 bf3d 204e 6abe
000000a0: 5c4d b03e abc4 c2be 1990 87be 6df9 dd3d
000000b0: b942 c73e 72e0 54be 3a90 90be 576b a5be
000000c0: 2af2 4bbe 76bb 23be 363d fabd 1f78 95be
000000d0: d3e7 2d3e eaee a73d 4d6f aebe b0d3 80be
000000e0: 6530 ce3d e225 cf3c 4cbf c73e 9d06 6fbd
000000f0: 69a2 cebe 5927 babe c75a 08be 25e3 d7bd
00000100: 7244 af3d 139b 03be 0eef 573e 1d0d 22be
00000110: 66c5 c83e c46c cc3d 51be 23be 5144 f33e
00000120: f6d4 273e 6280 b7be 7fc7 87be eba6 ab3e
00000130: 5981 613e f9c1 c23e 036f 913c e0ba b13e
00000140: 62b4 8b3e b5f5 103e 5925 19be a0e6 023f
00000150: c172 c63d 3a6d 1ebe 0957 893d cf00 003f
00000160: 1e04 a43e 995a 70bd 58e9 043f 979c 803e
00000170: 8a93 85be 8932 ebbe 0c92 9f3e b05a 003f
00000180: 8571 9abe a82a 493e fa73 2d3d d2b3 01be
00000190: 7ecb debd 6286 293e 03be d23d 0eb3 ab3e
000001a0: 5028 3e3e a4ef 833e 1c2e f23e 7880 343e
000001b0: ea22 ec3d e78e 0cbe 83ff c13e 0cea c13d
000001c0: 7f59 a73e 7d25 f63e c094 08be 9fcd aa3e
000001d0: 9fbe 80bd 038e f43e 25fd c83e a130 1ebe
000001e0: be2d 483c 83c6 5cbe 0d31 57be 1670 b7bd
000001f0: b64b f5ba 1d53 1dbe 8833 f1be 23f9 9fbe

SoftmaxPolicy_l2.weight f4 [128, 128]
-0.001776818 -0.041214243 0.072254956 0.072702184 0.056641046 0.040709242 -0.071990706 0.051738556
-0.062644064 -0.018946733 -0.039852306 0.025848446 -0.06578096 -0.04203182 -0.059815098 -0.100528985
-0.046201196 0.08255005 -0.008696012 0.029703153 -0.08543732 0.09615133 -0.014786756 -0.0809645
0.08597994 -0.01666323 0.07356974 -0.057673 -0.07028822 -0.057526764 0.033965833 0.019130187
-0.07920234 0.011130652 0.0062130783 0.034105793 -0.04517905 -0.06507881 0.112170696 -0.046862427
0.04415591 0.07178025 -0.0678869 -0.07921254 0.021817189 -0.0766395 0.034383 -0.03330675
-0.036695126 -0.06789168 0.045238137 -0.05005296 -0.08827177 -0.06473561 -0.04370535 -0.07971308
0.044875633 -0.02492938 0.08489582 0.061605193 -0.05680277 -0.045033775 -0.042151537 0.055639062
0.0029464483 -0.028239133 0.09012524 0.1013898 0.07820976 -0.06489236 -0.033699475 -0.012928639
0.09596079 -0.040247656 -0.04429424 0.016631646 -0.019631855 0.04067232 0.017072406 -0.074871115
0.085574314 0.080265746 0.007969934 -0.054389894 0.037109952 0.054220494 0.062440462 -0.037400648
-0.004728477 -0.028251674 0.08965955 0.1230458 0.0006300321 -0.05367148 0.039807964 0.0513906
0.036222856 -0.07665174 0.015479497 -0.036731437 -0.07195227 -0.035693463 0.05289639 0.041704427
-0.0773025 0.016347816 0.08587765 0.10485549 0.067719266 -0.027910525 0.050636426 0.050739683
0.04302234 -0.060424305 -0.031967137 0.07694793 0.07665015 0.07933619 -0.045017663 -0.017241703
-0.056121282 -0.034134105 0.06963272 -0.06574809 0.0034299216 0.022289554 -0.048628733 0.035176966
-0.015379677 0.0700136 -0.04279768 0.011388752 -0.078233115 0.049367934 0.0845659 0.02379165
0.005693304 -0.04314175 -0.03885671 -0.041469898 -0.0486736 0.024811167 0.012356449 0.080061905
-0.07087273 -0.058277536 -0.03680415 -0.03386967 0.07802235 0.044655617 -0.07725501 -0.002736149
0.0069293124 0.075381204 0.08158987 0.05939587 0.08592255 -0.028827779 -0.0007788766 -0.076734565
0.024951888 0.12133205 0.052548412 0.10618055 -0.032530524 0.02909874 -0.049928 0.06845528
-0.038126476 -0.040209934 0.012942137 0.014695675 0.061240938 -0.0125101665 -0.019669672 0.044180177
0.06137712 0.0996753 0.034881838 -0.0009740084 0.12116669 0.13099058 -0.03732874 0.041197114
0.027142204 -0.039182752 -0.005218983 -0.015198338 -0.06626211 -0.032500006 0.05232551 0.07519303
0.011579779 -0.07606812 0.014667478 -0.024217999 0.08190232 -0.08597701 -0.01390576 0.0862224
0.014938277 -0.040016055 -0.08224248 0.00040450582 0.055455714 -0.058282573 -0.084282145 0.053686213
-0.0304459 0.06159616 -0.07820086 -0.010428247 -0.056378957 -0.002815093 -0.08557741 0.046190783
-0.0402114 -0.0635153 -0.04267597 -0.111933075 0.047970068 -0.019533837 -0.0068441504 0.0723676
-0.011477553 0.07953999 0.0057566394 -0.060120262 0.02305247 0.02640505 -0.061614614 0.028672183
0.018085157 0.07495515 -0.007176352 -0.064163424 -0.08569529 0.034032866 -0.023766134 -0.02245884
-0.009179583 -0.023403358 0.023137672 0.08199156 0.07383801 -0.062179625 0.09094935 0.061440818
0.015282777 0.042523857 0.057839803 0.078277126 0.050723597 0.02980384 -0.035522033 -0.05644974
00000000: 1ee4 e8ba 44d0 28bd 68fa 933d e2e4 943d
00000010: 7100 683d bcbe 263d dd6f 93bd cfeb 533d
00000020: 884b 80bd 2e36 9bbc 2c3c 23bd 1fc0 d33c
00000030: 2bb8 86bd 8f29 2cbd ad00 75bd 24e2 cdbd
00000040: 773d 3dbd 0010 a93d b879 0ebc 0754 f33c
00000050: c3f9 aebd fdea c43d 2644 72bc b7d0 a5bd
00000060: 4016 b03d 5381 88bc bbab 963d 863a 6cbd
00000070: 45f3 8fbd 2fa1 6bbd c21f 0b3d e9b6 9c3c
00000080: d634 a2bd 575d 363c 1497 cb3b 84b2 0b3d
00000090: ab0d 39bd 0a48 85bd c0b9 e53d d1f2 3fbd
000000a0: d4dc 343d 8601 933d 4908 8bbd 2f3a a2bd
000000b0: f6b9 b23c 2cf5 9cbd 30d5 0c3d a96c 08bd
000000c0: a14d 16bd cb0a 8bbd a04b 393d 5504 4dbd
000000d0: d4c7 b4bd 1a94 84bd 6204 33bd 9c40 a3bd
000000e0: 83cf 373d b338 ccbc dcdd ad3d ba55 7c3d
000000f0: 05aa 68bd 5675 38bd 17a7 2cbd c9e5 633d
00000100: 3319 413b c155 e7bc 9593 b83d 75a5 cf3d
00000110: 702c a03d 49e6 84bd 7608 0abd a4d2 53bc
00000120: 1787 c43d bada 24bd e16d 35bd 173f 883c
00000130: fcd2 a0bc 0598 263d 6edb 8b3c 0756 99bd
00000140: 9641 af3d 5e62 a43d 5394 023c f0c7 5ebd
00000150: 9b00 183d 4f16 5e3d 92c1 7f3d 6c31 19bd
00000160: 57f1 9abb 0e70 e7bc 6d9f b73d 70ff fb3d
00000170: bd28 253a a0d6 5bbd ad0d 233d f37e 523d
00000180: 6b5e 143d 96fb 9cbd b79d 7d3c b473 16bd
00000190: b65b 93bd 4f33 12bd e3a9 583d 43d2 2a3d
000001a0: c650 9ebd dbeb 853c 9fe0 af3d 7abe d63d
000001b0: 66b0 8a3d 9da4 e4bc 2468 4f3d 6ad4 4f3d
000001c0: 3138 303d 7a7f 77bd f9ef 02bd e096 9d3d
000001d0: c1fa 9c3d 037b a23d 7164 38bd 793e 8dbc
000001e0: 6edf 65bd 34d0 0bbd 999b 8e3d efa6 86bd
000001f0: 89c8 603b 9598 b63c ec2e 47bd b915 103d
00000200: 0afb 7bbc 4a63 8f3d 9f4c 2fbd e397 3a3c
00000210: af38 a0bd 0836 4a3d e330 ad3d b5e6 c23c
00000220: e58e ba3b 67b5 30bd 3728 1fbd 57dc 29bd
00000230: f85d 47bd ca40 cb3c b472 4a3c 7ff7 a33d
00000240: b925 91bd 6db4 6ebd f3bf 16bd ecba 0abd
00000250: 2fca 9f3d cfe8 363d e037 9ebd f650 33bb
00000260: 490f e33b 7661 9a3d 9718 a73d 1549 733d
00000270: 29f8 af3d 3c28 ecbc 862d 4cba 0327 9dbd
00000280: e767 cc3c f07c f83d 013d 573d 3075 d93d
00000290: ba3e 05bd 7b60 ee3c 4d81 4cbd 4832 8c3d
000002a0: 822a 1cbd 2cb3 24bd 420b 543c 21c6 703c
000002b0: c7d7 7a3d 71f7 4cbc 4b22 a1bc 46f6 343d
000002c0: 9366 7b3d 9022 cc3d 42e0 0e3d 9954 7fba
000002d0: 3e26 f83d 6522 063e 05e6 18bd 4ebe 283d
000002e0: 5459 de3c 187e 20bd 0104 abbb 7302 79bc
000002f0: 6eb4 87bd ba1e 05bd 4653 563d cefe 993d
00000300: 1db9 3d3c 9ac9 9bbd dd4f 703c d364 c6bc
00000310: 67bc a73d b714 b0bd fcd4 63bc 5f95 b03d
00000320: adbf 743c e0e7 23bd bf6e a8bd da13 d439
00000330: 8825 633d b5b9 6ebd 1e9c acbd 13e6 5b3d
00000340: ae69 f9bc 414c 7c3d c627 a0bd 3ddb 2abc
00000350: 9fed 66bd 6c7d 38bb 3643 afbd 8c32 3d3d
00000360: b5b4 24bd 4f14 82bd ffcc 2ebd 2b3d e5bd
00000370: 437c 443d 6d05 a0bc e544 e0bb 7735 943d
00000380: 590c 3cbc dde5 a23d 31a2 bc3b aa40 76bd
00000390: 89d8 bc3c 674f d83c 9b5f 7cbd ede1 ea3c
000003a0: 5327 943c 1682 993d 9b27 ebbb 1d68 83bd
000003b0: 0381 afbd 0c66 0b3d 32b1 c2bc 9afb b7bc
000003c0: f665 16bc 66b8 bfbc 378b bd3c 31eb a73d
000003d0: 6238 973d 10b0 7ebd a743 ba3d 5ea9 7b3d
000003e0: 9d64 7a3c 7f2d 2e3d 6ee9 6c3d c24f a03d
000003f0: 8cc3 4f3d 2f27 f43c 8d7f 11bd d837 67bd

SoftmaxPolicy_l2.bias f4 [128]
0.052635103 -0.03562689 0.0030052909 -0.063099 -0.04886289 0.05547949 0.01894321 0.02933357
0.049633007 0.026791535 0.0067754886 -0.010586349 0.0011070669 0.081934474 0.033558875 0.010656412
0.035830352 -0.03945697 -0.06920522 -0.019200938 0.0950173 0.021306708 -0.065202616 0.058917675
0.080955535 0.06862031 0.010772524 -0.022851635 0.008716576 0.029729526 -0.031707946 -0.043636635
0.019358393 0.044744745 -0.026540844 -0.008719434 -0.06507965 0.00081796834 -0.01912567 0.09059909
0.06161493 -0.029569134 -0.0684925 -0.07149347 -0.05071734 0.088953316 -0.025573703 0.06633724
0.06778137 -0.009738518 0.03978728 0.028981784 0.081288524 0.04220484 0.05099701 0.08934203
0.011092698 0.08338392 -0.0024086214 -0.06726304 0.08552499 -0.0662645 0.0014621901 0.08460444
-0.022295974 -0.06104211 0.06619079 0.03398925 0.057076987 0.047173414 -0.091553435 0.07170525
-0.072927944 0.011212376 -0.050677776 0.06576945 0.092093386 0.012552171 -0.022789495 0.076111235
0.06946185 -0.015028327 0.0704396 0.008216751 -0.040870376 0.08333429 -0.051360324 -0.06385586
0.05183751 0.033435263 0.06998636 -0.036112044 0.020768832 0.046278067 0.018204758 -0.071992345
0.05708799 0.023555862 -0.020070957 -0.02336975 -0.09206121 0.09421137 0.0123864785 -0.024784721
0.097594045 -0.06418914 0.024721269 -0.013901402 -0.027551107 0.0019350294 -0.011738996 0.07550843
0.064282216 0.030967264 -0.0042308196 -0.014843473 -0.0071101934 -0.0013903541 0.031899784 0.07023961
-0.06289842 -0.08899808 -0.011894508 0.07141239 0.042538013 -0.03531401 0.05636398 0.038710438
00000000: e897 573d 80ed 11bd 6af4 443b 0c3a 81bd
00000010: 7424 48bd 763e 633d ca2e 9b3c f44c f03c
00000020: fb4b 4b3d ec79 db3c eb04 de3b 5e72 2dbc
00000030: 001b 913a 43cd a73d 0875 093d 3b98 2e3c
00000040: d9c2 123d a29d 21bd 77bb 8dbd 494b 9dbc
00000050: 6e98 c23d 688b ae3c f388 85bd a953 713d
00000060: 04cc a53d ce88 8c3d 3e7f 303c 5a33 bbbc
00000070: f8cf 0e3c 568b f33c 31e0 01bd 54bc 32bd
00000080: 7e95 9e3c 4446 373d 2f6c d9bc f5db 0ebc
00000090: 7b48 85bd ed6c 563a 70ad 9cbc 048c b93d
000000a0: f05f 7c3d f83a f2bc cc45 8cbd 2b6b 92bd
000000b0: fcbc 4fbd 282d b63d f17f d1bc d2db 873d
000000c0: f5d0 8a3d 4e8e 1fbc fdf7 223d 356b ed3c
000000d0: 997a a63d fbde 2c3d 3ee2 503d f4f8 b63d
000000e0: 26be 353c 30c5 aa3d f6d9 1dbb 34c1 89bd
000000f0: ba27 af3d afb5 87bd f5a6 bf3a 1845 ad3d
00000100: 0ca6 b6bc 4b07 7abd 098f 873d 5038 0b3d
00000110: 8fc9 693d e938 413d 5e80 bbbd 34da 923d
00000120: 3f5b 95bd 1db4 373c 8093 4fbd 22b2 863d
00000130: 759b bc3d 9fa7 4d3c 09b1 babc 35e0 9b3d
00000140: 0442 8e3d 5f39 76bc a342 903d 8d9f 063c
00000150: b267 27bd 2bab aa3d 345f 52bd dcc6 82bd
00000160: 9253 543d 6af3 083d 0255 8f3d 39ea 13bd
00000170: 6623 aa3c 128e 3d3d 2522 953c b970 93bd
00000180: 19d5 693d 39f8 c03c d96b a4bc eb71 bfbc
00000190: 968a bcbd e4f1 c03d a8f0 4a3c 5409 cbbc
000001a0: 63df c73d 9975 83bd 4284 ca3c b5c2 63bc
000001b0: dcb2 e1bc d0a0 fd3a eb54 40bc 2aa4 9a3d
000001c0: 65a6 833d 0faf fd3c b0a2 8abb 0a32 73bc
000001d0: a0fc e8bb 8b3c b6ba 59a9 023d c9d9 8f3d
000001e0: e3d0 80bd a044 b6bd 2fe1 42bc a940 923d
000001f0: 573c 2e3d 6ca5 10bd ebdd 663d d68e 1e3d

SoftmaxPolicy_l3.weight f4 [2, 128]
0.05123483 0.014296393 0.12462904 0.013975255 -0.08786869 -0.017381508 0.039923735 0.094069764
0.015710616 0.007771407 0.06804062 0.06941308 0.08999772 0.016480753 0.0049297167 0.09554161
0.054932002 0.09422717 -0.010840645 0.097260945 -0.042173218 0.09703686 -0.038378783 -0.015017243
-0.03553104 0.042091586 0.048231535 0.03356439 -0.087876946 0.0062597585 -0.040387593 -0.03464407
0.052566186 -0.00082857866 0.050307572 -0.078755625 0.012472549 0.069474295 0.05724574 0.102436595
-0.009601695 0.08443704 -0.06952329 -0.009693655 -0.010442768 -0.027202243 0.032822765 0.0024815386
-0.10130767 -0.095679544 0.037977263 -0.05886731 -0.109093584 0.12756658 -0.054899044 0.09459572
0.06600018 0.04679161 -0.07514194 -0.019296046 0.07998156 0.021775218 -0.123906724 0.007012944
-0.0705432 -0.06967859 -0.083104976 0.080011584 0.073103935 -0.067376025 -0.035016064 0.07824376
-0.0002772941 -0.056494337 0.026288306 -0.10781397 -0.08711145 0.06968387 -0.08813348 0.0984112
-0.032625068 -0.05677549 -0.08018379 0.054519847 -0.11960858 0.040323164 0.027174756 0.033653397
-0.102371015 -0.064694166 0.043239493 -0.07106789 -0.044753432 0.055053424 0.043368973 0.07276272
0.0029577964 -0.041729916 0.12598906 0.0038478733 -0.021182045 0.0741935 -0.084084734 0.08011237
0.03335998 -0.013297211 -0.071529254 -0.027840631 -0.021502757 0.019298997 -0.059204217 0.045180615
-0.119834915 -0.0773277 -0.006524131 0.10651363 0.070331536 -0.08636066 0.07562176 -0.057143256
0.073954 0.010204832 -0.022633046 -0.09873965 -0.101891786 -0.10407776 -0.056518786 0.06910903
-0.003943478 0.10913414 -0.11465818 0.08491326 0.016406134 0.09114576 -0.100571014 -0.077236235
0.1089242 0.050909333 -0.116716504 -0.099713236 -0.026858851 0.12187507 0.084784605 -0.08239297
0.0115703605 0.01756684 -0.064923525 -0.082240745 0.102099895 0.009715023 0.036842413 0.10471207
0.03662362 -0.1411662 -0.06472917 -0.06050965 -0.074583724 0.0638233 0.004878112 0.114814624
-0.032739654 0.019354096 -0.028212167 0.077647105 0.06017489 -0.019800581 -0.052498054 -0.04559585
-0.06693943 -0.1439136 0.042080764 0.054189 -0.10577621 0.12789443 -0.061442688 -0.09247916
0.06854011 0.06353085 -0.017314203 0.01817145 0.036090646 -0.11504332 0.13569361 -0.09003168
-0.04967828 -0.14488569 -0.026433961 0.024567708 -0.119393274 -0.069343515 0.011472001 -0.06537221
0.08388063 0.11078025 -0.0022911206 -0.050124552 0.05433606 0.009151251 0.0683302 0.022995353
0.064215004 0.11938091 -0.0620623 -0.055068042 0.004785363 -0.0952029 0.07277821 -0.06804461
0.052205596 -0.068791844 0.067299806 0.024424642 0.113234065 -0.06715815 0.018899241 -0.05137686
0.004756598 0.06830683 -0.09391991 0.085949466 0.035423197 -0.024440216 0.0728005 0.0096547995
-0.10842419 0.07417623 0.016979635 -0.04658768 0.05625327 -0.039335545 0.04503717 -0.037694443
-0.14336847 0.09632363 0.10118594 -0.11831471 -0.07589874 0.08429471 0.054180678 -0.046369035
0.013523554 0.0881352 0.10007333 -0.12581307 -0.058137175 -0.015907973 -0.09706432 -0.012927808
0.0005532427 -0.01607845 -0.059974156 0.006098776 0.005724902 -0.03508459 0.06488268 -0.07207047
00000000: 9ddb 513d 6b3b 6a3c 833d ff3d 78f8 643c
00000010: 80f4 b3bd aa63 8ebc 1287 233d a6a7 c03d
00000020: 8db3 803c 49a7 fe3b e158 8b3d 7228 8e3d
00000030: ba50 b83d a502 873c 7689 a13b 52ab c33d
00000040: 6100 613d 2dfa c03d f69c 31bc bf30 c73d
00000050: d3bd 2cbd 43bb c63d 1233 1dbd e20a 76bc
00000060: ff88 11bd 3a68 2c3d 6e8e 453d d07a 093d
00000070: d4f8 b3bd a91e cd3b 766d 25bd f1e6 0dbd
00000080: a44f 573d f934 59ba 500f 4e3d a14a a1bd
00000090: aa59 4c3c 8a48 8e3d 827a 6a3d 47ca d13d
000000a0: 6e50 1dbc 54ed ac3d 3a62 8ebd 23d2 1ebc
000000b0: 2518 2bbc 3dd7 debc 2a71 063d 4fa1 223b
000000c0: 657a cfbd a3f3 c3bd 0c8e 1b3d d91e 71bd
000000d0: 756c dfbd d0a0 023e d2dd 60bd 67bb c13d
000000e0: 1a2b 873d 8fa8 3f3d 04e4 99bd be12 9ebc
000000f0: 5fcd a33d f161 b23c cfc2 fdbd d7cc e53b
00000100: f478 90bd a6b3 8ebd f132 aabd 1ddd a33d
00000110: 84b7 953d 71fc 89bd 016d 0fbd 443e a03d
00000120: c961 91b9 9b66 67bd 935a d73c 92cd dcbd
00000130: 7d67 b2bd 6bb6 8e3d 537f b4bd d08b c93d
00000140: dda1 05bd 6b8d 68bd 6637 a4bd 3450 5f3d
00000150: 58f5 f4bd e729 253d 989d de3c 25d8 093d
00000160: e5a7 d1bd 607e 84bd e51b 313d 0b8c 91bd
00000170: 604f 37bd b37f 613d aaa3 313d 9f04 953d
00000180: 97d7 413b fdec 2abd 4703 013e 9a2c 7c3b
00000190: f885 adbc c3f2 973d 9e34 acbd f411 a43d
000001a0: 79a4 083d 8cdc 59bc ee7d 92bd 0912 e4bc
000001b0: 8d26 b0bc ee18 9e3c 1f80 72bd 4f0f 393d
000001c0: 026c f5bd fc5d 9ebd 61c8 d5bb d123 da3d
000001d0: fb09 903d dcdd b0bd 95df 9a3d 0c0f 6abd
000001e0: 3275 973d 2b32 273c f068 b9bc 0338 cabd
000001f0: a4ac d0bd b826 d5bd 3e80 67bd 0989 8d3d
00000200: 4b38 81bb b881 df3d e8d1 eabd 01e7 ad3d
00000210: 2866 863c a1aa ba3d 2df8 cdbd 082e 9ebd
00000220: a713 df3d 4e86 503d 1009 efbd 7436 ccbd
00000230: 1807 dcbc a399 f93d 8da3 ad3d a5bd a8bd
00000240: 9c91 3d3c 55e8 8f3c a0f6 84bd d66d a8bd
00000250: c019 d13d c32b 1f3c 12e8 163d 4873 d63d
00000260: a602 163d df8d 10be ba90 84bd f7d8 77bd
00000270: 5abf 98bd cab5 823d 92d8 9f3b ee23 eb3d
00000280: 041a 06bd 7b8c 9e3c 341d e7bc 7205 9f3d
00000290: f279 763d d434 a2bc 3308 57bd b7c2 3abd
000002a0: 8a17 89bd 165e 13be e15c 2c3d 49f5 5d3d
000002b0: 33a1 d8bd c2f6 023e 54ab 7bbd b765 bdbd
000002c0: c25e 8c3d 761c 823d 84d6 8dbc 4bdc 943c
000002d0: c9d3 133d d59b ebbd 44f3 0a3e 8862 b8bd
000002e0: 747b 4bbd ea5c 14be 098c d8bc 3842 c93c
000002f0: 7684 f4bd f903 8ebd 0ff5 3b3c dee1 85bd
00000300: 9cc9 ab3d c1e0 e23d a026 16bb 674f 4dbd
00000310: 7d8f 5e3d 21ef 153c b4f0 8b3d c060 bc3c
00000320: 2883 833d fb7d f43d 0a35 7ebd 078f 61bd
00000330: 89ce 9c3b bdf9 c2bd be0c 953d f95a 8bbd
00000340: 89d5 553d bde2 8cbd 7bd4 893d 3016 c83c
00000350: 43e7 e73d 368a 89bd 95d2 9a3c 8b70 52bd
00000360: 3cdd 9b3b 74e4 8b3d 1559 c0bd 4606 b03d
00000370: ea17 113d d936 c8bc 6e18 953d 2a2f 1e3c
00000380: 800d debd b5e9 973d e018 8b3c b9d2 3ebd
00000390: d469 663d 4f1e 21bd e578 383d 7d65 1abd
000003a0: 2fcf 12be 5345 c53d 933a cf3d fc4e f2bd
000003b0: cc70 9bbd b4a2 ac3d 8fec 5d3d 75ed 3dbd
000003c0: e691 5d3c 3a80 b43d 3ff3 cc3d 24d5 00be
000003d0: 3f21 6ebd 7051 82bc a9c9 c6bd 28cf 53bc
000003e0: 7d07 113a f4b6 83bc 76a7 75bd 3ed8 c73b
000003f0: f597 bb3b dcb4 0fbd 36e1 843d af99 93bd

SoftmaxPolicy_l3.bias f4 [2]
0.032180514 -0.016403273
00000000: b7cf 033d 2860 86bc
