pytorch_models/model279538.pth (torch, 72107 bytes, 6 tensors)

SoftmaxPolicy_l1.weight f4 [128, 4]
000000 83 72 82 3e fb 06 62 be 44 ba e7 bd 6e c5 6a 3e
       0.2547799 -0.22072975 -0.11314824 0.22926876
000010 e5 b2 ee be 78 65 a0 3e 9f 11 6f bd d7 6f 83 3e
       -0.4662086 0.31327415 -0.058366414 0.25671265
000020 47 1a 8f 3d ee 5c 62 bd 43 b7 4e 3e c4 93 43 3d
       0.06987434 -0.055264406 0.20187096 0.047748342
000030 10 2f 31 3e 36 73 3f be d6 30 d9 bc 28 bf 55 bd
       0.17303109 -0.18696293 -0.026512545 -0.052184254
000040 d1 58 93 3d e8 ce e5 ba fc e7 de 3e a2 a8 1d 3e
       0.07194675 -0.0017532976 0.43536365 0.1539636
000050 f2 92 3b be 2a 40 9a be 03 f5 a8 bd 4c e2 57 be
       -0.18317774 -0.30127078 -0.08249857 -0.21082419
000060 8a db 26 be 2e d5 ac 3c b7 27 9f 3e 0b 41 8e 3e
       -0.16294685 0.021097746 0.31084988 0.27784
000070 22 29 fa be 04 60 a7 3e 07 c4 82 3e 1e 9a 04 3f
       -0.48859507 0.32690442 0.25540182 0.51797664
000080 07 02 a7 3e 90 49 ec be 99 e8 fa be 2d 45 70 be
       0.32618734 -0.46149874 -0.49005583 -0.23463888
000090 8d 07 d8 3e 11 2f bd bd 38 60 65 3e 20 f1 67 be
       0.4219326 -0.09237493 0.22399986 -0.22650576
0000a0 cc 2e f8 3e 37 f4 6d be 72 4c 9c 3e 6d df 0a bc
       0.48473203 -0.23237692 0.30527073 -0.00847612
0000b0 d6 58 85 be 30 65 83 3e a7 43 82 be 26 64 20 3e
       -0.2604434 0.25663137 -0.2544224 0.15663204
0000c0 52 4e 07 be 2f 73 4e bd db 66 f0 be cc 76 6a be
       -0.1321347 -0.050402816 -0.46953472 -0.2289688
0000d0 ac 3d 89 3e 78 ea f5 bd 46 b0 ff 3e d7 0e cd 3e
       0.26804864 -0.12007612 0.49939173 0.40050384
0000e0 bc f2 de bc b7 6d 9e be 42 78 d2 3e 68 2c 48 3e
       -0.027215354 -0.3094308 0.41107374 0.1954819
0000f0 3e f6 a2 be e6 84 ad 3e eb 36 d7 3e 35 21 fb 3e
       -0.31828493 0.33890456 0.42034087 0.49048772
000100 0e 55 8f be c8 b2 a8 bd 02 71 dd bc c5 43 8d 3d
       -0.2799458 -0.08237225 -0.027031425 0.06897692
000110 23 09 c2 be 5b 06 b6 be 7d 37 80 3e 41 6a fd bd
       -0.37897596 -0.35551724 0.25042334 -0.12373782
000120 b5 41 6d 3e a3 1c 04 3d 29 f7 98 3e 1b 7d 36 3e
       0.23169596 0.032253873 0.29876068 0.17821161
000130 38 69 2a 3e f2 dc 80 3e 94 77 a4 be 8e bd a5 3e
       0.166417 0.25168568 -0.3212248 0.3237118
000140 22 da b0 be 34 8d c0 be f5 29 ad 3d f9 ff 63 bd
       -0.34541422 -0.3760773 0.08455268 -0.055664036
000150 9f a1 95 3e 13 a6 90 be d6 26 b7 be fa fd d1 3e
       0.2922487 -0.28251705 -0.35771817 0.4101408
000160 ad 4f 93 bd ad 50 8e 3e bc 0e bf 3d 3f 7c d7 be
       -0.07192931 0.27795926 0.09328982 -0.4208698
000170 9d 84 ca 3d 39 06 eb 3d f2 06 b0 be f0 4f 75 be
       0.09888575 0.11475796 -0.343803 -0.23956275
000180 13 8b 31 3e 5d 75 8c 3d 25 87 b5 be 90 ca 5c be
       0.17338209 0.06858323 -0.3545467 -0.21561646
000190 44 9f e5 3e d2 5b aa bd 1c 70 ca 3e 93 41 88 3e
       0.44848073 -0.083182946 0.39538658 0.2661253
0001a0 a1 90 a4 be 0a 5a d8 be 97 74 ec 3e 91 7f 89 3c
       -0.32141593 -0.42256194 0.461827 0.016784461
0001b0 ce 94 ad 3e 89 0e ec 3d 47 e5 85 3e a3 0b d2 3e
       0.3390259 0.1152621 0.26151487 0.41024503
0001c0 d4 53 ee 3e fe f7 a5 be 57 3e 3d 3e ae 4e e1 3e
       0.4654833 -0.32415766 0.18480812 0.4400534
0001d0 ea 93 b3 3e f8 06 9a 3e 8e 2a b8 be e2 35 b7 be
       0.35073787 0.30083442 -0.35969967 -0.35783297
0001e0 d2 29 9e be cc d6 68 3d 73 61 03 3f c3 73 a0 be
       -0.3089128 0.05684547 0.5132057 -0.3133832
0001f0 9e 2d 8b 3e b2 1c 90 be cf bc fa be 51 f8 d5 bd
       0.2718324 -0.28146893 -0.48972175 -0.10447753
000200 8c 55 91 3e a9 94 ed 3e f5 31 95 be c0 fb e2 3d
       0.2838558 0.4640248 -0.29139677 0.11083174
000210 72 da d6 3e 7d bd b4 3e 12 3e cf 3e 26 22 c0 3e
       0.41963536 0.35300818 0.40477043 0.37526053
000220 de af 9a 3e fd ed ed 3d be 90 a8 be 7a 8c d1 be
       0.302123 0.11617658 -0.3292293 -0.40927488
000230 72 33 71 be 21 34 69 bd 8e 44 42 be 2a e6 7b 3e
       -0.23554781 -0.05693448 -0.18971464 0.2459952
000240 b2 ec 1d 3e cc 7c f2 bd 77 d0 53 3e be 07 31 3e
       0.15422323 -0.11840209 0.20684992 0.1728811
000250 94 50 98 3e 0b 13 b8 3e 41 6b 89 bd ee fd 04 3f
       0.29748976 0.3595203 -0.0670991 0.51949966
000260 b7 74 49 bd 65 61 0a bd bf 83 19 bf a7 02 be be
       -0.049183574 -0.03378429 -0.59966654 -0.371114
000270 68 42 94 be 31 48 5b be 9b b7 b0 3e fa 4c 26 be
       -0.28956914 -0.21414258 0.3451508 -0.16240302
000280 04 89 ba be a9 ea 5d 3e f8 b0 82 3e e3 b1 b0 3e
       -0.3643266 0.21671547 0.2552564 0.34510717
000290 09 31 85 be 9f b1 d8 3d 16 00 3c be 49 38 e4 bd
       -0.26013973 0.105807535 -0.18359408 -0.11143548
0002a0 11 8c c9 be c4 db 6a be 22 6e 2f be de 6d 5b 3e
       -0.39364675 -0.22935396 -0.17131856 0.2142863
0002b0 fc 84 ad 3d b5 e2 14 3e 03 1d 1e 3f ea b9 02 3f
       0.084726304 0.14539607 0.6176302 0.5106493
0002c0 fb ed aa 3e c4 61 bf 3c 13 5d 68 be 5c ca e4 3e
       0.3338469 0.023362048 -0.22691755 0.44685638
0002d0 15 1a 05 be 07 09 3a bd 41 9d e1 be 0b d2 ce bd
       -0.12998231 -0.045418765 -0.44065288 -0.10098656
0002e0 e6 57 a9 be 23 d5 e9 3e 16 98 f2 be 20 7c d7 be
       -0.33074874 0.45670423 -0.47381657 -0.42086887
0002f0 4e a9 1b bc 54 db 87 be 2d d5 31 3e d5 9a 45 be
       -0.009500815 -0.26534522 0.17366476 -0.19297345
000300 a4 4e 6f be 24 f5 32 3d 2f a4 af 3e cc 81 c3 be
       -0.23369843 0.043690816 0.3430495 -0.38184965
000310 48 0f 6d 3e 6d 80 a2 3e d7 f4 ee 3e 7c 78 ba be
       0.2315036 0.31738606 0.46671173 -0.36420047
000320 74 88 0a 3e bf 05 b9 be ce 8d c9 3e ae e1 54 be
       0.13528615 -0.36137196 0.39366 -0.20789215
000330 89 03 98 3e 39 7a 8c 3c 94 95 7f bc 32 7f e3 bb
       0.29690197 0.017148124 -0.015599627 -0.006942653
000340 17 54 99 3d 80 1e 71 3e 6b f3 53 3e ed 1b 64 3e
       0.07486742 0.23546791 0.20698325 0.22276278
000350 dd a1 e5 be 3a a9 be 3e ae 99 07 3f 1f 74 ec 3e
       -0.44850054 0.37238485 0.5296887 0.46182343
000360 61 d1 b3 3e ef 0b b9 be 61 6c 20 be 82 cf e3 3e
       0.3512068 -0.36141917 -0.15666343 0.44494253
000370 0b 75 c6 be 74 1f eb 3e e8 9f dd be 65 13 c9 be
       -0.38761172 0.45922434 -0.4328606 -0.3927261
000380 1f c3 76 3e 6b 50 b1 be 36 78 52 bd 7b 30 c8 3e
       0.2409787 -0.34631667 -0.051384173 0.39099488
000390 b0 9c cc 3e 6c c7 ef 3e 39 fe 41 be 7e be e1 be
       0.39963293 0.46831834 -0.18944634 -0.44090647
0003a0 b5 16 f7 3e da 36 04 be 84 24 70 be 0e 5f 09 3e
       0.48259512 -0.12911549 -0.2345143 0.13415167
0003b0 c2 fa b1 be e7 d6 a6 3e 79 b3 73 3e 87 ed e5 be
       -0.34761626 0.32585832 0.23798932 -0.4490778
0003c0 e0 6f d3 be 97 3a 44 bd ba 96 46 3e 6e 33 56 bc
       -0.4129629 -0.047907438 0.19393435 -0.013073785
0003d0 1c 50 80 be 63 ee af 3c af a9 f3 be 56 f8 ba be
       -0.2506112 0.021475976 -0.47590396 -0.3651759
0003e0 69 da a8 be 11 d6 d4 3e f9 7d d1 3e 2d 9f 49 be
       -0.32979134 0.4156957 0.40916422 -0.19689627
0003f0 0e 1f e0 3c e9 90 58 3e 57 c9 78 3c 30 1f 89 be
       0.027358558 0.21149029 0.015184722 -0.26781607

SoftmaxPolicy_l1.bias f4 [128]
000000 0c 00 c3 be 74 ae b5 3e d5 7b a9 3e 70 25 00 bf
       -0.38085973 0.3548466 0.3310229 -0.50057125
000010 4c d1 c9 be 8b ad ac be ab 6f 85 be e9 23 ef 3d
       -0.39417493 -0.33726153 -0.26061758 0.11676771
000020 08 d9 f8 be 6a ea c6 be 40 71 6c 3e bc b8 2e be
       -0.48603082 -0.3885072 0.23090076 -0.17062658
000030 a8 de 5b be 38 69 d4 be 7e 01 44 3e f2 26 e1 3d
       -0.21471655 -0.41486526 0.19141194 0.10993756
000040 70 46 4f be e2 47 9e be 0f 1e f0 3d 0a da 1b 3e
       -0.20241714 -0.30914217 0.11724483 0.15219894
000050 1b 26 45 3e 0f 7b 28 3e 15 44 4d bd 93 de c7 be
       0.19252817 0.16453193 -0.050113756 -0.39036998
000060 d2 72 b3 3e d9 50 07 3d 9c 0d b0 be d8 fe ef 3e
       0.35048538 0.033036087 -0.34385383 0.46874118
000070 1e bc 92 3e 16 82 cf be a8 e3 7a be e3 0c 27 be
       0.28659147 -0.40528935 -0.24500906 -0.1631351
000080 56 8d 94 be 89 50 71 3e d7 fa c0 be d3 1a e7 3e
       -0.2901408 0.23565878 -0.37691376 0.45137653
000090 85 86 4b be 2c e0 9b 3e f7 de be 3d bb a7 69 be
       -0.19875534 0.30444467 0.09319871 -0.2281789
0000a0 b1 60 b0 3e e3 a2 c2 be 6b fc 87 be 7b fc de 3d
       0.3444877 -0.38014898 -0.26559767 0.108880006
0000b0 f0 69 c7 3e 91 15 55 be de 5b 90 be 8d b6 a5 be
       0.3894801 -0.20809008 -0.2819509 -0.32365838
0000c0 50 aa 4a be 06 17 23 be 53 9b fb bd 4a 42 95 be
       -0.19791532 -0.15926751 -0.12285485 -0.29152137
0000d0 f5 05 2e 3e a5 bc a5 3d 22 cf ad be 7c ce 80 be
       0.1699446 0.08092622 -0.33947092 -0.25157535
0000e0 35 40 cf 3d 0e 34 cc 3c c6 95 c7 3e e1 b7 67 bd
       0.101196684 0.024927165 0.38981456 -0.056571845
0000f0 50 95 ce be f4 da b9 be a9 e7 07 be d2 6c d7 bd
       -0.4034829 -0.3629986 -0.13271965 -0.10518803
000100 d5 39 ae 3d 04 a8 03 be 5f 1b 58 3e 30 11 21 be
       0.08507124 -0.12857062 0.21104191 -0.15729213
000110 31 d1 c8 3e 89 5a cf 3d 85 dc 22 be 91 56 f3 3e
       0.392221 0.1012469 -0.15904434 0.47526982
000120 fc 01 28 3e 16 7a b7 be d9 27 87 be cf b8 ab 3e
       0.16407007 -0.35835332 -0.2639759 0.33539435
000130 97 79 61 3e d4 de c2 3e 86 ec 9d 3c b0 d9 b1 3e
       0.22019039 0.3806063 0.019277822 0.34736395
000140 1b c9 8b 3e 64 8f 10 3e 81 4b 19 be f6 e1 02 3f
       0.2730187 0.14117199 -0.14970209 0.5112604
000150 40 c8 c6 3d 0f c7 1d be b5 85 89 3d 6f 02 00 3f
       0.097061634 -0.15407966 0.06714956 0.50003713
000160 c4 00 a4 3e d9 b9 6f bd 9f 06 05 3f 68 8e 80 3e
       0.32031834 -0.058526848 0.5196323 0.25108647
000170 30 8e 85 be 89 32 eb be 0b 50 9f 3e 53 76 00 3f
       -0.26085043 -0.45936993 0.31115755 0.5018055
000180 09 61 9b be 02 f5 48 3e 89 0d 2d 3d ae 64 00 be
       -0.3034747 0.19624713 0.042249236 -0.12538406
000190 78 ba db bd 15 74 29 3e 13 f6 d2 3d 0e d9 ab 3e
       -0.107289255 0.16548188 0.10300841 0.33564037
0001a0 ea c9 3e 3e 2d b2 83 3e e1 34 f2 3e c9 82 34 3e
       0.18631712 0.25721875 0.47305968 0.17628016
0001b0 af 92 eb 3d 4e b9 0b be 8a 35 c2 3e 8c 96 c2 3d
       0.11502587 -0.13644907 0.37931472 0.09501371
0001c0 1d 4f a7 3e 19 2f f6 3e c3 90 09 be e3 da aa 3e
       0.32677546 0.48082808 -0.13434128 0.33370122
0001d0 5c 7d 80 bd 0c 9e f4 3e 17 25 c9 3e 23 13 1c be
       -0.062739104 0.4777683 0.3928611 -0.15241675
0001e0 21 03 44 3c 3a a5 5d be f9 80 57 be 98 cf b6 bd
       0.011963637 -0.2164506 -0.21045293 -0.08926314
0001f0 70 45 f7 ba 20 ba 1a be b5 49 f1 be d5 36 a0 be
       -0.0018865298 -0.15110064 -0.47126547 -0.31291834

SoftmaxPolicy_l2.weight f4 [128, 128]
000000 20 3e 68 ba e5 42 22 bd 24 33 94 3d 92 7a 95 3d
       -0.0008859355 -0.039614577 0.07236317 0.07298769
000010 71 00 68 3d bb 14 25 3d 01 9b 93 bd 5a 40 5d 3d
       0.056641046 0.040302973 -0.07207299 0.05401645
000020 60 da 79 bd 7a 44 9a bc 8c b4 25 bd 88 28 e4 3c
       -0.060999274 -0.01883148 -0.040455386 0.027851358
000030 7f a9 86 bd 33 76 2a bd 7b f0 72 bd cb fb c8 bd
       -0.065752976 -0.04161663 -0.05931137 -0.09813651
000040 3d 2c 3d bd ed 2f a9 3d c1 f4 19 bc 1a d2 ec 3c
       -0.046184767 0.08261094 -0.009396733 0.028908778
000050 c1 3d ad bd 98 da c3 3d a8 02 66 bc ca 5b a6 bd
       -0.08459044 0.09563178 -0.014038719 -0.08122976
000060 6b 65 af 3d e2 27 8e bc 99 de 96 3d ce df 6d bd
       0.08564266 -0.017353002 0.07366676 -0.058074765
000070 53 ce 90 bd d8 61 6d bd b3 e9 10 3d 7e a9 9f 3c
       -0.07070603 -0.05795464 0.035379123 0.01949
000080 61 61 a3 bd 04 6a 2a 3c 2a fb bd 3b d1 79 0e 3d
       -0.07977558 0.010401253 0.0057977634 0.034784142
000090 6b 91 36 bd 6e bc 86 bd af 50 e6 3d 69 c1 3f bd
       -0.044572275 -0.06578909 0.11245858 -0.04681531
0000a0 c5 8c 3a 3d d6 84 93 3d b8 7e 8a bd 4d 7e a2 bd
       0.045544405 0.07203071 -0.06762451 -0.07934246
0000b0 76 68 ae 3c 31 26 9d bd 02 a5 10 3d 41 5d 09 bd
       0.021290045 -0.076733 0.035313614 -0.0335362
0000c0 e3 f0 0f bd 12 01 8b bd 97 58 3b 3d 77 a7 4d bd
       -0.035141837 -0.067873135 0.045738783 -0.050208535
0000d0 8f 6f b5 bd dc d2 7e bd 05 bb 32 bd fe 51 a1 bd
       -0.08859169 -0.06221281 -0.043635387 -0.07876967
0000e0 df f0 36 3d 43 f8 cd bc 05 9d ac 3d ca 29 81 3d
       0.044663306 -0.025142794 0.084283866 0.06306799
0000f0 1c 3e 69 bd 9e 76 37 bd 25 10 27 bd d5 94 64 3d
       -0.056943998 -0.044790857 -0.04078688 0.055806
000100 b1 22 24 3b a7 93 ee bc 19 cb b8 3d 46 cb ce 3d
       0.0025045092 -0.02912314 0.09023113 0.10097365
000110 f9 a2 9f 3d 15 81 82 bd ae ca 04 bd 1b dd 4c bc
       0.077947564 -0.06372277 -0.032419853 -0.0125038875
000120 fc ec c5 3d 1f 68 26 bd 1c e0 33 bd 08 cb 8c 3c
       0.09664342 -0.04062664 -0.0439149 0.017186657
000130 d5 51 9e bc 10 af 25 3d 20 85 93 3c b8 98 97 bd
       -0.01932613 0.040450156 0.018007815 -0.07402176
000140 bc 6f b0 3d ea 45 a3 3d eb 03 0f 3c bf 56 60 bd
       0.08615062 0.079723194 0.008728961 -0.054770228
000150 ef d6 1b 3d a4 45 61 3d d4 19 81 3d 8e 3f 15 bd
       0.038046774 0.054998055 0.063037544 -0.036437564
000160 c7 0c 85 bb f2 93 eb bc 48 14 b9 3d 2a e1 fa 3d
       -0.004060361 -0.02875707 0.090370715 0.12249978
000170 b2 c5 97 3a a0 d6 5b bd 08 08 26 3d bb 1b 55 3d
       0.0011579304 -0.05367148 0.040535003 0.0520284
000180 14 60 1b 3d b4 d5 9b bd 68 a4 82 3c a2 43 19 bd
       0.037933424 -0.0760912 0.015947536 -0.037418015
000190 91 14 91 bd cf 55 10 bd 42 c2 55 3d 1a 89 2a 3d
       -0.07084001 -0.035238083 0.05218721 0.041634656
0001a0 34 ac 9b bd c4 9b 94 3c 5b f0 af 3d 41 71 d6 3d
       -0.076012045 0.018140681 0.08590766 0.1047082
0001b0 56 98 8b 3d d3 32 eb bc b6 02 54 3d e5 1a 4e 3d
       0.06816165 -0.028710758 0.051760398 0.050318617
0001c0 81 1b 33 3d b3 46 79 bd 83 8a 01 bd e8 8c 9d 3d
       0.0437274 -0.06085844 -0.031626236 0.07692891
0001d0 0d 5e 9d 3d a0 08 a3 3d c5 14 3b bd 7f 42 81 bc
       0.076839544 0.079606295 -0.045674104 -0.015778778
0001e0 87 41 66 bd 7b c8 0d bd 9b 1c 8e 3d 74 a0 86 bd
       -0.056214835 -0.03461502 0.0693905 -0.06573573
0001f0 52 96 3c 3b 6e 1e b9 3c ad dc 46 bd b2 43 11 3d
       0.0028776121 0.022597518 -0.048550297 0.03546495
000200 db 19 85 bc 6a 25 8c 3d b5 c8 2f bd 7d 7d 35 3c
       -0.01624768 0.06843074 -0.04291602 0.011077282
000210 af 38 a0 bd 71 9b 4b 3d ee 55 ad 3d 9e b9 b1 3c
       -0.078233115 0.049708787 0.084636554 0.021694954
000220 69 8c 84 3b 3d ec 30 bd 05 ba 1c bd d6 97 31 bd
       0.0040450585 -0.043194044 -0.03826334 -0.043357693
000230 48 b8 47 bd 21 16 c8 3c bc f0 42 3c b8 92 9f 3d
       -0.04875973 0.024424614 0.011898216 0.07791656
000240 09 35 91 bd 93 fe 6e bd 03 0e 14 bd c1 c4 07 bd
       -0.07090194 -0.05834825 -0.036146175 -0.033146624
000250 f8 1e 9e 3d 52 0d 39 3d af d6 9f bd bf 15 22 bb
       0.077207506 0.04517872 -0.078046195 -0.00247322
000260 3b 58 ec 3b 8c b4 9b 3d 32 eb a6 3d 77 e9 74 3d
       0.0072126663 0.07602796 0.08150329 0.059792962
000270 ae de b0 3d d1 9a e8 bc 4d ea 0c bb 24 dd 9d bd
       0.08636223 -0.028394135 -0.002150196 -0.07708195
000280 50 85 d0 3c b6 d7 f9 3d 2e 06 59 3d 3c 09 d8 3d
       0.025454193 0.12199347 0.05298441 0.10548636
000290 99 c5 07 bd 61 bf f3 3c 24 90 4e bd 58 12 8c 3d
       -0.03314743 0.029754343 -0.050430432 0.06839436
0002a0 44 a8 21 bd d9 b4 25 bd bc 26 50 3c 43 5b 73 3c
       -0.03946711 -0.040455673 0.0127045475 0.014853301
0002b0 91 f8 7c 3d cd 36 4c bc 4c a0 a9 bc a3 bd 35 3d
       0.06176049 -0.012464237 -0.020706318 0.044370305
0002c0 21 d4 74 3d 58 39 cc 3d 8d dc 0c 3d b8 32 4f ba
       0.059772614 0.09971875 0.03439002 -0.0007903981
0002d0 07 cc f8 3d 53 c4 03 3e 04 64 19 bd a6 57 24 3d
       0.1214829 0.1286786 -0.037448898 0.04012265
0002e0 b0 12 e0 3c 99 9f 1f bd 88 bb 97 bb ae af 89 bc
       0.02735266 -0.038970564 -0.0046305098 -0.016807403
0002f0 67 77 87 bd 09 5f 06 bd 23 aa 50 3d ff b6 99 3d
       -0.06614571 -0.032805476 0.050943505 0.07505607
000300 13 72 44 3c f8 45 9a bd 02 8d 6c 3c bc 38 c3 bc
       0.011990088 -0.07532877 0.014437916 -0.023830764
000310 e3 2a a8 3d 62 6e b2 bd 10 27 72 bc 4d b8 af 3d
       0.08211305 -0.0871246 -0.014779821 0.085800745
000320 74 3e 67 3c d2 5a 22 bd 58 59 a9 bd f6 ee 67 b9
       0.014114011 -0.039637394 -0.08268994 -0.00022118897
000330 90 0e 62 3d 8d fc 6d bd 70 b1 ae bd f2 ad 58 3d
       0.05518967 -0.05810218 -0.08529937 0.052900262
000340 25 ff fe bc 84 8c 7e 3d d0 87 a1 bd 6c 13 25 bc
       -0.031127522 0.062145725 -0.07887232 -0.010075431
000350 22 66 6a bd ba 01 65 bb 8a de b0 bd 38 5c 39 3d
       -0.057226308 -0.0034943656 -0.08636196 0.045253962
000360 cc 39 27 bd f4 12 81 bd c4 c9 31 bd dc 44 e4 bd
       -0.040826604 -0.06302443 -0.04340531 -0.111459464
000370 4e 37 42 3d 6d 05 a0 bc 13 ef f6 bb 82 db 92 3d
       0.047416024 -0.019533837 -0.007535824 0.07170774
000380 37 ba 55 bc 0c e2 a1 3d 54 32 ae 3b cb e1 73 bd
       -0.013044885 0.07904443 0.005316058 -0.059541505
000390 56 8e b2 3c c1 c7 d3 3c b6 91 79 bd a4 99 eb 3c
       0.021796387 0.025852086 -0.060929976 0.028759785
0003a0 1b a9 88 3c 7c 21 96 3d 33 0b ee bb 20 49 83 bd
       0.016682198 0.073306054 -0.0072645186 -0.06410432
0003b0 53 8d b0 bd 1d f7 0d 3d 4d ce cb bc 4f be b4 bc
       -0.086207055 0.034659494 -0.024878645 -0.022063402
0003c0 80 f7 20 bc 30 2a bc bc d9 d2 ba 3c 82 fd a7 3d
       -0.009824634 -0.022969335 0.022805618 0.0820265
0003d0 93 bb 96 3d 30 0b 80 bd b8 80 bb 3d 3d 7b 75 3d
       0.07359996 -0.06252134 0.091554105 0.059931982
0003e0 0c c9 7b 3c bb fc 2f 3d 6c fc 6d 3d e9 36 a0 3d
       0.0153677575 0.042965632 0.058102056 0.07822973
0003f0 1c fb 51 3d c4 81 f1 3c 90 c2 11 bd 80 3a 68 bd
       0.051264867 0.029480822 -0.03558594 -0.056696415

SoftmaxPolicy_l2.bias f4 [128]
000000 85 8e 58 3d 48 01 13 bd 36 53 4b 3b 32 9a 81 bd
       0.052870292 -0.035889894 0.003102494 -0.063282385
000010 db ce 48 bd 66 8e 62 3d ab bb 97 3c 76 b6 f4 3c
       -0.049025398 0.055311583 0.018522104 0.02987216
000020 5f bb 4a 3d ec 79 db 3c 61 c4 e6 3b 5f cd 2c bc
       0.049495097 0.026791535 0.007042453 -0.010547011
000030 00 1b 91 3a 95 71 a7 3d d1 fc 08 3d f0 0f 2f 3c
       0.0011070669 0.08175961 0.03344423 0.010684952
000040 18 c1 12 3d 32 b7 21 bd 77 bb 8d bd 7c 17 9c bc
       0.03582868 -0.03948135 -0.06920522 -0.019054167
000050 a5 50 c2 3d 38 22 af 3c f3 88 85 bd 19 c7 70 3d
       0.09488038 0.021378621 -0.065202616 0.058783624
000060 04 cc a5 3d 17 83 8c 3d 66 71 35 3c 53 25 bb bc
       0.080955535 0.06860941 0.0110744 -0.022844946
000070 f8 cf 0e 3c a1 05 f2 3c 89 64 0a bd 71 84 33 bd
       0.008716576 0.0295437 -0.033787284 -0.043827478
000080 ef af 9f 3c ad 93 37 3d 5c 62 d8 bc f5 db 0e bc
       0.019493071 0.04481857 -0.026414089 -0.008719434
000090 7b 48 85 bd 19 1e 85 3a 00 c0 9c bc 75 90 ba 3d
       -0.06507965 0.0010156065 -0.019134521 0.09109584
0000a0 e8 08 7d 3d c5 13 f2 bc cc 45 8c bd 2b 6b 92 bd
       0.06177607 -0.029550442 -0.0684925 -0.07149347
0000b0 a7 24 50 bd 98 b8 b5 3d d9 91 d0 bc b2 31 88 3d
       -0.050816204 0.08873099 -0.02546017 0.06650104
0000c0 e6 68 8a 3d 72 b8 21 bc f4 9a 22 3d 28 6f eb 3c
       0.06758289 -0.009870635 0.039698556 0.028739527
0000d0 51 2c a6 3d a3 ee 2d 3d 69 28 50 3d f8 0a b7 3d
       0.081139214 0.04246391 0.050819788 0.08937639
0000e0 a3 22 3d 3c d6 c6 aa 3d ea d9 1d bb e7 6c 8a bd
       0.011543903 0.08338706 -0.0024086186 -0.06759053
0000f0 8b 1e af 3d af b5 87 bd 0c 9b a1 3a 04 52 ad 3d
       0.085507475 -0.0662645 0.0012329533 0.08462909
000100 b2 2e b8 bc c8 a3 7a bd 09 8f 87 3d 85 7b 0b 3d
       -0.022483204 -0.06119135 0.06619079 0.034053344
000110 3e fa 69 3d 7e 6e 40 3d f4 11 bb bd f4 5b 92 3d
       0.057123415 0.046980374 -0.09134284 0.07146445
000120 31 32 95 bd 77 c6 35 3c 8f db 4f bd ad 3d 86 3d
       -0.07284964 0.011094681 -0.050746497 0.065547325
000130 f2 62 bc 3d ca b5 45 3c dc d7 bb bc 6c e1 9b 3d
       0.0919856 0.012067268 -0.022930078 0.07611355
000140 13 15 8e 3d bb a9 7a bc 05 fb 8f 3d e5 ad 12 3c
       0.06937613 -0.015299256 0.070303 0.0089525925
000150 b8 a3 28 bd 73 16 ab 3d f8 5d 55 bd db 1a 83 bd
       -0.04117176 0.08353891 -0.05209157 -0.06401607
000160 f9 c0 53 3d 6a f3 08 3d a7 88 8f 3d 95 7c 14 bd
       0.051697705 0.033435263 0.07008486 -0.036251623
000170 a4 eb a8 3c d4 99 3b 3d 25 22 95 3c e1 c9 92 bd
       0.020620175 0.045801 0.018204758 -0.071674116
000180 08 94 69 3d a2 bf c0 3c 5d 04 a5 bc 5e 80 b9 bc
       0.05702594 0.023528878 -0.020143682 -0.022644218
000190 be 84 bc bd 9e f8 c0 3d f5 50 47 3c a4 2b c9 bc
       -0.09205006 0.0942242 0.012165298 -0.024556942
0001a0 dc 1d c8 3d 8b 36 84 bd 6b 1a c9 3c c6 b8 60 bc
       0.0977132 -0.06455716 0.02454873 -0.013715928
0001b0 11 34 e1 bc d0 a0 fd 3a 52 71 43 bc 9b b1 9a 3d
       -0.027490648 0.0019350294 -0.011928873 0.07553407
0001c0 86 58 83 3d a8 55 fc 3c a9 bc 90 bb 67 7c 74 bc
       0.06413369 0.030802563 -0.0044170213 -0.014922238
0001d0 25 77 da bb f5 5e cc ba 3d 65 03 3d c9 d9 8f 3d
       -0.006667035 -0.0015592264 0.03207897 0.07023961
0001e0 b3 29 81 bd a0 44 b6 bd e0 d3 26 bc 22 f9 91 3d
       -0.063067816 -0.08899808 -0.010182351 0.071275964
0001f0 31 81 2d 3d dc 7c 11 bd b9 04 66 3d ea 09 1f 3d
       0.042359535 -0.035519466 0.056156848 0.038827814

SoftmaxPolicy_l3.weight f4 [2, 128]
000000 7b 7d 52 3d b1 00 6d 3c 07 85 ff 3d ca 9e 63 3c
       0.0513892 0.014465497 0.12476545 0.013892839
000010 b4 7b b3 bd 7b 6f 8c bc 90 ca 21 3d 30 0b c2 3d
       -0.08763829 -0.017143002 0.03949982 0.0947479
000020 29 15 82 3c 49 a7 fe 3b ae 71 8b 3d 01 6f 8e 3d
       0.01587923 0.007771407 0.06808792 0.06954766
000030 ba 50 b8 3d c3 58 8a 3c 92 e4 94 3b c9 b5 c3 3d
       0.08999772 0.016888028 0.0045438493 0.09556157
000040 30 8e 60 3d 9b a0 c2 3d f6 9c 31 bc 9e 69 c7 3d
       0.0548231 0.09503289 -0.010840645 0.09736942
000050 87 ea 2b bd cf ae c6 3d 12 33 1d bd ea 12 6e bc
       -0.04197171 0.09701311 -0.038378783 -0.014530877
000060 ff 88 11 bd b1 09 2c 3d 43 b3 47 3d f6 48 09 3d
       -0.03553104 0.04200143 0.04875494 0.033516847
000070 d4 f8 b3 bd d3 a3 be 3b f4 e0 22 bd 36 56 0b bd
       -0.087876946 0.005817869 -0.039765313 -0.034017764
000080 5a ea 57 3d 3e 7f 5a ba 73 02 4e 3d a1 4a a1 bd
       0.05271373 -0.00083350006 0.050295305 -0.078755625
000090 aa 59 4c 3c 04 1b 8e 3d d6 ed 6a 3d ee 11 d3 3d
       0.012472549 0.069387466 0.057355724 0.10306154
0000a0 7e 82 15 bc 73 15 ad 3d 3a 62 8e bd 23 d2 1e bc
       -0.00912535 0.08451357 -0.06952329 -0.009693655
0000b0 51 59 2d bc d0 fd da bc 17 73 06 3d 0f 4e 28 3b
       -0.010580377 -0.026732355 0.032824602 0.0025681292
0000c0 c6 19 cf bd 09 e7 c3 bd 9c c0 1b 3d 09 30 70 bd
       -0.10112338 -0.09565551 0.038025483 -0.05863956
0000d0 fb 36 de bd 80 de 02 3e 12 75 5f bd 84 80 c2 3d
       -0.108503304 0.1278019 -0.054555006 0.09497169
0000e0 dc fc 87 3d 28 df 3e 3d 04 e4 99 bd a9 e4 95 bc
       0.06640026 0.046599537 -0.07514194 -0.01829751
0000f0 f3 18 a3 3d f1 61 b2 3c 34 d5 fc bd 6e ae e2 3b
       0.07963743 0.021775218 -0.12345353 0.0069177663
000100 c5 eb 8d bd 0a 26 8e bd f1 32 aa bd 89 82 a3 3d
       -0.06929735 -0.06940849 -0.083104976 0.07983882
000110 18 b7 95 3d 63 e1 88 bd 13 e9 0f bd 0e 6f 9f 3d
       0.07310313 -0.06683614 -0.035134386 0.07784854
000120 7d 6b 74 ba d4 ca 64 bd f0 92 d5 3c 43 32 dc bd
       -0.00093238783 -0.055857494 0.026071042 -0.10751774
000130 b9 b3 b2 bd 23 ad 8d 3d 9c 93 b4 bd b3 63 c9 3d
       -0.087256856 0.06917789 -0.08817217 0.09833469
000140 99 9c 05 bd 8b 88 68 bd 87 ea a2 bd eb 38 62 3d
       -0.032620046 -0.056770843 -0.07954889 0.055230062
000150 82 61 f5 bd 35 bc 26 3d 55 c2 d9 3c 5e 48 08 3d
       -0.11981489 0.040706832 0.026581923 0.03327214
000160 62 ec d0 bd 60 7e 84 bd f1 12 32 3d 6a ed 90 bd
       -0.102013364 -0.064694166 0.043475095 -0.07076533
000170 e0 64 37 bd 01 e5 5f 3d aa a3 31 3d c5 40 95 3d
       -0.044773936 0.054661755 0.043368973 0.072877444
000180 d3 c1 43 3b b1 f8 2a bd 51 fc 00 3e a2 e2 95 3b
       0.0029870167 -0.041741077 0.12596251 0.004574136
000190 9e 8a ad bc 53 15 97 3d 3b 05 aa bd 19 98 a3 3d
       -0.021184262 0.07377114 -0.08301779 0.07987995
0001a0 b2 e3 07 3d c8 ef 55 bc 17 6e 92 bd 30 0b e4 bc
       0.03317613 -0.013057657 -0.07149904 -0.027837366
0001b0 cc 5a af bc ee 18 9e 3c db d2 71 bd 8a bd 38 3d
       -0.0214056 0.019298997 -0.059038978 0.045102634
0001c0 6b 08 f5 bd 40 33 9e bd d4 21 d6 bb be 17 da 3d
       -0.11964496 -0.07724619 -0.0065347943 0.1064906
0001d0 79 95 91 3d 8c 34 b0 bd 66 1d 9c 3d 0c 0f 6a bd
       0.07108588 -0.086037725 0.07622795 -0.057143256
0001e0 ea 3b 97 3d 2b 32 27 3c 1a 70 b0 bc 6f da ca bd
       0.073844746 0.010204832 -0.02153783 -0.09904944
0001f0 06 21 d0 bd 1d ea d4 bd ed 20 67 bd 17 93 8d 3d
       -0.10162549 -0.10396216 -0.056427885 0.06912821
000200 26 47 86 bb 10 29 df 3d 6c 19 eb bd 36 12 ae 3d
       -0.004097837 0.10896504 -0.11479458 0.08499567
000210 06 83 84 3c 96 2d ba 3d f4 19 cd bd 92 91 9f bd
       0.016175758 0.09090726 -0.10014716 -0.07791437
000220 3d bb de 3d 4e 86 50 3d dd 21 ef bd 03 7d cc bd
       0.108755566 0.050909333 -0.11676381 -0.099847816
000230 18 07 dc bc 1c c4 f8 3d dc 6d ae 3d 1c c8 a8 bd
       -0.026858851 0.1214678 0.08517048 -0.08241293
000240 60 5a 3f 3c b1 4e 89 3c a0 f6 84 bd b5 a6 a8 bd
       0.011679262 0.016761156 -0.064923525 -0.08234922
000250 16 b0 d0 3d 69 8f 1f 3c 12 e8 16 3d 4b 74 d5 3d
       0.10189836 0.0097387815 0.036842413 0.10422572
000260 a6 02 16 3d 3e 76 10 be 1c a3 85 bd 1d a7 77 bd
       0.03662362 -0.14107606 -0.06525251 -0.060462106
000270 5a bf 98 bd 76 9d 83 3d 7b 74 8b 3b 93 db e9 3d
       -0.074583724 0.06426518 0.004255829 0.114188336
000280 ba b4 06 bd cf 96 9e 3c 79 03 e7 bc 72 05 9f 3d
       -0.032887198 0.01935902 -0.028199898 0.077647105
000290 f2 79 76 3d b1 7e a1 bc 87 7b 57 bd 05 52 3d bd
       0.06017489 -0.019713731 -0.05260804 -0.046220798
0002a0 46 11 8a bd 27 72 13 be e1 5c 2c 3d 49 f5 5d 3d
       -0.06741576 -0.14399014 0.042080764 0.054189
0002b0 13 59 d8 bd 95 7b 02 3e 41 ad 7b bd 21 93 bd bd
       -0.105638646 0.12742455 -0.061444525 -0.09256578
0002c0 23 fe 8b 3d dc 0f 82 3d a9 3b 8e bc b4 fe 92 3c
       0.06835582 0.06350681 -0.017362433 0.017943718
0002d0 d4 68 11 3d 33 17 ec bd 12 99 0a 3e a5 27 b9 bd
       0.035500363 -0.115278624 0.13534954 -0.09040765
0002e0 f0 1e 4d bd 91 2a 14 be 09 8c d8 bc 23 14 c1 3c
       -0.050078332 -0.14469363 -0.026433961 0.023569172
0002f0 0a d0 f3 bd f9 03 8e bd 28 88 34 3c f6 af 85 bd
       -0.11904915 -0.069343515 0.01101879 -0.065277025
000300 6d 3c a9 3d 25 53 e2 3d a0 26 16 bb 42 9a 4c bd
       0.082634784 0.11051015 -0.0022911206 -0.0499518
000310 55 90 5e 3d 9c 16 0d 3c bd 2e 8c 3d 9c 9d bf 3c
       0.054336865 0.0086113475 0.06844852 0.023390584
000320 9e da 84 3d 14 30 f3 3d 32 51 7d bd a5 c5 62 bd
       0.064870104 0.118744045 -0.061845012 -0.05536427
000330 39 92 a1 3b 75 f0 c1 bd 07 21 95 3d db 32 8b bd
       0.004930761 -0.09469692 0.0728169 -0.06796809
000340 45 d0 55 3d 2d e5 8c bd 9c 87 88 3d c4 44 c2 3c
       0.052200574 -0.06879649 0.066664904 0.02371443
000350 6e 53 e8 3d 5b 53 8a bd d8 ad 9f 3c c4 e0 50 bd
       0.11344038 -0.0675418 0.019492075 -0.050995603
000360 36 25 90 3b 74 e4 8b 3d 95 d4 c0 bd a5 67 af 3d
       0.004398967 0.06830683 -0.09415547 0.085646905
000370 6a 2d 11 3d 71 01 c5 bc 6e 18 95 3d f6 4d 1c 3c
       0.0354437 -0.024048539 0.0728005 0.009540072
000380 d3 1c de bd 90 ef 97 3d 98 50 8b 3c 3f cc 41 bd
       -0.108453415 0.0741874 0.017006204 -0.047313925
000390 25 6c 66 3d 6d 63 1f bd 22 1a 34 3d c3 71 19 bd
       0.05625548 -0.03891318 0.043970235 -0.037462007
0003a0 fc 9e 12 be b8 c7 c4 3d bc 2a cf 3d b0 50 f2 bd
       -0.1431846 0.09608406 0.10115573 -0.11831796
0003b0 b5 a3 9b bd b4 a2 ac 3d 4b 3f 5d 3d b0 9b 3d bd
       -0.07599584 0.08429471 0.05401544 -0.046291053
0003c0 47 75 5a 3c 7e 55 b4 3d d6 f8 cc 3d 16 cf 00 be
       0.013333625 0.08805369 0.10008399 -0.12578997
0003d0 47 38 71 bd 9c f6 84 bc 7a 07 c8 bd 28 cf 53 bc
       -0.05889156 -0.016230874 -0.09767051 -0.012927808
0003e0 13 a9 2d 3a f4 b6 83 bc e0 23 7a bd d6 fe d1 3b
       0.00066246203 -0.01607845 -0.06106937 0.0064085526
0003f0 d7 dd b2 3b 1a 2e 10 bd 8d b1 84 3d bd a3 93 bd
       0.0054585743 -0.035200216 0.064791776 -0.07208965

SoftmaxPolicy_l3.bias f4 [2]
000000 c8 75 04 3d 4c ac 87 bc
       0.032338887 -0.01656165
