pytorch_models/model280143.pth (torch, 72107 bytes, 6 tensors)

SoftmaxPolicy_l1.weight f4 [128, 4]
0.25570798 -0.22162655 -0.11460394 0.22955096 -0.46856877 0.31381992 -0.051667646 0.2563006
0.068632305 -0.055277884 0.20614652 0.04974458 0.17366026 -0.18809007 -0.02753407 -0.051429644
0.07194675 -0.0017532976 0.43536365 0.1539636 -0.18286206 -0.3004044 -0.08411969 -0.21197851
-0.16255945 0.020595625 0.31257996 0.28032297 -0.4900215 0.3274487 0.25918266 0.5181046
0.32803008 -0.4604533 -0.4906265 -0.2341788 0.41931343 -0.09664281 0.21863815 -0.22803517
0.48471665 -0.2345289 0.29779106 -0.010060647 -0.25950068 0.25827378 -0.25449264 0.15609358
-0.13208905 -0.050392594 -0.46928522 -0.22919378 0.26892158 -0.11565917 0.50218767 0.40171316
-0.030842265 -0.3112803 0.41485113 0.19614579 -0.31603026 0.34235018 0.42683187 0.4907021
-0.27817392 -0.08118142 -0.028773779 0.067614526 -0.3772694 -0.35431775 0.2493051 -0.12466747
0.23024769 0.033397928 0.30527204 0.1796077 0.16549738 0.2538029 -0.3149119 0.3239028
-0.34680277 -0.376492 0.08371877 -0.056503188 0.2916086 -0.28250375 -0.3570115 0.41093814
-0.07131348 0.27648532 0.08771039 -0.42134959 0.09711499 0.11373595 -0.34087306 -0.23787548
0.17643714 0.06816653 -0.3615572 -0.21605735 0.44715753 -0.08203298 0.40185276 0.26660052
-0.32075492 -0.42208955 0.46091536 0.015915766 0.33609316 0.11546282 0.26932243 0.41175896
0.46334082 -0.3238469 0.19151637 0.44211593 0.3505441 0.29793987 -0.36902207 -0.35983264
-0.30701262 0.05758975 0.5127803 -0.3124876 0.27438778 -0.28120652 -0.49506465 -0.10411692
0.2819682 0.46431893 -0.28814426 0.11087378 0.41810837 0.35442305 0.41083038 0.37593797
0.3023251 0.11429937 -0.3336459 -0.4098427 -0.23600806 -0.055960976 -0.18414542 0.24674869
0.15594073 -0.11450379 0.2105159 0.17496993 0.29615915 0.36081848 -0.05988113 0.5203372
-0.04462042 -0.03144341 -0.6057637 -0.37107924 -0.28851154 -0.21323241 0.3441905 -0.16381207
-0.36516702 0.21904963 0.26188982 0.34449825 -0.26054767 0.10502354 -0.18202004 -0.11079791
-0.39397267 -0.22952718 -0.17015775 0.21430807 0.08256756 0.14592557 0.6254169 0.5121985
0.33174172 0.023565685 -0.22042345 0.44844654 -0.13038002 -0.046229105 -0.43942508 -0.09966429
-0.333395 0.45299166 -0.4777214 -0.41954052 -0.01035843 -0.2659527 0.17412707 -0.19247802
-0.23209837 0.04280472 0.34150037 -0.380702 0.23041795 0.3171078 0.4701019 -0.36159262
0.13705198 -0.36229563 0.39237338 -0.2064057 0.2950444 0.01677419 -0.012992321 -0.006433116
0.0730614 0.23715664 0.21464464 0.22344516 -0.4494304 0.37258694 0.533615 0.46306515
0.34954956 -0.35976782 -0.1542771 0.44425038 -0.38864318 0.45629856 -0.43626192 -0.3910677
0.23877136 -0.3478546 -0.048172206 0.39378205 0.4004176 0.46653113 -0.19764465 -0.442189
0.48397493 -0.13027744 -0.24154232 0.13328646 -0.35050222 0.3210847 0.23157276 -0.44653058
-0.4117571 -0.04691646 0.19415267 -0.013304092 -0.24968095 0.020402294 -0.473859 -0.36232919
-0.33012807 0.41588405 0.4084505 -0.19673191 0.02853 0.21006122 0.009152384 -0.26856318
00000000: 28ec 823e 12f2 62be 78b5 eabd 680f 6b3e
00000010: 3fe8 efbe 01ad a03e 74a1 53bd d539 833e
00000020: 188f 8c3d 106b 62bd 1318 533e f9c0 4b3d
00000030: ffd3 313e af9a 40be 218f e1bc e4a7 52bd
00000040: d158 933d e8ce e5ba fce7 de3e a2a8 1d3e
00000050: 3140 3bbe 9bce 99be f246 acbd e510 59be
00000060: fc75 26be 28b8 a83c 7b0a a03e 7e86 8f3e
00000070: 19e4 fabe 5ba7 a73e 97b3 843e 81a2 043f
00000080: 8ff3 a73e 89c0 ebbe 6633 fbbe 91cc 6fbe
00000090: 40b0 d63e aaec c5bd aee2 5f3e 0d82 69be
000000a0: c82c f83e 5828 70be 1278 983e 69d5 24bc
000000b0: 46dd 84be 763c 843e dc4c 82be ffd6 1f3e
000000c0: 5a42 07be 7768 4ebd 2746 f0be c6b1 6abe
000000d0: 17b0 893e b7de ecbd 5f8f 003f 59ad cd3e
000000e0: eba8 fcbc 2260 9fbe 5e67 d43e 71da 483e
000000f0: b8ce a1be 8648 af3e b589 da3e 4e3d fb3e
00000100: d06c 8ebe 7242 a6bd fdb6 ebbc 7c79 8a3d
00000110: 7429 c1be 2369 b5be d649 7f3e a951 ffbd
00000120: 0dc6 6b3e 44cc 083d 9e4c 9c3e 15eb 373e
00000130: 2578 293e 74f2 813e 223c a1be 96d6 a53e
00000140: 2290 b1be 8fc3 c0be bf74 ab3d e36f 67bd
00000150: b94d 953e 55a4 90be 36ca b6be 7c66 d23e
00000160: cd0c 92bd 7c8f 8d3e 81a1 b33d 22bb d7be
00000170: 39e4 c63d 65ee e83d ea86 aebe a195 73be
00000180: f0ab 343e e59a 8b3d 061e b9be 233e 5dbe
00000190: d5f1 e43e e800 a8bd a5bf cd3e dd7f 883e
000001a0: fd39 a4be 1f1c d8be 19fd eb3e c861 823c
000001b0: 6714 ac3e c577 ec3d a1e4 893e 12d2 d23e
000001c0: 023b ed3e 43cf a5be de1c 443e 055d e23e
000001d0: 847a b33e 938b 983e 76f0 bcbe fc3b b8be
000001e0: c230 9dbe 3be3 6b3d 9245 033f 60fe 9fbe
000001f0: 8e7c 8c3e 4dfa 8fbe 1d79 fdbe 403b d5bd
00000200: 235e 903e 36bb ed3e a587 93be cb11 e33d
00000210: 4d12 d63e f076 b53e 5c58 d23e f17a c03e
00000220: 5bca 9a3e ca15 ea3d a3d3 aabe e7d6 d1be
00000230: 19ac 71be 5637 65bd 9e90 3cbe b0ab 7c3e
00000240: edae 1f3e f780 eabd 7b91 573e 512b 333e
00000250: 2ca2 973e 33bd b83e ea45 75bd d234 053f
00000260: e7c3 36bd ceca 00bd 5413 1bbf 19fe bdbe
00000270: c9b7 93be 9959 5abe bd39 b03e 5abe 27be
00000280: 2cf7 babe 8c4e 603e 6c16 863e 1362 b03e
00000290: 8166 85be 9516 d73d 7663 3abe 04ea e2bd
000002a0: c9b6 c9be 2c09 6bbe d53d 2ebe 9373 5b3e
000002b0: 2e19 a93d 836d 153e 521b 203f 711f 033f
000002c0: 0dda a93e d30c c13c afb6 61be c99a e53e
000002d0: 5782 05be bb5a 3dbd 53fc e0be cb1c ccbd
000002e0: c0b2 aabe 86ee e73e e697 f4be 04ce d6be
000002f0: 68b6 29bc f42a 88be 5e4e 323e f518 45be
00000300: 32ab 6dbe 0154 2f3d 23d9 ae3e 5feb c2be
00000310: aff2 6b3e f45b a23e 32b1 f03e ab22 b9be
00000320: 5b57 0c3e d07e b9be 2ae5 c83e 045c 53be
00000330: 0f10 973e 076a 893c bedd 54bc e3cc d2bb
00000340: 37a1 953d 31d9 723e cecb 5b3e cfce 643e
00000350: be1b e6be b7c3 be3e fe9a 083f e016 ed3e
00000360: 29f8 b23e 7d33 b8be d1fa 1dbe c974 e33e
00000370: 3dfc c6be f79f e93e b95d dfbe 073a c8be
00000380: 7b80 743e 001a b2be 3850 45bd cd9d c93e
00000390: 8903 cd3e 2bdd ee3e 5c63 4abe 9966 e2be
000003a0: 90cb f73e 7367 05be df56 77be 3f7c 083e
000003b0: 0775 b3be 3765 a43e 6921 6d3e a89f e4be
000003c0: d4d1 d2be 792b 40bd f5cf 463e 68f9 59bc
000003d0: 5dac 7fbe b622 a73c a69d f2be 3683 b9be
000003e0: 8c06 a9be c1ee d43e 6d20 d13e 1774 49be
000003f0: bfb7 e93c 4a1a 573e e1f3 153c 1d81 89be

SoftmaxPolicy_l1.bias f4 [128]
-0.37947953 0.35572743 0.33260366 -0.49981537 -0.39417493 -0.33809194 -0.25947818 0.11947768
-0.48500982 -0.3919121 0.23096828 -0.17071003 -0.21435098 -0.4148392 0.19183363 0.11332136
-0.2052457 -0.31183162 0.11681594 0.1509979 0.19235851 0.16474247 -0.05022507 -0.39196366
0.3496791 0.033164512 -0.3447488 0.46961492 0.2867444 -0.40628383 -0.24712245 -0.15974016
-0.29075113 0.23493797 -0.37830725 0.45267522 -0.19759989 0.30377078 0.09513601 -0.22996163
0.3454637 -0.3799592 -0.26481932 0.109193176 0.3895243 -0.20799275 -0.2839263 -0.32288986
-0.19982538 -0.15909655 -0.12005855 -0.29282764 0.16966017 0.08426184 -0.34143874 -0.25414538
0.10075868 0.025737228 0.39024538 -0.06010935 -0.40539002 -0.3652485 -0.13124068 -0.10591464
0.08596795 -0.12960775 0.21127936 -0.15959543 0.39173824 0.09918274 -0.16133596 0.4759053
0.16267388 -0.3597325 -0.2655774 0.3350119 0.22081797 0.37987155 0.017241223 0.34802753
0.27285945 0.14132623 -0.1486192 0.5107287 0.097152315 -0.15468907 0.06616643 0.49963412
0.32028157 -0.058524046 0.5196156 0.25111678 -0.25900978 -0.45942387 0.31322277 0.5007251
-0.30270198 0.19753288 0.04319379 -0.12758256 -0.10941229 0.16599333 0.10221536 0.33532187
0.18437257 0.2599507 0.47231182 0.17583089 0.11524207 -0.13766314 0.38091397 0.09383056
0.32719496 0.4813801 -0.13126807 0.33282608 -0.06302876 0.47803053 0.3922683 -0.15663889
0.011335077 -0.2134192 -0.20992917 -0.08746222 -0.002119477 -0.1555511 -0.47100008 -0.31388342
00000000: 244b c2be e821 b63e 074b aa3e cde7 ffbe
00000010: 4cd1 c9be 631a adbe 53da 84be b7b0 f43d
00000020: 3553 f8be b4a8 c8be f382 6c3e 9cce 2ebe
00000030: d37e 5bbe ce65 d4be 0970 443e 0715 e83d
00000040: ee2b 52be 65a8 9fbe 323d ef3d 329f 1a3e
00000050: a1f9 443e 40b2 283e ceb8 4dbd 76af c8be
00000060: 2409 b33e 83d7 073d ea82 b0be 5e71 f03e
00000070: 29d0 923e 6f04 d0be ab0d 7dbe ed92 23be
00000080: 55dd 94be 9493 703e 7db1 c1be 0cc5 e73e
00000090: a057 4abe d887 9b3e abd6 c23d 107b 6bbe
000000a0: 9ee0 b03e 038a c2be 6696 87be aca0 df3d
000000b0: bb6f c73e 0dfc 54be ca5e 91be d251 a5be
000000c0: 069f 4cbe 35ea 22be 42e1 f5bd 81ed 95be
000000d0: 65bb 2d3e 7991 ac3d 0fd1 aebe 581f 82be
000000e0: 915a ce3d e1d6 d23c 3ece c73e 3935 76bd
000000f0: 488f cfbe da01 bbbe f563 06be c6e9 d8bd
00000100: f70f b03d e5b7 04be 9e59 583e fc6c 23be
00000110: ea91 c83e 5220 cb3d 4135 25be dca9 f33e
00000120: fb93 263e dc2e b8be c3f9 87be ae86 ab3e
00000130: 1b1e 623e 867e c23e 773d 8d3c aa30 b23e
00000140: 3cb4 8b3e d3b7 103e a22f 18be 1ebf 023f
00000150: cbf7 c63d d066 1ebe 4482 873d 0bd0 ff3e
00000160: f2fb a33e e9b6 6fbd 8705 053f 6192 803e
00000170: ee9c 84be 9b39 ebbe bc5e a03e 852f 003f
00000180: c1fb 9abe 0f46 4a3e f9eb 303d 01a5 02be
00000190: 8d13 e0bd 28fa 293e 4956 d13d 4faf ab3e
000001a0: 2acc 3c3e 4218 853e dbd2 f13e 030d 343e
000001b0: 0904 ec3d 91f7 0cbe 2807 c33e 3d2a c03d
000001c0: 1986 a73e 7477 f63e 236b 06be 2e68 aa3e
000001d0: 3915 81bd 6bc0 f43e 64d7 c83e f265 20be
000001e0: c2b6 393c 908a 5abe acf7 56be 641f b3bd
000001f0: ece6 0abb ca48 1fbe ec26 f1be 54b5 a0be

SoftmaxPolicy_l2.weight f4 [128, 128]
0.00055640185 -0.042174157 0.072843194 0.07236121 0.056641046 0.04045225 -0.07223334 0.050278947
-0.0602761 -0.013743897 -0.037222274 0.026653139 -0.06620077 -0.04072873 -0.06063187 -0.10193024
-0.047414638 0.081073485 -0.0064478377 0.03199263 -0.08696825 0.09776368 -0.013448025 -0.0773673
0.088018395 -0.013981486 0.07231663 -0.055847812 -0.068398245 -0.054148052 0.03421027 0.022553198
-0.07650665 0.013312529 0.01034661 0.033493333 -0.04261926 -0.062928855 0.11375908 -0.04829904
0.042998604 0.07212458 -0.06924601 -0.07870131 0.023869567 -0.07655788 0.034130048 -0.033172607
-0.036616534 -0.06553086 0.046190143 -0.04535504 -0.08667595 -0.066191785 -0.04080379 -0.07989331
0.045441363 -0.022239555 0.087382376 0.060859893 -0.05687473 -0.045365416 -0.043507855 0.057704974
0.0055102063 -0.025459763 0.09095493 0.105106175 0.08014743 -0.06643008 -0.034759637 -0.013331652
0.09662621 -0.036945153 -0.04445602 0.016181318 -0.019951416 0.042456143 0.015639242 -0.07549842
0.08533973 0.08243636 0.006085059 -0.052649494 0.035474285 0.05353188 0.061576277 -0.038630147
-0.005749958 -0.025455968 0.08874328 0.1256007 0.0027142274 -0.05359821 0.040108003 0.050788462
0.036787238 -0.077458024 0.015102635 -0.033955522 -0.07274176 -0.03693837 0.05554113 0.042360254
-0.07768057 0.015221999 0.08731969 0.10676965 0.06937319 -0.02476688 0.050171185 0.05231388
0.041991822 -0.058523674 -0.03373692 0.0771838 0.07839869 0.079439655 -0.042984877 -0.017890202
-0.055121392 -0.030731201 0.07246814 -0.0642728 0.006380617 0.020619165 -0.04857487 0.039416436
-0.016868165 0.071208395 -0.042098116 0.011750941 -0.078233115 0.049550768 0.08476784 0.025201676
0.0033955202 -0.045639634 -0.03946903 -0.04216113 -0.04839068 0.026231602 0.0131849665 0.08234616
-0.06985951 -0.057054404 -0.036333796 -0.03320941 0.079407915 0.04405306 -0.07636671 -0.0039096875
0.006814667 0.07543778 0.082629144 0.0598769 0.0855801 -0.02906396 -0.0010752564 -0.079806656
0.026007682 0.122164436 0.0511094 0.1069584 -0.03338918 0.029811237 -0.051153973 0.06963467
-0.03672264 -0.04056166 0.014080931 0.017039157 0.06133671 -0.01263511 -0.018541958 0.04406342
0.061285213 0.10048265 0.033985842 -0.0021618153 0.12242831 0.13259941 -0.039156247 0.041935816
0.027213296 -0.03897929 -0.005663071 -0.013839283 -0.06622329 -0.032286588 0.054686684 0.07593387
0.011955951 -0.075228386 0.01401414 -0.02626995 0.08229346 -0.08454887 -0.012104749 0.08679962
0.015220156 -0.0398892 -0.08218819 0.0009761193 0.056008875 -0.057666156 -0.08290385 0.05604858
-0.03001184 0.06068408 -0.076616846 -0.010860174 -0.054925878 -0.002249225 -0.084571525 0.047345635
-0.03910221 -0.063152716 -0.041768633 -0.11266208 0.046750065 -0.019587157 -0.0050940854 0.0730166
-0.011932985 0.080500826 0.0062790406 -0.059260987 0.024987765 0.027615037 -0.06193678 0.028737545
0.0192643 0.07730588 -0.006817075 -0.06491313 -0.085535586 0.035105266 -0.02211941 -0.020868424
-0.008233895 -0.02309282 0.02463906 0.0822721 0.07452128 -0.062107176 0.09179715 0.062075645
0.01495117 0.04088234 0.05851652 0.07738966 0.049183432 0.031223837 -0.03559324 -0.058692325
00000000: 7fdb 113a cfbe 2cbd d02e 953d 1d32 943d
00000010: 7100 683d 42b1 253d 13ef 93bd 4cf1 4d3d
00000020: 12e4 76bd 152e 61bc 6276 18bd af57 da3c
00000030: 4594 87bd 2bd3 26bd 2059 78bd cdc0 d0bd
00000040: da35 42bd db09 a63d 6248 d3bb b40a 033d
00000050: 691c b2bd 5338 c83d 1b55 5cbc bf72 9ebd
00000060: fd42 b43d 9a12 65bc be1a 943d adc0 64bd
00000070: 6114 8cbd 59ca 5dbd 1120 0c3d 7cc1 b83c
00000080: 85af 9cbd cb1c 5a3c d484 293c 4e30 093d
00000090: 8891 2ebd d8e0 80bd 85fa e83d 37d5 45bd
000000a0: 4e1f 303d 0db6 933d dad0 8dbd 272e a1bd
000000b0: 1c8a c33c 61ca 9cbd f3cb 0b3d 00e0 07bd
000000c0: 38fb 15bd 0b35 86bd e031 3d3d 35c6 39bd
000000d0: 2983 b1bd 8f8f 87bd e021 27bd 1b9f a3bd
000000e0: b920 3a3d ba2f b6bc 88f5 b23d 3948 793d
000000f0: 7af5 68bd 16d1 39bd 4b35 32bd 0d5c 6c3d
00000100: f68e b43b fe90 d0bc 9446 ba3d e841 d73d
00000110: 5624 a43d 7e0c 88bd 1f60 0ebd 006d 5abc
00000120: f6e3 c53d cd53 17bd 8417 36bd af8e 843c
00000130: 2771 a3bc 7ee6 2d3d de1d 803c ea9e 9abd
00000140: 99c6 ae3d 65d4 a83d 2d65 c73b ffa6 57bd
00000150: 7c4d 113d 3f44 5b3d 6837 7c3d a53a 1ebd
00000160: 256a bcbb 0989 d0bc 09bf b53d 789d 003e
00000170: 2ee1 313b cc89 5bbd 4a48 243d 9007 503d
00000180: 37ae 163d 50a2 9ebd 0b71 773c f214 0bbd
00000190: a2f9 94bd b04c 17bd 197f 633d f281 2d3d
000001a0: fe16 9fbd b165 793c aad4 b23d 0caa da3d
000001b0: 8813 8e3d e9e3 cabc 4d80 4d3d 1447 563d
000001c0: 9eff 2b3d 85b6 6fbd ba2f 0abd 8a12 9e3d
000001d0: 7e8f a03d 42b1 a23d e910 30bd 798e 92bc
000001e0: f8c6 61bd 00c0 fbbc 2d6a 943d 75a1 83bd
000001f0: 7f14 d13b 86e9 a83c 71f6 46bd 2173 213d
00000200: 1b2f 8abc b5d5 913d 136f 2cbd 0587 403c
00000210: af38 a0bd bff5 4a3d c39a ad3d bf73 ce3c
00000220: 6087 5e3b a0f0 3abd 47aa 21bd 26b1 2cbd
00000230: 4e35 46bd a8e3 d63c c205 583c 1ba5 a83d
00000240: 8112 8fbd e1b1 69bd bfd2 14bd 9706 08bd
00000250: 9ea0 a23d fb70 343d 2666 9cbd d61c 80bb
00000260: 924d df3b 1f7f 9a3d 7839 a93d 7b41 753d
00000270: 9f44 af3d 8b17 eebc 9eef 8cba ac71 a3bd
00000280: 100e d53c 5931 fa3d 1758 513d 010d db3d
00000290: 18c3 08bd b236 f43c d486 51bd 9f9c 8e3d
000002a0: 7b6a 16bd fc23 26bd b5b3 663c b495 8b3c
000002b0: 343c 7b3d 7e03 4fbc 4ee5 97bc d87b 343d
000002c0: 3406 7b3d d9c9 cd3d bd34 0b3d 3ead 0dbb
000002d0: b2bb fa3d 24c8 073e 4d62 20bd e4c4 2b3d
000002e0: 6bee de3c bfa8 1fbd 4891 b9bb 29be 62bc
000002f0: 14a0 87bd f13e 04bd 25ff 5f3d 3883 9b3d
00000300: e5e2 433c 5711 9abd 909b 653c 1434 d7bc
00000310: 7989 a83d f527 adbd ff52 46bc 00c4 b13d
00000320: f65d 793c dc62 23bd 4852 a8bd 42e2 7f3a
00000330: 9069 653d 5933 6cbd 7ec9 a9bd 3293 653d
00000340: 64db f5bc df8f 783d 4be9 9cbd dfee 31bc
00000350: f5f9 60bd bc67 13bb d633 adbd 7fed 413d
00000360: a429 20bd 3656 81bd 9615 2bbd 60bb e6bd
00000370: ff7c 3f3d 3f75 a0bc 49ec a6bb ba89 953d
00000380: 9182 43bc 9edd a43d 69c0 cd3b a6bb 72bd
00000390: 24b3 cc3c ee38 e23c 6cb1 7dbd 006b eb3c
000003a0: 2ad0 9d3c 8c52 9e3d c561 dfbb 2df1 84bd
000003b0: 482d afbd 8aca 0f3d c433 b5bc 42f4 aabc
000003c0: 75e7 06bc 272d bdbc dbd7 c93c 467e a83d
000003d0: 9d9e 983d 1864 7ebd 2500 bc3d 0843 7e3d
000003e0: c1f5 743c 3e74 273d 05af 6f3d 787e 9e3d
000003f0: 9174 493d 22c9 ff3c 38ca 11bd 5d67 70bd

SoftmaxPolicy_l2.bias f4 [128]
0.053041756 -0.034867473 0.002431834 -0.062437978 -0.048109822 0.055967916 0.018563228 0.027602496
0.050562754 0.02680277 0.0071465676 -0.011214424 0.0011070669 0.08266997 0.035376564 0.010035974
0.035571013 -0.040260367 -0.06919558 -0.01902153 0.095676765 0.021210521 -0.065202616 0.059551727
0.080955535 0.068090886 0.011005506 -0.023361936 0.008716576 0.03026708 -0.031511195 -0.042779647
0.019237839 0.04459062 -0.027098006 -0.008719434 -0.06507965 -0.0011289082 -0.019747285 0.09077571
0.061126314 -0.030020244 -0.0684925 -0.0718188 -0.051358964 0.08956327 -0.025644457 0.06517421
0.06848486 -0.009011485 0.03907348 0.029692343 0.082664765 0.04208089 0.051610813 0.089144535
0.010024432 0.08277114 -0.0024086214 -0.066004746 0.08495588 -0.0662645 0.0021807945 0.08420827
-0.023545647 -0.06068656 0.06619079 0.033286322 0.05639303 0.04787912 -0.09238182 0.071327105
-0.07273773 0.01199883 -0.05102891 0.0662205 0.09279374 0.013192894 -0.022119166 0.075654574
0.06980861 -0.016431922 0.071177326 0.0069732326 -0.040159695 0.08312404 -0.05141175 -0.064904384
0.052421145 0.033435263 0.07000146 -0.035270344 0.021374727 0.04577509 0.01827062 -0.072636925
0.05641538 0.02368772 -0.020795602 -0.022756241 -0.091375746 0.09372069 0.013592529 -0.024886917
0.09745379 -0.06302973 0.025464857 -0.014248869 -0.026999686 0.0019350294 -0.011268121 0.07506805
0.06490077 0.031548098 -0.003581273 -0.0153295705 -0.008267974 -0.00095224247 0.031505946 0.07023961
-0.06345147 -0.08899808 -0.014775315 0.072196186 0.0431707 -0.034405015 0.05711969 0.03874196
00000000: 5042 593d 32d1 0ebd 675f 1f3b f7be 7fbd
00000010: ce0e 45bd 9d3e 653d e911 983c a11e e23c
00000020: e41a 4f3d 7c91 db3c c12d ea3b b4bc 37bc
00000030: 001b 913a e04e a93d 04e7 103d ed6d 243c
00000040: e9b2 113d 0ee8 24bd 6ab6 8dbd 0ad3 9bbc
00000050: 2ef2 c33d b0c1 ad3c f388 85bd 83ec 733d
00000060: 04cc a53d 3c73 8b3d 7050 343c 8861 bfbc
00000070: f8cf 0e3c abf2 f73c e211 01bd b639 2fbd
00000080: ac98 9d3c a7a4 363d a3fc ddbc f5db 0ebc
00000090: 7b48 85bd e0f7 93ba 0fc5 a1bc 9ee8 b93d
000000a0: 965f 7a3d 04ed f5bc cc45 8cbd bc15 93bd
000000b0: c75d 52bd f36c b73d 5314 d2bc 0e7a 853d
000000c0: ca41 8c3d e8a4 13bc 830b 203d 5b3d f33c
000000d0: 254c a93d 035d 2c3d dc65 533d 6991 b63d
000000e0: 843d 243c ea83 a93d f6d9 1dbb 7f2d 87bd
000000f0: 59fd ad3d afb5 87bd a9eb 0e3b 6375 ac3d
00000100: cde2 c0bc 7892 78bd 098f 873d 3d57 083d
00000110: 61fc 663d e51c 443d ae32 bdbd f213 923d
00000120: 85f7 94bd be96 443c b103 51bd 9d9e 873d
00000130: a50a be3d 0227 583c 4133 b5bc c9f0 9a3d
00000140: d1f7 8e3d 3d9c 86bc 6bc5 913d b77f e43b
00000150: 7e7e 24bd f03c aa3d 2195 52bd 97ec 84bd
00000160: 8eb7 563d 6af3 083d ed5c 8f3d a377 10bd
00000170: 0d1a af3c a97e 3b3d 44ac 953c abc2 94bd
00000180: d013 673d c00c c23c 8a5b aabc 4c6b babc
00000190: 3523 bbbd a2f0 bf3d 33b3 5e3c a6df cbbc
000001a0: da95 c73d bb15 81bd ad9b d03c 1774 69bc
000001b0: 722e ddbc d0a0 fd3a ed9d 38bc 47bd 993d
000001c0: b2ea 843d 9438 013d cab3 6abb e128 7bbc
000001d0: 6576 07bc e99f 79ba 610c 013d c9d9 8f3d
000001e0: d8f2 81bd a044 b6bd 2a14 72bc 98db 933d
000001f0: c3d3 303d 46ec 0cbd 56f6 693d e4af 1e3d

SoftmaxPolicy_l3.weight f4 [2, 128]
0.051737785 0.013027388 0.124169044 0.013289284 -0.08954817 -0.018783376 0.0403964 0.09292664
0.014809338 0.007752603 0.06866863 0.06932988 0.08999772 0.014820238 0.0036285056 0.09536327
0.055288684 0.09407555 -0.010840522 0.09788037 -0.043181326 0.09766583 -0.038378783 -0.015699016
-0.03553104 0.04220647 0.04799037 0.033876084 -0.087876946 0.005479644 -0.03924981 -0.036299374
0.05310157 -0.0008095242 0.049821064 -0.078755625 0.012472549 0.0690293 0.057754382 0.102164626
-0.009718141 0.085011825 -0.06952329 -0.009666124 -0.009928916 -0.02870757 0.032815974 0.002304913
-0.10213531 -0.09707497 0.03787006 -0.060356896 -0.111144856 0.12834206 -0.05687513 0.09487544
0.06519212 0.046940584 -0.07514194 -0.021024833 0.081018105 0.021775218 -0.12477994 0.007177571
-0.06665652 -0.07031078 -0.083104976 0.08041023 0.073128134 -0.06923434 -0.034693196 0.07834318
-0.0012031127 -0.058658496 0.02661568 -0.109540574 -0.08786295 0.07064789 -0.08870706 0.098767325
-0.032656267 -0.056686245 -0.08256503 0.05450671 -0.12025694 0.040088747 0.027100537 0.033439957
-0.10343079 -0.064694166 0.04353486 -0.07269642 -0.045820594 0.055672202 0.043379586 0.07228484
0.0029322528 -0.041740615 0.12621622 0.003912196 -0.02125432 0.0743228 -0.0861634 0.080838
0.03406278 -0.015409767 -0.07247264 -0.026786974 -0.023598358 0.019298997 -0.06047025 0.045503948
-0.12048505 -0.078634016 -0.007457248 0.10655314 0.070224926 -0.08794482 0.07533331 -0.057143256
0.07472363 0.010204832 -0.023962721 -0.09988647 -0.10272843 -0.10501975 -0.058156244 0.069110885
-0.004446402 0.11040325 -0.114198156 0.085599184 0.018085597 0.092547655 -0.10104358 -0.07609311
0.10982551 0.05092814 -0.11734452 -0.099630035 -0.026858851 0.12353562 0.08608583 -0.082214616
0.011213658 0.017718427 -0.06492362 -0.08286018 0.10310798 0.009086033 0.036842413 0.10539387
0.03662362 -0.14128129 -0.064487934 -0.060821358 -0.074583724 0.0646035 0.0037403174 0.11646989
-0.033275038 0.01933505 -0.02772571 0.077647105 0.06017489 -0.019355612 -0.053006697 -0.04532387
-0.06682297 -0.14448832 0.042080764 0.05416147 -0.106290095 0.12939969 -0.061435897 -0.09230258
0.06936775 0.06492627 -0.01720703 0.01966099 0.038141932 -0.11581872 0.13766956 -0.0903114
-0.048870362 -0.14503475 -0.026433961 0.026296496 -0.12042982 -0.069343515 0.01234523 -0.06553685
0.079993956 0.111412436 -0.0022911206 -0.050523244 0.054311845 0.011009597 0.06800736 0.022895925
0.06514085 0.121545084 -0.062389683 -0.053341523 0.00553691 -0.096166916 0.07335179 -0.06840073
0.052236795 -0.068881065 0.06968105 0.02443777 0.11388243 -0.06692377 0.018973459 -0.05116342
0.005816321 0.06830683 -0.09421518 0.087577984 0.03649035 -0.02505893 0.072789915 0.010132726
-0.10839858 0.07418694 0.016752524 -0.046652004 0.056325532 -0.039464865 0.0471158 -0.038420066
-0.1440713 0.0984362 0.102129325 -0.11936838 -0.07380311 0.08429471 0.055446714 -0.046692364
0.014173634 0.089441516 0.101006426 -0.12585254 -0.05803064 -0.014323803 -0.096775874 -0.012927808
-0.00021628874 -0.01607845 -0.05864447 0.0072456007 0.0065616257 -0.034142513 0.06652018 -0.07207233
00000000: 00eb 533d d370 553c 574c fe3d 4cbb 593c
00000010: 0865 b7bd 98df 99bc b276 253d 5250 be3d
00000020: dea2 723c 8c09 fe3b 24a2 8c3d d3fc 8d3d
00000030: ba50 b83d 95d0 723c 39cc 6d3b d14d c33d
00000040: 6376 623d afaa c03d 729c 31bc 8175 c83d
00000050: e7de 30bd 0605 c83d 1233 1dbd 399b 80bc
00000060: ff88 11bd b1e0 2c3d 8d91 443d a6c1 0a3d
00000070: d4f8 b3bd 968e b33b 69c4 20bd a7ae 14bd
00000080: 0881 593d 4036 54ba 2c11 4c3d a14a a1bd
00000090: aa59 4c3c 3c5f 8d3d dc8f 6c3d b03b d13d
000000a0: d638 1fbc ae1a ae3d 3a62 8ebd aa5e 1ebc
000000b0: e4ac 22bc 232c ebbc 0b6a 063d 060e 173b
000000c0: 512c d1bd 3ecf c6bd a31d 1b3d cb38 77bd
000000d0: ea9f e3bd 1a6c 033e e5f5 68bd 0e4e c23d
000000e0: 7283 853d c544 403d 04e4 99bd 453c acbc
000000f0: d2ec a53d f161 b23c a08c ffbd d431 eb3b
00000100: 3783 88bd 19ff 8fbd f132 aabd 1eae a43d
00000110: 34c4 953d bcca 8dbd 741a 0ebd 6472 a03d
00000120: c3b1 9dba e443 70bd 2009 da3c cf56 e0bd
00000130: 7ef1 b3bd d7af 903d 0cac b5bd 8646 ca3d
00000140: 94c2 05bd d62f 68bd db17 a9bd 6e42 5f3d
00000150: 4549 f6bd 1934 243d f201 de3c 56f8 083d
00000160: 86d3 d3bd 607e 84bd 9c51 323d dce1 94bd
00000170: 60ae 3bbd 8908 643d cbae 313d 130a 943d
00000180: 0a2b 403b 35f8 2abd d33e 013e e131 803b
00000190: 8a1d aebc 8d36 983d 7076 b0bd 658e a53d
000001a0: 6a85 0b3d 3f79 7cbc 896c 94bd 5b70 dbbc
000001b0: 5851 c1bc ee18 9e3c a7af 77bd 5962 3a3d
000001c0: dec0 f6bd df0a a1bd ee5b f4bb 8838 da3d
000001d0: 16d2 8f3d 6a1c b4bd 5a48 9a3d 0c0f 6abd
000001e0: b408 993d 2b32 273c 784d c4bc 4791 ccbd
000001f0: 4863 d2bd 9814 d7bd 3e35 6ebd 028a 8d3d
00000200: 20b3 91bb 191b e23d b9e0 e9bd a04e af3d
00000210: 3f28 943c a089 bd3d f0ef cebd b4d6 9bbd
00000220: 32ec e03d 069a 503d 5352 f0bd d50a ccbd
00000230: 1807 dcbc 3e00 fd3d c54d b03d 2360 a8bd
00000240: 7eb9 373c 3c26 913c adf6 84bd 99b2 a9bd
00000250: 472a d33d 96dd 143c 12e8 163d bed8 d73d
00000260: a602 163d 0bac 10be 4012 84bd d11f 79bd
00000270: 5abf 98bd d74e 843d 1d20 753b c487 ee3d
00000280: 684b 08bd 8a64 9e3c 0721 e3bc 7205 9f3d
00000290: f279 763d a98f 9ebc 8d1d 59bd 86a5 39bd
000002a0: 7bda 88bd bff4 13be e15c 2c3d 6bd8 5d3d
000002b0: 9fae d9bd 5a81 043e 35a4 7bbd 2309 bdbd
000002c0: ae10 8e3d 10f8 843d c2f5 8cbc 1610 a13c
000002d0: b73a 1c3d 5d32 edbd 40f9 0c3e 2ff5 b8bd
000002e0: 4a2c 48bd fd83 14be 098c d8bc c06b d73c
000002f0: e9a3 f6bd f903 8ebd a643 4a3c 2f38 86bd
00000300: dfd3 a33d 342c e43d a026 16bb 76f1 4ebd
00000310: 1976 5e3d 9961 343c 7147 8b3d 3c90 bb3c
00000320: 9168 853d a1ec f83d 538c 7fbd a47c 5abd
00000330: f86e b53b 29f3 c4bd 7739 963d af15 8cbd
00000340: 40f6 553d 8411 8dbd f0b4 8e3d b831 c83c
00000350: 313b e93d 540f 89bd 3a6e 9b3c bc90 51bd
00000360: d696 be3b 74e4 8b3d e3f3 c0bd 165c b33d
00000370: e876 153d 6348 cdbc e112 953d bc03 263c
00000380: 1300 debd 53ef 973d 973c 893c 2c16 3fbd
00000390: 9ab5 663d e9a5 21bd 7ffc 403d 5c5e 1dbd
000003a0: 6d87 13be eb98 c93d 2e29 d13d 6977 f4bd
000003b0: 1626 97bd b4a2 ac3d 181c 633d 7e40 3fbd
000003c0: 8838 683c 1d2d b73d 75dc ce3d 7ddf 00be
000003d0: 89b1 6dbd 62ae 6abc 6e32 c6bd 28cf 53bc
000003e0: 91cb 62b9 f4b6 83bc 2f35 70bd 816c ed3b
000003f0: e802 d73b 05d9 0bbd bb3b 883d a89a 93bd

SoftmaxPolicy_l3.bias f4 [2]
0.031557605 -0.015780332
00000000: 8c42 013d c145 81bc
