pytorch_models/model280484.pth (torch, 72107 bytes, 6 tensors)

SoftmaxPolicy_l1.weight f4 [128, 4]
00000000: f98a 823e d855 67be f923 e8bd 21eb 6a3e
00000010: 163e f0be f9b5 9f3e 25f3 4fbd 4b77 843e
00000020: 8603 8d3d 6d99 64bd 5332 533e 8098 583d
00000030: 5a01 343e 465c 44be 4f8a f5bc be4b 47bd
00000040: d158 933d e8ce e5ba fce7 de3e a2a8 1d3e
00000050: 8ca0 3abe f65a 99be 9ff4 a9bd 48c8 59be
00000060: f23e 26be dcf8 a63c 39fb 9f3e be60 903e
00000070: 7bd3 f9be ce93 a73e 93fa 843e 520e 053f
00000080: 1621 a93e 9eab edbe a62f fbbe 07ce 6cbe
00000090: ca09 d63e cc2d c5bd abb4 5f3e 41d4 6dbe
000000a0: 65e0 f73e e8b6 6fbe caf1 983e da28 4abc
000000b0: 99c0 84be b61e 843e 6938 82be 1a16 203e
000000c0: 59b4 05be 4926 4cbd 1a3a f0be e03a 6abe
000000d0: 302a 8a3e c012 e9bd fbb6 ff3e ea27 ce3e
000000e0: 7151 ebbc e65f 9ebe c1a4 d43e 6763 4b3e
000000f0: 61f6 a1be 3f76 ae3e ea2d db3e 0103 fc3e
00000100: 7882 8ebe 2648 a6bd 4c72 f2bc b35d 883d
00000110: 0173 c1be 9eba b5be f3e0 7e3e b93b ffbd
00000120: 80d4 6b3e 6148 053d 2540 9c3e 2a83 3a3e
00000130: 810a 2a3e 9461 813e 7381 a1be 0b5d a73e
00000140: 768e b0be 9765 c0be 07c9 ac3d 028c 62bd
00000150: f724 943e ff78 91be fa37 b6be 0969 d33e
00000160: 1766 8fbd 3055 8e3e f497 b33d 6e1e d8be
00000170: b7e4 c63d 3f16 e83d 9bd8 aebe 68d1 72be
00000180: 0b36 343e 53d8 8c3d 05eb b8be a82f 5fbe
00000190: c5fa e43e dff3 a9bd 2e24 cd3e 01a3 893e
000001a0: b02a a4be 911b d8be 3de6 eb3e bc9d 7b3c
000001b0: 7561 ac3e d0d1 ea3d 74d7 893e 7e5e d43e
000001c0: 61a7 ed3e 66d9 a5be dcda 433e dbc7 e33e
000001d0: 7269 b33e 3bb2 983e 7687 bcbe 2e69 b8be
000001e0: 6d32 9dbe 3055 6a3d f30b 033f f1d9 9ebe
000001f0: fb70 8b3e 1ea3 91be 45c5 fbbe fb58 d6bd
00000200: 1d73 903e b639 ed3e aaa5 93be 65e9 e53d
00000210: 523e d63e d80e b53e bd36 d23e 90c2 c13e
00000220: 8eae 9a3e aa8a ea3d f26d a9be a179 d2be
00000230: 74a4 70be 447c 64bd 3f66 3bbe 5611 7f3e
00000240: d9ab 203e 17b5 e5bd e19b 563e d626 343e
00000250: b5f3 973e 4836 b83e b601 76bd e3eb 053f
00000260: afbb 31bd 92e8 f5bc a81b 1bbf 1163 bebe
00000270: 13da 93be 4f8b 5abe 461e b03e 19f0 27be
00000280: 484c bbbe 5e91 5e3e 91fe 863e a84b b13e
00000290: 495f 85be b58a d93d 5d39 39be 391c e7bd
000002a0: 9666 c9be 858f 6abe 2f00 2dbe 0e4f 5c3e
000002b0: 6a84 aa3d 2bf8 143e 1df9 1f3f 28bc 033f
000002c0: cf1b aa3e ac40 bd3c 870e 62be 5ccb e63e
000002d0: 0962 06be 2b42 42bd f93b e1be c83b cbbd
000002e0: 09ca a9be cfbf e83e 53cd f5be b633 d7be
000002f0: feaa 33bc 837f 88be 9d68 313e 9cac 44be
00000300: a9da 6dbe 6e67 2a3d 6142 ae3e fbf6 c1be
00000310: de2b 6c3e 091c a23e 4fc8 ef3e b6cd b8be
00000320: 334f 0b3e 05c8 babe 53bd c83e ada9 52be
00000330: 7bcb 963e 04c7 803c cad1 54bc c353 a7bb
00000340: dfb8 963d a2bf 713e 0e40 5b3e 1ca6 673e
00000350: 2f9a e4be 4016 bf3e 810a 093f 13be ed3e
00000360: e33c b13e d3e2 b8be eddc 1bbe c6fa e23e
00000370: ee6c c6be a74e ea3e 5f17 e0be 9c58 c8be
00000380: 4d29 753e e381 b1be 841f 44bd b303 cb3e
00000390: 2a99 cc3e 166e ef3e 71a6 4abe 83dc e3be
000003a0: d164 f73e 7e6b 05be 749b 76be ee33 073e
000003b0: cd8d b3be 96a2 a43e 2626 6c3e 01d9 e4be
000003c0: 0ef5 d2be 07dd 43bd 34ad 463e 0240 54bc
000003d0: 69b7 7fbe 34be ad3c d982 f2be afe7 b9be
000003e0: a262 a9be 8a08 d43e c7c1 d03e f6d0 47be
000003f0: 6d2c eb3c 4a40 583e 3edc 1b3c 94e9 89be
0.25496653 -0.2259134 -0.11334986 0.22941257 -0.46922368 0.31193522 -0.05076899 0.25872263
0.06885438 -0.05581038 0.20624666 0.05287981 0.1757864 -0.19175825 -0.029973177 -0.048656218
0.07194675 -0.0017532976 0.43536365 0.1539636 -0.18225306 -0.2995221 -0.08298611 -0.21267807
-0.16234949 0.020382337 0.31246355 0.28198808 -0.4879416 0.32729954 0.25972423 0.51974976
0.33033055 -0.46419996 -0.4905979 -0.23125468 0.41804343 -0.09627876 0.21846263 -0.232255
0.48413387 -0.23409617 0.2987197 -0.012338841 -0.2592819 0.2580468 -0.25433663 0.15633431
-0.13057078 -0.0498412 -0.46919328 -0.22874022 0.26985312 -0.113805294 0.4994429 0.40264827
-0.028725358 -0.3093254 0.41531947 0.19862138 -0.31633285 0.3407459 0.42808467 0.49221042
-0.27833915 -0.0811923 -0.029595517 0.06658497 -0.37783054 -0.3549394 0.24890499 -0.12462563
0.23030281 0.03253973 0.30517688 0.18214098 0.1660557 0.2526976 -0.31544074 0.32688174
-0.3448369 -0.37577507 0.084367804 -0.055309303 0.28934452 -0.28412625 -0.35589582 0.41291073
-0.07001894 0.27799368 0.08769217 -0.42210716 0.09711593 0.11332368 -0.34149632 -0.23712695
0.17598741 0.06877198 -0.36116806 -0.21795523 0.44722572 -0.08298468 0.40066665 0.26882175
-0.32063818 -0.42208531 0.46074095 0.015357431 0.33668104 0.114658 0.2692219 0.41478342
0.46416762 -0.32392424 0.19126457 0.44488415 0.35041386 0.2982348 -0.36822098 -0.36017746
-0.30702534 0.057210147 0.5119011 -0.3102565 0.27234635 -0.2844476 -0.49173942 -0.104661904
0.28212824 0.46333092 -0.2883733 0.11226157 0.41844422 0.35362887 0.41057387 0.37843752
0.302113 0.11452229 -0.33091694 -0.4110842 -0.23500234 -0.05578257 -0.18300723 0.24908957
0.15690555 -0.11216181 0.209579 0.1759294 0.2967812 0.35978913 -0.060060225 0.5231306
-0.04339188 -0.030018125 -0.60589075 -0.37184957 -0.28877315 -0.21342205 0.34398097 -0.16400184
-0.36581635 0.2173514 0.26366094 0.34628034 -0.2604926 0.106221594 -0.18088289 -0.1128468
-0.3933608 -0.22906311 -0.16894601 0.21514532 0.08326037 0.14547794 0.6248949 0.5145898
0.3322434 0.023102127 -0.22075854 0.45077026 -0.13123335 -0.047426384 -0.43991068 -0.09923512
-0.33161953 0.45458838 -0.48008212 -0.4203164 -0.010966061 -0.26659784 0.17325063 -0.1920647
-0.23227943 0.041602544 0.34035018 -0.37883744 0.23063609 0.31662014 0.4683251 -0.36094445
0.13604431 -0.36480728 0.39206943 -0.20572539 0.29452118 0.015719898 -0.012989471 -0.0051064207
0.0735948 0.23608258 0.21411154 0.2262196 -0.44648883 0.37321663 0.5353165 0.46434078
0.34616765 -0.36110553 -0.15220995 0.4433195 -0.38754982 0.45763132 -0.4376783 -0.39130104
0.23941536 -0.34669408 -0.04788162 0.3965126 0.39960605 0.46763676 -0.19790055 -0.44504175
0.48319104 -0.13029286 -0.24082738 0.13203403 -0.35069123 0.32155293 0.23061427 -0.4469681
-0.41202587 -0.04781821 0.19402009 -0.012954714 -0.24972309 0.02120886 -0.47365454 -0.36309573
-0.33083063 0.41412765 0.4077284 -0.19513306 0.028707707 0.21118274 0.009512959 -0.26936018

SoftmaxPolicy_l1.bias f4 [128]
00000000: 62e7 c1be 5a1b b53e 7892 a93e 4fa3 febe
00000010: 4cd1 c9be 2168 adbe 7992 84be e021 f43d
00000020: 4748 f6be 5a5b c9be e9a5 6c3e 89c7 2ebe
00000030: 8bfd 5cbe 8640 d4be a824 443e 0315 e63d
00000040: be6b 52be 616e 9fbe 571e ef3d 4cfb 193e
00000050: 5ae9 433e bbd8 293e d6a1 45bd 7bc0 c8be
00000060: 826c b33e fb35 0b3d d1aa b0be f31e f03e
00000070: 6126 923e 2812 d0be e7e5 7dbe 770c 25be
00000080: 20f7 94be 65dd 6f3e 9182 c1be 9e45 e73e
00000090: f2c6 49be 7513 9b3e 18de c83d 6280 6bbe
000000a0: c100 b03e 3464 c2be 0bec 87be 9153 de3d
000000b0: 840f c73e badc 53be 4211 91be 1813 a5be
000000c0: 3928 4ebe dcfb 22be 0099 f2bd db30 96be
000000d0: ed49 2d3e 3488 ad3d e129 b0be add5 81be
000000e0: d558 ce3d fde6 d73c 6b2d c83e 8045 6dbd
000000f0: d074 cfbe 41ec babe 0ac3 07be 920f d6bd
00000100: 47c2 b23d 0de8 04be bd36 593e 56f9 22be
00000110: 07be c83e 2028 cd3d 2ca9 25be 8c88 f33e
00000120: f33f 283e 930c b8be 1a9e 87be 3a1c ac3e
00000130: 7768 613e 28a1 c23e 19e7 9d3c 27c3 b13e
00000140: 7c45 8c3e a1e2 113e be2a 19be 91f4 023f
00000150: e93b c33d 631c 1fbe ce0a 8b3d ae99 ff3e
00000160: 9c2b a33e f3fe 70bd 3c38 053f 5720 813e
00000170: 51cf 85be b94c ebbe 7e33 a03e 8a4e 003f
00000180: 4595 9bbe 7d13 493e 0e0d 333d 4f7f 02be
00000190: 3a4a ddbd e653 2b3e 4865 d03d 3462 ab3e
000001a0: c8fc 3f3e 9f40 843e 164b f23e 5236 353e
000001b0: 87b3 ee3d e927 0cbe ef67 c23e 38af be3d
000001c0: 701b a73e e010 f63e 67e5 08be 68ec a93e
000001d0: 9aa3 7cbd c612 f53e b97b c83e ca19 1fbe
000001e0: de86 3b3c ce87 5cbe 80e5 57be 2ce1 adbd
000001f0: 3fa5 28bb 72cd 1dbe e41c f1be 1543 a0be
-0.37871844 0.3537243 0.3311956 -0.4973397 -0.39417493 -0.33868507 -0.25893 0.11920524
-0.48102018 -0.39327508 0.23110165 -0.17068304 -0.21581094 -0.41455477 0.19154608 0.112344764
-0.20548913 -0.311389 0.11675709 0.15037268 0.19131985 0.16586582 -0.048250042 -0.3920935
0.35043722 0.033987027 -0.34505323 0.46898612 0.28544906 -0.40638852 -0.24794732 -0.16118036
-0.2909479 0.23424299 -0.37794927 0.451703 -0.19704798 0.30288282 0.09807986 -0.22998193
0.34375575 -0.37967074 -0.26547274 0.10855783 0.38879025 -0.20689669 -0.2833348 -0.3224113
-0.20132531 -0.15916389 -0.11845589 -0.2933415 0.16922732 0.08473244 -0.3440695 -0.25358334
0.10075537 0.026355261 0.3909715 -0.05792761 -0.40518808 -0.36508372 -0.13257995 -0.104521886
0.08728462 -0.12979145 0.21212287 -0.15915427 0.3920748 0.10017419 -0.16177815 0.47565114
0.16430645 -0.35947093 -0.2648781 0.33615285 0.22012506 0.38013577 0.019275235 0.34719202
0.27396762 0.14246608 -0.14957711 0.5115443 0.09532911 -0.15538172 0.0678917 0.49921936
0.3186921 -0.05883689 0.5203893 0.25219986 -0.26134732 -0.45956972 0.31289285 0.5011984
-0.3038732 0.1963634 0.04371362 -0.12743877 -0.10805173 0.16731223 0.10175568 0.3347336
0.18748772 0.25830552 0.4732291 0.17696503 0.11655336 -0.136871 0.3796992 0.09310764
0.3263812 0.4805975 -0.1336876 0.33188176 -0.06167946 0.47865885 0.39156893 -0.15537181
0.011445729 -0.2153618 -0.21083641 -0.08490214 -0.002573326 -0.15410402 -0.47092354 -0.3130118

SoftmaxPolicy_l2.weight f4 [128, 128]
00000000: 75b0 5b3a ed56 27bd 2def 953d 15ff 903d
00000010: 7100 683d 574c 2a3d 5345 94bd d11f 523d
00000020: fbe4 6fbd 24b5 6abc 2b0d 1abd 8e7c e73c
00000030: 6f16 87bd 47c3 29bd 9d78 76bd 125c cfbd
00000040: a2ab 3ebd 2b09 a83d 3aa0 e4bb ae84 013d
00000050: 5e92 afbd ba70 c53d 1110 4abc 3183 9abd
00000060: 6137 b53d 67c1 72bc 1ce3 953d 84ca 65bd
00000070: 9b16 8ebd f76d 5dbd 9e5b 0f3d b7fd b33c
00000080: 4183 9cbd a2ed 543c 15a3 2a3c adf5 0c3d
00000090: 0076 2dbd 9791 81bd 0596 ec3d 52c5 41bd
000000a0: 985e 343d 14f5 943d e327 8cbd cea8 a3bd
000000b0: 31cf bf3c d7f2 9bbd 3aa6 0f3d 963b 04bd
000000c0: cb88 14bd 6154 85bd 01f6 4a3d aac3 3dbd
000000d0: 136b b1bd d150 85bd d505 27bd 805d a2bd
000000e0: 1858 353d 9cfe b2bc 8d45 b23d b109 7b3d
000000f0: e645 66bd 0893 38bd c843 31bd 06f3 6f3d
00000100: 19bc bc3b e207 d4bc 0d2e bc3d dbeb d43d
00000110: a599 a53d 79db 84bd 882a 11bd b9ce 51bc
00000120: 8401 ca3d 6658 16bd 4864 34bd 8360 8e3c
00000130: 9f95 a4bc bdb1 303d 6ea9 8d3c 08b2 98bd
00000140: 3414 b23d 5d13 a73d 4a32 e63b b372 57bd
00000150: d63a 153d 6dbf 5e3d e050 823d dd99 19bd
00000160: 7961 aebb 1049 d3bc 854d b83d 0aff 003e
00000170: fb75 ef3a f2b9 5abd a1c3 2a3d 0ce3 533d
00000180: 0dc3 1e3d f19a 9ebd 2c0a 7c3c e9ea 0dbd
00000190: da31 93bd a832 0fbd 6d4f 5f3d c88d 2c3d
000001a0: 9750 9abd c16d 873c 5eee b43d 2b86 dc3d
000001b0: 22a9 903d 0f0f d6bc 50ec 543d f47f 543d
000001c0: b48c 2e3d 6139 71bd f7c2 05bd 38db 9d3d
000001d0: de25 a33d d19e a43d 96e4 30bd bdda 8dbc
000001e0: 818c 66bd 2521 05bd edea 943d 993d 85bd
000001f0: 084b a23b 7ff2 b03c edd8 42bd beb1 183d
00000200: 70a3 8cbc 8df0 8e3d 2e70 2ebd 590d 5b3c
00000210: af38 a0bd 46c9 463d d4e9 ad3d ffa7 c63c
00000220: 323d fe3a 1d74 39bd 197e 20bd 6691 32bd
00000230: 5278 47bd febe dd3c 2a91 513c 5c82 a73d
00000240: beb6 90bd 7073 6dbd b60a 13bd 9909 07bd
00000250: 990e a03d 0cf7 393d ad73 9fbd ab69 babb
00000260: 216f c83b 6b05 9c3d 7098 a73d 8fe1 753d
00000270: a137 b13d 32eb f0bc e73c ffba f644 a2bd
00000280: 39f4 d23c fe93 fa3d d236 503d ef14 d93d
00000290: 2f44 09bd c706 f63c 678e 5abd b7ae 8c3d
000002a0: 52bc 1abd 08a0 28bd 7e50 5a3c f3db 943c
000002b0: 49c1 7c3d c040 56bc 43d1 a1bc 415d 313d
000002c0: c06f 783d a75e cc3d e8f8 fd3c 05c8 c2ba
000002d0: c46f fa3d f2bd 063e 6231 20bd e304 283d
000002e0: b2cc e83c 9b39 22bd 167b b2bb 32b8 70bc
000002f0: dcdd 88bd ccb8 05bd d20f 5e3d 3d24 993d
00000300: a4b8 3c3c 8a80 99bd 757e 523c cefc cdbc
00000310: bd98 a63d 6872 b0bd e46e 40bc 51ba b03d
00000320: f92f 523c 9c5b 25bd 3950 a9bd 51c4 d8b9
00000330: 1727 663d 41df 6fbd e86b adbd b678 613d
00000340: baac 02bd fae0 7b3d e5b3 9ebd 91fb 34bc
00000350: abe3 64bd 5e27 48bb f0f2 b1bd 780e 3d3d
00000360: a89f 21bd b5f8 80bd e38c 30bd db0c e8bd
00000370: 2f53 423d c2a3 a1bc 79d7 debb ba7a 933d
00000380: 72e0 5fbc 0101 a53d 6b0f c93b 1d82 70bd
00000390: d31b c23c 69ac d13c 93da 79bd 636b ed3c
000003a0: 3085 883c b6c3 9b3d 5219 05bc a47e 87bd
000003b0: 0987 b2bd 7eb6 143d ecd4 c4bc 93d7 a7bc
000003c0: f345 11bc 4bdc babc 9657 c13c d3ce a83d
000003d0: 1784 953d 917a 81bd 0629 bc3d 3dfd 7a3d
000003e0: 6971 843c 2080 2e3d 11ae 6d3d 1a3f a03d
000003f0: e62a 4f3d 84e5 f73c 4487 15bd 8789 68bd
0.0008380481 -0.040854383 0.0732101 0.07079903 0.056641046 0.04157671 -0.07239785 0.051299874
-0.058567982 -0.014325414 -0.037610214 0.028257634 -0.06596076 -0.041445997 -0.06017362 -0.10124983
-0.0465504 0.08204874 -0.0069771083 0.031620674 -0.08572839 0.096406415 -0.012332932 -0.07544554
0.08848453 -0.0148166185 0.07318708 -0.056101337 -0.069379054 -0.05405995 0.034999482 0.021971567
-0.07642222 0.012996109 0.010414858 0.034413982 -0.04234886 -0.06326597 0.115520515 -0.04730732
0.044035524 0.072733074 -0.06843545 -0.07991181 0.023414226 -0.076146774 0.035070635 -0.032283388
-0.03626327 -0.065102346 0.049551014 -0.046329178 -0.08663001 -0.06509555 -0.040777046 -0.0792799
0.044273466 -0.021849923 0.08704672 0.06128854 -0.056219004 -0.045062095 -0.04327753 0.058581375
0.0057597277 -0.025882665 0.09188471 0.10396548 0.08085946 -0.064871736 -0.03544095 -0.012805634
0.0986357 -0.036705397 -0.04404095 0.017380005 -0.020090876 0.043138254 0.017292704 -0.07455832
0.0869526 0.0815799 0.007025038 -0.05259962 0.036433063 0.054381777 0.06363082 -0.03750025
-0.0053216782 -0.025791675 0.08999161 0.1259729 0.0018269414 -0.053399988 0.041690473 0.0517302
0.038760234 -0.077443965 0.015383285 -0.034647856 -0.07187243 -0.03496042 0.054519106 0.0421274
-0.075349025 0.016531827 0.088345274 0.10767778 0.070635095 -0.026130227 0.051983178 0.051879838
0.042614654 -0.05889261 -0.032656636 0.07707828 0.07966207 0.08038104 -0.043186747 -0.017316217
-0.05628634 -0.032502312 0.07271371 -0.065058894 0.004952792 0.021600006 -0.047570158 0.037278883
-0.017167777 0.06979475 -0.04258745 0.013369882 -0.078233115 0.048531793 0.08491865 0.024250029
0.00193969 -0.04527675 -0.039182756 -0.043595694 -0.04869873 0.027068611 0.0127909575 0.08179161
-0.07066105 -0.057971418 -0.035898887 -0.032968137 0.07815284 0.045401618 -0.07785735 -0.005688866
0.006116763 0.07618221 0.08183372 0.060029563 0.086531885 -0.029409025 -0.0019473106 -0.079233095
0.02575122 0.122352585 0.05083353 0.10599696 -0.03351229 0.030032529 -0.05335846 0.06869262
-0.037777252 -0.041168243 0.013324855 0.018171286 0.06170777 -0.013076961 -0.019753104 0.043301824
0.060653448 0.09978991 0.031002477 -0.0014860636 0.12228349 0.13158396 -0.039109595 0.041020285
0.028417919 -0.039605718 -0.005446802 -0.014692353 -0.06682941 -0.03264694 0.054214306 0.07477615
0.011518631 -0.0749522 0.0128475325 -0.02514496 0.08134601 -0.08615571 -0.011745188 0.08629287
0.01282882 -0.04037057 -0.082672544 -0.00041344998 0.056189623 -0.05856252 -0.08467847 0.05504676
-0.031903006 0.06149385 -0.07749156 -0.011046306 -0.055881184 -0.0030541043 -0.08688915 0.046156377
-0.0394589 -0.06297437 -0.04310311 -0.11330577 0.04744261 -0.019731406 -0.0068005887 0.072011426
-0.013664352 0.08056832 0.006135871 -0.058717836 0.023694908 0.025594907 -0.060999464 0.02898187
0.016665071 0.07605688 -0.008123713 -0.06615952 -0.08717162 0.03630685 -0.02402731 -0.020488536
-0.008866775 -0.022810122 0.023601335 0.082425736 0.07300585 -0.06322206 0.09187512 0.061276663
0.01616736 0.04260266 0.05802733 0.07824536 0.05057802 0.030260809 -0.036505952 -0.05677178

SoftmaxPolicy_l2.bias f4 [128]
00000000: 3206 5c3d 4640 12bd 1a63 623b eb8a 81bd
00000010: ce61 48bd 258a 613d ef18 9e3c c300 ed3c
00000020: 730b 4c3d 8f2d cf3c f204 023c 6d30 2abc
00000030: 001b 913a bcdf a73d 5228 0e3d 9014 333c
00000040: da6b 113d dbb0 20bd 9ab3 8dbd a550 93bc
00000050: 9751 c23d 7959 b43c f388 85bd 01db 703d
00000060: 04cc a53d 5f3e 8d3d ddad 413c 15f2 b7bc
00000070: f8cf 0e3c 5874 f03c 71ef 04bd e67c 32bd
00000080: 4d9c a53c 6389 363d 8017 d8bc f5db 0ebc
00000090: 7b48 85bd 2e4c ddb9 ac15 99bc 4d0d bc3d
000000a0: a1eb 7d3d 1009 eebc cc45 8cbd 2fe3 94bd
000000b0: 5072 4ebd 5dfd b53d 1125 d3bc be26 873d
000000c0: d76d 8a3d 9ce2 20bc b4c1 1e3d d6bd eb3c
000000d0: 27fc a63d 5315 303d bebe 4f3d 5b13 b83d
000000e0: f70e 3e3c ff6d ab3d f6d9 1dbb 1dca 87bd
000000f0: eaec af3d afb5 87bd 8e1b b93a d115 ad3d
00000100: 6f9a ccbc 14c3 7abd 098f 873d 856e 0b3d
00000110: 8ab1 673d e7bd 403d 9ff5 b6bd 7cee 933d
00000120: 45ac 95bd 1023 3b3c f43c 4dbd 98f5 853d
00000130: 0dae bc3d ac16 5b3c 6812 bcbc 8f6c 9c3d
00000140: e2f9 8e3d 93b5 86bc 036b 903d 2c10 ec3b
00000150: a384 27bd 1d8d ab3d 6f24 52bd f996 83bd
00000160: 6daf 533d 6af3 083d 31b5 913d e55b 13bd
00000170: 0e8f a93c bc2c 3f3d 44ac 953c 9d71 93bd
00000180: 2a17 6b3d 6f67 be3c 4988 a2bc 7dcf aebc
00000190: f9e2 bdbd c0d3 c13d a2ab 5a3c dbc2 c5bc
000001a0: 5c6e c93d 5879 81bd 28f9 c93c ded1 5bbc
000001b0: 54dd dabc d0a0 fd3a 38d3 45bc 0955 9b3d
000001c0: 3290 833d 22d8 fc3c e1dc 92bb 6bc0 6abc
000001d0: eee2 e7bb e1e9 f5ba db5c 043d c9d9 8f3d
000001e0: 787c 80bd a044 b6bd 0644 57bc d420 923d
000001f0: 53ec 2d3d 23d8 10bd 6dc9 663d 81bf 1e3d
0.053716846 -0.035705827 0.0034543932 -0.063253246 -0.0489214 0.055063386 0.019298999 0.028931027
0.049815606 0.025290279 0.007935749 -0.010387522 0.0011070669 0.08196971 0.03470642 0.010930195
0.035503246 -0.039231163 -0.06919022 -0.01798279 0.09488218 0.02201532 -0.065202616 0.05880261
0.080955535 0.06896662 0.011821237 -0.0224543 0.008716576 0.029352352 -0.03245491 -0.043576144
0.020216132 0.044564616 -0.026378393 -0.008719434 -0.06507965 -0.00042209163 -0.018687092 0.091822244
0.06199229 -0.029057056 -0.0684925 -0.07269894 -0.050401986 0.08886216 -0.02577451 0.06599186
0.067592315 -0.009819653 0.03875895 0.028777044 0.08153563 0.042989086 0.050719015 0.08988067
0.011600248 0.083705895 -0.0024086214 -0.06630347 0.0859011 -0.0662645 0.0014122592 0.08451427
-0.024975983 -0.061221197 0.06619079 0.034040947 0.0565658 0.047056105 -0.08933567 0.07223222
-0.073082484 0.011421934 -0.050106958 0.06540984 0.09212885 0.013372105 -0.022957996 0.076378934
0.06981255 -0.016444003 0.07051661 0.0072040763 -0.040897977 0.083765246 -0.051304277 -0.0642528
0.05168097 0.033435263 0.07114638 -0.03597631 0.020698097 0.04667352 0.01827062 -0.071994044
0.057395138 0.02324268 -0.019840376 -0.021339172 -0.09271807 0.09464216 0.0133465845 -0.024140766
0.098355025 -0.063219726 0.02465494 -0.013416735 -0.026716866 0.0019350294 -0.012074284 0.075845785
0.064239874 0.030864779 -0.004481897 -0.014328103 -0.0070766127 -0.0018761718 0.032315116 0.07023961
-0.062737405 -0.08899808 -0.013138777 0.07135168 0.042461704 -0.035362374 0.05634444 0.03875685

SoftmaxPolicy_l3.weight f4 [2, 128]
00000000: 76ba 583d 449a 513c 3071 003e 48f7 513c
00000010: 4e90 b7bd b6c6 9bbc df9b 263d d0b5 c03d
00000020: 8846 6b3c 769e 153c b30b 8f3d f819 903d
00000030: ba50 b83d 71d0 753c 16b2 943b 4613 c53d
00000040: 9e16 633d 03a5 c33d d99b 31bc e0ef ca3d
00000050: 5c9d 32bd 65e4 c93d 1233 1dbd c150 80bc
00000060: ff88 11bd e217 313d b608 493d 6c30 0e3d
00000070: d4f8 b3bd 5c75 a03b 1abb 1abd 2fb0 13bd
00000080: efa3 5d3d f5ee 52ba ee8b 4e3d a14a a1bd
00000090: aa59 4c3c 597b 8e3d 1c4f 713d 528f d43d
000000a0: 2fc2 08bc febc af3d 3a62 8ebd 4526 1dbc
000000b0: 50c8 19bc a654 ebbc e978 063d 22c2 5d3b
000000c0: df14 d2bd 4774 c7bd f4e9 193d cf7b 77bd
000000d0: 8e1f e3bd 2d9f 043e 610a 68bd bb04 c53d
000000e0: 5d0d 893d a783 443d 04e4 99bd 1d35 9fbc
000000f0: 8145 a73d f161 b23c 9dbc ffbd ae2a f73b
00000100: c22a 87bd a27e 90bd f132 aabd 5683 a53d
00000110: 5009 963d 59d8 8cbd 10ba 17bd 512f a13d
00000120: 7cc4 3cba 67de 6dbd 50d7 df3c 646b e0bd
00000130: 4872 b4bd a6a9 8e3d d83f b6bd ed3b cc3d
00000140: 52c4 05bd b250 69bd 770f a8bd 8136 623d
00000150: fb0d f7bd 8b92 283d 776b d63c 06ff 0a3d
00000160: 92a7 d3bd 607e 84bd 199d 383d 1c36 95bd
00000170: f0be 3abd 8da5 633d cbae 313d 300e 963d
00000180: 1e22 763b fe64 2abd 0b1e 023e cd44 923b
00000190: db10 abbc cf20 993d b054 adbd 165f a63d
000001a0: 6d87 0f3d f800 68bc 63fb 94bd 0f60 d7bc
000001b0: b190 b8bc ee18 9e3c e2b0 78bd 4d93 3d3d
000001c0: c396 f7bd 1334 a1bd f85a 02bc 3134 dc3d
000001d0: 947a 923d 7783 b4bd 0d18 9d3d 0c0f 6abd
000001e0: 5971 9a3d 2b32 273c 8c3f c2bc cd92 cdbd
000001f0: 7f34 d2bd 5aa0 d7bd 4312 70bd 1f8a 8d3d
00000200: d12e b8bb ea95 e23d b476 ecbd 2147 b03d
00000210: 68d5 943c 6303 be3d 8682 cfbd 333c 9ebd
00000220: bed7 e13d 94f3 4a3d e3bb f2bd fa27 cebd
00000230: 1807 dcbc 3da0 fc3d 0871 ae3d 9825 aabd
00000240: b038 353c e63c 853c bef6 84bd f82c acbd
00000250: 8009 d43d c8e2 053c 12e8 163d 29c6 d73d
00000260: a602 163d d4b9 11be d84d 86bd 958e 7cbd
00000270: 5abf 98bd 6780 853d 0f8b 143b 8b08 ee3d
00000280: 4f6e 0cbd 4d5a 9e3c 7e16 e8bc 7205 9f3d
00000290: f279 763d 3b00 a3bc cedc 5dbd d04c 40bd
000002a0: 57a9 8bbd eac5 14be e15c 2c3d 558a 5d3d
000002b0: 22cb dabd 7086 043e 13b3 7bbd bf3e bfbd
000002c0: 3cf9 8e3d 199d 853d 5e8e 8abc 2096 a13c
000002d0: 0e3a 1b3d 7998 efbd 5cbe 0c3e dcab bbbd
000002e0: 3140 4fbd ba93 15be 098c d8bc 9964 ca3c
000002f0: 98fc f7bd f903 8ebd 58c3 4b3c b7f7 86bd
00000300: 6a7b a23d bcab e43d a026 16bb d19b 50bd
00000310: dbeb 5d3d dbce 2c3c 4217 903d ae9c b83c
00000320: 576b 843d dfb9 f73d b539 81bd 8353 5abd
00000330: 197c bd3b f8ec c2bd 43cd 963d 160b 8ebd
00000340: fef7 553d 1881 8cbd 8cac 8d3d 8149 c23c
00000350: e7ff e93d 983e 8bbd b504 a33c 6c97 53bd
00000360: 77d7 bb3b 74e4 8b3d a719 c4bd 55b0 b33d
00000370: 7887 143d 7082 ccbc e112 953d dfe2 153c
00000380: cfaf dfbd b2a5 973d 8942 823c 8558 41bd
00000390: 3e2f 653d 817a 23bd feb8 3a3d b7ff 1ebd
000003a0: f387 14be e909 c73d 08b8 d13d 717b f5bd
000003b0: 3956 99bd b4a2 ac3d 541d 643d 7271 42bd
000003c0: 8be7 6e3c 5156 b73d 0be2 cf3d 4cdd 01be
000003d0: 8302 73bd a075 67bc 2102 c9bd 28cf 53bc
000003e0: 0c06 6dba f4b6 83bc 253c 71bd 8185 fd3b
000003f0: 0717 d43b 80c1 0abd 472a 893d c59a 93bd
0.052912198 0.012793127 0.12543178 0.012815304 -0.08963071 -0.019015651 0.040675994 0.09409678
0.014360078 0.009132018 0.06984653 0.07036203 0.08999772 0.01500331 0.004537831 0.09622817
0.05544149 0.09552958 -0.01084038 0.09909034 -0.0436071 0.09858016 -0.038378783 -0.015663506
-0.03553104 0.043235667 0.049080573 0.034714147 -0.087876946 0.004896803 -0.03777609 -0.036056694
0.054111417 -0.00080464716 0.050426416 -0.078755625 0.012472549 0.069571204 0.058913335 0.10378899
-0.008347078 0.08580969 -0.06952329 -0.009591644 -0.009386137 -0.028726887 0.032830153 0.0033837636
-0.10257887 -0.09738975 0.03757663 -0.060420807 -0.11090003 0.12951346 -0.056650523 0.09620043
0.06692002 0.047977116 -0.07514194 -0.019434506 0.08167554 0.021775218 -0.12487147 0.0075429296
-0.06599952 -0.07055403 -0.083104976 0.08081691 0.07325995 -0.068772025 -0.037042677 0.07870353
-0.00072009093 -0.058073428 0.027324349 -0.10957983 -0.0881086 0.069659516 -0.08898896 0.099723674
-0.03265793 -0.056961723 -0.08206075 0.05522776 -0.120632134 0.04115538 0.02617429 0.033934616
-0.10334696 -0.064694166 0.045071695 -0.07285711 -0.04559225 0.055577803 0.043379586 0.07326925
0.0037556957 -0.04160022 0.12706773 0.004463768 -0.02088206 0.07476961 -0.084634185 0.08123605
0.03504126 -0.014160387 -0.07274511 -0.026290921 -0.022529932 0.019298997 -0.060715564 0.046283055
-0.120893024 -0.078712605 -0.007956259 0.10752142 0.07152286 -0.088141374 0.07670603 -0.057143256
0.075411506 0.010204832 -0.023711942 -0.10037766 -0.10263919 -0.105286315 -0.058611166 0.0691111
-0.0056208153 0.1106375 -0.11546078 0.08607317 0.018168166 0.0927799 -0.10132317 -0.07726326
0.11027478 0.0495487 -0.11852243 -0.10066219 -0.026858851 0.123352505 0.08517653 -0.08307952
0.011060879 0.01626439 -0.06492375 -0.084070146 0.103533745 0.008171745 0.036842413 0.10535843
0.03662362 -0.14231044 -0.06557816 -0.061659414 -0.074583724 0.065186314 0.0022665893 0.11622723
-0.034284886 0.019330168 -0.028331038 0.077647105 0.06017489 -0.01989757 -0.054165654 -0.046948254
-0.068194084 -0.14528623 0.042080764 0.054087 -0.10683276 0.12941909 -0.061450075 -0.0933814
0.069811314 0.065241046 -0.01691359 0.019724905 0.037897162 -0.11699004 0.13744491 -0.09163639
-0.050598327 -0.14607134 -0.026433961 0.024706172 -0.12108725 -0.069343515 0.01243671 -0.065902166
0.079336956 0.11165568 -0.0022911206 -0.050929848 0.054180007 0.010547365 0.07035686 0.022535648
0.06465786 0.12095999 -0.06309835 -0.0533023 0.005782616 -0.095178545 0.07363369 -0.06935708
0.052238457 -0.0686056 0.06917676 0.02371669 0.114257626 -0.06799048 0.019899705 -0.05165808
0.0057324725 0.06830683 -0.09575205 0.08773867 0.036262006 -0.024964541 0.072789915 0.009148329
-0.10922205 0.07404651 0.015900867 -0.04720356 0.055953257 -0.03991175 0.04558658 -0.038818087
-0.14504986 0.09718687 0.10240179 -0.11986435 -0.07487149 0.08429471 0.055692032 -0.04747147
0.014581571 0.089520104 0.10150536 -0.12682074 -0.059328567 -0.014127165 -0.09814859 -0.012927808
-0.00090417336 -0.01607845 -0.05889525 0.007736862 0.0064724716 -0.033875942 0.06697517 -0.07207254

SoftmaxPolicy_l3.bias f4 [2]
00000000: fecf 033d a660 86bc
0.03218078 -0.016403507
