pytorch_models/model280032.pth (torch, 72107 bytes, 6 tensors)

SoftmaxPolicy_l1.weight f4 [128, 4]
0	0x3e830c89	0.255955
1	0xbe6283f8	-0.22120655
2	0xbdea528c	-0.11441526
3	0x3e6b687f	0.22989081
4	0xbeeffbd7	-0.46871826
5	0x3ea01946	0.31269282
6	0xbd53bdd0	-0.05169469
7	0x3e841d2c	0.25803506
8	0x3d8b4177	0.06799596
9	0xbd65e51c	-0.0561267
10	0x3e529f60	0.20568609
11	0x3d4a746a	0.049427427
12	0x3e31df55	0.1737035
13	0xbe4074c3	-0.18794541
14	0xbcdec66a	-0.02719422
15	0xbd533045	-0.051559705
16	0x3d9358d1	0.07194675
17	0xbae5cee8	-0.0017532976
18	0x3edee7fc	0.43536365
19	0x3e1da8a2	0.1539636
20	0xbe3b038e	-0.18263075
21	0xbe99e28b	-0.3005565
22	0xbdab9539	-0.08378071
23	0xbe588e4e	-0.21148035
24	0xbe26aee9	-0.1627766
25	0x3ca6fd97	0.020384593
26	0x3e9fbf3f	0.31200597
27	0x3e8f91ff	0.28041074
28	0xbefad844	-0.48993123
29	0x3ea73644	0.3265859
30	0x3e8527de	0.2600698
31	0x3f05020d	0.51956254
32	0x3ea7ce49	0.3277457
33	0xbeeb885a	-0.46002465
34	0xbefb25d0	-0.49052286
35	0xbe6f3c17	-0.23362766
36	0x3ed747b1	0.42046884
37	0xbdc1c602	-0.09461595
38	0x3e60dc3c	0.21959013
39	0xbe694a33	-0.22782211
40	0x3ef8c6f6	0.48589295
41	0xbe6e0650	-0.23244596
42	0x3e98ea55	0.2986628
43	0xbc2e388b	-0.010633598
44	0xbe84d8b2	-0.25946575
45	0x3e8429a5	0.25813022
46	0xbe8215d8	-0.2540729
47	0x3e20145f	0.15632771
48	0xbe077716	-0.13229021
49	0xbd4efb20	-0.05053246
50	0xbef0557f	-0.46940228
51	0xbe6a8c6a	-0.22905126
52	0x3e899b93	0.26876506
53	0xbdee1509	-0.11625106
54	0x3f0089fa	0.50210536
55	0x3eccce53	0.40001163
56	0xbcfa01b6	-0.030518394
57	0xbe9ffa5b	-0.31245694
58	0x3ed49873	0.4152256
59	0x3e49a393	0.19691305
60	0xbea285a3	-0.31742582
61	0x3eae459d	0.34037486
62	0x3eda4264	0.42628777
63	0x3efc21ee	0.49244636
64	0xbe8e7b7f	-0.27828595
65	0xbda62119	-0.081117816
66	0xbcebce0e	-0.028784778
67	0x3d8a1d69	0.06743891
68	0xbec138b2	-0.37738568
69	0xbeb54d67	-0.35410616
70	0x3e7f4e3d	0.2493219
71	0xbdff9401	-0.124794014
72	0x3e6acdfb	0.22930138
73	0x3d01f731	0.03172988
74	0x3e9c1a15	0.3048865
75	0x3e38fab4	0.18064386
76	0x3e2899eb	0.16464965
77	0x3e81164c	0.25212324
78	0xbea16477	-0.3152196
79	0x3ea661ae	0.324964
80	0xbeb14da0	-0.34629536
81	0xbec1051d	-0.37699214
82	0x3dae7196	0.085177585
83	0xbd610dbd	-0.054944742
84	0x3e954894	0.29156935
85	0xbe90843c	-0.28225887
86	0xbeb70e89	-0.35753277
87	0x3ed220a5	0.4104053
88	0xbd90cd58	-0.07070416
89	0x3e8e53cf	0.27798316
90	0x3db4e369	0.088324375
91	0xbed8ae44	-0.42320454
92	0x3dc6995e	0.09697221
93	0x3de84a16	0.11342256
94	0xbeaf0eeb	-0.3419107
95	0xbe73616a	-0.2376763
96	0x3e351455	0.17683537
97	0x3d8efc28	0.06981689
98	0xbeb9003d	-0.36132994
99	0xbe5eabfa	-0.21745291
100	0x3ee49e87	0.44652197
101	0xbdaafcf2	-0.08349027
102	0x3ecd5c0f	0.40109298
103	0x3e88ef7a	0.26745206
104	0xbea443f3	-0.3208309
105	0xbed82823	-0.42218122
106	0x3eec0c33	0.46103057
107	0x3c840743	0.016116744
108	0x3eabd231	0.335588
109	0x3de958e1	0.113939054
110	0x3e899803	0.26873788
111	0x3ed34009	0.41259792
112	0x3eecf883	0.4628335
113	0xbea67fee	-0.32519478
114	0x3e437429	0.1908728
115	0x3ee2a55d	0.44266787
116	0x3eb3ec38	0.35141158
117	0x3e996dae	0.2996649
118	0xbebc2ba8	-0.36752057
119	0xbeb8ef17	-0.3611991
120	0xbe9dc6bd	-0.30815688
121	0x3d68eee9	0.056868467
122	0x3f03310d	0.5124672
123	0xbea02bc4	-0.3128339
124	0x3e8c5513	0.27408656
125	0xbe8fd6eb	-0.28093657
126	0xbefd43d9	-0.49465826
127	0xbdd53489	-0.10410411
128	0x3e9004c7	0.28128645
129	0x3eed18e7	0.4630806
130	0xbe93abff	-0.2884216
131	0x3de3c2f7	0.11121171
132	0x3ed5ab2e	0.41732162
133	0x3eb4b5b8	0.3529489
134	0x3ed2257c	0.41044223
135	0x3ec0db21	0.37667182
136	0x3e9af47b	0.3026465
137	0x3ded700a	0.115936354
138	0xbeaa3bc9	-0.33248737
139	0xbed243c4	-0.41067326
140	0xbe721160	-0.2363944
141	0xbd6a990b	-0.05727486
142	0xbe3cab91	-0.18424822
143	0x3e7dbf91	0.24780108
144	0x3e1fc7f0	0.15603614
145	0xbdebf9f8	-0.11522287
146	0x3e5641ea	0.20923582
147	0x3e32a503	0.1744576
148	0x3e97452e	0.29544967
149	0x3eb7dee5	0.35912243
150	0xbd7771e3	-0.060411345
151	0x3f058868	0.52161264
152	0xbd35b811	-0.044364993
153	0xbcf3e773	-0.02977345
154	0xbf1ad368	-0.6047883
155	0xbebefb4d	-0.37301102
156	0xbe93b254	-0.2884699
157	0xbe5a5da7	-0.21324788
158	0x3eb027a5	0.34405246
159	0xbe27e16b	-0.16394584
160	0xbebbba7e	-0.3666572
161	0x3e5e5dcc	0.21715468
162	0x3e85fd61	0.26169875
163	0x3eb0f4fb	0.34561905
164	0xbe85744d	-0.26065293
165	0x3dd764f6	0.10517304
166	0xbe3a60fa	-0.18201056
167	0xbde3a5f2	-0.11115636
168	0xbec9b570	-0.39396238
169	0xbe6b7e91	-0.229975
170	0xbe2e9c41	-0.17051794
171	0x3e5c3703	0.2150536
172	0x3da79a75	0.08183757
173	0x3e13b7e5	0.14425619
174	0x3f1febe1	0.624693
175	0x3f0356ef	0.51304525
176	0x3ea986a1	0.33110526
177	0x3cb3efe5	0.021964977
178	0xbe623330	-0.22089839
179	0x3ee5ff1d	0.44921198
180	0xbe05583d	-0.13021941
181	0xbd3bb4e9	-0.045826826
182	0xbee110db	-0.43958172
183	0xbdcdcaf8	-0.10048479
184	0xbeaa009d	-0.33203593
185	0x3ee8c3a8	0.45461774
186	0xbef4ca45	-0.4781057
187	0xbed7672e	-0.42070907
188	0xbc28af10	-0.010295644
189	0xbe882925	-0.2659389
190	0x3e3216e6	0.17391548
191	0xbe450a9f	-0.19242333
192	0xbe6e59a4	-0.23276383
193	0x3d2c9e6e	0.042143278
194	0x3eae42e0	0.34035397
195	0xbec2f801	-0.38079837
196	0x3e6b1b82	0.22959712
197	0x3ea1b2cf	0.31581733
198	0x3ef05bb4	0.46944964
199	0xbeb96b4b	-0.3621467
200	0x3e0badc9	0.13640513
201	0xbeb91b43	-0.36153612
202	0x3ec92299	0.39284208
203	0xbe53ff8f	-0.20702957
204	0x3e96d846	0.2946188
205	0x3c829130	0.015938371
206	0xbc582ac1	-0.013193787
207	0xbbb6ae50	-0.005574979
208	0x3d9434e9	0.07236654
209	0x3e711355	0.23542531
210	0x3e5b40d2	0.21411446
211	0x3e65e329	0.22449936
212	0xbee60c69	-0.44931343
213	0x3ebe71e5	0.3719627
214	0x3f08d351	0.53447443
215	0x3eedd2ad	0.46449795
216	0x3eb338bb	0.3500422
217	0xbeb82ecf	-0.35973212
218	0xbe1e77f8	-0.15475452
219	0x3ee3687d	0.44415656
220	0xbec6e378	-0.3884542
221	0x3eea3662	0.45744616
222	0xbedf7038	-0.43640304
223	0xbec8e81a	-0.3923958
224	0x3e74a119	0.23889579
225	0xbeb20713	-0.34771022
226	0xbd4552aa	-0.048174538
227	0x3ec90e5a	0.39268762
228	0x3ecd673b	0.4011782
229	0x3eefbea5	0.46825138
230	0xbe49aeba	-0.19695559
231	0xbee2c690	-0.44292116
232	0x3ef82555	0.48465982
233	0xbe03b091	-0.12860323
234	0xbe76f2db	-0.2411608
235	0x3e07b815	0.13253815
236	0xbeb26208	-0.34840417
237	0x3ea5f2ec	0.32411897
238	0x3e6dff38	0.2324189
239	0xbee5dbce	-0.4489426
240	0xbed2d585	-0.41178527
241	0xbd3f82c1	-0.046755556
242	0x3e466eff	0.19378279
243	0xbc5fccfc	-0.013659712
244	0xbe800027	-0.25000116
245	0x3ca74d5d	0.020422632
246	0xbef309d3	-0.47468433
247	0xbeb9f3bf	-0.36318776
248	0xbea91d37	-0.33030102
249	0x3ed47a70	0.41499662
250	0x3ed10650	0.4082513
251	0xbe48be73	-0.196039
252	0x3cee6c31	0.029104324
253	0x3e58d3c1	0.21174528
254	0x3c2d4535	0.010575582
255	0xbe8a7efc	-0.27050006

SoftmaxPolicy_l1.bias f4 [128]
0	0xbec24eab	-0.37950644
1	0x3eb5c2d5	0.35500208
2	0x3eaa067b	0.3320807
3	0xbeffe3d4	-0.49978507
4	0xbec9d14c	-0.39417493
5	0xbead2f2c	-0.33825052
6	0xbe84cbee	-0.25936836
7	0x3df2bd74	0.118525416
8	0xbef8960a	-0.4855197
9	0xbec7fca0	-0.39059925
10	0x3e6d8d9f	0.23198555
11	0xbe2f0bea	-0.17094389
12	0xbe5b31e7	-0.21405755
13	0xbed47472	-0.4149509
14	0x3e43a473	0.19105701
15	0x3de4fdf9	0.11181254
16	0xbe51c8a0	-0.20486689
17	0xbe9fa353	-0.31179294
18	0x3dedf751	0.116194375
19	0x3e19d3ae	0.15022156
20	0x3e4553a1	0.19270183
21	0x3e28716c	0.16449517
22	0xbd474d4d	-0.048657704
23	0xbec8cd04	-0.39218915
24	0x3eb38d57	0.3506877
25	0x3d036475	0.032078225
26	0xbeb067c3	-0.34454164
27	0x3eefe759	0.46856192
28	0x3e927ea5	0.28612247
29	0xbecf8dd7	-0.40537903
30	0xbe7bd4ff	-0.2459297
31	0xbe23c959	-0.15994777
32	0xbe954792	-0.29156166
33	0x3e6f90fd	0.23395152
34	0xbec15121	-0.3775721
35	0x3ee76b21	0.4519892
36	0xbe49eb04	-0.19718558
37	0x3e9b0be4	0.3028251
38	0x3dc4c41f	0.0960772
39	0xbe6b5567	-0.22981797
40	0x3eb0411c	0.34424675
41	0xbec25f9e	-0.37963575
42	0xbe8758c8	-0.26434922
43	0x3dde2da3	0.10848548
44	0x3ec6f7bd	0.38860884
45	0xbe54efc6	-0.20794591
46	0xbe908834	-0.28228915
47	0xbea5545c	-0.32290924
48	0xbe4c4b51	-0.19950606
49	0xbe23cee3	-0.1599689
50	0xbdf92ffa	-0.12167354
51	0xbe963000	-0.29333496
52	0x3e2cc07e	0.16870305
53	0x3da9eebd	0.08297489
54	0xbeae81f9	-0.34083536
55	0xbe80eaa1	-0.25179008
56	0x3dd02043	0.101624034
57	0x3cd9faf2	0.026608918
58	0x3ec83d23	0.39109144
59	0xbd6c2caa	-0.057659782
60	0xbecf6ba2	-0.40511805
61	0xbebaa728	-0.36455655
62	0xbe07de66	-0.13268432
63	0xbdd4a93f	-0.10383844
64	0x3db0fb33	0.086416624
65	0xbe04bc52	-0.12962463
66	0x3e594f64	0.21221691
67	0xbe238081	-0.15966989
68	0x3ec93e64	0.39305413
69	0x3dcd0e66	0.10012512
70	0xbe252c14	-0.16130096
71	0x3ef37f6c	0.47558153
72	0x3e280c6a	0.16410986
73	0xbeb7f75b	-0.35930905
74	0xbe87b2da	-0.2650364
75	0x3eabe73f	0.33574864
76	0x3e61920d	0.2202837
77	0x3ec328c9	0.38117054
78	0x3c920ec8	0.017829314
79	0x3eb1984a	0.346865
80	0x3e8c1795	0.27361742
81	0x3e11a6e8	0.14223826
82	0xbe18927e	-0.14899632
83	0x3f030e22	0.5119344
84	0x3dc6a300	0.096990585
85	0xbe1ea202	-0.15491489
86	0x3d8aeb22	0.06783129
87	0x3eff9632	0.49919277
88	0x3ea3e1b0	0.32008123
89	0xbd7399b4	-0.059472755
90	0x3f051dbb	0.5199849
91	0x3e8130f3	0.25232658
92	0xbe849da0	-0.25901508
93	0xbeeb3289	-0.45936993
94	0x3e9fb673	0.31193885
95	0x3f0059a5	0.50136787
96	0xbe9abe3c	-0.30223262
97	0x3e4a0dab	0.19731776
98	0x3d333b79	0.04375789
99	0xbe028157	-0.12744652
100	0xbdd9ec1e	-0.10640739
101	0x3e2a5de7	0.16637383
102	0x3dd07fa4	0.101805955
103	0x3eaba842	0.33526808
104	0x3e3e4463	0.18580775
105	0x3e8441e9	0.25831535
106	0x3ef26d6e	0.47349113
107	0x3e35316c	0.17694634
108	0x3dee65fa	0.11640544
109	0xbe0cba19	-0.13742866
110	0x3ec25167	0.3795273
111	0x3dbe3bb4	0.09288731
112	0x3ea728c4	0.3264829
113	0x3ef5f975	0.48041883
114	0xbe06505e	-0.13116595
115	0x3eaa4090	0.33252382
116	0xbd7821a5	-0.06057896
117	0x3ef53203	0.47889718
118	0x3ec852af	0.39125583
119	0xbe1f811d	-0.15576597
120	0x3c3c4687	0.011491424
121	0xbe5afbca	-0.21385112
122	0xbe57a8dd	-0.2106051
123	0xbdb36473	-0.087593935
124	0xbafe4428	-0.0019398974
125	0xbe1ef0d8	-0.15521562
126	0xbef12204	-0.47096264
127	0xbea0e08a	-0.3142131

SoftmaxPolicy_l2.weight f4 [128, 128]
0	0x3a998496	0.0011712487
1	0xbd298b5e	-0.041392677
2	0x3d969659	0.07352895
3	0x3d94e276	0.072697565
4	0x3d680071	0.056641046
5	0x3d24505e	0.040115707
6	0xbd941e06	-0.07232289
7	0x3d4ee49a	0.05051098
8	0xbd78e69b	-0.060766798
9	0xbc65bdff	-0.014022349
10	0xbd173c5b	-0.036922794
11	0x3cda2077	0.026626809
12	0xbd87158d	-0.06595907
13	0xbd234f6e	-0.039870672
14	0xbd7977d3	-0.06090529
15	0xbdd009a3	-0.10158088
16	0xbd42bca5	-0.047543187
17	0x3da5d2ea	0.08096869
18	0xbbc09007	-0.0058765444
19	0x3d069774	0.03285928
20	0xbdb1db0e	-0.086843595
21	0x3dc75b6d	0.09734235
22	0xbc3cb4de	-0.0115177315
23	0xbd9f63cb	-0.07782706
24	0x3db66639	0.08906216
25	0xbc61dcb7	-0.013785533
26	0x3d937ac6	0.072011515
27	0xbd61f92d	-0.055169273
28	0xbd8c49df	-0.06850027
29	0xbd5a37b8	-0.053275794
30	0x3d0cdffc	0.034393296
31	0x3cb3aaed	0.02193209
32	0xbd9ab038	-0.07553142
33	0x3c684027	0.014175451
34	0x3c348cfe	0.011019943
35	0x3d0aac91	0.03385598
36	0xbd2d5a13	-0.04232223
37	0xbd7e5db3	-0.062101077
38	0x3deb98a5	0.11503724
39	0xbd45dcef	-0.0483064
40	0x3d328774	0.04358621
41	0x3d92c1e3	0.07165887
42	0xbd8e56cc	-0.06950149
43	0xbda03ed4	-0.078244835
44	0x3cc78ece	0.024360087
45	0xbd9d4a94	-0.0768024
46	0x3d0e19a9	0.03469244
47	0xbd0839bd	-0.03325819
48	0xbd14e6d1	-0.036352936
49	0xbd83c680	-0.06434345
50	0x3d39b00e	0.045333914
51	0xbd39715f	-0.045274135
52	0xbdaf4c80	-0.08559513
53	0xbd86fb87	-0.06590944
54	0xbd287a40	-0.04113221
55	0xbda28a7d	-0.07936571
56	0x3d38c0c6	0.045105718
57	0xbcaca766	-0.021075916
58	0x3db3e286	0.0878344
59	0x3d801ec7	0.0625587
60	0xbd6a9ac3	-0.0572765
61	0xbd38b37e	-0.045093052
62	0xbd2ca9c9	-0.042154107
63	0x3d724b38	0.059153765
64	0x3bd750f4	0.0065709297
65	0xbccac915	-0.024754087
66	0x3dbaf33a	0.09128423
67	0x3dd6372a	0.104597405
68	0x3da6d620	0.0814631
69	0xbd871e9e	-0.06597637
70	0xbd0ebd11	-0.034848277
71	0xbc599454	-0.013279993
72	0x3dc982eb	0.09839424
73	0xbd133d2d	-0.035947014
74	0xbd34c767	-0.044135477
75	0x3c8a183d	0.01685726
76	0xbca4e776	-0.0201299
77	0x3d335d21	0.043789987
78	0x3c8232c5	0.01589335
79	0xbd97ea7f	-0.074177735
80	0x3db0fa36	0.08641474
81	0x3da88eb1	0.08230341
82	0x3bc87b11	0.0061181863
83	0xbd55f463	-0.05223502
84	0x3d110cc7	0.035412576
85	0x3d5925a5	0.053014416
86	0x3d7ee759	0.06223235
87	0xbd1d0b7e	-0.038341038
88	0xbbb93a5f	-0.0056527103
89	0xbccaf99a	-0.024777222
90	0x3db62b32	0.088949576
91	0x3e019991	0.12656237
92	0x3b5e339f	0.003390528
93	0xbd5bd6a0	-0.05367148
94	0x3d2b193e	0.04177212
95	0x3d509ad1	0.050928894
96	0x3d155d82	0.03646613
97	0xbd9ed267	-0.07754975
98	0x3c6ac3ac	0.014328878
99	0xbd08fb0f	-0.033442553
100	0xbd90f346	-0.07077651
101	0xbd161cc2	-0.03664852
102	0x3d63f477	0.05565306
103	0x3d2cef0a	0.042220153
104	0xbd9bc176	-0.07605259
105	0x3c85c40e	0.016328838
106	0x3db5a926	0.08870153
107	0x3ddccbcc	0.10781059
108	0x3d917ddb	0.07104083
109	0xbcca1c14	-0.024671592
110	0x3d5372a5	0.051623005
111	0x3d5a3316	0.053271376
112	0x3d2b82e4	0.041872874
113	0xbd6d9913	-0.05800731
114	0xbd0a5de5	-0.03378095
115	0x3d9d826b	0.07690891
116	0x3da3b099	0.07992668
117	0x3da3b315	0.079931416
118	0xbd2c64da	-0.042088367
119	0xbc8e42d5	-0.017365852
120	0xbd62db48	-0.055384904
121	0xbcffe785	-0.031238327
122	0x3d967b86	0.07347779
123	0xbd84b5cf	-0.0647999
124	0x3bc3afab	0.005971869
125	0x3ca91e6a	0.020644385
126	0xbd48039c	-0.048831567
127	0x3d1fb6d8	0.038992733
128	0xbc8ef5a7	-0.01745112
129	0x3d904c40	0.070457935
130	0xbd2fdfc9	-0.042938028
131	0x3c3aacff	0.011393785
132	0xbda038af	-0.078233115
133	0x3d4c21ed	0.04983704
134	0x3dadb626	0.08482008
135	0x3ccc7f1b	0.024962952
136	0x3b7f0bfe	0.003891706
137	0xbd3b4091	-0.045715872
138	0xbd23e67b	-0.040014725
139	0xbd2ca454	-0.042148903
140	0xbd470991	-0.048593108
141	0x3cccf151	0.025017412
142	0x3c5b2da9	0.013377585
143	0x3da7945c	0.08182594
144	0xbd8ed89e	-0.0697491
145	0xbd694d8c	-0.05695872
146	0xbd187980	-0.037225246
147	0xbd0cce21	-0.034376267
148	0x3da25e54	0.07928148
149	0x3d351c1b	0.044216257
150	0xbda06893	-0.07832446
151	0xbb6ff357	-0.0036613548
152	0x3bb8388e	0.005621976
153	0x3d994c46	0.07485251
154	0x3da9c10f	0.08288776
155	0x3d715e00	0.058927536
156	0x3daee0d5	0.08538977
157	0xbcf7079d	-0.030154997
158	0xbaa2e8b2	-0.0012428968
159	0xbda2301d	-0.07919333
160	0x3ccaaf4f	0.024741797
161	0x3df7d56a	0.121012524
162	0x3d4d92ca	0.050188817
163	0x3dda3880	0.10655308
164	0xbd0b03fd	-0.03393935
165	0x3ceaffcb	0.028686425
166	0xbd5677bf	-0.052360293
167	0x3d8ea4c6	0.06965022
168	0xbd18e63e	-0.03732895
169	0xbd245580	-0.0401206
170	0x3c6a3e31	0.014297054
171	0x3c84337c	0.01613783
172	0x3d78107f	0.060562607
173	0xbc4b77e0	-0.012418717
174	0xbc9ca034	-0.01911936
175	0x3d34c279	0.044130776
176	0x3d79cd45	0.060986776
177	0x3dcb0e35	0.09914819
178	0x3d0e6c32	0.03477115
179	0xbb3083cd	-0.0026934028
180	0x3df7fef4	0.12109175
181	0x3e078672	0.1323488
182	0xbd1ff030	-0.03904742
183	0x3d298190	0.041383326
184	0x3ce019fc	0.02735614
185	0xbd25217b	-0.040315133
186	0xbbd0773b	-0.0063618696
187	0xbc7d7af8	-0.015471213
188	0xbd86ecbf	-0.065881245
189	0xbd054444	-0.032535806
190	0x3d5aa9c3	0.053384554
191	0x3d98588b	0.07438763
192	0x3c2f0d27	0.010684288
193	0xbd9c443a	-0.07630201
194	0x3c6112f2	0.013737427
195	0xbcd5b6e3	-0.026088184
196	0x3da58d40	0.08083582
197	0xbdae10df	-0.08499312
198	0xbc45d699	-0.01207509
199	0x3db17c85	0.08666328
200	0x3c5d18b2	0.013494657
201	0xbd285164	-0.041093245
202	0xbda8e89a	-0.0824749
203	0x39b0cead	0.0003372332
204	0x3d659611	0.056051318
205	0xbd7247b6	-0.05915042
206	0xbdaa546f	-0.08316886
207	0x3d5f8699	0.05457172
208	0xbcfe27eb	-0.031024894
209	0x3d782736	0.06058427
210	0xbd9cf6b1	-0.0766424
211	0xbc3b3b34	-0.011427689
212	0xbd60cf21	-0.054885034
213	0xbaed5ca2	-0.0018109272
214	0xbdae746e	-0.08518301
215	0x3d40beae	0.047056846
216	0xbd20e44e	-0.03928023
217	0xbd835971	-0.06413544
218	0xbd2bed90	-0.041974604
219	0xbde8f869	-0.113755055
220	0x3d3ce304	0.046114936
221	0xbca0056d	-0.019533837
222	0xbbe060ea	-0.0068474906
223	0x3d953989	0.072863646
224	0xbc3f458d	-0.011674297
225	0x3da4ccc1	0.08046866
226	0x3be231c6	0.006902906
227	0xbd7687e3	-0.060188185
228	0x3cbd1155	0.023079554
229	0x3ce01182	0.027352098
230	0xbd7f9dfd	-0.06240653
231	0x3ceb5004	0.028724678
232	0x3c90efef	0.017692534
233	0x3d9bcac8	0.07607037
234	0xbc07c7d7	-0.008287392
235	0xbd87239d	-0.065985896
236	0xbdb2a728	-0.08723289
237	0x3d0ce2fc	0.034396157
238	0xbcc1a0c3	-0.023636227
239	0xbcb5844c	-0.02215781
240	0xbc054dc1	-0.008136214
241	0xbcc3ac6a	-0.023885924
242	0x3cca30a6	0.0246814
243	0x3da8cd4b	0.082422815
244	0x3d954713	0.07288947
245	0xbd802cd5	-0.06258551
246	0x3db99a29	0.09062607
247	0x3d7c0c30	0.06153506
248	0x3c767bd7	0.015044174
249	0x3d2805f5	0.041021306
250	0x3d6aa8a6	0.057289742
251	0x3d9f2fcb	0.07772788
252	0x3d49e338	0.04928896
253	0x3cff98a1	0.031200709
254	0xbd10e9e2	-0.035379298
255	0xbd700972	-0.058602758

SoftmaxPolicy_l2.bias f4 [128]
0	0x3d5cd946	0.053918146
1	0xbd12dd5e	-0.035855643
2	0x3b5ffb5b	0.003417692
3	0xbd81d66c	-0.06339726
4	0xbd49204d	-0.04910307
5	0x3d6166d8	0.05502972
6	0x3c9fe883	0.01952005
7	0x3cede069	0.029037671
8	0x3d4b25c4	0.049596563
9	0x3cdb79ec	0.026791535
10	0x3c00acad	0.007853669
11	0xbc270e49	-0.010196277
12	0x3a911b00	0.0011070669
13	0x3da703dd	0.08155034
14	0x3d0ad611	0.033895556
15	0x3c3430b7	0.010997943
16	0x3d0ffc00	0.035152435
17	0xbd20b5fc	-0.039236054
18	0xbd8db8b2	-0.069199935
19	0xbc95f852	-0.018306885
20	0x3dc2129d	0.094762065
21	0x3cb53c47	0.022123469
22	0xbd8588f3	-0.065202616
23	0x3d71abf1	0.059001867
24	0x3da5cc04	0.080955535
25	0x3d8d759c	0.06907198
26	0x3c42f0b1	0.011898206
27	0xbcb750e0	-0.022377431
28	0x3c0ecff8	0.008716576
29	0x3cf05b58	0.029340431
30	0xbd029b2b	-0.03188626
31	0xbd33aaef	-0.043864187
32	0x3ca578f1	0.02019927
33	0x3d367962	0.044549353
34	0xbcd64046	-0.026153695
35	0xbc0edbf5	-0.008719434
36	0xbd85487b	-0.06507965
37	0xba2eec84	-0.0006672817
38	0xbc9ad1df	-0.018898902
39	0x3dbb743d	0.0915303
40	0x3d7eb65c	0.06218563
41	0xbceded91	-0.029043945
42	0xbd8c45cc	-0.0684925
43	0xbd926b2b	-0.07149347
44	0xbd4de3bf	-0.050266024
45	0x3db58825	0.08863858
46	0xbcd228cf	-0.025654225
47	0x3d87c1d6	0.06628768
48	0x3d8a3a44	0.067493945
49	0xbc251997	-0.010076902
50	0x3d206596	0.03915938
51	0x3ceb4316	0.028718513
52	0x3da739cf	0.08165323
53	0x3d2f9f61	0.042876605
54	0x3d4fa0f3	0.050690603
55	0x3db860e4	0.090028554
56	0x3c3a9deb	0.01139019
57	0x3dab906c	0.08377156
58	0xbb1dd9f6	-0.0024086214
59	0xbd89a783	-0.067214034
60	0x3db020d7	0.08600014
61	0xbd87b5af	-0.0662645
62	0x3a904cd4	0.0011009225
63	0x3daedd39	0.085382886
64	0xbcbd892e	-0.023136701
65	0xbd7ba26a	-0.061434187
66	0x3d878f09	0.06619079
67	0x3d0c4d6e	0.03425353
68	0x3d652f51	0.055953328
69	0x3d3f6671	0.046728555
70	0xbdbde098	-0.092713535
71	0x3d943a06	0.072376296
72	0xbd96a9bb	-0.07356592
73	0x3c3274d6	0.010892114
74	0xbd4ced79	-0.05003116
75	0x3d8589a6	0.06520395
76	0x3dbbfdb1	0.09179247
77	0x3c63dcb4	0.0139076
78	0xbcbc7e67	-0.023009492
79	0x3d9cf5e8	0.076640904
80	0x3d8ec525	0.06971196
81	0xbc8a0666	-0.016848754
82	0x3d8fbb1b	0.070181094
83	0x3bf78642	0.0075538466
84	0xbd289065	-0.04115333
85	0x3dabfe7c	0.083981484
86	0xbd4dcb78	-0.05024287
87	0xbd851bed	-0.06499467
88	0x3d52cc97	0.051464643
89	0x3d08f36a	0.033435263
90	0x3d90d4d7	0.07071846
91	0xbd14cc53	-0.03632767
92	0x3ca73b65	0.020414064
93	0x3d3ff278	0.046862096
94	0x3c95ac44	0.01827062
95	0xbd925b8c	-0.071463674
96	0x3d6b7601	0.057485584
97	0x3cc1582c	0.023601614
98	0xbca1ab9a	-0.019735146
99	0xbcae2cfe	-0.021261688
100	0xbdbc05b6	-0.09180777
101	0x3dc1ffad	0.094725944
102	0x3c4aa32e	0.012368007
103	0xbcc45bd8	-0.023969576
104	0x3dc9bbcb	0.09850272
105	0xbd837d35	-0.06420366
106	0x3cc931e6	0.024559926
107	0xbc5881f1	-0.013214574
108	0xbcd1773b	-0.025569549
109	0x3afda0d0	0.0019350294
110	0xbc475308	-0.012165792
111	0x3d9baf83	0.076018356
112	0x3d82c6a6	0.063855454
113	0x3cfab504	0.030603893
114	0xbb91d6f2	-0.0044506723
115	0xbc69e4cd	-0.014275742
116	0xbbe8123b	-0.0070822514
117	0xbaf83d55	-0.0018939177
118	0x3d039432	0.032123752
119	0x3d8fd9c9	0.07023961
120	0xbd7fc578	-0.06244418
121	0xbdb644a0	-0.08899808
122	0xbc61cbcd	-0.0137815
123	0x3d91d760	0.07121158
124	0x3d2ce067	0.042206194
125	0xbd112ae6	-0.0354413
126	0x3d663634	0.056204036
127	0x3d1ea51a	0.038731672

SoftmaxPolicy_l3.weight f4 [2, 128]
0	0x3d5765fe	0.0525875
1	0x3c5d7055	0.013515552
2	0x3e007089	0.12542929
3	0x3c5f366e	0.013623817
4	0xbdb614fb	-0.088907205
5	0xbc94cbe9	-0.018163638
6	0x3d29bec0	0.04144168
7	0x3dc05099	0.09390373
8	0x3c788817	0.015169165
9	0x3bfea749	0.007771407
10	0x3d8e7df8	0.069576204
11	0x3d90efa2	0.07076956
12	0x3db850ba	0.08999772
13	0x3c816d10	0.015799075
14	0x3ba277e1	0.0049581383
15	0x3dc61950	0.09672797
16	0x3d613d18	0.054989904
17	0x3dc3adb3	0.09554615
18	0xbc319c74	-0.010840524
19	0x3dca4d99	0.09878082
20	0xbd2f89c3	-0.04285599
21	0x3dc98cd3	0.09841313
22	0xbd1d3312	-0.038378783
23	0xbc809c22	-0.01569945
24	0xbd1188ff	-0.03553104
25	0x3d316dfc	0.04331778
26	0x3d477cfd	0.048703182
27	0x3d0f25c2	0.034948118
28	0xbdb3f8d4	-0.087876946
29	0x3bbdc0d5	0.0057908096
30	0xbd2311ba	-0.039811827
31	0xbd11429c	-0.035463914
32	0x3d5d6137	0.05404779
33	0xba52fdce	-0.0008048684
34	0x3d507f04	0.05090238
35	0xbda14aa1	-0.078755625
36	0x3c4c59aa	0.012472549
37	0x3d8d0a55	0.06886736
38	0x3d7200b5	0.059082706
39	0x3dd3ca7d	0.10341356
40	0xbc0b653c	-0.008508023
41	0x3db05497	0.08609884
42	0xbd8e623a	-0.06952329
43	0xbc1ed223	-0.009693655
44	0xbc10a8fe	-0.008829353
45	0xbce5b0ff	-0.0280385
46	0x3d0669e0	0.032815814
47	0x3b79068f	0.0037998294
48	0xbdd03b5d	-0.10167573
49	0xbdc51bf0	-0.09624469
50	0x3d1afe76	0.03784033
51	0xbd74d596	-0.059774004
52	0xbde2767a	-0.11057754
53	0x3e045280	0.12922096
54	0xbd652cf5	-0.055951077
55	0x3dc53314	0.09628883
56	0x3d887bb5	0.0666422
57	0x3d456323	0.048190247
58	0xbd99e404	-0.07514194
59	0xbca17b92	-0.019712243
60	0x3da7b14d	0.08188114
61	0x3cb261f1	0.021775218
62	0xbdfe2eb2	-0.1241125
63	0x3bf59265	0.007494258
64	0xbd889dab	-0.06670698
65	0xbd8fed19	-0.07027645
66	0xbdaa32f1	-0.083104976
67	0x3da697f9	0.08134455
68	0x3d9555a2	0.07291724
69	0xbd8b996c	-0.06816372
70	0xbd0db7f4	-0.03459926
71	0x3da2e7f5	0.079543985
72	0x390bb478	0.00013323303
73	0xbd6c01d2	-0.057618923
74	0x3ce40252	0.027833138
75	0xbddec365	-0.10877112
76	0xbdb27b35	-0.08714906
77	0x3d9100b9	0.07080216
78	0xbdb45a97	-0.08806341
79	0x3dccbb7c	0.09996697
80	0xbd05bcfb	-0.03265093
81	0xbd688bbe	-0.056773894
82	0xbda6d0bd	-0.081452824
83	0x3d5e2b5f	0.05424058
84	0xbdf4b633	-0.11948814
85	0x3d270271	0.040773813
86	0x3ce22ae7	0.027608348
87	0x3d07df6b	0.033172052
88	0xbdd2cd9d	-0.10293124
89	0xbd847e60	-0.064694166
90	0x3d3786e4	0.044806376
91	0xbd9351d1	-0.071933396
92	0xbd37a29c	-0.04483281
93	0x3d673f71	0.056456987
94	0x3d31aecb	0.043379586
95	0x3d9630ca	0.073335245
96	0x3b863500	0.0040956736
97	0xbd2ae52c	-0.04172246
98	0x3e025bf9	0.12730397
99	0x3ba4d759	0.0050305543
100	0xbcaf720c	-0.021416686
101	0x3d9aabc5	0.07552294
102	0xbdad9e6a	-0.08477481
103	0x3da6b897	0.081406765
104	0x3d0f92c1	0.035052065
105	0xbc61e216	-0.013786813
106	0xbd93538e	-0.07193671
107	0xbcd53401	-0.026025774
108	0xbcb50bb9	-0.022100316
109	0x3c9e18ee	0.019298997
110	0xbd757484	-0.05992557
111	0x3d3f25c9	0.046666894
112	0xbdf5dd59	-0.12005109
113	0xbd9f9cbd	-0.07793567
114	0xbbe6d4fd	-0.007044433
115	0x3ddd056e	0.10792051
116	0x3d933ac3	0.07188942
117	0xbdb2f350	-0.087378144
118	0x3d9cea8a	0.07661922
119	0xbd6a0f0c	-0.057143256
120	0x3d9b815a	0.07593031
121	0x3c27322b	0.010204832
122	0xbcc14805	-0.023593912
123	0xbdcad526	-0.09903936
124	0xbdd11cbd	-0.102105595
125	0xbdd63150	-0.10458624
126	0xbd6b56ba	-0.057455756
127	0x3d8d89a8	0.069110215
128	0xbbad8b36	-0.0052961363
129	0x3de11b26	0.10991506
130	0xbdec7576	-0.115458414
131	0x3dae9f3e	0.08526467
132	0x3c8ee800	0.01744461
133	0x3dbc44b5	0.09192792
134	0xbdd113ff	-0.10208892
135	0xbd9dd6fb	-0.0770702
136	0x3de02f8b	0.10946568
137	0x3d50864e	0.050909333
138	0xbdf22e27	-0.11825209
139	0xbdcefda4	-0.10106972
140	0xbcdc0718	-0.026858851
141	0x3dfaff09	0.12255675
142	0x3dad94ac	0.084756225
143	0xbdab2ba2	-0.08357932
144	0x3c3c9eab	0.011512439
145	0x3c851a2b	0.01624783
146	0xbd84f6ad	-0.06492362
147	0xbdab8ab1	-0.08376063
148	0x3dd27fb7	0.10278266
149	0x3c089f29	0.008338728
150	0x3d16e812	0.036842413
151	0x3dd7d8fa	0.10539432
152	0x3d1602a6	0.03662362
153	0xbe11cf5d	-0.14239259
154	0xbd8587fb	-0.06520077
155	0xbd7d83ed	-0.061893392
156	0xbd98bf5a	-0.074583724
157	0x3d83abb4	0.06429234
158	0x3b8cfaa4	0.0043023396
159	0x3decd1c4	0.11563447
160	0xbd0c2b97	-0.034221258
161	0x3c9e5ac4	0.01933039
162	0xbcebfca7	-0.028806997
163	0x3d9f0572	0.077647105
164	0x3d7679f2	0.06017489
165	0xbc9d3c08	-0.019193664
166	0xbd5e8e66	-0.05433502
167	0xbd3ec328	-0.046572834
168	0xbd8b54f2	-0.068033114
169	0xbe1511b6	-0.14557537
170	0x3d2c5ce1	0.042080764
171	0x3d5df549	0.054189
172	0xbddbef1d	-0.107389666
173	0x3e03d1fa	0.12873068
174	0xbd7ba40a	-0.061435737
175	0xbdc018ea	-0.09379752
176	0x3d8d1fba	0.06890817
177	0x3d8344c2	0.06409599
178	0xbc8cb763	-0.01717729
179	0x3c9c49b8	0.01907812
180	0x3d19e7cf	0.037574586
181	0xbdeeff23	-0.11669757
182	0x3e0c0703	0.1367455
183	0xbdbbda35	-0.09172479
184	0xbd4e1cc2	-0.050320394
185	0xbe15cb99	-0.14628448
186	0xbcd88c09	-0.026433961
187	0x3cccab0d	0.024983907
188	0xbdf86864	-0.12129286
189	0xbd8e03f9	-0.069343515
190	0x3c3f5428	0.011677779
191	0xbd86de3b	-0.06585356
192	0x3da3ee53	0.08004441
193	0x3de41a34	0.1113781
194	0xbb1626a0	-0.0022911206
195	0xbd52c528	-0.051457554
196	0x3d5f5334	0.054522708
197	0x3c22d6ff	0.009938954
198	0x3d8b1635	0.06791345
199	0x3cb1b9f4	0.021695115
200	0x3d82abf1	0.063804515
201	0x3df6cb9d	0.12050555
202	0xbd824477	-0.06360715
203	0xbd5da372	-0.05411095
204	0x3b9e0a61	0.0048230146
205	0xbdc5440b	-0.09632119
206	0x3d94e802	0.072708145
207	0xbd8e8aa5	-0.06960038
208	0x3d55f0a7	0.052231457
209	0xbd8ce391	-0.06879342
210	0x3d8c6dd2	0.06856884
211	0x3cca5fd0	0.02470389
212	0x3de7a81e	0.11311363
213	0xbd8a767b	-0.067608796
214	0x3c974545	0.018465647
215	0xbd5077d1	-0.050895516
216	0x3bae381e	0.0053167483
217	0x3d8be474	0.06830683
218	0xbdc38e89	-0.09548671
219	0x3db1cc0b	0.08681496
220	0x3d116b25	0.03550257
221	0xbcd3b638	-0.025843725
222	0x3d9512e1	0.072789915
223	0x3c14cdef	0.0090823015
224	0xbde0620a	-0.109561995
225	0x3d97e5cd	0.07416878
226	0x3c80535f	0.015664754
227	0xbd43aad8	-0.04777035
228	0x3d675fd9	0.05648789
229	0xbd269058	-0.040665
230	0x3d3b4c77	0.04572722
231	0xbd1fb2cd	-0.038988877
232	0xbe148ac2	-0.14506057
233	0x3dc645ff	0.096813194
234	0x3dd01033	0.1015934
235	0xbdf60680	-0.120129585
236	0xbd9a3783	-0.07530119
237	0x3daca2b4	0.08429471
238	0x3d60e0f5	0.054902036
239	0xbd4403ee	-0.04785531
240	0x3c611c6c	0.013739686
241	0x3db5befb	0.08874317
242	0x3dce0409	0.100593634
243	0xbe0245ee	-0.12721989
244	0xbd7482e4	-0.05969514
245	0xbc73f749	-0.0148905
246	0xbdc8d49e	-0.098061785
247	0xbc53cf28	-0.012927808
248	0xbaba8381	-0.0014229865
249	0xbc83b6f4	-0.01607845
250	0xbd71b7ee	-0.0590133
251	0x3bd1aa78	0.0063984953
252	0x3bc29a28	0.005938787
253	0xbd0d9f9a	-0.034576036
254	0x3d86cc75	0.06581966
255	0xbd939a4e	-0.07207166

SoftmaxPolicy_l3.bias f4 [2]
0	0x3d0515d3	0.032491516
1	0xbc88ec53	-0.01671425
