pytorch_models/model280180.pth (torch, 72107 bytes, 6 tensors)

SoftmaxPolicy_l1.weight f4 [128, 4]
000000 96 2a 83 3e e4 a4 63 be 02 99 eb bd 9d 88 6b 3e
       0.25618428 -0.2223087 -0.11503793 0.23001333
000010 e8 8c ef be ab cb a0 3e d1 ce 54 bd 91 3c 83 3e
       -0.4678719 0.31405386 -0.051955048 0.25632146
000020 4a 3a 8d 3d 66 1a 61 bd 8c 8d 53 3e 4c 70 4c 3d
       0.068958834 -0.054956816 0.20659465 0.049911782
000030 f6 b5 31 3e 28 ff 40 be 83 ef e8 bc 8a 3e 51 bd
       0.17354569 -0.18847334 -0.02843452 -0.051085033
000040 d1 58 93 3d e8 ce e5 ba fc e7 de 3e a2 a8 1d 3e
       0.07194675 -0.0017532976 0.43536365 0.1539636
000050 01 bc 3a be 60 95 99 be e1 2c ac bd b9 16 59 be
       -0.1823578 -0.29996777 -0.084069975 -0.21200074
000060 06 aa 25 be a5 6d af 3c 04 97 a0 3e ba 69 8f 3e
       -0.1617814 0.021414587 0.31365216 0.2801035
000070 99 61 fa be dd d3 a7 3e a7 8f 84 3e 57 a1 04 3f
       -0.48902586 0.32778826 0.25890848 0.51808685
000080 5a 20 a8 3e 24 ef eb be f2 50 fb be 1e ad 6f be
       0.32837182 -0.46080887 -0.49085194 -0.23405883
000090 02 c5 d6 3e fc a6 c6 bd f1 fb 5f 3e a8 5c 69 be
       0.4194718 -0.096998185 0.21873452 -0.22789252
0000a0 45 2b f8 3e c7 58 70 be 30 af 98 3e 58 1d 21 bc
       0.48470512 -0.23471366 0.29821157 -0.009833656
0000b0 f2 e5 84 be ae 12 84 3e d3 4c 82 be 89 e3 1f 3e
       -0.25956684 0.257955 -0.25449237 0.15614142
0000c0 f6 ff 06 be a1 76 4e bd af 29 f0 be dc 4d 6a be
       -0.13183579 -0.050406102 -0.46906802 -0.22881263
0000d0 05 8f 89 3e 8d 0d ec bd 1f a1 00 3f aa 74 cd 3e
       0.26866928 -0.11526022 0.5024585 0.4012807
0000e0 0d 22 f8 bc a1 c3 9e be 67 96 d4 3e 81 7a 48 3e
       -0.030289674 -0.31008628 0.41520998 0.19577982
0000f0 e1 73 a1 be 79 4d af 3e 15 54 da 3e 79 5c fb 3e
       -0.3153372 0.34238794 0.42642274 0.4909399
000100 cd b6 8e be 79 6b a7 bd c6 8d f2 bc f2 96 8a 3d
       -0.2787384 -0.08174796 -0.029608618 0.06767072
000110 f6 84 c1 be 52 cc b5 be d3 b5 7e 3e 2b b7 fe bd
       -0.37796754 -0.35507447 0.24874048 -0.1243728
000120 f8 b6 6b 3e 5a ad 08 3d a1 17 9c 3e 2d d0 37 3e
       0.23019016 0.033368446 0.30486777 0.17950507
000130 e1 89 29 3e fe e0 81 3e ba 7a a1 be c7 d7 a5 3e
       0.16556503 0.25366968 -0.31538945 0.32391188
000140 0c 0b b1 be 0e 34 c0 be fe b7 ab 3d 30 da 68 bd
       -0.3457874 -0.37539715 0.08384703 -0.056848705
000150 92 f5 94 3e f0 fd 90 be a9 bc b6 be 77 99 d2 3e
       0.29093605 -0.2831874 -0.3569081 0.4113271
000160 f9 16 92 bd 09 ac 8d 3e 74 2e b5 3d 48 b4 d7 be
       -0.07133288 0.27670315 0.08846751 -0.4212973
000170 2b bc c6 3d 80 d7 e8 3d 7e 7e ae be a9 70 73 be
       0.09703859 0.11369228 -0.3408088 -0.23773445
000180 03 98 34 3e 33 7f 8b 3d 98 de b8 be 49 02 5d be
       0.17636113 0.06811371 -0.36107326 -0.21582903
000190 12 e6 e4 3e 57 f3 a7 bd 59 67 cd 3e ae 62 88 3e
       0.4470678 -0.0820071 0.4011791 0.26637787
0001a0 9a 68 a4 be 12 36 d8 be 28 cf eb 3e 9a cb 81 3c
       -0.32111055 -0.42228752 0.46056485 0.015844155
0001b0 94 0b ac 3e 9f 80 ec 3d 12 be 89 3e 58 c6 d2 3e
       0.33602583 0.1154797 0.26902825 0.4116695
0001c0 e3 5a ed 3e 5a a6 a5 be 05 0e 44 3e 7a 46 e2 3e
       0.46358404 -0.3235348 0.19145973 0.44194394
0001d0 7f 6e b3 3e ea 7e 98 3e 5f c2 bc be db 34 b8 be
       0.3504524 0.29784328 -0.36867043 -0.35977826
0001e0 fd 0a 9d be 1e 15 6d 3d 12 58 03 3f e6 bb 9f be
       -0.30672446 0.057881467 0.5130626 -0.31198043
0001f0 db 85 8c 3e cc 45 90 be ed af fd be 53 0d d4 bd
       0.27445874 -0.2817825 -0.49548283 -0.10354104
000200 9b 4b 90 3e 5c af ed 3e b9 c5 93 be f4 e0 e2 3d
       0.28182682 0.4642285 -0.28861788 0.11078063
000210 2f 0f d6 3e 20 64 b5 3e 3f 07 d2 3e f5 78 c0 3e
       0.4180846 0.35427952 0.41021153 0.37592283
000220 17 c0 9a 3e 3f 63 e9 3d 4a bb aa be ab c3 d1 be
       0.30224678 0.11395883 -0.33346015 -0.40969595
000230 91 2d 71 be b8 a8 63 bd 20 a2 3c be c3 6e 7c 3e
       -0.23552538 -0.055580825 -0.18421221 0.24651627
000240 75 50 1f 3e fd 2d ea bd a5 c7 57 3e a8 15 33 3e
       0.15558036 -0.11434553 0.21072252 0.1748873
000250 3f b3 97 3e 0c a5 b8 3e f7 1d 77 bd 34 40 05 3f
       0.2962894 0.3606342 -0.06033131 0.5205109
000260 b8 17 39 bd 25 b8 02 bd 2f ff 1a bf dc e7 bd be
       -0.045188636 -0.031913895 -0.6054563 -0.37090957
000270 25 fd 93 be a4 af 5a be de fd af 3e be c5 27 be
       -0.2890407 -0.21356064 0.34373373 -0.16384026
000280 a2 9d ba be 22 96 60 3e 12 fc 85 3e 2e 53 b0 3e
       -0.3644839 0.21932271 0.26168877 0.3443846
000290 10 ca 85 be a6 e5 d5 3d d4 18 3b be dc ee e3 bd
       -0.26130724 0.104441926 -0.1827119 -0.11129543
0002a0 1a ab c9 be 87 e6 6a be 79 2d 2e be 38 b6 5b 3e
       -0.39388353 -0.22939502 -0.17009534 0.2145623
0002b0 0c 31 a9 3d 30 8c 15 3e 7e 03 20 3f be 15 03 3f
       0.08261308 0.14604259 0.6250533 0.5120505
0002c0 48 d3 a9 3e 4f d8 c1 3c 86 14 62 be 28 81 e5 3e
       0.33169007 0.023662714 -0.22078142 0.448251
0002d0 cf 94 06 be 50 35 42 bd 90 5e e1 be 6b 28 cb bd
       -0.13142703 -0.047414124 -0.44017458 -0.099198185
0002e0 3d 98 aa be 83 21 e8 3e a2 28 f4 be b4 d1 d6 be
       -0.33319274 0.45338067 -0.4768725 -0.41956866
0002f0 32 f6 35 bc 85 7c 88 be 6b 96 31 3e 30 ce 44 be
       -0.011106061 -0.266575 0.17342536 -0.1921928
000300 70 a8 6e be 30 f0 2b 3d 53 c9 ae 3e 11 c3 c2 be
       -0.23306441 0.041977108 0.34137973 -0.3803945
000310 ae ed 6b 3e 9d 5d a2 3e a9 9d f0 3e b9 36 b9 be
       0.23039886 0.31712046 0.46995285 -0.36174563
000320 fe d9 0b 3e 84 ea b9 be cc b6 c8 3e 0e 30 53 be
       0.13657376 -0.36311734 0.39201963 -0.206238
000330 75 11 97 3e ac 23 8b 3c 29 73 53 bc 4f da d4 bb
       0.29505506 0.016984783 -0.012905874 -0.006495751
000340 f4 93 95 3d ec bb 72 3e ba 70 5b 3e 0f bb 64 3e
       0.073036104 0.23704499 0.2142972 0.22336982
000350 e3 a1 e5 be 9d cf be 3e 45 89 08 3f 4d 24 ed 3e
       -0.44850072 0.3726777 0.53334457 0.46316758
000360 f4 ef b2 3e d5 31 b8 be b3 cc 1d be 8c 85 e3 3e
       0.34948695 -0.3597552 -0.15410118 0.44437826
000370 0c f7 c6 be d2 bf e9 3e 06 03 df be 3b 2d c8 be
       -0.38860357 0.4565416 -0.43556994 -0.39097008
000380 be c4 74 3e df d3 b1 be 51 ed 43 bd ac 87 c9 3e
       0.23903176 -0.34731957 -0.047833744 0.39361322
000390 d7 fd cc 3e f6 fc ee 3e 8c 09 4a be 32 6e e2 be
       0.40037414 0.4667737 -0.19730204 -0.44224697
0003a0 de cb f7 3e a5 83 05 be 55 da 76 be dd bd 08 3e
       0.48397726 -0.130385 -0.24106725 0.13353677
0003b0 8a e3 b3 be d3 3e a4 3e 47 22 6d 3e f8 a1 e4 be
       -0.35134536 0.3207918 0.23157607 -0.44654822
0003c0 7e 43 d3 be c3 e4 43 bd 66 f6 45 3e 43 34 5b bc
       -0.4126243 -0.047825586 0.19332275 -0.013379159
0003d0 f0 3b 80 be a9 83 a2 3c 09 d6 f2 be b4 89 b9 be
       -0.2504573 0.019838171 -0.4742892 -0.36237872
0003e0 9d 40 a9 be d4 94 d4 3e 46 ba d0 3e 09 65 49 be
       -0.3305711 0.41519797 0.40767115 -0.19667448
0003f0 f9 a8 e8 3c 7a 32 57 3e 3d 18 1f 3c d1 84 89 be
       0.028400885 0.21015349 0.009710369 -0.26859143

SoftmaxPolicy_l1.bias f4 [128]
000000 dc ec c1 be b8 a1 b5 3e 9e be a9 3e 57 f2 ff be
       -0.37876022 0.35474944 0.33153242 -0.49989578
000010 4c d1 c9 be a3 59 ad be 89 27 85 be c1 28 f3 3d
       -0.39417493 -0.3385745 -0.26006725 0.118730076
000020 68 2e f8 be 49 93 c8 be c5 d3 6c 3e b4 d4 2e be
       -0.48472905 -0.3917487 0.23127659 -0.17073327
000030 13 e2 5b be 0c 97 d4 be 25 e8 43 3e 28 d5 e6 3d
       -0.21472959 -0.4152149 0.19131525 0.11271125
000040 02 cd 51 be 75 57 9f be 6e c5 ee 3d cd 31 1a 3e
       -0.2048836 -0.31121412 0.116587505 0.1505806
000050 72 0a 44 3e 46 0f 29 3e 45 f6 4c bd 8d ba c8 be
       0.1914461 0.16509733 -0.05003955 -0.39204827
000060 07 41 b3 3e d6 e6 08 3d 2e 66 b0 be b5 3f f0 3e
       0.3501055 0.033423267 -0.34452957 0.46923605
000070 e4 86 92 3e a8 0f d0 be 74 5f 7d be ae 7b 23 be
       0.28618538 -0.40636945 -0.24743444 -0.15965149
000080 c3 04 95 be 30 5a 70 3e b2 d1 c1 be 08 76 e7 3e
       -0.29105195 0.23471904 -0.37855297 0.45207238
000090 26 b6 4a be 68 4e 9b 3e a7 47 c4 3d ab 1a 6b be
       -0.19796047 0.30333257 0.09583979 -0.22959392
0000a0 36 7e b0 3e 50 1b c2 be 46 c5 87 be e2 b5 de 3d
       0.3447129 -0.37911463 -0.26517695 0.10874535
0000b0 9c 3f c7 3e a8 f6 53 be 04 54 91 be ef 13 a5 be
       0.38915718 -0.2069956 -0.2838441 -0.3224177
0000c0 c0 39 4c be 95 db 22 be dc 37 f4 bd d1 e8 95 be
       -0.19943905 -0.15904076 -0.11924717 -0.29279187
0000d0 43 6c 2d 3e 12 4e ab 3d 18 cb ae be 7e 1f 82 be
       0.1693583 0.083645 -0.34139323 -0.25414652
0000e0 13 18 cd 3d 18 68 d5 3c ab 01 c8 3e c5 7b 72 bd
       0.100143574 0.026050612 0.39063773 -0.059200067
0000f0 91 26 cf be aa a7 ba be 9f 9e 06 be 2a f1 d8 bd
       -0.4045911 -0.36456043 -0.13146447 -0.105928734
000100 75 8a b0 3d 76 20 05 be 95 cf 58 3e 2f 98 23 be
       0.086201586 -0.13000664 0.21172936 -0.15976022
000110 c6 b8 c8 3e 88 1e cc 3d 66 3c 25 be 21 29 f3 3e
       0.3920347 0.09966761 -0.16136321 0.47492316
000120 85 fb 26 3e 6f 30 b8 be 9d 8e 87 be 81 d1 ab 3e
       0.16306885 -0.35974452 -0.26475993 0.33558276
000130 95 7e 61 3e b0 a8 c2 3e ec ea 93 3c b7 e7 b1 3e
       0.22020943 0.38019323 0.018056355 0.34747097
000140 44 fe 8b 3e 41 44 11 3e 32 c0 18 be dd e1 02 3f
       0.27342427 0.14186193 -0.14917067 0.5112589
000150 95 85 c5 3d 2b f3 1d be 14 93 88 3d 01 65 ff 3e
       0.096446194 -0.15424792 0.06668678 0.49881747
000160 43 8e a3 3e 6b a6 70 bd 66 2b 05 3f 76 ca 80 3e
       0.31944475 -0.05875246 0.52019346 0.25154465
000170 e8 47 84 be 57 4c eb be ae ec 9f 3e 6f 35 00 3f
       -0.2583611 -0.4595668 0.3123526 0.50081533
000180 78 15 9b be c1 8d 49 3e 34 08 2f 3d 67 b9 02 be
       -0.30289817 0.19682981 0.042732432 -0.12766038
000190 50 c5 df bd 7b 66 2a 3e e5 2d d1 3d 3f 55 ab 3e
       -0.10926306 0.16640656 0.10213832 0.33463475
0001a0 3f 58 3d 3e c4 bd 84 3e ae 17 f2 3e ad a6 34 3e
       0.18490694 0.2592603 0.4728369 0.17641707
0001b0 99 8a ec 3d 8a fd 0c be 33 ba c2 3e 7e 52 bf 3d
       0.11549873 -0.13768592 0.38032684 0.09341906
0001c0 c8 43 a7 3e ef 3f f6 3e 89 eb 07 be 91 04 aa 3e
       0.326689 0.48095652 -0.13273443 0.3320661
0001d0 b6 c0 80 bd ab 07 f5 3e ed a4 c8 3e 87 b2 1f be
       -0.06286757 0.47857413 0.39188328 -0.15595447
0001e0 f1 a2 36 3c 9c 44 5a be c2 84 57 be 3b cd b2 bd
       0.011147247 -0.21315235 -0.21046737 -0.08730551
0001f0 80 b8 0d bb 54 4b 1e be 1c f7 f0 be 57 cc a0 be
       -0.0021624863 -0.15458423 -0.4706353 -0.314059

SoftmaxPolicy_l2.weight f4 [128, 128]
000000 1c 0e 9f 3a 34 b1 28 bd 6e 3d 96 3d e0 5e 92 3d
       0.0012134942 -0.04118462 0.073359355 0.07147002
000010 71 00 68 3d df 45 2a 3d 07 b7 93 bd fc 52 52 3d
       0.056641046 0.04157054 -0.07212644 0.05134867
000020 c2 b2 73 bd 77 61 5d bc ed 92 17 bd 20 91 de 3c
       -0.05949665 -0.013512007 -0.037005354 0.02716881
000030 8d 3e 86 bd 3e 4e 25 bd ba c6 74 bd 59 d4 ce bd
       -0.06554899 -0.04035782 -0.059759833 -0.10099096
000040 cf cf 3d bd e7 5b a8 3d 4c cc cc bb 8d b5 03 3d
       -0.04634076 0.08220654 -0.00624994 0.032155562
000050 42 02 b0 bd 4d ee c8 3d 7e ef 58 bc 09 17 9e bd
       -0.08594181 0.09811077 -0.013240693 -0.07719237
000060 de b8 b4 3d cc e5 61 bc 1e 4a 96 3d 06 a2 63 bd
       0.08824323 -0.013787698 0.073383555 -0.05557444
000070 ce 82 8b bd 40 56 5e bd 5b a1 0e 3d 61 fb bc 3c
       -0.068120584 -0.054281473 0.03482185 0.023069086
000080 cd be 9c bd ae ec 5c 3c 65 08 28 3c 6e ba 0c 3d
       -0.0765358 0.013484163 0.010255908 0.03435748
000090 d7 41 2c bd df 77 80 bd 53 db e9 3d 37 8b 41 bd
       -0.042054977 -0.062728636 0.11418786 -0.047251906
0000a0 ff 11 34 3d c8 4e 94 3d 5a 81 8b bd e0 9e a0 bd
       0.043962475 0.07241589 -0.06811781 -0.07842803
0000b0 e0 b1 c5 3c f7 bf 9a bd a3 1d 0d 3d 9c fa 03 bd
       0.024132669 -0.07556146 0.034452092 -0.03222142
0000c0 48 3e 14 bd 42 1e 86 bd c0 af 40 3d 10 59 39 bd
       -0.03619221 -0.0654874 0.04704261 -0.045250952
0000d0 82 fb b0 bd 5e 3e 85 bd 55 9b 24 bd ae 06 a3 bd
       -0.08641721 -0.06506036 -0.0401872 -0.079602584
0000e0 52 1c 3c 3d dc 60 b5 bc 2c 67 b3 3d a9 31 7b 3d
       0.045925446 -0.022140913 0.08759913 0.061326656
0000f0 b5 e1 64 bd c5 28 38 bd c3 4d 30 bd 8c d3 6c 3d
       -0.055879313 -0.044960756 -0.04304291 0.057818934
000100 d1 ac b8 3b c3 2d d0 bc b6 70 bb 3d a9 21 d8 3d
       0.0056358357 -0.025412446 0.09152357 0.10553295
000110 1a 73 a4 3d b2 b9 85 bd 82 15 0e bd d5 a4 4c bc
       0.080297664 -0.06529559 -0.03468848 -0.012490471
000120 6b d1 c6 3d 7e b7 17 bd be 9f 33 bd 98 ae 8a 3c
       0.09707912 -0.037040226 -0.043853514 0.016928956
000130 3b 9c 9c bc 84 99 2e 3d d0 31 89 3c 5d 6b 99 bd
       -0.019117465 0.042626873 0.016747385 -0.07491181
000140 10 2d b0 3d 71 68 a9 3d 84 59 ea 3b ef 36 56 bd
       0.08602345 0.08271874 0.0071517844 -0.052298483
000150 81 82 15 3d 37 28 60 3d 7b 95 7f 3d 4a 7d 1a bd
       0.03650141 0.054725852 0.062398415 -0.03771714
000160 ca e2 a0 bb 5f a7 cf bc ec 8f b7 3d 1b bb 00 3e
       -0.004909848 -0.025348363 0.08962998 0.12571375
000170 b3 7f 56 3b 3a be 5a bd 18 0e 26 3d c3 75 53 3d
       0.0032729923 -0.05340407 0.040540785 0.05162598
000180 11 39 18 3d 12 f4 9c bd e6 53 82 3c b4 99 0a bd
       0.037163798 -0.0766374 0.015909147 -0.03383799
000190 35 72 94 bd 55 6b 13 bd c2 14 64 3d 83 e6 2f 3d
       -0.07248346 -0.03599103 0.05568386 0.042944442
0001a0 ab 68 9d bd 05 bf 83 3c 63 56 b3 3d 3f 35 db 3d
       -0.076859795 0.016082296 0.08756711 0.10703515
0001b0 d4 6f 8e 3d e8 d7 c8 bc 30 99 50 3d a6 50 57 3d
       0.06954923 -0.024517015 0.05092734 0.052567147
0001c0 44 bb 2f 3d bf 90 6e bd 02 a9 05 bd 96 5f 9f 3d
       0.0429032 -0.05824351 -0.03263188 0.077819034
0001d0 40 c9 a0 3d 8e 1c a4 3d b4 3c 2f bd 06 c5 8d bc
       0.078508854 0.08013259 -0.0427825 -0.017305862
0001e0 1e ee 5f bd ce c6 f7 bc 35 6d 94 3d 5a 73 82 bd
       -0.054670446 -0.030246165 0.07247392 -0.06369658
0001f0 19 09 db 3b 0c 52 b2 3c 1f cc 42 bd 1d 7f 23 3d
       0.006684434 0.021767639 -0.047557946 0.039916147
000200 db 2b 8f bc 95 d3 8f 3d 24 99 2e bd 1c 08 50 3c
       -0.017476967 0.07022778 -0.042626515 0.012697246
000210 af 38 a0 bd 60 de 46 3d 79 6c ad 3d f0 0f c6 3c
       -0.078233115 0.048551917 0.08467955 0.024177521
000220 4a 16 2b 3b ab d4 3b bd 8a 91 22 bd 2c 9b 2e bd
       0.0026105815 -0.045857113 -0.039689578 -0.042628452
000230 ac c3 48 bd fb 97 d4 3c 41 17 4a 3c 0b d4 a6 3d
       -0.049014732 0.025951376 0.012334646 0.08145913
000240 33 10 91 bd b8 e6 6d bd 57 94 15 bd a1 a2 08 bd
       -0.07083168 -0.05808136 -0.03651842 -0.03335822
000250 ad 9d a0 3d 4c 13 33 3d 52 d8 9c bd e0 6b 85 bb
       0.07842574 0.043719575 -0.07658447 -0.0040716976
000260 21 3d d7 3b 03 24 9a 3d 53 44 a7 3d 2c 2a 74 3d
       0.0065685664 0.075264 0.08167329 0.05961053
000270 07 b7 ae 3d 15 3a ed bc a7 22 da ba 8a 7d a4 bd
       0.085310034 -0.02895836 -0.0016642407 -0.08031757
000280 17 3a d5 3c bc de f9 3d 30 a0 51 3d 3b 47 d9 3d
       0.026028676 0.12200686 0.051178157 0.10609289
000290 13 d3 0a bd b5 b3 f2 3c b0 91 53 bd 5b a9 8c 3d
       -0.033892702 0.029626707 -0.05165261 0.068682395
0002a0 9c 51 1a bd ac 55 27 bd af f2 55 3c f6 aa 89 3c
       -0.037675485 -0.040853187 0.013058349 0.016805153
0002b0 06 2f 7a 3d ee 71 5e bc 85 86 9a bc 74 29 31 3d
       0.06108 -0.013576968 -0.018862972 0.043252423
0002c0 c4 3e 79 3d 29 ac cd 3d a2 e8 07 3d 78 89 13 bb
       0.060850874 0.100426026 0.03318084 -0.0022512358
0002d0 13 3f fa 3d 56 ae 06 3e 4c b7 22 bd 5d 96 2a 3d
       0.12219062 0.13152441 -0.039725587 0.041647304
0002e0 94 27 db 3c 37 18 20 bd 56 d5 c0 bb 58 7c 6a bc
       0.02675227 -0.039085593 -0.0058848066 -0.014311872
0002f0 25 7b 89 bd e5 e9 05 bd 03 33 5e 3d 3f 45 9b 3d
       -0.06712941 -0.032693762 0.054247867 0.07581567
000300 96 d0 41 3c d6 25 9a bd ee 7d 5b 3c e8 72 da bc
       0.011829516 -0.07526748 0.013396723 -0.02666612
000310 7f 31 a8 3d 88 61 af bd cf e7 46 bc 49 0f b0 3d
       0.08212566 -0.085635245 -0.012140228 0.085966654
000320 6a 31 71 3c b9 19 23 bd 65 8b a9 bd e2 1c 50 39
       0.014721254 -0.039819453 -0.082785405 0.00019847185
000330 40 16 62 3d b1 f3 6c bd 89 fa ab bd 44 3e 63 3d
       0.055197 -0.05784959 -0.08397395 0.055479303
000340 f2 c7 fb bc 00 67 77 3d d9 e6 9e bd 03 fa 37 bc
       -0.03073499 0.060400963 -0.077588744 -0.011229041
000350 fd f4 64 bd 5f df 5a bb 4b f5 ae bd 80 3d 3e 3d
       -0.0558977 -0.00333973 -0.0854288 0.04644537
000360 e1 87 23 bd 6a 8a 81 bd ef b4 2e bd 6e 06 e7 bd
       -0.039924506 -0.063252285 -0.04265302 -0.11280523
000370 06 62 3d 3d 85 9d a1 bc 5f da b4 bb 47 cd 93 3d
       0.04623606 -0.019728431 -0.005519196 0.07216888
000380 00 fc 48 bc f2 3a a3 3d 68 36 b4 3b 55 21 73 bd
       -0.012267113 0.07970227 0.00549965 -0.05935796
000390 97 85 ca 3c 2d 84 da 3c f1 3b 7e bd 9b a4 e6 3c
       0.024721904 0.026674354 -0.062068883 0.028154662
0003a0 b8 0f 97 3c dd a5 9c 3d cb 61 e8 bb a2 93 85 bd
       0.018440112 0.076488234 -0.007091736 -0.06522299
0003b0 a4 9c af bd 56 fe 0e 3d 04 53 bb bc 9b ba ac bc
       -0.08574799 0.034910522 -0.022866733 -0.021085074
0003c0 ef 62 15 bc 48 6a bf bc de 93 c1 3c f2 32 a7 3d
       -0.009117826 -0.023366109 0.023630079 0.08164014
0003d0 5d 62 98 3d 1e ad 80 bd 33 9d bb 3d ec f1 7b 3d
       0.07440636 -0.062830195 0.09160843 0.06151001
0003e0 ec f4 6d 3c 65 a4 25 3d 35 a1 6f 3d 7d 60 9d 3d
       0.014523726 0.040439982 0.05850335 0.07684419
0003f0 2c 4b 48 3d cc 19 f7 3c a7 86 15 bd 1e 40 72 bd
       0.048899814 0.030163668 -0.036505368 -0.05914318

SoftmaxPolicy_l2.bias f4 [128]
000000 1a 83 5b 3d 29 24 11 bd dc 77 43 3b db 14 81 bd
       0.053591825 -0.035434876 0.002982608 -0.06302806
000010 de 62 47 bd 3c cf 62 3d c1 a0 9c 3c 66 74 e4 3c
       -0.04867827 0.055373415 0.019119622 0.027887534
000020 57 eb 4c 3d ec cf db 3c 61 2e fc 3b 36 71 2f bc
       0.050029125 0.026832543 0.0076959585 -0.010708144
000030 00 1b 91 3a 8d 27 a8 3d 52 45 10 3d d3 fa 2d 3c
       0.0011070669 0.08210669 0.03522236 0.010618883
000040 4a c4 13 3d c6 59 23 bd fd b4 8d bd 19 13 97 bc
       0.036075868 -0.039880536 -0.069192864 -0.018441724
000050 27 ce c2 3d 5f ad b1 3c f3 88 85 bd ea 7e 71 3d
       0.09511977 0.021689115 -0.065202616 0.058958925
000060 04 cc a5 3d c3 83 8c 3d 90 7f 3b 3c cb 9a ba bc
       0.080955535 0.06861069 0.0114439875 -0.02277889
000070 f8 cf 0e 3c 27 be f2 3c 93 ee 02 bd e8 b1 31 bd
       0.008716576 0.029631687 -0.031965803 -0.043382555
000080 b6 85 a1 3c b4 a4 36 3d a1 a1 d9 bc f5 db 0e bc
       0.019717079 0.044590667 -0.026566328 -0.008719434
000090 7b 48 85 bd 92 54 24 ba c6 85 9c bc c2 c0 ba 3d
       -0.06507965 -0.00062687055 -0.019106757 0.09118797
0000a0 0f 6a 7c 3d 5c 17 f1 bc cc 45 8c bd a7 d9 94 bd
       0.061624583 -0.029430084 -0.0684925 -0.072680764
0000b0 5a f5 4f bd 2b 3a b6 3d 3b fa d1 bc ed 7d 86 3d
       -0.050771095 0.088978134 -0.025632014 0.06566987
0000c0 9a 27 8b 3d a8 d0 1d bc aa bf 1f 3d b9 af ee 3c
       0.06794663 -0.009632267 0.039001144 0.029136525
0000d0 99 21 a8 3d b7 7a 2e 3d c7 11 51 3d 1e b5 b7 3d
       0.08209533 0.0425975 0.051042344 0.08970092
0000e0 cc f7 2a 3c 2c b5 aa 3d f6 d9 1d bb fc 62 88 bd
       0.010435056 0.08335337 -0.0024086214 -0.06659505
0000f0 c4 35 af 3d af b5 87 bd b3 25 cd 3a d5 07 ad 3d
       0.08555177 -0.0662645 0.0015651494 0.084487595
000100 af 9b c3 bc 7d e0 7a bd 09 8f 87 3d eb b8 0a 3d
       -0.023877947 -0.061249245 0.06619079 0.033867758
000110 6e 03 69 3d 4b a8 41 3d aa 49 bd bd bf 06 93 3d
       0.056888036 0.047279637 -0.09242566 0.07179021
000120 43 e5 95 bd 1d a0 3b 3c 47 97 4e bd 6c 5d 86 3d
       -0.07319119 0.011451748 -0.050437238 0.065607876
000130 b9 e6 bc 3d 2d 7f 58 3c a9 e8 b9 bc 85 0e 9c 3d
       0.09223694 0.013213915 -0.022693949 0.07619957
000140 ef fe 8e 3d 6d 81 85 bc 04 b8 90 3d bd b4 f4 3b
       0.069822185 -0.016297067 0.07066348 0.0074678347
000150 b7 53 26 bd a7 44 ab 3d 2c 88 52 bd 50 17 84 bd
       -0.04060718 0.08362704 -0.051399395 -0.06449759
000160 e6 7c 54 3d 6a f3 08 3d 2c 7f 90 3d 36 c7 12 bd
       0.051876925 0.033435263 0.07055506 -0.035834514
000170 8e b2 aa 3c c0 9d 3d 3d 44 ac 95 3c 53 ad 93 bd
       0.020837095 0.04629302 0.01827062 -0.07210793
000180 11 5c 69 3d d6 a0 c0 3c b1 d0 a5 bc dd f6 b5 bc
       0.056972567 0.023514193 -0.020241113 -0.02221244
000190 3b e3 bb bd 81 25 c1 3d 65 cf 54 3c a0 2d c7 bc
       -0.091742 0.094309814 0.0129889 -0.024313748
0001a0 e6 a5 c8 3d c7 2f 82 bd 42 20 cc 3c 79 a6 61 bc
       0.097972676 -0.06356769 0.024917725 -0.0137726
0001b0 65 3f dd bc d0 a0 fd 3a 18 e9 41 bc 2a f0 9a 3d
       -0.027007768 0.0019350294 -0.011835359 0.07565339
0001c0 b4 ad 83 3d 06 0a fe 3c 21 91 88 bb f4 a4 71 bc
       0.064296156 0.031010639 -0.0041676913 -0.014748801
0001d0 09 b2 00 bc d1 60 cd ba 5c 2b 03 3d c9 d9 8f 3d
       -0.007854947 -0.0015669112 0.032023773 0.07023961
0001e0 39 cd 80 bd a0 44 b6 bd e6 e0 6a bc 5a c2 92 3d
       -0.06289143 -0.08899808 -0.0143358465 0.07165976
0001f0 4d a6 2e 3d 6c 5e 0f bd 74 9d 67 3d e4 af 1e 3d
       0.042639066 -0.035002157 0.056546643 0.03874196

SoftmaxPolicy_l3.weight f4 [2, 128]
000000 13 ba 55 3d 39 66 60 3c 7c 32 ff 3d cd 57 62 3c
       0.052179407 0.013696247 0.12460801 0.013814879
000010 f6 25 b6 bd 19 d3 95 bc 06 cd 25 3d ba c2 bf 3d
       -0.08893959 -0.018289136 0.04047873 0.09363313
000020 af fa 7c 3c 9b 67 fc 3b 0d 86 8d 3d 09 56 8e 3d
       0.015440627 0.0077027804 0.06910334 0.06950004
000030 ba 50 b8 3d 8e 5f 7c 3c 38 e1 73 3b 3d e2 c3 3d
       0.08999772 0.015403641 0.0037213098 0.09564636
000040 cd 98 63 3d 98 ab c1 3d 72 9c 31 bc 2a 6e c9 3d
       0.055565644 0.09456557 -0.010840522 0.09835465
000050 e1 40 2e bd 96 f8 c8 3d 12 33 1d bd 79 59 75 bc
       -0.042542342 0.09813039 -0.038378783 -0.014974945
000060 ff 88 11 bd c4 7c 2e 3d ec f7 46 3d ce 3c 0c 3d
       -0.03553104 0.042599455 0.04857628 0.034237675
000070 d4 f8 b3 bd e0 f8 c3 3b c9 26 1e bd 32 97 11 bd
       -0.087876946 0.005980596 -0.038611207 -0.03554458
000080 a4 fe 5a 3d b5 36 54 ba 72 eb 4d 3d a1 4a a1 bd
       0.0534655 -0.000809531 0.050273366 -0.078755625
000090 aa 59 4c 3c 3f 25 8f 3d d9 fb 6d 3d 81 9e d2 3d
       0.012472549 0.06989526 0.05810151 0.102841385
0000a0 57 57 17 bc 86 cd ae 3d 3a 62 8e bd b6 2c 1d bc
       -0.009237132 0.08535294 -0.06952329 -0.009593179
0000b0 03 a6 1d bc a4 03 e6 bc 45 6b 06 3d 32 35 20 3b
       -0.0096221 -0.028077908 0.032817144 0.002444577
0000c0 c8 04 d0 bd 77 d9 c5 bd fa 24 1b 3d 2a 72 74 bd
       -0.10157162 -0.09660619 0.03787706 -0.059679188
0000d0 22 bc e1 bd 7d de 03 3e 3b 44 66 bd c7 11 c3 3d
       -0.110222116 0.12877841 -0.056217413 0.09524875
0000e0 a0 7e 86 3d 34 7a 41 3d 04 e4 99 bd 18 97 a5 bc
       0.065671206 0.047235683 -0.07514194 -0.020213649
0000f0 d7 59 a6 3d f1 61 b2 3c fa 49 fe bd dc 2d fd 3b
       0.08122604 0.021775218 -0.12416454 0.007726414
000100 99 1b 87 bd a7 59 8e bd f1 32 aa bd 5f 70 a5 3d
       -0.06597061 -0.069506936 -0.083104976 0.08078074
000110 22 0c 96 3d 60 7a 8c bd f1 20 0e bd 73 b2 a0 3d
       0.07326533 -0.06859279 -0.034699384 0.078465365
000120 9e 10 8e ba 2a 0d 6d bd 06 5c db 3c dd 26 df bd
       -0.0010838693 -0.057873882 0.026777279 -0.108960845
000130 40 fa b2 bd 6d 18 91 3d a0 cd b4 bd 5d b4 ca 3d
       -0.08739138 0.07084737 -0.08828282 0.09897683
000140 32 c3 05 bd 40 50 68 bd 27 86 a7 bd fb 2d 63 3d
       -0.032656856 -0.056717157 -0.081798844 0.055463772
000150 cc 8a f5 bd 9a e2 26 3d 75 15 df 3c f1 82 0b 3d
       -0.11989364 0.040743448 0.027231911 0.034060422
000160 36 78 d2 bd 60 7e 84 bd 74 28 34 3d 8b 7f 93 bd
       -0.10276835 -0.064694166 0.04398389 -0.07202061
000170 3e c4 39 bd 3c e2 64 3d cb ae 31 3d 6c cf 94 3d
       -0.045353167 0.055879816 0.043379586 0.07266125
000180 8e 13 58 3b ff b3 2a bd 40 93 01 3e fc c9 83 3b
       0.003297064 -0.041675564 0.12653828 0.004021881
000190 71 9a ad bc 32 7e 98 3d 8f 84 ae bd 0a 6a a6 3d
       -0.021191807 0.07445945 -0.08521377 0.08125694
0001a0 08 0e 0d 3d 3f 74 71 bc 24 1d 93 bd eb 1e d9 bc
       0.03443721 -0.014737188 -0.071832925 -0.026504
0001b0 d2 e4 c1 bc ee 18 9e 3c 83 28 75 bd df 99 3b 3d
       -0.02366868 0.019298997 -0.059853088 0.04580104
0001c0 a2 98 f5 bd 96 b6 9f bd 09 57 e0 bb d9 b2 da 3d
       -0.11992003 -0.077984974 -0.006846313 0.10678644
0001d0 e1 71 90 3d 54 c2 b2 bd 6d 42 9b 3d 0c 0f 6a bd
       0.07052971 -0.087284714 0.07581029 -0.057143256
0001e0 36 8f 99 3d 2b 32 27 3c ec b7 c1 bc e4 d8 cb bd
       0.074980184 0.010204832 -0.023647271 -0.09953478
0001f0 40 33 d1 bd 88 ac d5 bd 8e d0 6b bd 02 8a 8d 3d
       -0.10214853 -0.10433298 -0.05757194 0.069110885
000200 d4 2b a0 bb 6d bc e0 3d de c6 ea bd 13 3b ae 3d
       -0.004888037 0.10973439 -0.11463712 0.08507361
000210 ff 2b 8f 3c 80 86 bc 3d 1c 1b cf bd 1c 49 9d bd
       0.017477034 0.09205341 -0.101125926 -0.0767996
000220 37 a1 df 3d 43 ce 50 3d 3c 36 f1 bd 0b 64 cc bd
       0.10919421 0.050977957 -0.117779225 -0.09980019
000230 18 07 dc bc 5f ce fb 3d 1e 1d b0 3d 8f f4 a8 bd
       -0.026858851 0.122952215 0.08599304 -0.08249771
000240 dc 2f 33 3c 9f 22 8d 3c ad f6 84 bd 42 ab aa bd
       0.0109367035 0.017228423 -0.06492362 -0.08333446
000250 43 db d1 3d 26 41 0d 3c 12 e8 16 3d 1d 5d d6 3d
       0.10246899 0.00862149 0.036842413 0.10466979
000260 a6 02 16 3d 0c 13 11 be 70 45 85 bd f9 9a 7a bd
       0.03662362 -0.14167422 -0.06507385 -0.06118295
000270 5a bf 98 bd 33 48 83 3d 1d 46 4b 3b 0a fc ec 3d
       -0.074583724 0.06410255 0.0031017133 0.1157151
000280 04 c9 09 bd 8a 64 9e 3c 90 d5 e6 bc 72 05 9f 3d
       -0.03363897 0.01933505 -0.028178006 0.077647105
000290 f2 79 76 3d bf a7 a5 bc 8a 89 5a bd 2d 6b 3c bd
       0.06017489 -0.02022159 -0.053353824 -0.04600065
0002a0 a9 d6 89 bd 2c 4e 14 be e1 5c 2c 3d f0 8b 5d 3d
       -0.06730396 -0.14482945 0.042080764 0.054088533
0002b0 7a 4f da bd 4b dc 03 3e 6f a5 7b bd 5b 52 bd bd
       -0.1065969 0.12877004 -0.061437067 -0.09244224
0002c0 25 e9 8c 3d 49 02 84 3d 74 04 8d bc ce 82 9b 3c
       0.06880406 0.06445748 -0.017214037 0.018983271
0002d0 2c 73 18 3d 21 17 ee bd d3 4c 0c 3e e8 b8 b9 bd
       0.03721921 -0.11625505 0.13701181 -0.09068471
0002e0 ac 22 4a bd 59 d1 14 be 09 8c d8 bc 93 c6 d0 3c
       -0.049349472 -0.14532985 -0.026433961 0.025485313
0002f0 ee 10 f7 bd f9 03 8e bd 74 2e 40 3c ef 57 87 bd
       -0.12063776 -0.069343515 0.011729825 -0.06608569
000300 41 6c a2 3d c2 86 e2 3d a0 26 16 bb f5 75 50 bd
       0.07930804 0.11060859 -0.0022911206 -0.050893743
000310 3d e6 5d 3d cf de 29 3c ac 4a 8b 3d 0c 90 ba 3c
       0.05417465 0.010368063 0.06801352 0.022773765
000320 0c 2a 85 3d 43 51 f7 3d e3 1a 80 bd 89 dc 5c bd
       0.065021604 0.12076046 -0.06255128 -0.053921256
000330 47 fb a5 3b bf 5b c5 bd 0b 5b 95 3d 86 83 8c bd
       0.005065355 -0.0963664 0.07292756 -0.068610236
000340 de f6 55 3d 51 01 8d bd 3c 23 8d 3d 9d 5a c0 3c
       0.052237384 -0.06885017 0.06891486 0.023480708
000350 b8 7c e8 3d 98 66 8a bd b7 5a 9a 3c 57 1b 54 bd
       0.11351913 -0.067578495 0.018842084 -0.051783886
000360 ed e1 a8 3b 74 e4 8b 3d 51 df c1 bd c5 f9 b1 3d
       0.0051538856 0.06830683 -0.09466422 0.08690218
000370 c6 8c 13 3d c8 fb ce bc e1 12 95 3d d9 d8 1f 3c
       0.036022924 -0.025266543 0.072789915 0.00975629
000380 58 bf de bd 3b cd 97 3d 1d 99 86 3c 2e 89 3f bd
       -0.1087634 0.074121915 0.016430432 -0.046761684
000390 0c 74 66 3d 35 35 22 bd bd 18 3d 3d a7 15 1f bd
       0.056263015 -0.039601523 0.04616617 -0.03883901
0003a0 97 e9 13 be 4b 38 c8 3d c9 d9 cf 3d c2 0b f5 bd
       -0.14444576 0.09776362 0.10148961 -0.11965133
0003b0 37 01 97 bd b4 a2 ac 3d f4 94 60 3d 04 78 40 bd
       -0.073732786 0.08429471 0.054829553 -0.046989456
0003c0 a0 f6 5e 3c d4 d8 b5 3d 25 9c cd 3d a6 1c 01 be
       0.013608605 0.08879247 0.10039548 -0.12608585
0003d0 1a f1 6e bd 15 7f 75 bc 81 2c c7 bd 28 cf 53 bc
       -0.0583354 -0.014983912 -0.09725285 -0.012927808
0003e0 2b e7 f7 b9 f4 b6 83 bc f9 7f 71 bd 82 e6 e1 3b
       -0.00047283745 -0.01607845 -0.058959935 0.0068939338
0003f0 8c 02 c4 3b 20 a9 0e bd 62 09 87 3d a8 9a 93 bd
       0.005981749 -0.03482926 0.065935865 -0.07207233

SoftmaxPolicy_l3.bias f4 [2]
000000 2b 55 03 3d 00 6b 85 bc
       0.032063644 -0.016286373
