pytorch_models/model280543.pth (torch, 72107 bytes, 6 tensors)

SoftmaxPolicy_l1.weight f4 [128, 4]
0.2544911 -0.2260425 -0.11296626 0.22885491 -0.46896532 0.3115198 -0.049940996 0.25944003
0.06964713 -0.055437412 0.20698425 0.052929 0.17577232 -0.19174813 -0.0299656 -0.048673414
0.07194675 -0.0017532976 0.43536365 0.1539636 -0.18177725 -0.29924005 -0.082580395 -0.21260637
-0.16192226 0.020583102 0.31285885 0.28216192 -0.48736846 0.3273182 0.26026827 0.5201025
0.33001992 -0.46452543 -0.4907598 -0.23277117 0.41856036 -0.09531357 0.21763171 -0.234252
0.48464447 -0.23329145 0.2976694 -0.013615049 -0.2587505 0.25826457 -0.25396013 0.15659429
-0.13045566 -0.049750615 -0.469418 -0.22893013 0.27053207 -0.11360782 0.49791813 0.40321863
-0.02764419 -0.30824596 0.41624042 0.19893552 -0.31611642 0.3406274 0.42852098 0.49263853
-0.27921435 -0.081594735 -0.03008539 0.06639224 -0.37902552 -0.35548097 0.24830881 -0.12486989
0.22956549 0.031522658 0.3063415 0.18366228 0.16545092 0.25167596 -0.31429803 0.32831573
-0.34382078 -0.37496796 0.08488835 -0.055287685 0.28911123 -0.28420565 -0.35544714 0.41283676
-0.069028616 0.27920118 0.08642014 -0.42373124 0.09697812 0.11318049 -0.3412852 -0.23695505
0.17647165 0.06960771 -0.36240298 -0.21937516 0.44647068 -0.08390703 0.40212762 0.27028596
-0.32118765 -0.4223998 0.46041083 0.015370716 0.3360645 0.113735266 0.2703807 0.41605777
0.46351662 -0.32464367 0.1925748 0.44611737 0.35118654 0.29940513 -0.3694066 -0.36257175
-0.30696675 0.057225473 0.5116465 -0.31022063 0.27286065 -0.2836847 -0.49234524 -0.106370784
0.28174967 0.46197367 -0.28812966 0.1143915 0.41761976 0.35244516 0.41182837 0.38011476
0.3031035 0.11528513 -0.33269057 -0.41290522 -0.23480499 -0.055964105 -0.18224704 0.24954548
0.15730636 -0.112246335 0.20852837 0.17638698 0.29595464 0.35873684 -0.058783367 0.524663
-0.0424489 -0.02893056 -0.60748005 -0.3733282 -0.28970772 -0.21380551 0.3435014 -0.16412017
-0.3654529 0.21705697 0.26421264 0.34674186 -0.26229152 0.10477232 -0.18204604 -0.11358284
-0.39395255 -0.22936618 -0.16865596 0.21515988 0.08266119 0.14454243 0.626024 0.51593876
0.33154133 0.02210784 -0.21960571 0.4521787 -0.13236497 -0.048138462 -0.44057494 -0.0996399
-0.3314194 0.45560786 -0.4804452 -0.42163855 -0.011582412 -0.26701444 0.17269306 -0.19203095
-0.2337143 0.041434105 0.3395734 -0.3797871 0.23017819 0.31570357 0.46849152 -0.35960245
0.13521253 -0.365565 0.39174193 -0.20644271 0.2938208 0.015030773 -0.011789196 -0.0036608751
0.07296223 0.23525053 0.2153587 0.22751744 -0.44556057 0.3734727 0.53595364 0.46483034
0.3460639 -0.3611879 -0.15249166 0.4435636 -0.38797823 0.4584952 -0.4382106 -0.39255932
0.23963167 -0.34639964 -0.046790916 0.39742327 0.400203 0.46877596 -0.19942519 -0.44686037
0.48364413 -0.1294125 -0.24179754 0.13069522 -0.35065174 0.32240364 0.23019435 -0.44792882
-0.4130402 -0.048408788 0.19344425 -0.013335784 -0.25174347 0.019566331 -0.474798 -0.36350495
-0.32982922 0.41408265 0.40816507 -0.1947661 0.02982059 0.21249057 0.0082394 -0.27107045
00000000: a84c 823e af77 67be db5a e7bd f158 6a3e
00000010: 391c f0be 867f 9f3e ee8e 4cbd 53d5 843e
00000020: 28a3 8e3d 5712 63bd aef3 533e 14cc 583d
00000030: a9fd 333e 9f59 44be 6b7a f5bc c65d 47bd
00000040: d158 933d e8ce e5ba fce7 de3e a2a8 1d3e
00000050: d123 3abe fe35 99be e91f a9bd 7cb5 59be
00000060: f3ce 25be e59d a83c 092f a03e 8777 903e
00000070: 5c88 f9be 4096 a73e e241 853e 7025 053f
00000080: 5ff8 a83e 47d6 edbe de44 fbbe 915b 6ebe
00000090: 8b4d d63e c333 c3bd d9da 5e3e c2df 6fbe
000000a0: 5223 f83e f4e3 6ebe 2068 983e a811 5fbc
000000b0: f27a 84be 413b 843e 1007 82be 415a 203e
000000c0: 2b96 05be 4dc7 4bbd 8e57 f0be a96c 6abe
000000d0: 2e83 8a3e 37ab e8bd 20ef fe3e ac72 ce3e
000000e0: 1176 e2bc 6ad2 9dbe 771d d53e c1b5 4b3e
000000f0: 03da a1be b766 ae3e 1a67 db3e 1e3b fc3e
00000100: 2ff5 8ebe 241b a7bd a375 f6bc a8f8 873d
00000110: a20f c2be 9a01 b6be aa44 7e3e c9bb ffbd
00000120: 3713 6b3e e71d 013d cbd8 9c3e f711 3c3e
00000130: f76b 293e acdb 803e aceb a0be 0019 a83e
00000140: 4709 b0be cdfb bfbe f1d9 ad3d 5775 62bd
00000150: 6306 943e 6783 91be 2bfd b5be 575f d33e
00000160: e05e 8dbd 75f3 8e3e 0bfd b03d 4df3 d8be
00000170: 779c c63d 2ccb e73d efbc aebe 58a4 72be
00000180: fcb4 343e 7d8e 8e3d e28c b9be e2a3 60be
00000190: ce97 e43e 73d7 abbd ace3 cd3e ec62 8a3e
000001a0: b572 a4be c944 d8be f8ba eb3e 75d5 7b3c
000001b0: a510 ac3e 09ee e83d 576f 8a3e 8605 d53e
000001c0: 0d52 ed3e b237 a6be 5432 453e 7f69 e43e
000001d0: b9ce b33e a14b 993e dd22 bdbe 01a3 b9be
000001e0: bf2a 9dbe 4265 6a3d 44fb 023f 3dd5 9ebe
000001f0: 64b4 8b3e 1f3f 91be ad14 fcbe edd8 d9bd
00000200: 7e41 903e d087 ec3e bb85 93be 1746 ea3d
00000210: 42d2 d53e b173 b43e 2bdb d23e 679e c23e
00000220: 6230 9b3e 9c1a ec3d 6b56 aabe 5068 d3be
00000230: b870 70be 9e3a 65bd f89e 3abe da88 7f3e
00000240: eb14 213e 68e1 e5bd 7688 553e ca9e 343e
00000250: 5e87 973e 5bac b73e d4c6 70bd 5050 063f
00000260: e6de 2dbd c8ff ecbc d083 1bbf e024 bfbe
00000270: 9254 94be d5ef 5abe 6adf af3e 1e0f 28be
00000280: a41c bbbe 2f44 5e3e e146 873e 2688 b13e
00000290: 134b 86be df92 d63d 476a 3abe 1f9e e8bd
000002a0: 26b4 c9be f8de 6abe 26b4 2cbe df52 5c3e
000002b0: 454a a93d ee02 143e 1c43 203f 9014 043f
000002c0: c9bf a93e 801b b53c 52e0 60be f783 e73e
000002d0: af8a 07be d62c 45bd 0a93 e1be 0110 ccbd
000002e0: ceaf a9be 6f45 e93e eafc f5be 02e1 d7be
000002f0: 28c4 3dbc 1eb6 88be 73d6 303e c3a3 44be
00000300: cd52 6fbe cfb6 293d 91dc ad3e 7473 c2be
00000310: d5b3 6b3e e6a3 a13e 1fde ef3e d01d b8be
00000320: 2775 0a3e 562b bbbe 6692 c83e b865 53be
00000330: ae6f 963e a243 763c 7927 41bc 4beb 6fbb
00000340: 396d 953d 84e5 703e fe86 5c3e 55fa 683e
00000350: 8420 e4be d037 bf3e 4234 093f 3efe ed3e
00000360: 4a2f b13e 9fed b8be c626 1cbe c51a e33e
00000370: 15a5 c6be e2bf ea3e 245d e0be 89fd c8be
00000380: 0162 753e 4b5b b1be d5a7 3fbd 107b cb3e
00000390: 68e7 cc3e 6703 f03e 1e36 4cbe e2ca e4be
000003a0: 34a0 f73e b684 04be c699 77be f8d4 053e
000003b0: a088 b3be 1712 a53e 11b8 6b3e ed56 e5be
000003c0: 017a d3be 4b48 46bd 4016 463e 557e 5abc
000003d0: 85e4 80be 9249 a03c b918 f3be 521d babe
000003e0: 60df a8be a402 d43e 03fb d03e c470 47be
000003f0: 4f4a f43c 2197 593e 8cfe 063c bfc9 8abe

SoftmaxPolicy_l1.bias f4 [128]
-0.37896377 0.35306197 0.3311196 -0.49735227 -0.39417493 -0.33909523 -0.2591339 0.118533075
-0.48086232 -0.3925539 0.23159137 -0.17109269 -0.21598509 -0.41421843 0.19157355 0.11160594
-0.20496812 -0.31056848 0.11601446 0.14974463 0.1913132 0.1656575 -0.04712734 -0.39225212
0.35114515 0.033425562 -0.3446283 0.46847093 0.28481716 -0.405153 -0.24834628 -0.16071069
-0.29176062 0.23360479 -0.37671793 0.45123813 -0.19680116 0.30205953 0.09951645 -0.2294432
0.34325805 -0.3778529 -0.26502922 0.10808403 0.38816893 -0.20618738 -0.28187716 -0.32196206
-0.2003021 -0.15991291 -0.11832143 -0.29410657 0.16855727 0.084357455 -0.3442128 -0.2518927
0.10076327 0.026759572 0.39152005 -0.057228435 -0.40456578 -0.3633678 -0.13382165 -0.10318188
0.08765686 -0.13024546 0.21277733 -0.15890948 0.39273158 0.10055462 -0.16170667 0.47548002
0.16532803 -0.35972455 -0.2634868 0.33695665 0.21993874 0.38085884 0.019567005 0.34656093
0.27488714 0.14272432 -0.15009326 0.5123059 0.09500738 -0.15499581 0.06924808 0.49902463
0.31866696 -0.059244063 0.5207742 0.25282806 -0.26194182 -0.45956972 0.31236273 0.5020239
-0.30397218 0.19656013 0.04387351 -0.12834434 -0.1068182 0.16793913 0.100432694 0.33444595
0.18850751 0.25740802 0.47389713 0.17778602 0.117246516 -0.13658303 0.3791728 0.09243486
0.32681108 0.4798893 -0.13432944 0.33130884 -0.06037808 0.47942352 0.39098892 -0.15547913
0.011836958 -0.21542118 -0.2125095 -0.085570365 -0.00253984 -0.15373455 -0.46967927 -0.31323308
00000000: 8a07 c2be 8ac4 b43e 8288 a93e f5a4 febe
00000010: 4cd1 c9be e49d adbe 33ad 84be 78c1 f23d
00000020: 9633 f6be d3fc c8be 4a26 6d3e ec32 2fbe
00000030: 322b 5dbe 7014 d4be db2b 443e a891 e43d
00000040: 2ae3 51be d502 9fbe fd98 ed3d a856 193e
00000050: 9ce7 433e 1fa2 293e 9908 41bd 45d5 c8be
00000060: 4cc9 b33e 3ee9 083d 1f73 b0be 6cdb ef3e
00000070: 8ed3 913e 3770 cfbe 7d4e 7ebe 5891 24be
00000080: a661 95be 1836 6f3e 2ce1 c0be af08 e73e
00000090: 3e86 49be 8ca7 9a3e 48cf cb3d 29f3 6abe
000000a0: 85bf af3e ef75 c1be e9b1 87be 295b dd3d
000000b0: 14be c63e c922 53be 3452 90be 36d8 a4be
000000c0: fe1b 4dbe 36c0 23be 8252 f2bd 2395 96be
000000d0: 479a 2c3e 9ac3 ac3d a93c b0be 14f8 80be
000000e0: f95c ce3d e436 db3c 5175 c83e 5d68 6abd
000000f0: 3f23 cfbe 580b babe 8b08 09be 0651 d3bd
00000100: 7185 b33d 115f 05be 4de2 593e 2bb9 22be
00000110: 1d14 c93e 95ef cd3d 6f96 25be 1e72 f33e
00000120: c04b 293e d12d b8be bee7 86be 9585 ac3e
00000130: 9f37 613e eeff c23e fc4a a03c 6f70 b13e
00000140: 02be 8c3e 5326 123e 0cb2 19be 7b26 033f
00000150: 3b93 c23d 39b7 1ebe f0d1 8d3d 2880 ff3e
00000160: 5128 a33e e7a9 72bd 7551 053f ae72 813e
00000170: 3d1d 86be b94c ebbe 02ee 9f3e a384 003f
00000180: 3ea2 9bbe 0f47 493e b6b4 333d b36c 03be
00000190: 80c3 dabd 3cf8 2b3e a8af cd3d 803c ab3e
000001a0: 1d08 413e fcca 833e a5a2 f23e 8a0d 363e
000001b0: f11e f03d 6cdc 0bbe f022 c23e 7d4e bd3d
000001c0: c853 a73e 0db4 f53e a88d 09be 50a1 a93e
000001d0: 014f 77bd 0077 f53e b32f c83e ec35 1fbe
000001e0: cdef 413c 5f97 5cbe 179c 59be 843f afbd
000001f0: 7273 26bb 976c 1dbe cd79 f0be 1660 a0be

SoftmaxPolicy_l2.weight f4 [128, 128]
-0.00012951135 -0.040015988 0.073769614 0.07080464 0.056641046 0.042683735 -0.07202545 0.051952932
-0.058461122 -0.013721911 -0.037124258 0.02955461 -0.06443944 -0.042476747 -0.059922718 -0.1007932
-0.045322653 0.08316105 -0.0065488024 0.032296076 -0.08477652 0.09641075 -0.010693488 -0.074335486
0.08947885 -0.014587039 0.07413585 -0.05558633 -0.069269575 -0.05275236 0.03658781 0.022216495
-0.07540157 0.013652582 0.011798712 0.03491896 -0.043223124 -0.062662296 0.11755377 -0.046105992
0.04469152 0.07397219 -0.06735673 -0.08017666 0.023869393 -0.074473344 0.036566664 -0.031855278
-0.03467466 -0.0636207 0.05031023 -0.045970052 -0.08599933 -0.064513855 -0.04141768 -0.07772161
0.044106167 -0.02050909 0.087636895 0.0627242 -0.05464988 -0.04348472 -0.041843932 0.060222507
0.0068589803 -0.025220156 0.0928069 0.10377694 0.08201911 -0.06388849 -0.035384525 -0.012500552
0.10017522 -0.035483614 -0.042299893 0.01824809 -0.019898137 0.044234537 0.018411621 -0.07390385
0.08817899 0.08185472 0.008127856 -0.052052036 0.037473127 0.055121303 0.06478526 -0.0369448
-0.0050368933 -0.025025863 0.09059853 0.12708789 0.00068017474 -0.053399988 0.04274066 0.052175067
0.03907069 -0.077243626 0.015284446 -0.03437977 -0.07030406 -0.034009025 0.05475702 0.042220503
-0.07395797 0.017311022 0.08959195 0.108944975 0.072086655 -0.026631195 0.053081244 0.052308362
0.043193243 -0.058466483 -0.03153611 0.077111 0.08148951 0.08119008 -0.04254922 -0.015939308
-0.05641554 -0.03288221 0.07397593 -0.0653791 0.0050340705 0.022728063 -0.046824828 0.036950763
-0.01624123 0.06889477 -0.04320105 0.013364307 -0.078233115 0.047545742 0.08461465 0.0236052
0.0018856867 -0.04586516 -0.039679665 -0.044779044 -0.050124433 0.027917497 0.012521605 0.08132942
-0.071775585 -0.05898161 -0.036341783 -0.033634294 0.07719648 0.045370556 -0.07943728 -0.006743917
0.0051087816 0.07592389 0.0809853 0.05948953 0.08639381 -0.030600788 -0.0034630343 -0.07943831
0.024817776 0.121706545 0.049562313 0.10543159 -0.032735873 0.029426549 -0.05542988 0.067598574
-0.03848917 -0.042384047 0.012346263 0.018328477 0.06122918 -0.014646225 -0.021169709 0.042948294
0.05910269 0.098444425 0.030327708 -0.0018689408 0.121643856 0.13100266 -0.038524512 0.0395134
0.028554788 -0.04086009 -0.006049484 -0.016178023 -0.06826352 -0.034189813 0.0528526 0.073290594
0.010479944 -0.07559192 0.011890568 -0.024995547 0.0801993 -0.08716303 -0.011777932 0.08593956
0.011240066 -0.041480444 -0.08436605 -0.0013334587 0.055977877 -0.059648417 -0.085842565 0.054336786
-0.033181403 0.061205007 -0.078495145 -0.011626037 -0.056880318 -0.0037306899 -0.0880965 0.045546506
-0.039780017 -0.063704304 -0.0437623 -0.11442116 0.04854537 -0.019731406 -0.007870073 0.07151216
-0.013942012 0.080350116 0.0062194765 -0.05902058 0.022135003 0.024624977 -0.061260846 0.028843468
0.015228337 0.07525158 -0.0093851015 -0.067453995 -0.088620566 0.036657028 -0.025160259 -0.020933384
-0.009454646 -0.023264099 0.022561412 0.08234888 0.071330704 -0.06407534 0.09123922 0.059901673
0.016273571 0.042923234 0.05688361 0.07854159 0.050475445 0.02920657 -0.037160765 -0.05651274
00000000: 70cd 07b9 cee7 23bd 8614 973d 0602 913d
00000010: 7100 683d 24d5 2e3d 1482 93bd 99cc 543d
00000020: ee74 6fbd ded1 60bc 9b0f 18bd 821c f23c
00000030: d3f8 83bd 19fc 2dbd 8671 75bd aa6c cebd
00000040: 3fa4 39bd 5750 aa3d 5697 d6bb e448 043d
00000050: 509f adbd 0073 c53d bd33 2fbc 343d 98bd
00000060: b040 b73d 7afe 6ebc 89d4 973d 7eae 63bd
00000070: 35dd 8dbd dc12 58bd 19dd 153d 5eff b53c
00000080: 236c 9abd 14af 5f3c 634f 413c 2f07 0f3d
00000090: bb0a 31bd 1755 80bd 08c0 f03d a3d9 3cbd
000000a0: 750e 373d bb7e 973d 53f2 89bd a933 a4bd
000000b0: bf89 c33c 7b85 98bd edc6 153d ae7a 02bd
000000c0: 0407 0ebd 924b 82bd 1a12 4e3d 184b 3cbd
000000d0: 6b20 b0bd d71f 84bd 96a5 29bd 822c 9fbd
000000e0: aba8 343d ae02 a8bc f97a b33d 8c75 803d
000000f0: 8dd8 5fbd 091d 32bd 8b64 2bbd e0ab 763d
00000100: 4cc1 e03b 809a cebc 8b11 be3d 0189 d43d
00000110: a3f9 a73d f8d7 82bd 5def 10bd 1ecf 4cbc
00000120: aa28 cd3d 4457 11bd a742 2dbd 057d 953c
00000130: 6b01 a3bc 462f 353d f8d3 963c e75a 97bd
00000140: 3097 b43d 73a3 a73d b32a 053c 8434 55bd
00000150: 6c7d 193d e0c6 613d 22ae 843d 6e53 17bd
00000160: 860c a5bb 0a03 cdbc b98b b93d 5423 023e
00000170: c14d 323a f2b9 5abd d510 2f3d 86b5 553d
00000180: 9608 203d e831 9ebd 9d6b 7a3c cdd1 0cbd
00000190: 93fb 8fbd 0c4d 0bbd e648 603d 68ef 2c3d
000001a0: 4777 97bd d8cf 8d3c fc7b b73d 8b1e df3d
000001b0: 2ba2 933d aa29 dabc b86b 593d 4b41 563d
000001c0: 66eb 303d 8d7a 6fbd 022c 01bd 5fec 9d3d
000001d0: f9e3 a63d fc46 a63d 1748 2ebd 2793 82bc
000001e0: fb13 67bd 7faf 06bd b180 973d 7ae5 85bd
000001f0: d8f4 a43b 3430 ba3c 64cb 3fbd af59 173d
00000200: 540c 85bc b418 8d3d 96f3 30bd f7f5 5a3c
00000210: af38 a0bd 53bf 423d 724a ad3d b15f c13c
00000220: 2529 f73a 1bdd 3bbd 2587 22bd 3b6a 37bd
00000230: 474f 4dbd 3cb3 e43c 6b27 4d3c 0a90 a63d
00000240: 14ff 92bd b396 71bd 1fdb 14bd 1dc4 09bd
00000250: 3019 9e3d 7ad6 393d 03b0 a2bd 13fc dcbb
00000260: 9167 a73b fc7d 9b3d 9fdb a53d 4bab 733d
00000270: 3def b03d 81ae fabc 13f4 62bb 8db0 a2bd
00000280: a64e cb3c 4841 f93d da01 4b3d 84ec d73d
00000290: 0d16 06bd f20f f13c 710a 63bd 1f71 8a3d
000002a0: d2a6 1dbd e59a 2dbd fb47 4a3c 9a25 963c
000002b0: 73cb 7a3d b8f6 6fbc 196c adbc 8dea 2f3d
000002c0: aa15 723d 3b9d c93d d071 f83c 3ff7 f4ba
000002d0: 6a20 f93d 9025 063e e1cb 1dbd ced8 213d
000002e0: bbeb e93c e95c 27bd c03a c6bb c687 84bc
000002f0: bfcd 8bbd 9e0a 0cbd f87b 583d 6119 963d
00000300: 12b4 2b3c f0cf 9abd a8d0 423c 76c3 ccbc
00000310: 883f a43d 8882 b2bd 3af8 40bc 1401 b03d
00000320: 4128 383c 66e7 29bd 1cc8 acbd 73c7 aeba
00000330: 0f49 653d e651 74bd 3ace afbd 4090 5e3d
00000340: 39e9 07bd 1ab2 7a3d 10c2 a0bd 227b 3ebc
00000350: 56fb 68bd 977e 74bb f06b b4bd f98e 3a3d
00000360: 5ff0 22bd 6777 82bd 1940 33bd a455 eabd
00000370: 83d7 463d c2a3 a1bc 7bf1 00bc f874 923d
00000380: 096d 64bc 9a8e a43d c0cc cb3b 90bf 71bd
00000390: 7754 b53c 52ba c93c a7ec 7abd 2349 ec3c
000003a0: 4680 793c 801d 9a3d f8c3 19bc 5225 8abd
000003b0: b37e b5bd ae25 163d e31c cebc 7d7c abbc
000003c0: a9e7 1abc 5a94 bebc b6d2 b83c 88a6 a83d
000003d0: d515 923d ef39 83bd a1db ba3d 755b 753d
000003e0: 2750 853c 46d0 2f3d cafe 683d 6ada a03d
000003f0: 57bf 4e3d 9e42 ef3c e335 18bd e779 67bd

SoftmaxPolicy_l2.bias f4 [128]
0.05448612 -0.036527984 0.004298968 -0.06406821 -0.049663827 0.054385968 0.020002926 0.030164618
0.049133103 0.02528938 0.0087079555 -0.0096157435 0.0011070669 0.08121789 0.033490296 0.011672888
0.03648544 -0.03844664 -0.06919022 -0.017215166 0.094237685 0.022740318 -0.065202616 0.05866679
0.080955535 0.06978227 0.012503938 -0.021667432 0.008716576 0.028573846 -0.03342706 -0.044380385
0.020949902 0.044729445 -0.025649242 -0.008719434 -0.06507965 0.00025032982 -0.01790383 0.09273374
0.06284675 -0.02828263 -0.0684925 -0.07269894 -0.04968145 0.088171564 -0.02577451 0.066994764
0.066884264 -0.010681962 0.038506277 0.0279555 0.08136052 0.043744616 0.050080445 0.09066762
0.012694604 0.08447198 -0.0024086214 -0.067076065 0.086645424 -0.0662645 0.00055685255 0.08516184
-0.024355255 -0.06183727 0.06619079 0.03478543 0.057302754 0.046252824 -0.0891562 0.07291948
-0.07357264 0.010708947 -0.049341377 0.06459463 0.091282345 0.013990177 -0.023752902 0.07711443
0.07031102 -0.015703665 0.0698911 0.008093117 -0.04149209 0.08448242 -0.050839584 -0.06356571
0.050987676 0.033435263 0.07202993 -0.036811102 0.019940978 0.04739156 0.01827062 -0.07109404
0.058143426 0.02324268 -0.019071328 -0.020274976 -0.09272096 0.095436305 0.01270718 -0.023446832
0.099125125 -0.06389312 0.02387891 -0.0126703195 -0.025849685 0.0019350294 -0.012726057 0.07659207
0.06342887 0.03012528 -0.00511833 -0.013587116 -0.0061279084 -0.0026210009 0.03311406 0.07023961
-0.06185667 -0.08899808 -0.012598557 0.07049996 0.041710507 -0.03613545 0.055649836 0.03875685
00000000: d62c 5f3d 5e9e 15bd 5bde 8c3b 3236 83bd
00000010: 4c6c 4bbd d2c3 5e3d 2ddd a33c ca1b f73c
00000020: cb3f 493d ad2b cf3c d0ab 0e3c 5a8b 1dbc
00000030: 001b 913a 9155 a63d 1f2d 093d a43f 3f3c
00000040: c271 153d 397a 1dbd 9ab3 8dbd d206 8dbc
00000050: b0ff c03d e749 ba3c f388 85bd 974c 703d
00000060: 04cc a53d 02ea 8e3d 51dd 4c3c e67f b1bc
00000070: f8cf 0e3c b313 ea3c d0ea 08bd 35c8 35bd
00000080: 219f ab3c 3936 373d 5c1e d2bc f5db 0ebc
00000090: 7b48 85bd b33e 8339 0eab 92bc 30eb bd3d
000000a0: ccb5 803d f9b0 e7bc cc45 8cbd 2fe3 94bd
000000b0: c77e 4bbd 4b93 b43d 1125 d3bc 8d34 893d
000000c0: 9efa 883d 6503 2fbc c2b8 1d3d ef02 e53c
000000d0: 58a0 a63d 8e2d 333d 2721 4d3d f2af b93d
000000e0: 07fd 4f3c a5ff ac3d f6d9 1dbb 2d5f 89bd
000000f0: 2873 b13d afb5 87bd bef9 113a 5569 ae3d
00000100: ac84 c7bc 1449 7dbd 098f 873d 2b7b 0e3d
00000110: 4bb6 6a3d 9a73 3d3d 8797 b6bd cf56 953d
00000120: 41ad 96bd 9474 2f3c 2f1a 4abd 304a 843d
00000130: 3df2 ba3d 0e37 653c 7295 c2bc 2cee 9d3d
00000140: 39ff 8f3d f9a4 80bc 1123 8f3d fe98 043c
00000150: 9cf3 29bd 1e05 ad3d 2b3d 50bd bd2e 82bd
00000160: 74d8 503d 6af3 083d 6e84 933d 3dc7 16bd
00000170: 435b a33c a71d 423d 44ac 953c c199 91bd
00000180: cd27 6e3d 6f67 be3c 793b 9cbc b517 a6bc
00000190: 7de4 bdbd 1c74 c33d c731 503c 9213 c0bc
000001a0: 1d02 cb3d 65da 82bd b49d c33c 2c97 4fbc
000001b0: b8c2 d3bc d0a0 fd3a f480 50bc 4edc 9c3d
000001c0: ffe6 813d 4bc9 f63c aab7 a7bb 7f9c 5ebc
000001d0: 9fcc c8bb 19c5 2bbb 9ca2 073d c9d9 8f3d
000001e0: 6b5d 7dbd a044 b6bd 2e6a 4ebc 4862 903d
000001f0: a3d8 2a3d c402 14bd 15f1 633d 81bf 1e3d

SoftmaxPolicy_l3.weight f4 [2, 128]
0.054000244 0.013014996 0.12693512 0.013052198 -0.089444384 -0.018927243 0.04171215 0.095413536
0.0144661805 0.009132854 0.07108298 0.071557894 0.08999772 0.0155741135 0.0055722115 0.097480945
0.056111813 0.09686317 -0.01084038 0.10041388 -0.043464053 0.099864155 -0.038378783 -0.015615031
-0.03553104 0.044649582 0.050242122 0.03580623 -0.087876946 0.004859995 -0.037303895 -0.035461172
0.05552999 -0.0008252269 0.051650956 -0.078755625 0.012472549 0.070830956 0.06036234 0.105416685
-0.0066899443 0.08692799 -0.06952329 -0.009591644 -0.008218214 -0.028548637 0.032830153 0.0047835857
-0.10239568 -0.09708082 0.03759956 -0.060006343 -0.11072269 0.13077244 -0.05643752 0.09744728
0.06852249 0.049244944 -0.07514194 -0.018187866 0.082633354 0.021775218 -0.12451266 0.008479747
-0.06675416 -0.07038334 -0.083104976 0.08186687 0.07374033 -0.06816296 -0.038873162 0.079721525
0.00021612826 -0.057477254 0.028438007 -0.10939218 -0.08773847 0.06998111 -0.08862017 0.1007971
-0.032724235 -0.056631815 -0.08155104 0.056877412 -0.12041032 0.042091347 0.0263864 0.03450386
-0.103053354 -0.064694166 0.04662729 -0.072394006 -0.044930648 0.056349434 0.043379586 0.074836805
0.0049020695 -0.04160022 0.12835251 0.0057565477 -0.020881433 0.075880624 -0.083678566 0.08204754
0.036333576 -0.012952606 -0.07252732 -0.025485668 -0.021776961 0.019298997 -0.06069604 0.047317926
-0.12085378 -0.0783548 -0.0079033505 0.10889695 0.07297712 -0.08785478 0.078148626 -0.057143256
0.07689892 0.010204832 -0.02250062 -0.09996044 -0.10233505 -0.10501989 -0.05843717 0.0691111
-0.006708854 0.11041565 -0.116964206 0.08583629 0.017981805 0.092691496 -0.10235934 -0.078580014
0.11016867 0.049547877 -0.119758874 -0.10185805 -0.026858851 0.12278168 0.08414216 -0.084332295
0.010390556 0.014930804 -0.06492375 -0.08539369 0.10339071 0.006887745 0.036842413 0.10530999
0.03662362 -0.1437244 -0.066739686 -0.062751494 -0.074583724 0.065223105 0.0017943905 0.11563168
-0.035703458 0.019350747 -0.02955558 0.077647105 0.06017489 -0.021157311 -0.055614658 -0.048575956
-0.06985121 -0.1464046 0.042080764 0.054087 -0.10800068 0.12924084 -0.061450075 -0.09478121
0.06962813 0.064932115 -0.0169365 0.019310443 0.03771987 -0.118249014 0.1372318 -0.092883244
-0.052200776 -0.14733917 -0.026433961 0.023459531 -0.12204507 -0.069343515 0.012077942 -0.06683899
0.080091596 0.11148499 -0.0022911206 -0.05197983 0.05369961 0.009938311 0.07218733 0.021517633
0.06372165 0.12036382 -0.06421198 -0.05348995 0.0054124747 -0.09550014 0.073264904 -0.07043051
0.052304763 -0.068935536 0.068667054 0.022067029 0.114035815 -0.06892646 0.019687595 -0.052227322
0.00543885 0.06830683 -0.097307645 0.087275565 0.035600405 -0.025736164 0.072789915 0.007580761
-0.11036842 0.07404651 0.014616023 -0.048496347 0.055952635 -0.041022755 0.044630956 -0.039629593
-0.14634213 0.09597909 0.102184005 -0.12066959 -0.075624436 0.08429471 0.055672508 -0.048506342
0.014542309 0.0891623 0.10145245 -0.12819633 -0.06078285 -0.014413742 -0.09959119 -0.012927808
-0.0023915719 -0.01607845 -0.060106587 0.007319628 0.00616834 -0.034142416 0.06680117 -0.07207254
00000000: 5c2f 5d3d da3c 553c 48fb 013e e3d8 553c
00000010: 9e2e b7bd 4e0d 9bbc 5cda 2a3d 2c68 c33d
00000020: 8f03 6d3c f7a1 153c f493 913d f28c 923d
00000030: ba50 b83d 912a 7f3c 1997 b63b 17a4 c73d
00000040: 80d5 653d 3360 c63d d99b 31bc cba5 cd3d
00000050: 5d07 32bd 9485 cc3d 1233 1dbd 30d6 7fbc
00000060: ff88 11bd 7be2 363d afca 4d3d 8ea9 123d
00000070: d4f8 b3bd 9840 9f3b f8cb 18bd bc3f 11bd
00000080: 6a73 633d 0a54 58ba f48f 533d a14a a1bd
00000090: aa59 4c3c d20f 913d 803e 773d b4e4 d73d
000000a0: 5237 dbbb 4d07 b23d 3a62 8ebd 4526 1dbc
000000b0: b0a5 06bc d5de e9bc e978 063d a0bf 9c3b
000000c0: d4b4 d1bd 4fd2 c6bd ff01 1a3d 36c9 75bd
000000d0: 94c2 e2bd 36e9 053e 072b 67bd 7192 c73d
000000e0: 8555 8c3d 11b5 493d 04e4 99bd b8fe 94bc
000000f0: ad3b a93d f161 b23c 7e00 ffbd a3ee 0a3c
00000100: 68b6 88bd 2425 90bd f132 aabd d1a9 a73d
00000110: 2c05 973d 0699 8bbd 7739 1fbd 0a45 a33d
00000120: 7da0 6239 456d 6bbd d3f6 e83c 0209 e0bd
00000130: 3ab0 b3bd 4252 8f3d 7e7e b5bd b66e ce3d
00000140: d909 06bd c3f6 67bd 3b04 a7bd 4af8 683d
00000150: b099 f6bd fa67 2c3d 4b28 d83c eb53 0d3d
00000160: a30d d3bd 607e 84bd 42fc 3e3d 4f43 94bd
00000170: 3309 38bd aace 663d cbae 313d 0a44 993d
00000180: 8aa1 a03b fe64 2abd d76e 033e 6ca1 bc3b
00000190: 8a0f abbc 4d67 9b3d ab5f abbd 8a08 a83d
000001a0: 84d2 143d 2b37 54bc 3489 94bd 52c7 d0bc
000001b0: 9965 b2bc ee18 9e3c 699c 78bd 71d0 413d
000001c0: 3082 f7bd 7b78 a0bd 0e7d 01bc 5d05 df3d
000001d0: 0775 953d 35ed b3bd 630c a03d 0c0f 6abd
000001e0: 2e7d 9d3d 2b32 273c 3853 b8bc 0fb8 ccbd
000001f0: 0a95 d1bd ab14 d7bd d05b 6fbd 1f8a 8d3d
00000200: f2d5 dbbb 9a21 e23d ee8a efbd f0ca af3d
00000210: 944e 933c 0ad5 bd3d c6a1 d1bd 8fee a0bd
00000220: 1da0 e13d b7f2 4a3d 2444 f5bd f49a d0bd
00000230: 1807 dcbc f674 fb3d ba52 ac3d 69b6 acbd
00000240: 273d 2a3c 55a0 743c bef6 84bd e3e2 aebd
00000250: 82be d33d 98b2 e13b 12e8 163d c4ac d73d
00000260: a602 163d 7d2c 13be d1ae 88bd db83 80bd
00000270: 5abf 98bd b193 853d c131 eb3a 4dd0 ec3d
00000280: ca3d 12bd 7585 9e3c 8b1e f2bc 7205 9f3d
00000290: f279 763d 1952 adbc 32cc 63bd 95f7 46bd
000002a0: 270e 8fbd 16eb 15be e15c 2c3d 558a 5d3d
000002b0: 762f ddbd b657 043e 13b3 7bbd a71c c2bd
000002c0: 3199 8e3d 21fb 843d 6abe 8abc ef30 9e3c
000002d0: 2780 1a3d 8a2c f2bd 7e86 0c3e 9239 bebd
000002e0: 7bd0 55bd 14e0 16be 098c d8bc 342e c03c
000002f0: c4f2 f9bd f903 8ebd 8fe2 453c e1e2 88bd
00000300: 1007 a43d 3e52 e43d a026 16bb cde8 54bd
00000310: 1ff4 5b3d 4cd4 223c f3d6 933d bf45 b03c
00000320: 7f80 823d 4e81 f63d 9281 83bd 4718 5bbd
00000330: 215b b13b 9495 c3bd e90b 963d df3d 90bd
00000340: 853d 563d 132e 8dbd 50a1 8c3d eac5 b43c
00000350: 9c8b e93d 5129 8dbd e147 a13c 51ec 55bd
00000360: 6138 b23b 74e4 8b3d 3b49 c7bd 88bd b23d
00000370: bbd1 113d a6d4 d2bc e112 953d 0868 f83b
00000380: d708 e2bd b2a5 973d 0b78 6f3c 1ba4 46bd
00000390: 972e 653d 7a07 28bd f3ce 363d a452 22bd
000003a0: b6da 15be af90 c43d d945 d13d 9e21 f7bd
000003b0: fce0 9abd b4a2 ac3d db08 643d 96ae 46bd
000003c0: dd42 6e3c b99a b63d 4dc6 cf3d e645 03be
000003d0: 70f7 78bd 9e27 6cbc 77f6 cbbd 28cf 53bc
000003e0: ebbb 1cbb f4b6 83bc 5332 76bd 7dd9 ef3b
000003f0: c91f ca3b ebd8 0bbd 0dcf 883d c59a 93bd

SoftmaxPolicy_l3.bias f4 [2]
0.03290756 -0.017130282
00000000: 14ca 063d ce54 8cbc
