pytorch_models/model280139.pth (torch, 72107 bytes, 6 tensors)

SoftmaxPolicy_l1.weight f4 [128, 4]
000000 91 de 82 3e 8f cf 62 be cb 7a ea bd 15 14 6b 3e
       0.2556043 -0.2214949 -0.11449202 0.2295688
000010 69 e8 ef be f2 a9 a0 3e 23 6c 53 bd 17 37 83 3e
       -0.46857002 0.31379658 -0.0516168 0.25627968
000020 1d c2 8c 3d 48 77 62 bd 18 0a 53 3e 12 55 4b 3d
       0.06872962 -0.055289537 0.20609319 0.049641676
000030 55 df 31 3e c3 74 40 be 6a c6 de bc 45 30 53 bd
       0.1737035 -0.18794541 -0.02719422 -0.051559705
000040 d1 58 93 3d e8 ce e5 ba fc e7 de 3e a2 a8 1d 3e
       0.07194675 -0.0017532976 0.43536365 0.1539636
000050 b2 63 3b be d5 e0 99 be bd 2c ac bd 67 f8 58 be
       -0.1829975 -0.30054346 -0.08406971 -0.21188508
000060 a2 5a 26 be dd 4d a9 3c 7d 02 a0 3e 65 75 8f 3e
       -0.16245511 0.02066701 0.31251898 0.28019252
000070 e9 dd fa be 2a a9 a7 3e 80 ba 84 3e 36 a1 04 3f
       -0.4899743 0.3274625 0.25923538 0.5180849
000080 20 de a7 3e 83 ac eb be b8 22 fb be 9f d4 6f be
       0.32786655 -0.46030053 -0.49049926 -0.23420952
000090 15 a9 d6 3e 60 af c5 bd 15 ff 5f 3e 8b 87 69 be
       0.41925874 -0.09652591 0.2187465 -0.22805612
0000a0 3e 2d f8 3e d6 16 70 be e8 78 98 3e 2e cd 24 bc
       0.48472017 -0.23446211 0.29779744 -0.010058684
0000b0 e5 d4 84 be 23 3b 84 3e 28 50 82 be 57 df 1f 3e
       -0.25943676 0.25826368 -0.2545178 0.15612541
0000c0 f0 49 07 be 59 89 4e bd aa 4c f0 be e2 b0 6a be
       -0.13211799 -0.050423954 -0.4693349 -0.22919038
0000d0 d5 be 89 3e e3 fd ec bd e0 88 00 3f 40 ad cd 3e
       0.26903406 -0.115718625 0.50208855 0.40171242
0000e0 c6 e3 fb bc 72 70 9f be 9e 60 d4 3e 08 d6 48 3e
       -0.03074826 -0.31140476 0.41479963 0.19612896
0000f0 7f d0 a1 be 54 42 af 3e d9 91 da 3e 6d 3f fb 3e
       -0.31604382 0.34230292 0.42689398 0.49071828
000100 14 75 8e be bf 59 a6 bd 02 c0 eb bc 09 b5 8a 3d
       -0.278237 -0.081225865 -0.02877808 0.06772811
000110 c8 2c c1 be ac 69 b5 be 7c 40 7f 3e 00 34 ff bd
       -0.37729478 -0.35432184 0.24926943 -0.1246109
000120 51 c8 6b 3e eb 88 08 3d ea 4a 9c 3e 8d ec 37 3e
       0.23025633 0.0333337 0.30525905 0.1796133
000130 e4 79 29 3e 08 ea 81 3e 16 3d a1 be a0 d9 a5 3e
       0.16550404 0.25373864 -0.31491917 0.32392597
000140 74 97 b1 be 50 d8 c0 be 2f 9d ab 3d 2b 2c 67 bd
       -0.34685862 -0.37665033 0.0837959 -0.056438606
000150 6e 52 95 3e 5e 99 90 be 72 cb b6 be 4c 64 d2 3e
       0.2916445 -0.2824201 -0.3570209 0.41092145
000160 f5 0a 92 bd a7 92 8d 3e bd 79 b3 3d 6d c8 d7 be
       -0.07130996 0.2765095 0.08763454 -0.421451
000170 12 e0 c6 3d 31 f0 e8 3d ee 86 ae be 09 9b 73 be
       0.09710707 0.11373938 -0.34087318 -0.2378961
000180 ce a7 34 3e 50 ce 8b 3d 56 1f b9 be 5d 46 5d be
       0.17642137 0.0682646 -0.3615672 -0.21608873
000190 f3 f3 e4 3e 52 21 a8 bd b9 c5 cd 3e dc 80 88 3e
       0.44717368 -0.0820948 0.40189913 0.26660812
0001a0 4c 40 a4 be 9a 22 d8 be 98 fc eb 3e 71 fe 82 3c
       -0.32080305 -0.422139 0.4609115 0.015990468
0001b0 b4 1e ac 3e cc 68 ec 3d 69 e1 89 3e dc cd d2 3e
       0.33617175 0.11543426 0.26929787 0.41172683
0001c0 f6 40 ed 3e 69 d7 a5 be cd 15 44 3e a1 59 e2 3e
       0.46338624 -0.32390907 0.19148941 0.44209006
0001d0 86 7d b3 3e d5 8f 98 3e d5 f4 bc be 7a 3b b8 be
       0.35056704 0.29797235 -0.36905542 -0.35982877
0001e0 ca 41 9d be 48 af 6b 3d 6b 49 03 3f 18 08 a0 be
       -0.30714256 0.057540208 0.512839 -0.31256175
0001f0 d5 75 8c 3e fb e7 8f be 05 70 fd be d5 56 d5 bd
       0.2743365 -0.28106675 -0.49499527 -0.104169525
000200 f5 5d 90 3e 30 ba ed 3e 3c 81 93 be 71 0f e3 3d
       0.28196684 0.46431112 -0.28809536 0.110869296
000210 73 14 d6 3e 6b 6d b5 3e 26 58 d2 3e 00 7d c0 3e
       0.41812477 0.35435042 0.41082877 0.37595367
000220 4b cb 9a 3e 4f 4e ea 3d 7e cf aa be 1a dd d1 be
       0.30233225 0.114407174 -0.3336143 -0.40989
000230 15 9a 71 be c3 8d 65 bd 3b 98 3c be 69 a9 7c 3e
       -0.23593934 -0.056043398 -0.18417446 0.24674
000240 da ca 1f 3e 79 9a ea bd 95 76 57 3e b0 25 33 3e
       0.15604725 -0.114552446 0.21041329 0.17494845
000250 d9 a5 97 3e d4 b5 b8 3e 16 50 75 bd 0e 35 05 3f
       0.2961872 0.36076224 -0.05989083 0.5203408
000260 36 aa 36 bd 80 39 00 bd 26 14 1b bf 88 05 be be
       -0.04459592 -0.031304836 -0.6057762 -0.37113595
000270 26 b9 93 be 31 61 5a be b0 37 b0 3e d8 b0 27 be
       -0.28852195 -0.21326138 0.34417486 -0.16376054
000280 cc f9 ba be 44 44 60 3e c1 1c 86 3e ec 60 b0 3e
       -0.36518705 0.21901041 0.26193812 0.34448946
000290 19 67 85 be a5 2b d7 3d 26 5d 3a be dc ff e2 bd
       -0.2605522 0.105063714 -0.18199596 -0.110839576
0002a0 a6 b5 c9 be b3 12 6b be 66 4d 2e be df 5f 5b 3e
       -0.393964 -0.22956352 -0.17021713 0.2142329
0002b0 1a 2f a9 3d 7e 60 15 3e 9c 1b 20 3f 87 1e 03 3f
       0.08260937 0.1458759 0.6254213 0.51218456
0002c0 78 e0 a9 3e 98 9b c0 3c fb bf 61 be e1 96 e5 3e
       0.3317907 0.023511693 -0.22045891 0.44841674
0002d0 95 71 05 be cc 0e 3d bd b0 fc e0 be 75 33 cc bd
       -0.1303161 -0.04615669 -0.43942785 -0.09970752
0002e0 19 ba aa be 6f eb e7 3e f8 a6 f4 be ea d1 d6 be
       -0.33345106 0.4529681 -0.47783637 -0.41957027
0002f0 f3 68 29 bc 6e 2a 88 be bd 3f 32 3e 4b 1c 45 be
       -0.010339963 -0.2659487 0.17407127 -0.19249074
000300 fc ab 6d be b4 a9 2f 3d 34 c9 ae 3e bc f6 c2 be
       -0.23210138 0.04288645 0.3413788 -0.38078868
000310 65 e7 6b 3e 7c 57 a2 3e d6 b3 f0 3e 2a 2a b9 be
       0.23037489 0.3170737 0.47012204 -0.3616498
000320 a9 44 0c 3e c4 79 b9 be 5a e6 c8 3e 84 57 53 be
       0.13698067 -0.36225712 0.39238244 -0.20638853
000330 0a 13 97 3e 61 fe 88 3c 35 a9 55 bc 02 3e d2 bb
       0.29506713 0.01672286 -0.01304083 -0.0064160833
000340 f8 bf 95 3d 34 d1 72 3e f2 bf 5b 3e bc d0 64 3e
       0.07312006 0.23712617 0.2145994 0.22345251
000350 06 17 e6 be b7 c4 be 3e ef 9f 08 3f 4d 16 ed 3e
       -0.4493944 0.37259457 0.5336904 0.46306077
000360 4a ff b2 3e 7a 38 b8 be f5 07 1e be 32 78 e3 3e
       0.34960395 -0.35980588 -0.15432723 0.4442764
000370 7b 08 c7 be 95 9b e9 3e a7 6c df be e8 43 c8 be
       -0.38873658 0.45626512 -0.43637583 -0.39114308
000380 96 89 74 3e 11 29 b2 be 6a 7c 45 bd 1a 99 c9 3e
       0.2388061 -0.34796956 -0.048214354 0.3937462
000390 d9 02 cd 3e cb e5 ee 3e 81 5d 4a be 10 70 e2 be
       0.40041235 0.46659693 -0.19762231 -0.44226122
0003a0 25 c8 f7 3e 66 55 05 be a1 56 77 be 33 79 08 3e
       0.48394886 -0.13020858 -0.2415414 0.13327484
0003b0 d6 6b b3 be f5 73 a4 3e 02 1b 6d 3e ba ac e4 be
       -0.3504321 0.32119718 0.23154834 -0.4466303
0003c0 f2 cc d2 be fb e2 3f bd 27 c3 46 3e 2f 25 58 bc
       -0.41171986 -0.046847325 0.19410382 -0.013192459
0003d0 77 c0 7f be 7d 0a a7 3c 43 a7 f2 be 17 92 b9 be
       -0.24975763 0.020390743 -0.47393236 -0.3624427
0003e0 e4 f1 a8 be e8 f8 d4 3e 84 20 d1 3e c9 78 49 be
       -0.32997048 0.4159615 0.4084512 -0.19674982
0003f0 f9 e1 e9 3c 05 27 57 3e 5a d1 15 3c 1c 91 89 be
       0.028550135 0.21010979 0.009144152 -0.26868522

SoftmaxPolicy_l1.bias f4 [128]
000000 c4 58 c2 be 75 15 b6 3e d8 44 aa 3e d4 e3 ff be
       -0.37958348 0.35563245 0.3325565 -0.49978507
000010 4c d1 c9 be 8e 03 ad be f6 eb 84 be 35 88 f4 3d
       -0.39417493 -0.33791775 -0.25961274 0.11940042
000020 75 66 f8 be b8 af c8 be f8 95 6c 3e 0a e2 2e be
       -0.4851567 -0.39196563 0.23104084 -0.17078415
000030 45 74 5b be 3b 58 d4 be 7e 5e 44 3e af da e7 3d
       -0.21431072 -0.41473565 0.19176671 0.113210075
000040 40 16 52 be d9 a3 9f be e1 2a ef 3d b7 94 1a 3e
       -0.205163 -0.31179693 0.116781004 0.15095793
000050 d4 f3 44 3e cb ae 28 3e a1 6a 4d bd 64 af c8 be
       0.19233638 0.16472928 -0.050150517 -0.39196312
000060 d6 10 b3 3e c2 9a 07 3d 4a 7b b0 be 16 64 f0 3e
       0.34973782 0.033106573 -0.34469062 0.4695136
000070 64 cb 92 3e d9 03 d0 be 59 e4 7c be 70 9d 23 be
       0.286708 -0.40627936 -0.24696483 -0.15978026
000080 71 da 94 be 67 85 70 3e 8b af c1 be a6 bb e7 3e
       -0.29072908 0.23488389 -0.3782924 0.45260352
000090 7b 3e 4a be 9c 7f 9b 3e 71 f2 c2 3d 5d 77 6b be
       -0.19750397 0.30370796 0.09518898 -0.22994752
0000a0 06 d3 b0 3e db 87 c2 be 2d 98 87 be c7 6b df 3d
       0.34535998 -0.37994274 -0.26483288 0.10909229
0000b0 57 66 c7 3e c9 10 55 be 43 59 91 be d8 52 a5 be
       0.38945267 -0.20807184 -0.28388414 -0.32289767
0000c0 d7 8f 4c be 62 f8 22 be 66 0d f6 bd 21 eb 95 be
       -0.19976746 -0.15915063 -0.12014274 -0.29280952
0000d0 7c 9d 2d 3e 24 5c ac 3d 9d c9 ae be bb 13 82 be
       0.16954607 0.08416012 -0.34138194 -0.25405678
0000e0 e2 8d ce 3d bf 1e d3 3c 8d d5 c7 3e 50 fe 75 bd
       0.10085656 0.025771497 0.39030114 -0.060056984
0000f0 b5 97 cf be c8 f3 ba be a9 77 06 be 13 ab d8 bd
       -0.4054543 -0.36514115 -0.13131584 -0.10579505
000100 29 1a b0 3d c6 ba 04 be 2b 70 58 3e a7 6a 23 be
       0.0859874 -0.12961873 0.21136539 -0.15958653
000110 0d 9a c8 3e 78 56 cb 3d 20 30 25 be ee a8 f3 3e
       0.3918003 0.09928602 -0.1613164 0.4758982
000120 ee a9 26 3e 53 2b b8 be 8f fb 87 be b4 8d ab 3e
       0.1627576 -0.35970554 -0.2655911 0.33506548
000130 6b 17 62 3e fe 8a c2 3e 0f 81 8d 3c 1b 23 b2 3e
       0.22079246 0.37996668 0.017273454 0.34792408
000140 38 bc 8b 3e 43 cc 10 3e e4 2d 18 be 2f c3 02 3f
       0.27292037 0.1414042 -0.14861256 0.51079077
000150 1d da c6 3d 80 63 1e be 69 b5 87 3d 3a c5 ff 3e
       0.097095706 -0.15467644 0.06626398 0.4995516
000160 e9 f5 a3 3e b0 d9 6f bd de 08 05 3f 6b 99 80 3e
       0.32023552 -0.058557212 0.51966655 0.2511705
000170 ec ae 84 be 89 32 eb be 57 53 a0 3e ec 2e 00 3f
       -0.25914705 -0.45936993 0.31313583 0.500716
000180 f6 00 9b be 22 39 4a 3e 61 dc 30 3d 1c ac 02 be
       -0.3027417 0.19748357 0.04317892 -0.12760967
000190 68 cb df bd 0d 09 2a 3e d2 47 d1 3d 01 b1 ab 3e
       -0.109274685 0.16605015 0.10218777 0.3353348
0001a0 b0 e1 3c 3e 05 0a 85 3e e9 d9 f1 3e 87 19 34 3e
       0.18445468 0.25984207 0.47236565 0.17587863
0001b0 83 2e ec 3d 6a f2 0c be 16 f6 c2 3e 59 eb bf 3d
       0.11532309 -0.13764349 0.38078374 0.09371061
0001c0 1d 7d a7 3e 9e 6c f6 3e e9 5e 06 be 09 64 aa 3e
       0.3271264 0.48129743 -0.13122143 0.33279446
0001d0 16 d6 80 bd fe c8 f4 3e 90 cf c8 3e 7a 65 20 be
       -0.06290834 0.47809595 0.39220858 -0.1566371
0001e0 24 a6 3a 3c 47 9d 5a be e6 f6 56 be 0b 20 b3 bd
       0.01139215 -0.21349059 -0.20992622 -0.08746346
0001f0 fa 30 08 bb c8 3c 1f be 04 24 f1 be 2a af a0 be
       -0.0020781145 -0.1555053 -0.4709779 -0.3138364

SoftmaxPolicy_l2.weight f4 [128, 128]
000000 17 89 b5 39 7d 47 2c bd 64 49 95 3d 76 e2 94 3d
       0.0003462515 -0.042060364 0.07289389 0.072697565
000010 71 00 68 3d c5 75 25 3d ff 91 93 bd 2a 65 4e 3d
       0.056641046 0.040395517 -0.07205581 0.050389446
000020 80 3a 78 bd ba 4b 62 bc 9b 8d 18 bd b3 87 db 3c
       -0.060602665 -0.013812 -0.03724442 0.026798105
000030 f2 82 87 bd 62 35 27 bd 2a 52 78 bd 7f 89 d0 bd
       -0.06616773 -0.040822394 -0.060625233 -0.10182475
000040 b0 30 42 bd ab fc a5 3d bb 3a d3 bb a3 2e 03 3d
       -0.047409713 0.08104833 -0.00644621 0.032026898
000050 bc 03 b2 bd 94 28 c8 3d 36 41 5b bc df 7c 9e bd
       -0.086921185 0.09773365 -0.013382247 -0.07738661
000060 71 5b b4 3d 5a aa 65 bc 7a 10 94 3d bc 9b 64 bd
       0.088065036 -0.014017666 0.07229705 -0.055812582
000070 97 1c 8c bd 35 ad 5d bd 2d 33 0c 3d 10 53 b7 3c
       -0.068413906 -0.05412026 0.034228493 0.022378474
000080 cc a2 9c bd df 7d 5a 3c 74 e0 29 3c 83 91 09 3d
       -0.076482385 0.013335674 0.010368455 0.033586036
000090 fe 42 2f bd 92 cf 80 bd 91 15 e9 3d 8d f7 45 bd
       -0.042788498 -0.06289591 0.113810666 -0.048331786
0000a0 30 93 30 3d e2 c1 93 3d 60 c9 8d bd 03 12 a1 bd
       0.04310912 0.072147146 -0.06923175 -0.078647636
0000b0 e8 bb c3 3c a2 c8 9c bd c0 e7 0b 3d e0 cf 07 bd
       0.023893312 -0.07655455 0.03415656 -0.03315723
0000c0 2a d4 15 bd 79 27 86 bd c9 71 3c 3d 30 e1 39 bd
       -0.03657929 -0.065504976 0.04600695 -0.04538077
0000d0 d7 62 b1 bd b6 5c 87 bd 36 d6 27 bd d8 89 a3 bd
       -0.0866143 -0.0660948 -0.04097577 -0.07985276
0000e0 a3 ed 39 3d f7 dd b5 bc 87 f7 b2 3d 02 a2 79 3d
       0.045392644 -0.022200568 0.08738618 0.06094552
0000f0 20 f5 68 bd 1d 96 39 bd 85 fe 31 bd 7d 7f 6c 3d
       -0.056874394 -0.045309175 -0.04345562 0.05773877
000100 57 8f b5 3b 23 77 d0 bc 36 35 ba 3d 9d 02 d7 3d
       0.005540769 -0.025447434 0.090921804 0.10498545
000110 da 4c a4 3d 76 e3 87 bd 38 4d 0e bd 82 72 59 bc
       0.08022471 -0.066351816 -0.03474161 -0.01327193
000120 e4 12 c6 3d 9d 34 17 bd 7e db 35 bd 42 0e 85 3c
       0.09671572 -0.03691541 -0.044398777 0.01624215
000130 40 22 a3 bc 72 3c 2e 3d 1d 64 80 3c ef 63 9a bd
       -0.019913793 0.042538114 0.015672738 -0.07538592
000140 84 f2 ae 3d 8d ca a8 3d b5 85 c8 3b 0c a5 57 bd
       0.0854235 0.082417585 0.0061194547 -0.052647635
000150 e8 7d 11 3d 92 68 5b 3d 3c 4a 7c 3d 19 de 1d bd
       0.035520464 0.053566523 0.061594233 -0.038541887
000160 2d 1b ba bb 87 9e d0 bc 60 dd b5 3d db a6 00 3e
       -0.005679509 -0.025466217 0.088801146 0.1256365
000170 7f d5 25 3b a0 d6 5b bd 41 b9 24 3d 23 30 50 3d
       0.0025304256 -0.05367148 0.040215734 0.050827157
000180 e0 2f 17 3d 6b 85 9e bd 26 0e 76 3c 9e 24 0b bd
       0.03691089 -0.07740291 0.015018022 -0.033970468
000190 75 d5 94 bd ca 60 17 bd 09 68 63 3d 14 7f 2d 3d
       -0.07267276 -0.03695754 0.055519138 0.04235752
0001a0 96 e7 9e bd 98 6b 7b 3c 47 fe b2 3d ac ba da 3d
       -0.07759015 0.015345477 0.08739906 0.10680136
0001b0 c7 40 8e 3d f4 2e cb bc 55 04 4e 3d ac 87 56 3d
       0.06945949 -0.024802662 0.0502971 0.05237548
0001c0 02 2b 2c 3d 55 a6 6f bd b8 3a 0a bd ef 08 9e 3d
       0.042033203 -0.058508236 -0.033747405 0.07716548
0001d0 8b a8 a0 3d c2 c5 a2 3d 0a f2 2f bd d7 0d 92 bc
       0.07844647 0.079478756 -0.042955436 -0.017828865
0001e0 5c 1e 62 bd c0 be fc bc 6d 73 94 3d 83 e0 83 bd
       -0.055204734 -0.030852675 0.07248578 -0.064393066
0001f0 97 83 ce 3b 4f f5 a8 3c 02 f2 46 bd 87 ec 20 3d
       0.006302308 0.020624785 -0.04857064 0.03928807
000200 a7 ad 88 bc f4 a0 91 3d eb 9e 2c bd ff ac 3a 3c
       -0.016684366 0.071107775 -0.042143743 0.011393785
000210 af 38 a0 bd f3 29 4b 3d 66 51 ad 3d f7 a5 cd 3c
       -0.078233115 0.049600553 0.08462791 0.025103552
000220 c9 06 74 3b c7 b2 3a bd bc 97 21 bd b6 39 2d bd
       0.003723549 -0.04558065 -0.039451346 -0.042291366
000230 13 54 46 bd ba 4d d7 3c 42 fb 57 3c 64 74 a8 3d
       -0.048420023 0.02628218 0.013182463 0.08225325
000240 2f 14 8f bd 16 99 69 bd 09 da 14 bd c3 2b 08 bd
       -0.069862716 -0.05703076 -0.036340747 -0.03324486
000250 6c 8d a2 3d 78 88 34 3d 1a 82 9c bd 9d 06 7f bb
       0.0793713 0.04407546 -0.076420024 -0.0038913854
000260 1e f7 dd 3b fd 8b 9a 3d 02 43 a9 3d ad 1c 75 3d
       0.0067738434 0.07546232 0.08264734 0.0598418
000270 65 49 af 3d b4 4a ee bc d7 f0 8e ba 28 19 a3 bd
       0.08558921 -0.029088356 -0.0010905516 -0.079637825
000280 be da d4 3c 24 24 fa 3d ba 44 51 3d 0d e2 da 3d
       0.02598321 0.122139245 0.051090933 0.10687647
000290 89 33 08 bd 83 ef f3 3c c1 ac 51 bd a4 ac 8e 3d
       -0.033252273 0.029777294 -0.05119014 0.06966522
0002a0 6b d1 16 bd 24 3b 26 bd b9 84 66 3c ce 24 8b 3c
       -0.03682081 -0.040583745 0.0140697295 0.016985323
0002b0 54 21 7b 3d 58 0d 4f bc 72 13 98 bc 5a 6e 34 3d
       0.06131108 -0.012637459 -0.01856396 0.044050552
0002c0 b3 e1 7a 3d 97 be cd 3d 3f eb 0b 3d 57 b0 0c bb
       0.0612504 0.10046118 0.034159895 -0.0021467411
0002d0 95 9d fa 3d be b1 07 3e 57 c6 1f bd 3f a0 2b 3d
       0.12237088 0.13251397 -0.03900751 0.04190087
0002e0 ef 43 df 3c 33 cd 1f bd 8a c2 b9 bb 7d f4 63 bc
       0.027254073 -0.039014053 -0.005668943 -0.013913271
0002f0 e6 9f 87 bd da 76 04 bd 40 cf 5f 3d 8b 75 9b 3d
       -0.06622295 -0.03233991 0.05464101 0.07590779
000300 40 69 43 3c bb 1a 9a bd 55 52 66 3c 90 5a d6 bc
       0.011926949 -0.0752463 0.014057715 -0.02616623
000310 c6 65 a8 3d 25 4a ad bd b8 78 46 bc 55 a8 b1 3d
       0.08222537 -0.084614076 -0.0121137425 0.08674685
000320 b4 1f 78 3c b5 7c 23 bd 35 6e a8 bd b9 48 73 3a
       0.015144277 -0.03991385 -0.08224145 0.0009280551
000330 f5 43 65 3d 5f 7f 6c bd bd d5 a9 bd bc 29 65 3d
       0.055973012 -0.057738658 -0.082927205 0.055948004
000340 92 6d f6 bc 4e 9e 78 3d 2b f8 9c bd dc ef 31 bc
       -0.030081544 0.060697846 -0.07664522 -0.01086041
000350 82 21 61 bd 73 49 15 bb e0 35 ad bd 26 9e 41 3d
       -0.054963596 -0.0022779375 -0.084575415 0.047269963
000360 1c 6c 20 bd 59 54 81 bd 79 45 2b bd 62 cb e6 bd
       -0.0391656 -0.06314916 -0.0418143 -0.11269261
000370 bb 21 40 3d 6d 05 a0 bc cf f6 a9 bb 01 7b 95 3d
       0.046907168 -0.019533837 -0.0051868926 0.07298852
000380 54 4c 45 bc d3 c2 a4 3d 50 6b d0 3b 76 b7 72 bd
       -0.012042124 0.08044972 0.006360449 -0.059256993
000390 68 3a cc 3c f4 74 e2 3c bc a3 7d bd 53 6f eb 3c
       0.024930194 0.027643658 -0.061923727 0.028739607
0003a0 a6 2e 9d 3c 1c 19 9e 3d 81 a0 e1 bb e1 fc 84 bd
       0.019187283 0.07719633 -0.0068855886 -0.06493545
0003b0 a2 53 af bd 99 da 0f 3d 8d 1c b6 bc 59 6f ab bc
       -0.085608736 0.03512058 -0.022230411 -0.020927118
0003c0 e3 70 07 bc e8 51 bd bc 79 f1 c9 3c 64 87 a8 3d
       -0.00826666 -0.023110345 0.024651276 0.08228949
0003d0 dd 8a 98 3d 18 82 7e bd 57 f0 bb 3d bb 0b 7e 3d
       0.07448361 -0.062135786 0.091767006 0.062022906
0003e0 df 28 76 3c 36 dd 27 3d 48 9e 6f 3d 0e b7 9e 3d
       0.015024393 0.040982448 0.05850056 0.07749759
0003f0 60 b9 49 3d 67 c5 ff 3c 10 ce 11 bd 23 f9 6f bd
       0.049249053 0.031222058 -0.035596907 -0.058587205

SoftmaxPolicy_l2.bias f4 [128]
000000 d2 8c 59 3d 6b 13 0f bd 66 4f 24 3b 6a fb 7f bd
       0.053112812 -0.034930628 0.002507174 -0.062495627
000010 cd 52 45 bd 64 fb 64 3d 87 6d 98 3c c8 e9 e2 3c
       -0.048174668 0.055903807 0.018606914 0.027699366
000020 dd d4 4e 3d ec 79 db 3c e9 ed eb 3b a5 2e 37 bc
       0.05049597 0.026791535 0.007199992 -0.0111805545
000030 00 1b 91 3a 6c 29 a9 3d ab c8 10 3d 8b 4d 25 3c
       0.0011070669 0.08259854 0.035347622 0.0100892885
000040 49 f6 11 3d 66 8f 24 bd 2c b7 8d bd a9 6d 9b bc
       0.035635266 -0.040175818 -0.06919703 -0.018973188
000050 b1 cf c3 3d 1b 68 ae 3c f3 88 85 bd 7d b3 73 3d
       0.09561098 0.021289876 -0.065202616 0.059497345
000060 04 cc a5 3d 3a 97 8b 3d 25 b4 35 3c 03 fb be bc
       0.080955535 0.068159536 0.011090313 -0.023313051
000070 f8 cf 0e 3c 42 6f f7 3c db 3c 01 bd 8f 79 2f bd
       0.008716576 0.030204419 -0.031552177 -0.042840537
000080 10 4e 9e 3c 9e a4 36 3d 4a 72 dd bc f5 db 0e bc
       0.019324332 0.044590585 -0.027032036 -0.008719434
000090 7b 48 85 bd 34 50 93 ba 1a 5d a1 bc 5c 18 ba 3d
       -0.06507965 -0.0011239112 -0.019697715 0.090866774
0000a0 a5 b0 7a 3d c5 8a f5 bc cc 45 8c bd 2b 6b 92 bd
       0.061203618 -0.029973397 -0.0684925 -0.07149347
0000b0 28 21 52 bd 4b 51 b7 3d 4c 1c d2 bc d7 95 85 3d
       -0.05130115 0.08951052 -0.025648259 0.0652272
0000c0 02 1e 8c 3d 03 84 14 bc c3 5e 20 3d 7b b9 f2 3c
       0.06841661 -0.009064677 0.03915287 0.02962946
0000d0 f1 23 a9 3d 95 a2 2c 3d 8e 1f 53 3d 7d ae b6 3d
       0.082588084 0.042147238 0.051543765 0.0892
0000e0 32 30 26 3c db a0 a9 3d f6 d9 1d bb c5 61 87 bd
       0.010143327 0.08282634 -0.0024086214 -0.06610445
0000f0 c0 14 ae 3d af b5 87 bd 53 56 0b 3b 45 ac ac 3d
       0.085000515 -0.0662645 0.002126117 0.08431295
000100 9c b6 bf bc 01 de 78 bd 09 8f 87 3d 8d 83 08 3d
       -0.023402505 -0.060758594 0.06619079 0.03332858
000110 f5 35 67 3d 50 d8 43 3d 9f 32 bd bd 04 2e 92 3d
       0.05644794 0.047813714 -0.09238171 0.07137683
000120 37 09 95 bd 21 47 43 3c 0c e9 50 bd c0 7b 87 3d
       -0.07277148 0.011918814 -0.0510035 0.066154
000130 96 ec bd 3d de 7f 59 3c 1c af b5 bc da 09 9b 3d
       0.09273641 0.013275115 -0.022178225 0.075702384
000140 81 f7 8e 3d 01 74 85 bc fe 99 91 3d 5c 61 e6 3b
       0.069808014 -0.016290667 0.0710945 0.007030649
000150 64 c5 24 bd f5 60 aa 3d 26 4c 52 bd fc d8 84 bd
       -0.04022731 0.08319274 -0.051342152 -0.06486699
000160 3b 74 56 3d 6a f3 08 3d a4 7c 8f 3d fd b8 10 bd
       0.05235694 0.033435263 0.07006195 -0.03533267
000170 d3 91 ae 3c 98 b3 3b 3d 44 ac 95 3c 90 9a 94 bd
       0.021309769 0.04582557 0.01827062 -0.07256043
000180 57 5c 67 3d e5 b5 c1 3c f8 df a9 bc d4 2b ba bc
       0.056484547 0.023646304 -0.02073668 -0.022725977
000190 55 32 bb bd ee 05 c0 3d a3 21 5d 3c 0f 66 cb bc
       -0.091404594 0.09376131 0.013496789 -0.024828939
0001a0 9f b9 c7 3d 78 48 81 bd 88 20 d0 3c eb 19 68 bc
       0.09752201 -0.063126504 0.025406137 -0.014166336
0001b0 3e c7 dc bc d0 a0 fd 3a dc ad 39 bc 27 d9 99 3d
       -0.026950475 0.0019350294 -0.011332955 0.07512122
0001c0 85 cc 84 3d 45 f6 00 3d d4 28 6f bb 69 6b 7a bc
       0.064843215 0.03148486 -0.0036492841 -0.015284398
0001d0 9b 5b 06 bc dc a0 85 ba 05 4a 01 3d c9 d9 8f 3d
       -0.008200551 -0.0010195035 0.03156473 0.07023961
0001e0 f8 d5 81 bd a0 44 b6 bd e8 ec 70 bc 42 bd 93 3d
       -0.063396394 -0.08899808 -0.01470492 0.072138324
0001f0 ab 8e 30 3d 9b 37 0d bd cd b8 69 3d e4 af 1e 3d
       0.04310481 -0.034476858 0.057061005 0.03874196

SoftmaxPolicy_l3.weight f4 [2, 128]
000000 62 27 54 3d 11 1b 56 3c 87 67 fe 3d 88 08 5a 3c
       0.05179537 0.013067977 0.1242209 0.013307698
000010 89 4a b7 bd ba 51 99 bc fc 99 25 3d 1e 67 be 3d
       -0.08949763 -0.018715728 0.040430054 0.09297012
000020 52 4f 73 3c 49 a7 fe 3b ed b5 8c 3d ed 22 8e 3d
       0.014850454 0.007771407 0.06870637 0.06940255
000030 ba 50 b8 3d 31 07 74 3c 79 60 6e 3b b6 64 c3 3d
       0.08999772 0.014894293 0.003637342 0.095406935
000040 05 7b 62 3d e2 ca c0 3d 72 9c 31 bc 28 80 c8 3d
       0.0552931 0.09413697 -0.010840522 0.09790069
000050 a6 a5 30 bd cb 16 c8 3d 12 33 1d bd e8 50 80 bc
       -0.043126725 0.097699724 -0.038378783 -0.01566358
000060 ff 88 11 bd d5 02 2d 3d 97 d2 44 3d 9e ea 0a 3d
       -0.03553104 0.04223903 0.048052397 0.033915155
000070 d4 f8 b3 bd 44 66 b4 3b b2 d2 20 bd f1 6e 14 bd
       -0.087876946 0.005505355 -0.039263435 -0.036238614
000080 6a 96 59 3d 02 36 54 ba fb 27 4c 3d a1 4a a1 bd
       0.05312196 -0.0008095206 0.049842816 -0.078755625
000090 aa 59 4c 3c 3d 4b 8d 3d 8f d5 6c 3d 01 5e d1 3d
       0.012472549 0.06899116 0.057820853 0.10223008
0000a0 93 e0 1e bc 6d 25 ae 3d 3a 62 8e bd 23 d2 1e bc
       -0.009697097 0.08503232 -0.06952329 -0.009693655
0000b0 0e 4a 22 bc a1 89 ea bc fa 69 06 3d cd 31 1b 3b
       -0.009905351 -0.02863008 0.03281591 0.0023680807
0000c0 29 10 d1 bd f8 b7 c6 bd 5e 27 1b 3d 29 0a 77 bd
       -0.102081604 -0.09703058 0.03787934 -0.060312424
0000d0 10 7b e3 bd 60 78 03 3e f6 9f 68 bd b6 70 c2 3d
       -0.11107457 0.12838888 -0.056793176 0.09494154
0000e0 61 a8 85 3d ee 6f 40 3d 04 e4 99 bd bb 82 ab bc
       0.06526256 0.046981744 -0.07514194 -0.02093636
0000f0 47 fc a5 3d f1 61 b2 3c 74 71 ff bd eb f7 ea 3b
       0.08104759 0.021775218 -0.12472811 0.0071706674
000100 b0 f7 88 bd 86 f6 8f bd f1 32 aa bd 40 b2 a4 3d
       -0.06687868 -0.070294425 -0.083104976 0.08041811
000110 18 ce 95 3d 73 a7 8d bd ab 10 0e bd ef 86 a0 3d
       0.073147 -0.06916704 -0.034683865 0.078382365
000120 3f be 99 ba 86 eb 6f bd 1b 67 da 3c b7 31 e0 bd
       -0.0011729671 -0.058574222 0.026660493 -0.10946982
000130 ff de b3 bd c1 8a 90 3d 13 9b b5 bd 8c 6a ca 3d
       -0.087827675 0.07057715 -0.08867469 0.098836035
000140 87 c2 05 bd 90 f6 67 bd 28 f0 a8 bd 80 57 5f 3d
       -0.03265622 -0.056631625 -0.08248931 0.054526806
000150 98 2d f6 bd a3 51 24 3d eb c0 dd 3c 6a fc 08 3d
       -0.12020415 0.040116917 0.02706953 0.033443846
000160 25 b9 d3 bd 60 7e 84 bd 04 88 32 3d 60 ca 94 bd
       -0.10338048 -0.064694166 0.043586746 -0.072651625
000170 59 79 3b bd 36 08 64 3d cb ae 31 3d 08 1a 94 3d
       -0.045770023 0.055671893 0.043379586 0.072315276
000180 40 98 42 3b 0e ef 2a bd b6 44 01 3e af 6f 7e 3b
       0.00296928 -0.041731887 0.12623867 0.0038823893
000190 02 ed ad bc 0e 50 98 3d 13 47 b0 bd 6c 8c a5 3d
       -0.021231178 0.07437144 -0.08607306 0.08083424
0001a0 7e a9 0b 3d 51 82 7b bc 80 61 94 bd 96 54 db bc
       0.034097187 -0.015350894 -0.07245159 -0.026773732
0001b0 c5 4b c1 bc ee 18 9e 3c 33 9a 77 bd f1 a8 3a 3d
       -0.0235957 0.019298997 -0.06044979 0.04557127
0001c0 54 a1 f6 bd 33 f4 a0 bd b9 79 f3 bb d4 4f da 3d
       -0.1204249 -0.07859077 -0.007430282 0.10659757
0001d0 2a f5 8f 3d e8 02 b4 bd 7b 75 9a 3d 0c 0f 6a bd
       0.07029183 -0.08789617 0.07541939 -0.057143256
0001e0 85 18 99 3d 2b 32 27 3c a6 39 c4 bc c9 7a cc bd
       0.0747538 0.010204832 -0.02395327 -0.09984357
0001f0 21 40 d2 bd 2f 08 d7 bd 5d fd 6d bd 02 8a 8d 3d
       -0.10266138 -0.10499608 -0.058102954 0.069110885
000200 2d 96 93 bb d1 05 e2 3d e9 fb e9 bd f9 44 af 3d
       -0.0045039863 0.11036266 -0.11425001 0.08558077
000210 45 be 93 3c 29 66 bd 3d 95 01 cf bd 80 ed 9b bd
       0.018035064 0.09248001 -0.101077236 -0.07613659
000220 a3 d6 e0 3d 4e 86 50 3d 1c 66 f0 bd ef 30 cc bd
       0.10978439 0.050909333 -0.11738226 -0.09970271
000230 18 07 dc bc 6b d9 fc 3d 22 49 b0 3d 08 77 a8 bd
       -0.026858851 0.12346157 0.08607699 -0.082258284
000240 f7 a6 37 3c 71 a5 90 3c ad f6 84 bd 40 bd a9 bd
       0.011209241 0.017657014 -0.06492362 -0.0828805
000250 a6 0d d3 3d 6c 4f 14 3c 12 e8 16 3d 29 c6 d7 3d
       0.103053376 0.009052139 0.036842413 0.10535843
000260 a6 02 16 3d 94 b4 10 be c6 32 84 bd c9 48 79 bd
       0.03662362 -0.14131385 -0.06454997 -0.06086043
000270 5a bf 98 bd 5c 41 84 3d b6 04 76 3b ea 67 ee 3d
       -0.074583724 0.06457779 0.003753943 0.11640914
000280 ca 60 08 bd 88 64 9e 3c a6 4e e3 bc 72 05 9f 3d
       -0.03329543 0.019335046 -0.027747463 0.077647105
000290 f2 79 76 3d af 3f 9e bc 40 63 59 bd 29 ea 39 bd
       0.06017489 -0.019317476 -0.053073168 -0.04538933
0002a0 83 e5 88 bd 1f fa 13 be e1 5c 2c 3d 49 f5 5d 3d
       -0.06684401 -0.14450882 0.042080764 0.054189
0002b0 f9 ba d9 bd 0a 6d 04 3e 24 a4 7b bd 42 2a bd bd
       -0.10631365 0.1293222 -0.061435834 -0.09236576
0002c0 86 f4 8d 3d ca e0 84 3d 37 09 8d bc d3 b2 a0 3c
       0.06931405 0.064881876 -0.017216308 0.01961652
0002d0 05 f1 1b 3d e8 4a ed bd c4 e3 0c 3e d7 17 b9 bd
       0.03807165 -0.11586553 0.1375876 -0.0903775
0002e0 28 76 48 bd c8 8e 14 be 09 8c d8 bc 36 b2 d6 3c
       -0.048940808 -0.14507592 -0.026433961 0.026208024
0002f0 5e b3 f6 bd f9 03 8e bd 42 6a 49 3c 91 34 86 bd
       -0.1204593 -0.069343515 0.0122934 -0.06552995
000300 58 48 a4 3d a1 23 e4 3d a0 26 16 bb b8 f9 4e bd
       0.08021611 0.11139608 -0.0022911206 -0.05053112
000310 4e 62 5e 3d 55 47 33 3c 8c 42 8b 3d 11 3e bb 3c
       0.05429297 0.0109423 0.06799802 0.022856744
000320 c3 58 85 3d 72 c0 f8 3d 51 bb 7f bd d7 c6 5a bd
       0.065110706 0.12146081 -0.0624345 -0.053412285
000330 07 47 b4 3b 13 ce c4 bd 7e 28 96 3d b5 39 8c bd
       0.005501631 -0.09609618 0.07331942 -0.06846944
000340 33 f6 55 3d 28 2e 8d bd 3d 8d 8e 3d 92 07 c8 3c
       0.052236747 -0.06893569 0.06960533 0.024417672
000350 84 1f e9 3d 18 1e 89 bd 41 af 9b 3c d0 94 51 bd
       0.11382964 -0.06695193 0.019004466 -0.05116731
000360 b7 f0 bc 3b 74 e4 8b 3d 16 0f c1 bd 9a 44 b3 3d
       0.005766 0.06830683 -0.094267055 0.08753319
000370 e1 41 15 3d bd 47 cd bc e1 12 95 3d 11 84 25 3c
       0.03643978 -0.025058622 0.072789915 0.010102288
000380 7c 13 de bd be ea 97 3d 7f 0d 89 3c eb f6 3e bd
       -0.1084356 0.074178204 0.016730068 -0.046622198
000390 56 9d 66 3d ec d8 21 bd c5 9d 40 3d 69 5a 1d bd
       0.05630239 -0.039513513 0.04702546 -0.0384163
0003a0 72 90 13 be 0e 7a c9 3d 25 1e d1 3d 5a 7e f4 bd
       -0.1441057 0.09837733 0.10210828 -0.11938162
0003b0 7b 27 97 bd b4 a2 ac 3d a4 06 63 3d 16 87 3f bd
       -0.07380577 0.08429471 0.055426255 -0.046759687
0003c0 3c 3c 67 3c 71 16 b7 3d 52 ce ce 3d 23 eb 00 be
       0.014113482 0.08939827 0.10097946 -0.12589698
0003d0 b3 f7 6d bd 7a 7a 6b bc 8f 5f c6 bd 28 cf 53 bc
       -0.058097553 -0.014372462 -0.09686195 -0.012927808
0003e0 1f 37 81 b9 f4 b6 83 bc 18 3f 70 bd ab 04 ec 3b
       -0.00024645866 -0.01607845 -0.05865392 0.007202705
0003f0 65 d0 d4 3b d7 f1 0b bd cb 1f 88 3d a8 9a 93 bd
       0.006494569 -0.034166183 0.06646689 -0.07207233

SoftmaxPolicy_l3.bias f4 [2]
000000 aa 85 01 3d fb cb 81 bc
       0.031621613 -0.015844336
