pytorch_models/model280017.pth (torch, 72107 bytes, 6 tensors)

SoftmaxPolicy_l1.weight f4 [128, 4]
0.25636575 -0.22099584 -0.11446604 0.22994804 -0.4686698 0.31268567 -0.051731367 0.25837526
0.06783073 -0.056212135 0.20577891 0.049614333 0.1737035 -0.18794541 -0.02719422 -0.051559705
0.07194675 -0.0017532976 0.43536365 0.1539636 -0.18263033 -0.30055594 -0.083779536 -0.2114815
-0.16277401 0.020397943 0.3119901 0.28038016 -0.48980218 0.32648575 0.26030588 0.51986873
0.32756686 -0.4602055 -0.49026436 -0.23356918 0.42065653 -0.09469779 0.21927114 -0.22727266
0.48598516 -0.23249143 0.29856753 -0.010639015 -0.25946411 0.2581098 -0.25405446 0.15634531
-0.13229324 -0.050534554 -0.469405 -0.2290501 0.26817447 -0.116764195 0.5023942 0.39999607
-0.03052114 -0.31238908 0.4152827 0.19729258 -0.31714588 0.340472 0.4262317 0.4927299
-0.2782791 -0.08110184 -0.028799819 0.06741343 -0.37737268 -0.35407388 0.24929269 -0.124833845
0.2292073 0.031786975 0.30495143 0.18061082 0.16452657 0.2521673 -0.31514326 0.32492688
-0.34633058 -0.37699202 0.08530984 -0.05472809 0.29159003 -0.2822989 -0.35760126 0.4103825
-0.07086197 0.2778824 0.08845667 -0.42295203 0.09710244 0.11351663 -0.3418878 -0.2378504
0.17694865 0.06976456 -0.36141732 -0.21742071 0.44644392 -0.083375834 0.40110698 0.2673468
-0.32082894 -0.42217734 0.46102455 0.016115272 0.33551893 0.1139904 0.26879263 0.41261587
0.46268985 -0.32516363 0.19094649 0.44267 0.35155073 0.2995346 -0.3676107 -0.36048272
-0.30817136 0.056844704 0.5124854 -0.31274462 0.27442846 -0.2807365 -0.4948017 -0.10387987
0.28102365 0.46303794 -0.2883596 0.11090795 0.41725448 0.35305318 0.41048133 0.37657443
0.30285376 0.11588039 -0.33247855 -0.4100952 -0.23665595 -0.05742193 -0.18425682 0.24807034
0.15546761 -0.115713514 0.20951475 0.17468804 0.29537693 0.35919967 -0.06036385 0.52155936
-0.04474805 -0.030061547 -0.6046498 -0.37297755 -0.2884793 -0.21325293 0.34407267 -0.16393675
-0.3665307 0.21717972 0.26168197 0.34594935 -0.2606516 0.105174586 -0.18200998 -0.11115673
-0.3939788 -0.22996004 -0.1704128 0.21497259 0.08176902 0.144337 0.6247179 0.5129538
0.331003 0.022014668 -0.22082113 0.44918555 -0.13021778 -0.045825884 -0.43958172 -0.10048391
-0.3323231 0.4543768 -0.47812018 -0.42037326 -0.010295816 -0.2659389 0.17391503 -0.19242358
-0.2327513 0.042085297 0.34038335 -0.38060173 0.22944002 0.3158796 0.4695223 -0.36250302
0.13661292 -0.36139056 0.3928816 -0.20721461 0.2946308 0.016021341 -0.013128801 -0.005801884
0.07225401 0.23547803 0.21419732 0.22447322 -0.44923908 0.37180784 0.5346289 0.46482375
0.34983373 -0.3598684 -0.1547259 0.4440554 -0.38846764 0.45742026 -0.43640125 -0.39231727
0.23869303 -0.34766206 -0.047985565 0.3926989 0.40131864 0.46817487 -0.19695348 -0.44281366
0.48484364 -0.1286422 -0.24129046 0.13264771 -0.348444 0.3241375 0.23250192 -0.4488916
-0.4117836 -0.04675466 0.19378331 -0.013659484 -0.25000215 0.020431286 -0.47467846 -0.3632027
-0.3302859 0.414915 0.40819344 -0.19592407 0.02912289 0.21172261 0.010637691 -0.27018598
00000000: 5f42 833e bc4c 62be 2c6d eabd 8077 6b3e
00000010: 7df5 efbe 5618 a03e 45e4 53bd c349 843e
00000020: d6ea 8a3d b23e 66bd b5b7 523e 6638 4b3d
00000030: 55df 313e c374 40be 6ac6 debc 4530 53bd
00000040: d158 933d e8ce e5ba fce7 de3e a2a8 1d3e
00000050: 7203 3bbe 78e2 99be 9b94 abbd 9b8e 58be
00000060: 3bae 26be 9619 a73c 2bbd 9f3e fd8d 8f3e
00000070: 5ac7 fabe 2429 a73e d046 853e 1e16 053f
00000080: d8b6 a73e 0ea0 ebbe ee03 fbbe c22c 6fbe
00000090: 4b60 d73e eaf0 c1bd 9d88 603e 2aba 68be
000000a0: 0cd3 f83e 3c12 6ebe d8dd 983e 434f 2ebc
000000b0: 7bd8 84be f826 843e 6d13 82be fc18 203e
000000c0: e177 07be 52fd 4ebd da55 f0be 1c8c 6abe
000000d0: 2a4e 893e 1122 efbd e89c 003f 49cc cc3e
000000e0: 7807 fabc 76f1 9fbe ef9f d43e 1107 4a3e
000000f0: f260 a2be 5952 ae3e 0b3b da3e 1847 fc3e
00000100: 997a 8ebe b918 a6bd 99ed ebbc 0d10 8a3d
00000110: fe36 c1be 2c49 b5be 9546 7f3e e3a8 ffbd
00000120: 52b5 6a3e 0f33 023d 9822 9c3e 0bf2 383e
00000130: a779 283e 131c 813e 755a a1be d15c a63e
00000140: 3e52 b1be 1905 c1be edb6 ae3d 902a 60bd
00000150: 4a4b 953e 7b89 90be 8317 b7be a81d d23e
00000160: 1520 91bd 9a46 8e3e c528 b53d 2b8d d8be
00000170: a5dd c63d 687b e83d eb0b afbe 0e8f 73be
00000180: 0732 353e b9e0 8e3d b10b b9be 89a3 5ebe
00000190: 4c94 e43e f3c0 aabd e55d cd3e aee1 883e
000001a0: b143 a4be a127 d8be 690b ec3e 2d04 843c
000001b0: 23c9 ab3e cd73 e93d 309f 893e 6342 d33e
000001c0: afe5 ec3e d97b a6be 7a87 433e a4a5 e23e
000001d0: 75fe b33e 995c 993e 7837 bcbe 3191 b8be
000001e0: a3c8 9dbe fed5 683d 3e32 033f 1020 a0be
000001f0: e381 8c3e b2bc 8fbe a656 fdbe f8be d4bd
00000200: 55e2 8f3e 4f13 ed3e dfa3 93be b523 e33d
00000210: 61a2 d53e 63c3 b43e 9c2a d23e 5dce c03e
00000220: a60f 9b3e b352 ed3d a13a aabe 00f8 d1be
00000230: f055 72be 4233 6bbd d2ad 3cbe 2706 7e3e
00000240: e732 1f3e 35fb ecbd 098b 563e 6ce1 323e
00000250: a53b 973e 05e9 b73e 1640 77bd ea84 053f
00000260: bb49 37bd a243 f6bc 54ca 1abf eaf6 bebe
00000270: 8fb3 93be fa5e 5abe 4b2a b03e 09df 27be
00000280: e9a9 bbbe 5c64 5e3e 2efb 853e 4620 b13e
00000290: 2074 85be c665 d73d d360 3abe 24a6 e3bd
000002a0: 97b7 c9be a57a 6bbe b180 2ebe c621 5c3e
000002b0: 8476 a73d 14cd 133e 83ed 1f3f f150 033f
000002c0: 3a79 a93e 1b58 b43c ef1e 62be a6fb e53e
000002d0: cf57 05be ecb3 3bbd db10 e1be 82ca cdbd
000002e0: 4126 aabe 13a4 e83e 2bcc f4be 2a3b d7be
000002f0: c8af 28bc 2529 88be c816 323e b00a 45be
00000300: 5b56 6ebe a261 2c3d ba46 ae3e 3bde c2be
00000310: 53f2 6a3e f9ba a13e 3a65 f03e ff99 b9be
00000320: 42e4 0b3e 2f08 b9be c727 c93e 1130 54be
00000330: d9d9 963e 303f 833c 2f1a 57bc bb1d bebb
00000340: e9f9 933d 2721 713e 8b56 5b3e 4fdc 653e
00000350: aa02 e6be 995d be3e 71dd 083f 61fd ed3e
00000360: 681d b33e ac40 b8be 7770 1ebe 3b5b e33e
00000370: 3be5 c6be fd32 ea3e fc6f dfbe cfdd c8be
00000380: f26b 743e c300 b2be 838c 44bd d50f c93e
00000390: a379 cd3e 9eb4 ef3e 2cae 49be 79b8 e2be
000003a0: 6d3d f83e c8ba 03be d914 77be cdd4 073e
000003b0: 4167 b2be 5af5 a53e fc14 6e3e 1fd5 e5be
000003c0: 4dd5 d2be d081 3fbd 226f 463e 07cc 5fbc
000003d0: 4800 80be 835f a73c 0e09 f3be b4f5 b9be
000003e0: 3c1b a9be bd6f d43e bbfe d03e 52a0 48be
000003f0: 2193 ee3c d0cd 583e b649 2e3c d155 8abe

SoftmaxPolicy_l1.bias f4 [128]
-0.37919116 0.35518 0.33204353 -0.49978507 -0.39417493 -0.33825076 -0.25938642 0.1188606
-0.4856263 -0.39040455 0.2318277 -0.17096671 -0.21405542 -0.4153484 0.19120416 0.11218334
-0.20488602 -0.3118429 0.11628933 0.1503303 0.19290067 0.16438046 -0.048709106 -0.39205936
0.35059646 0.03216706 -0.34454253 0.4686644 0.28614658 -0.40535608 -0.24595864 -0.15971702
-0.29169825 0.23405118 -0.37742132 0.45200187 -0.19746074 0.30292383 0.09577743 -0.22979964
0.34446937 -0.37963685 -0.26437506 0.108644694 0.38869256 -0.20794724 -0.2825826 -0.3229091
-0.19964524 -0.15997122 -0.12168936 -0.29333192 0.16877948 0.083287604 -0.34096065 -0.2518897
0.10168599 0.026569938 0.39100188 -0.057582587 -0.40511894 -0.36454964 -0.13283212 -0.10377578
0.086414196 -0.12962762 0.21216856 -0.15957953 0.39295545 0.10002198 -0.16131365 0.47561517
0.16399817 -0.3594183 -0.2649981 0.33566964 0.22027889 0.38106215 0.017736934 0.34695
0.2735096 0.14213285 -0.14910643 0.51183176 0.09711991 -0.15496847 0.06783485 0.49929297
0.32031137 -0.059485704 0.51983863 0.2522445 -0.25830385 -0.45936993 0.31199276 0.501435
-0.3022022 0.19739407 0.043785162 -0.12720704 -0.106361136 0.16635448 0.101875536 0.3352473
0.18550643 0.25848323 0.47339574 0.17685634 0.11632608 -0.13725416 0.379746 0.09296644
0.32669097 0.48050028 -0.1311143 0.33260077 -0.06044351 0.47880343 0.391358 -0.15565568
0.011346505 -0.21365729 -0.2106015 -0.08776088 -0.0021721493 -0.15512365 -0.4709637 -0.31441933
00000000: 5825 c2be 27da b53e 9c01 aa3e d4e3 ffbe
00000010: 4cd1 c9be 342f adbe 4cce 84be 306d f33d
00000020: 03a4 f8be 1be3 c7be 3e64 6d3e e611 2fbe
00000030: 5831 5bbe 8ca8 d4be 06cb 433e 61c0 e53d
00000040: a4cd 51be dfa9 9fbe 1a29 ee3d 30f0 193e
00000050: c187 453e 5a53 283e 3383 47bd 01bc c8be
00000060: 6181 b33e 9bc1 033d e167 b0be c8f4 ef3e
00000070: ce81 923e d58a cfbe 95dc 7bbe dc8c 23be
00000080: 7959 95be 1dab 6f3e 5e3d c1be ca6c e73e
00000090: 2633 4abe d518 9b3e f526 c43d 9950 6bbe
000000a0: 4a5e b03e c35f c2be 2b5c 87be 1c81 de3d
000000b0: b602 c73e 1ff0 54be abae 90be 5754 a5be
000000c0: cd6f 4cbe 7fcf 23be 4538 f9bd 9a2f 96be
000000d0: 87d4 2c3e b192 aa3d 6592 aebe b0f7 80be
000000e0: bf40 d03d 33a9 d93c 6631 c83e b8db 6bbd
000000f0: c06b cfbe 40a6 babe 2505 08be 6588 d4bd
00000100: edf9 b03d 1abd 04be b742 593e d168 23be
00000110: 7531 c93e 53d8 cc3d 682f 25be d583 f33e
00000120: 23ef 273e ad05 b8be d5ad 87be e4dc ab3e
00000130: ca90 613e 941a c33e 0c4d 913c 6ea3 b13e
00000140: 7309 8c3e 468b 113e 5baf 18be 6807 033f
00000150: cee6 c63d 0eb0 1ebe ffec 8a3d 54a3 ff3e
00000160: daff a33e 48a7 73bd 2514 053f 3126 813e
00000170: 6740 84be 8932 ebbe 84bd 9f3e 0b5e 003f
00000180: 3fba 9abe ac21 4a3e 1258 333d 9042 02be
00000190: ded3 d9bd d458 2a3e 1fa4 d03d 89a5 ab3e
000001a0: 66f5 3d3e ea57 843e ed60 f23e d419 353e
000001b0: 5e3c ee3d 5b8c 0cbe 116e c23e 3065 be3d
000001c0: 0a44 a73e 2204 f63e d442 06be a64a aa3e
000001d0: 9d93 77bd b925 f53e 1360 c83e 3464 1fbe
000001e0: b1e6 393c fac8 5abe eba7 57be fabb b3bd
000001f0: 9e5a 0ebb bcd8 1ebe 2722 f1be 92fb a0be

SoftmaxPolicy_l2.weight f4 [128, 128]
0.0015034474 -0.04157137 0.07345919 0.072697565 0.056641046 0.04011399 -0.072314985 0.05037943
-0.060785536 -0.013914455 -0.036855347 0.026644876 -0.0659609 -0.039394677 -0.061038263 -0.10179725
-0.04754829 0.08094708 -0.0058409586 0.03284537 -0.08690464 0.09744007 -0.011715042 -0.07804324
0.08901725 -0.013668885 0.071978055 -0.055192772 -0.0684412 -0.053317264 0.03439314 0.022207433
-0.07548928 0.014176652 0.010945842 0.033667408 -0.041950103 -0.06212097 0.11491102 -0.048309337
0.043377876 0.07165699 -0.069510676 -0.07827817 0.024360135 -0.076804586 0.034688216 -0.03325869
-0.036391616 -0.06441381 0.045336418 -0.045098085 -0.08566401 -0.06600132 -0.04087267 -0.07935615
0.04521337 -0.021090569 0.08786068 0.062579095 -0.057279103 -0.04509358 -0.04209619 0.058952633
0.00656936 -0.024697319 0.09128999 0.104896575 0.081384756 -0.06603083 -0.034857936 -0.013448314
0.098214515 -0.03602062 -0.04413117 0.016747111 -0.020303285 0.043703333 0.015847804 -0.07436819
0.086276464 0.08237428 0.006109364 -0.05222739 0.035334487 0.052989528 0.06225981 -0.038457703
-0.00583629 -0.024703456 0.088856265 0.12654799 0.003651576 -0.05367148 0.04157875 0.050817262
0.036456425 -0.0777624 0.014307298 -0.033327144 -0.07082815 -0.036629755 0.055735398 0.04223135
-0.07615335 0.016083429 0.08860167 0.10777096 0.07090908 -0.024443718 0.051422004 0.053197823
0.041738067 -0.0580047 -0.033806656 0.07693831 0.079725906 0.07986034 -0.04210464 -0.017397346
-0.055168077 -0.03088329 0.073452 -0.064574115 0.006193484 0.020636098 -0.048832655 0.0394214
-0.017727204 0.07061521 -0.04287219 0.011393785 -0.078233115 0.0498385 0.084814 0.025082331
0.0039102347 -0.045800712 -0.040067334 -0.04216472 -0.048591394 0.024692874 0.013506495 0.08201036
-0.06974471 -0.05694014 -0.03725043 -0.034359805 0.07933776 0.044138353 -0.07817329 -0.0034693007
0.0056608673 0.074758165 0.08291614 0.058952875 0.08534668 -0.030118061 -0.0012445259 -0.07944556
0.024707869 0.12101338 0.050261296 0.10672979 -0.034233924 0.028707244 -0.052251782 0.06965282
-0.037142772 -0.040118746 0.014304985 0.0161674 0.06057147 -0.012416756 -0.01915645 0.044131182
0.06099488 0.099192396 0.034768704 -0.0028328204 0.121148504 0.13242729 -0.03925927 0.04133208
0.02727099 -0.040309425 -0.0063777617 -0.015525833 -0.065878995 -0.03253501 0.053295735 0.07453982
0.010682405 -0.076345496 0.013729093 -0.026344117 0.08089784 -0.08494827 -0.01207041 0.08682941
0.013648898 -0.041032586 -0.082478486 0.0004362399 0.05622015 -0.05908153 -0.083144404 0.054732524
-0.03090158 0.060534853 -0.07663466 -0.011428616 -0.054815892 -0.0017892616 -0.085219584 0.047163513
-0.03910293 -0.064194955 -0.041890062 -0.11374264 0.045900363 -0.019533837 -0.0066922945 0.07296795
-0.011665933 0.08067095 0.00693179 -0.060278483 0.023092266 0.027332567 -0.062471207 0.02872625
0.017768899 0.07627811 -0.008205933 -0.065954305 -0.08712998 0.034224775 -0.023464799 -0.022096625
-0.008009217 -0.023882205 0.02470318 0.08240775 0.07304871 -0.062518135 0.09064117 0.061533075
0.014860226 0.04072354 0.05730803 0.07753656 0.049100526 0.03120782 -0.035378356 -0.05896224
00000000: 530f c53a be46 2abd c671 963d 76e2 943d
00000010: 7100 683d 914e 243d e119 94bd a95a 4e3d
00000020: 41fa 78bd 74f9 63bc a2f5 16bd 5b46 da3c
00000030: 8216 87bd 505c 21bd 4203 7abd 147b d0bd
00000040: ffc1 42bd 95c7 a53d 8365 bfbb de88 063d
00000050: 0ffb b1bd a98e c73d 73f0 3fbc 22d5 9fbd
00000060: ad4e b63d 76f3 5fbc 3b69 933d d111 62bd
00000070: e62a 8cbd 3463 5abd d2df 0c3d 5dec b53c
00000080: 209a 9abd 3045 683c 3056 333c d6e6 093d
00000090: dfd3 2bbd 8f72 7ebd 7856 eb3d 03e0 45bd
000000a0: 00ad 313d e6c0 923d 9d5b 8ebd 4e50 a0bd
000000b0: e88e c73c b94b 9dbd 3b15 0e3d 443a 08bd
000000c0: 600f 15bd 63eb 83bd aeb2 393d c5b8 38bd
000000d0: 9d70 afbd b32b 87bd 1a6a 27bd 7a85 a2bd
000000e0: a831 393d 21c6 acbc 4df0 b33d 7829 803d
000000f0: 7e9d 6abd 0cb4 38bd 0e6d 2cbd 5178 713d
00000100: c943 d73b 0852 cabc 3ff6 ba3d 04d4 d63d
00000110: 0dad a63d 2c3b 87bd 32c7 0ebd 5156 5cbc
00000120: b124 c93d 5c8a 13bd e3c2 34bd 3d31 893c
00000130: 1353 a6bc 4402 333d 41d3 813c 594e 98bd
00000140: b7b1 b03d d9b3 a83d 0f31 c83b 63ec 55bd
00000150: e5ba 103d 8c0b 593d 2404 7f3d d385 1dbd
00000160: 593e bfbb e75e cabc 46fa b53d cc95 013e
00000170: 474f 6f3b a0d6 5bbd 7b4e 2a3d c325 503d
00000180: 5553 153d e541 9fbd 2869 6a3c 0b82 08bd
00000190: 590e 91bd 1509 16bd cd4a 643d c8fa 2c3d
000001a0: 4af6 9bbd 65c1 833c cb74 b53d 05b7 dc3d
000001b0: c838 913d 313e c8bc e19f 523d f6e5 593d
000001c0: 89f5 2a3d 5696 6dbd d978 0abd d591 9d3d
000001d0: 5647 a33d d18d a33d ea75 2cbd e184 8ebc
000001e0: ecf7 61bd f4fe fcbc 016e 963d 6f3f 84bd
000001f0: b6f2 ca3b 090d a93c c004 48bd 5578 213d
00000200: a438 91bc b59e 903d c09a 2fbd ffac 3a3c
00000210: af38 a0bd 7423 4c3d f6b2 ad3d 7679 cd3c
00000220: 6d21 803b 8799 3bbd a51d 24bd eab4 2cbd
00000230: c507 47bd b648 ca3c 594a 5d3c 0cf5 a73d
00000240: 51d6 8ebd 103a 69bd e893 18bd debc 0cbd
00000250: d67b a23d 6bca 343d 5119 a0bd 355d 63bb
00000260: cc7e b93b cf1a 993d f0cf a93d 9278 713d
00000270: 3dca ae3d 27ba f6bc 5c1f a3ba 5bb4 a2bd
00000280: 2868 ca3c ddd5 f73d cade 4d3d 2695 da3d
00000290: df38 0cbd 742b eb3c f705 56bd 23a6 8e3d
000002a0: 0523 18bd 8e53 24bd 755f 6a3c 7f71 843c
000002b0: ca19 783d a66f 4bbc fded 9cbc e6c2 343d
000002c0: c4d5 793d 6225 cb3d a169 0e3d d7a6 39bb
000002d0: b51c f83d 059b 073e 54ce 20bd d44b 293d
000002e0: 6967 df3c 7f1b 25bd 8bfc d0bb 1060 7ebc
000002f0: 91eb 86bd 6e43 05bd a14c 5a3d 55a8 983d
00000300: 4105 2f3c 075b 9cbd fdef 603c 9ecf d7bc
00000310: c4ad a53d 5cf9 adbd f8c2 45bc 9ed3 b13d
00000320: a19f 5f3c c911 28bd 7bea a8bd 21b7 e439
00000330: 1a47 663d 79ff 71bd 9d47 aabd 362f 603d
00000340: 4f25 fdbc 65f3 773d a2f2 9cbd 173f 3bbc
00000350: a186 60bd a885 eaba 9b87 aebd 872e 413d
00000360: 652a 20bd a578 83bd ea94 2bbd e7f1 e8bd
00000370: 0502 3c3d 6d05 a0bc 094b dbbb 3870 953d
00000380: 7822 3fbc d036 a53d 1224 e33b 92e6 76bd
00000390: fe2b bd3c 8ce8 df3c cfe1 7fbd 5053 eb3c
000003a0: 1590 913c b337 9c3d 2d72 06bc 0d13 87bd
000003b0: 3471 b2bd 472f 0c3d 4039 c0bc fb03 b5bc
000003c0: 1739 03bc 9da4 c3bc 535e ca3c 65c5 a83d
000003d0: 909a 953d 8209 80bd 14a2 b93d 1b0a 7c3d
000003e0: 4e78 733c bacd 263d d3bb 6a3d 7dcb 9e3d
000003f0: a21d 493d 8ba7 ff3c e5e8 10bd 6482 71bd

SoftmaxPolicy_l2.bias f4 [128]
0.05381923 -0.035765465 0.0033396224 -0.06333318 -0.049035273 0.055098493 0.019415397 0.028991062
0.04965937 0.026791535 0.007752691 -0.010270851 0.0011070669 0.08163651 0.033759173 0.010904298
0.035151698 -0.03927844 -0.069199935 -0.01838281 0.09483918 0.022019682 -0.065202616 0.058961436
0.080955535 0.068987474 0.011865286 -0.022503143 0.008716576 0.029417705 -0.031881995 -0.04376831
0.02011111 0.044549353 -0.026243018 -0.008719434 -0.06507965 -0.00066841947 -0.018995306 0.0913408
0.062147718 -0.02913648 -0.0684925 -0.07149347 -0.05039167 0.08870692 -0.025654195 0.066285074
0.067573674 -0.010002775 0.03915775 0.028794857 0.08166653 0.042819634 0.05077178 0.08994499
0.011265967 0.08368756 -0.0024086214 -0.067077234 0.08592202 -0.0662645 0.0011767481 0.08528552
-0.02340636 -0.061385334 0.06619079 0.034162022 0.05595287 0.046819575 -0.09259634 0.07227577
-0.07343829 0.010985287 -0.05013167 0.06530007 0.09186224 0.013726461 -0.022947233 0.07655011
0.069664635 -0.016850153 0.07028023 0.0075529157 -0.04107826 0.08387297 -0.050296832 -0.06499533
0.051544785 0.033435263 0.07064056 -0.036244277 0.020503836 0.046753667 0.01827062 -0.07147572
0.057380762 0.023601614 -0.019856557 -0.021197086 -0.09171274 0.09463277 0.012527494 -0.024061237
0.09840264 -0.06403143 0.02463377 -0.013318733 -0.025681555 0.0019350294 -0.0120753115 0.07591864
0.06394559 0.030685602 -0.004347483 -0.014399627 -0.007050401 -0.0018174113 0.032070484 0.07023961
-0.06254439 -0.08899808 -0.01369515 0.07127984 0.0422947 -0.035367284 0.056290224 0.03873167
00000000: 8e71 5c3d cf7e 12bd 91dd 5a3b d4b4 81bd
00000010: 36d9 48bd f5ae 613d 0a0d 9f3c aa7e ed3c
00000020: a067 4b3d ec79 db3c 490a fe3b 1247 28bc
00000030: 001b 913a 0b31 a73d 0f47 0a3d f1a7 323c
00000040: 3afb 0f3d 6ee2 20bd b2b8 8dbd 8c97 96bc
00000050: 0b3b c23d 9f62 b43c f388 85bd 8c81 713d
00000060: 04cc a53d 4e49 8d3d 9e66 423c 8358 b8bc
00000070: f8cf 0e3c 66fd f03c b296 02bd 6646 33bd
00000080: 0ec0 a43c 6279 363d 99fb d6bc f5db 0ebc
00000090: 7b48 85bd df38 2fba 0b9c 9bbc e310 bb3d
000000a0: 9b8e 7e3d a1af eebc cc45 8cbd 2b6b 92bd
000000b0: 7f67 4ebd f9ab b53d bf28 d2bc 78c0 873d
000000c0: 1164 8a3d aee2 23bc e063 203d 31e3 eb3c
000000d0: c840 a73d a463 2f3d 12f6 4f3d 1435 b83d
000000e0: e494 383c 6264 ab3d f6d9 1dbb ca5f 89bd
000000f0: e2f7 af3d afb5 87bd 1d3d 9a3a 2daa ae3d
00000100: b2be bfbc 306f 7bbd 098f 873d 7aed 0b3d
00000110: d62e 653d e2c5 3f3d 26a3 bdbd 5205 943d
00000120: d066 96bd a2fb 333c de56 4dbd 0bbc 853d
00000130: 4522 bc3d f3e4 603c d6fb bbbc 4ec6 9c3d
00000140: 55ac 8e3d 5509 8abc 15ef 8f3d 737e f73b
00000150: ad41 28bd 97c5 ab3d 0d04 4ebd 461c 85bd
00000160: a020 533d 6af3 083d ffab 903d e174 14bd
00000170: a9f7 a73c c680 3f3d 44ac 953c dd61 92bd
00000180: 1708 6b3d 2c58 c13c 38aa a2bc 83a5 adbc
00000190: e4d3 bbbd d3ce c13d 1e40 4d3c 121c c5bc
000001a0: 5387 c93d e922 83bd c3cc c93c d136 5abc
000001b0: 2062 d2bc d0a0 fd3a 87d7 45bc 3b7b 9b3d
000001c0: e8f5 823d 5f60 fb3c 5575 8ebb 6aec 6bbc
000001d0: 0d07 e7bb 3436 eeba 575c 033d c9d9 8f3d
000001e0: 4617 80bd a044 b6bd 9f61 60bc 2afb 913d
000001f0: 353d 2d3d 49dd 10bd 9490 663d 19a5 1e3d

SoftmaxPolicy_l3.weight f4 [2, 128]
0.052496765 0.013423307 0.1254066 0.013605824 -0.089026175 -0.018259667 0.041447468 0.09389199
0.015120695 0.007771407 0.06954979 0.07069117 0.08999772 0.015695723 0.0049341167 0.09671123
0.05498914 0.09549182 -0.010840524 0.098739825 -0.042906564 0.09837327 -0.038378783 -0.015847186
-0.03553104 0.043285858 0.048625592 0.034922577 -0.087876946 0.005775652 -0.039812736 -0.03555947
0.05400796 -0.0008048565 0.050909117 -0.078755625 0.012472549 0.06886573 0.059031732 0.10330485
-0.008552543 0.0861124 -0.06952329 -0.009693655 -0.008818798 -0.028173452 0.032815814 0.0037069586
-0.10174479 -0.09631616 0.03784021 -0.05985342 -0.11069032 0.12914804 -0.056090314 0.09621542
0.066486895 0.048136078 -0.07514194 -0.01983741 0.08186946 0.021775218 -0.12418378 0.0075118695
-0.06662934 -0.07032292 -0.083104976 0.08136524 0.07291676 -0.06829575 -0.03462618 0.07953727
0.000119930206 -0.057738617 0.02780038 -0.10887974 -0.087189354 0.070996605 -0.088109486 0.099910885
-0.03264681 -0.056774825 -0.08155106 0.054252032 -0.11955346 0.040711444 0.027789915 0.033171434
-0.10302289 -0.064694166 0.044709377 -0.07200844 -0.044895127 0.056540206 0.043379586 0.07330347
0.0040789917 -0.04172246 0.12730297 0.005105756 -0.021434566 0.07548574 -0.08492203 0.081452206
0.035038624 -0.013929838 -0.07197194 -0.02601484 -0.022318805 0.019298997 -0.059965845 0.04663336
-0.12016242 -0.07800991 -0.0070990114 0.107879154 0.071784556 -0.087436974 0.07651419 -0.057143256
0.075889654 0.010204832 -0.023569675 -0.09906803 -0.10221837 -0.10458592 -0.05749314 0.069110215
-0.005205395 0.1100073 -0.1154357 0.085282646 0.017563589 0.092023954 -0.10209471 -0.077058464
0.10951413 0.050909333 -0.11822568 -0.10099132 -0.026858851 0.122660115 0.084780246 -0.08356258
0.01151321 0.016302159 -0.06492362 -0.08371963 0.10283324 0.008378578 0.036842413 0.10554205
0.03662362 -0.14236063 -0.06512319 -0.06186785 -0.074583724 0.0643075 0.0043032533 0.11573005
-0.034181427 0.01933038 -0.028813729 0.077647105 0.06017489 -0.019192038 -0.054284047 -0.04646412
-0.06798859 -0.14558892 0.042080764 0.054189 -0.10740023 0.12886563 -0.061435737 -0.093704656
0.06897724 0.064167455 -0.017177166 0.019157538 0.037687384 -0.11662465 0.13688472 -0.09165138
-0.050165072 -0.14623031 -0.026433961 0.025109073 -0.12128118 -0.069343515 0.011749054 -0.06587117
0.079966776 0.11142458 -0.0022911206 -0.05147825 0.054523192 0.01007099 0.06794038 0.021701822
0.06381781 0.120625235 -0.0635744 -0.054002315 0.004863299 -0.09651563 0.07275422 -0.06954429
0.052227337 -0.06879249 0.06866708 0.02469244 0.113178946 -0.06754645 0.01828408 -0.050894897
0.0054084184 0.06830683 -0.095389694 0.086890005 0.03556489 -0.025926955 0.072789915 0.009114063
-0.10954531 0.07416878 0.015665775 -0.047845557 0.056505773 -0.0406278 0.04587444 -0.039034314
-0.14504713 0.096956216 0.101628624 -0.120140515 -0.075082704 0.08429471 0.05494231 -0.04782178
0.01385101 0.08881741 0.10064821 -0.12717855 -0.059590276 -0.01483167 -0.097956754 -0.012927808
-0.0013823474 -0.01607845 -0.059037536 0.0064271595 0.006051548 -0.03457636 0.06585704 -0.07207166
00000000: d906 573d 6eed 5b3c 966a 003e f6ea 5e3c
00000010: 5b53 b6bd 4c95 95bc d2c4 293d 724a c03d
00000020: cbbc 773c 49a7 fe3b 1f70 8e3d 88c6 903d
00000030: ba50 b83d 5194 803c 5fae a13b 8a10 c63d
00000040: 4b3c 613d 3791 c33d 749c 31bc 1b38 ca3d
00000050: cbbe 2fbd ed77 c93d 1233 1dbd f5d1 81bc
00000060: ff88 11bd 834c 313d a12b 473d fa0a 0f3d
00000070: d4f8 b3bd ae41 bd3b ae12 23bd cfa6 11bd
00000080: 7337 5d3d 01fd 52ba 1486 503d a14a a1bd
00000090: aa59 4c3c 7a09 8d3d 42cb 713d 7e91 d33d
000000a0: f71f 0cbc b35b b03d 3a62 8ebd 23d2 1ebc
000000b0: b87c 10bc 03cc e6bc e069 063d 72f0 723b
000000c0: 935f d0bd 6841 c5bd 56fe 1a3d dc28 75bd
000000d0: 9bb1 e2bd 623f 043e f5be 65bd 970c c53d
000000e0: 482a 883d 562a 453d 04e4 99bd 1082 a2bc
000000f0: 2dab a73d f161 b23c 1154 febd 2126 f63b
00000100: f774 88bd 7705 90bd f132 aabd d2a2 a63d
00000110: 6255 953d a4de 8bbd 2ed4 0dbd 70e4 a23d
00000120: 0a83 fb38 547f 6cbd 9fbd e33c 57fc debd
00000130: 5590 b2bd ab66 913d bf72 b4bd 149e cc3d
00000140: a9b8 05bd b88c 68bd 3e04 a7bd 6137 5e3d
00000150: 72d8 f4bd 0bc1 263d ada7 e33c c5de 073d
00000160: aafd d2bd 607e 84bd 2e21 373d 2979 93bd
00000170: f4e3 37bd b496 673d cbae 313d 2120 963d
00000180: 10a9 853b 2ce5 2abd b65b 023e 304e a73b
00000190: 8b97 afbc 4598 9a3d 9aeb adbd 6ad0 a63d
000001a0: a984 0f3d fa39 64bc 0666 93bd 131d d5bc
000001b0: edd5 b6bc ee18 9e3c bf9e 75bd 9f02 3f3d
000001c0: b717 f6bd a9c3 9fbd d39e e8bb bfef dc3d
000001d0: c803 933d 2812 b3bd 79b3 9c3d 0c0f 6abd
000001e0: 096c 9b3d 2b32 273c 3115 c1bc 2ee4 cabd
000001f0: dd57 d1bd 2531 d6bd ed7d 6bbd a889 8d3d
00000200: 0592 aabb 824b e13d 8d69 ecbd aba8 ae3d
00000210: 84e1 8f3c 0e77 bc3d 0817 d1bd d4d0 9dbd
00000220: f248 e03d 4e86 503d 4e20 f2bd 8ad4 cebd
00000230: 1807 dcbc 3a35 fb3d 44a1 ad3d dc22 abbd
00000240: e7a1 3c3c 1b8c 853c adf6 84bd 3375 abbd
00000250: 3c9a d23d 4e46 093c 12e8 163d 6e26 d83d
00000260: a602 163d fcc6 11be 4f5f 85bd 2569 7dbd
00000270: 5abf 98bd a7b3 833d 4e02 8d3b e003 ed3d
00000280: d301 0cbd bf5a 9e3c c50a ecbc 7205 9f3d
00000290: f279 763d 9f38 9dbc f358 5ebd 2951 3ebd
000002a0: 9a3d 8bbd 4315 15be e15c 2c3d 49f5 5d3d
000002b0: a7f4 dbbd 5af5 033e 0aa4 7bbd 3ae8 bfbd
000002c0: f043 8d3d 3a6a 833d 21b7 8cbc 45f0 9c3c
000002d0: 165e 1a3d e8d8 eebd 822b 0c3e b8b3 bbbd
000002e0: e479 4dbd 66bd 15be 098c d8bc 8bb1 cd3c
000002f0: 4462 f8bd f903 8ebd 1b7f 403c 77e7 86bd
00000300: 9fc5 a33d 9232 e43d a026 16bb dcda 52bd
00000310: b653 5f3d cb00 253c 5324 8b3d 05c8 b13c
00000320: e9b2 823d 5d0a f73d 4c33 82bd 8831 5dbd
00000330: 4f5c 9f3b fda9 c5bd 2a00 953d 3d6d 8ebd
00000340: 55ec 553d 14e3 8cbd 53a1 8c3d cd47 ca3c
00000350: 5dca e73d cb55 8abd 7fc8 953c 2b77 50bd
00000360: 1a39 b13b 74e4 8b3d ac5b c3bd 63f3 b13d
00000370: 7dac 113d c464 d4bc e112 953d 2753 153c
00000380: 4b59 e0bd cde5 973d 8355 803c b4f9 43bd
00000390: 9972 673d 5669 26bd d6e6 3b3d 72e2 1fbd
000003a0: 3c87 14be fb90 c63d ab22 d03d 3b0c f6bd
000003b0: f6c4 99bd b4a2 ac3d 300b 613d c5e0 43bd
000003c0: 59ef 623c e7e5 b53d a620 ce3d 183b 02be
000003d0: ef14 74bd 8800 73bc 8d9d c8bd 28cf 53bc
000003e0: e22f b5ba f4b6 83bc 58d1 71bd ec9a d23b
000003f0: 104c c63b f19f 0dbd 0ee0 863d 4e9a 93bd

SoftmaxPolicy_l3.bias f4 [2]
0.032405414 -0.016628148
00000000: 8abb 043d c137 88bc
