pytorch_models/model280160.pth (torch, 72107 bytes, 6 tensors)

SoftmaxPolicy_l1.weight f4 [128, 4]
00000000: 0b0f 833e 9350 63be 2664 ebbd fb1e 6b3e
00000010: 47a2 efbe 7cd8 a03e 5962 54bd 814b 833e
00000020: 0322 8d3d 4c32 61bd 455d 533e e39a 4c3d
00000030: 7bba 313e 05f0 40be f5d2 e7bc fe74 51bd
00000040: d158 933d e8ce e5ba fce7 de3e a2a8 1d3e
00000050: 03c2 3abe 2b94 99be 1e17 acbd 6833 59be
00000060: 61fe 25be 9abc ac3c cb74 a03e 0d83 8f3e
00000070: 1c88 fabe 95dc a73e dcac 843e 44a3 043f
00000080: 4421 a83e 2aee ebbe 9057 fbbe 70bc 6fbe
00000090: ecd2 d63e c71d c6bd e2bd 5f3e 5cb8 69be
000000a0: be2f f83e 612a 70be de8f 983e 2664 28bc
000000b0: c4e6 84be ef41 843e 7c54 82be a8b9 1f3e
000000c0: c124 07be c99b 4ebd b12f f0be a26e 6abe
000000d0: e797 893e 3c66 ecbd d4a3 003f 0ca3 cd3e
000000e0: 1d29 f8bc a7fe 9ebe a879 d43e 3708 493e
000000f0: 2585 a1be 096b af3e 4169 da3e 824f fb3e
00000100: 7db1 8ebe 6e03 a7bd bd7a efbc dc37 8a3d
00000110: 9d71 c1be 3da5 b5be 40f3 7e3e 885c ffbd
00000120: f8b5 6b3e be90 083d 9a39 9c3e de1a 383e
00000130: a169 293e 7eee 813e 0c56 a1be c9ea a53e
00000140: 1e2b b1be 1568 c0be 32a6 ab3d 4631 67bd
00000150: e71d 953e c1db 90be edd8 b6be c97a d23e
00000160: 81df 91bd 299b 8d3e 9e8b b43d 8cbe d7be
00000170: bfbe c63d e2c5 e83d 8884 aebe 9e72 73be
00000180: e09e 343e b068 8b3d 1bfe b8be 1d5a 5dbe
00000190: aae7 e43e e302 a8bd a099 cd3e 6284 883e
000001a0: 5158 a4be 2129 d8be c5dc eb3e 2758 813c
000001b0: f004 ac3e aa65 ec3d cacc 893e faee d23e
000001c0: 4848 ed3e ecb7 a5be c427 443e d06c e23e
000001d0: d880 b33e c489 983e 7ae8 bcbe 503f b8be
000001e0: 4b0e 9dbe 632e 6c3d 774e 033f 36ce 9fbe
000001f0: 9a80 8c3e 9321 90be 069d fdbe 8f1b d5bd
00000200: e64e 903e 16b1 ed3e b4a0 93be 8537 e33d
00000210: 2608 d63e 516d b53e b32f d23e 7195 c03e
00000220: e0d6 9a3e 66c5 e93d 87dd aabe 30d6 d1be
00000230: 014b 71be 998e 63bd 1b8f 3cbe d6bd 7c3e
00000240: 6380 1f3e 473c eabd 4bbe 573e 673e 333e
00000250: c69c 973e a3b8 b83e 850e 76bd 6f42 053f
00000260: 1b79 38bd a0cf 02bd bc14 1bbf d20a bebe
00000270: 41ea 93be b790 5abe dc0a b03e 73d2 27be
00000280: c4a6 babe ce9e 603e 6107 863e 9476 b03e
00000290: 06a7 85be 9077 d53d a006 3bbe c7e5 e2bd
000002a0: 23bb c9be a913 6bbe 124f 2ebe eec6 5b3e
000002b0: 3ffc a83d 8e62 153e 500c 203f 9d2c 033f
000002c0: 5cce a93e 3416 c13c 03e7 61be 3cb3 e53e
000002d0: 4065 06be d36f 41bd 035c e1be 874f cbbd
000002e0: 9994 aabe ac0b e83e 4d4a f4be 40d8 d6be
000002f0: be92 35bc fa75 88be bead 313e 23f4 44be
00000300: 9187 6ebe 1e6b 2b3d b5cc ae3e 31e6 c2be
00000310: 21ee 6b3e 8856 a23e 67a2 f03e 160f b9be
00000320: b8f1 0b3e deba b9be 24a5 c83e 4170 53be
00000330: 1605 973e d6ff 893c 8ad9 52bc bf8f d1bb
00000340: 7e7c 953d 8dc2 723e 589f 5b3e 90fd 643e
00000350: 65c1 e5be a7ea be3e 7099 083f 1d23 ed3e
00000360: b2ea b23e a32e b8be 48d8 1dbe 9277 e33e
00000370: 21e6 c6be e9b1 e93e d112 dfbe f838 c8be
00000380: a49f 743e 81f5 b1be 2cb5 44bd afaa c93e
00000390: 7309 cd3e bde4 ee3e b43c 4abe fe73 e2be
000003a0: d0d1 f73e 016d 05be fb21 77be 3e4b 083e
000003b0: 94c4 b3be d935 a43e 8a1d 6d3e 19aa e4be
000003c0: 783e d3be 8d25 43bd 254b 463e 9946 5bbc
000003d0: cd20 80be 723c a03c 2cdc f2be f360 b9be
000003e0: 6932 a9be d3cc d43e cce0 d03e 727e 49be
000003f0: 45ea e93c 251f 573e 74c7 193c 858e 89be
0.25597414 -0.22198705 -0.11493711 0.22961037 -0.46803495 0.31415164 -0.051851604 0.25643542
0.06891253 -0.054979607 0.20641048 0.0499524 0.17356293 -0.1884156 -0.028298834 -0.051136963
0.07194675 -0.0017532976 0.43536365 0.1539636 -0.18238072 -0.29995856 -0.08402847 -0.21211016
-0.16210319 0.021086026 0.31339106 0.2802967 -0.48931968 0.32785478 0.2591313 0.51811624
0.3283788 -0.46080142 -0.49090242 -0.23411727 0.41957796 -0.09673648 0.21849778 -0.22824234
0.48473924 -0.23453666 0.29797262 -0.0102777835 -0.2595731 0.25831553 -0.2545508 0.15598166
-0.13197614 -0.050441537 -0.46911386 -0.22893766 0.26873705 -0.11542937 0.5024998 0.40163457
-0.030293042 -0.3105366 0.41499066 0.1963204 -0.31546894 0.3426135 0.42658427 0.49084097
-0.27869788 -0.08154951 -0.02923333 0.067489356 -0.37781993 -0.3547763 0.2489748 -0.12468821
0.23018634 0.033341162 0.30512697 0.17978999 0.165442 0.25377268 -0.3151096 0.3240569
-0.34603208 -0.37579408 0.083813086 -0.056443475 0.29124376 -0.2829266 -0.35712376 0.41109303
-0.07122708 0.2765744 0.08815692 -0.42137563 0.09704351 0.11365868 -0.34085488 -0.23774192
0.17638731 0.06807077 -0.36131367 -0.21616407 0.44707996 -0.082036756 0.4015627 0.266635
-0.3209863 -0.4221888 0.4606687 0.015789105 0.33597517 0.115428284 0.26914054 0.4119795
0.4634421 -0.32366884 0.19155794 0.44223642 0.35059237 0.29792607 -0.36896116 -0.35985804
-0.30674967 0.057661425 0.512916 -0.31212014 0.27441865 -0.28150615 -0.49533862 -0.10405647
0.28185195 0.46424168 -0.28833544 0.11094574 0.41803092 0.35434964 0.41052017 0.37614015
0.30242062 0.11414604 -0.33372137 -0.40983725 -0.23563768 -0.055555914 -0.18413965 0.24681792
0.1557632 -0.11437278 0.21068685 0.17504273 0.29611796 0.36078367 -0.06007244 0.52054495
-0.04503737 -0.031936288 -0.60578513 -0.3711763 -0.2888966 -0.21344267 0.34383285 -0.16388874
-0.36455357 0.21935579 0.26177505 0.34465468 -0.2610399 0.10423195 -0.18264246 -0.11078983
-0.39400586 -0.22956719 -0.1702235 0.21462604 0.08251237 0.14588377 0.6251879 0.5123995
0.33165252 0.023570158 -0.2206078 0.44863307 -0.13124561 -0.047225785 -0.44015512 -0.09927278
-0.33316496 0.45321405 -0.47712937 -0.4196186 -0.011082349 -0.2665251 0.17351434 -0.19233756
-0.23293902 0.0418502 0.34140554 -0.38066247 0.23040058 0.31706643 0.46998903 -0.36144322
0.13666427 -0.3627538 0.39188492 -0.2064829 0.29496068 0.016845625 -0.012869248 -0.0063953097
0.072991356 0.23707028 0.21447504 0.22362351 -0.4487411 0.372884 0.5335913 0.46315852
0.34944683 -0.3597308 -0.15414536 0.44427162 -0.3884745 0.45643547 -0.43569043 -0.39105964
0.23889023 -0.34757617 -0.04802434 0.39388034 0.40046272 0.46658888 -0.19749719 -0.4422912
0.48402262 -0.13029863 -0.24134056 0.13309953 -0.35110915 0.32072333 0.231558 -0.44661024
-0.41258597 -0.047643233 0.19364603 -0.013383531 -0.25025025 0.019560073 -0.47433603 -0.3620678
-0.33046272 0.41562518 0.40796506 -0.19677141 0.028554091 0.21007974 0.009385932 -0.26866546

SoftmaxPolicy_l1.bias f4 [128]
00000000: 0422 c2be 50dc b53e 1208 aa3e bff0 ffbe
00000010: 4cd1 c9be 1559 adbe 9a00 85be 01fa f33d
00000020: 192a f8be 0d83 c8be d09f 6c3e 4bb2 2ebe
00000030: a3b7 5bbe b780 d4be 6215 443e 8fad e73d
00000040: 25cb 51be 2c71 9fbe 4bfe ee3d e87f 1a3e
00000050: d758 443e 74e5 283e 3080 4dbd 03bb c8be
00000060: f024 b33e c2b8 083d e476 b0be 0363 f03e
00000070: 0bb0 923e 5901 d0be 4d5c 7dbe 7ca4 23be
00000080: 51ee 94be 2d87 703e 43af c1be 549f e73e
00000090: 2580 4abe 7a75 9b3e 8697 c33d 2338 6bbe
000000a0: f1b6 b03e ce54 c2be bf9c 87be 0c72 df3d
000000b0: 275f c73e 981b 54be 6a51 91be 7809 a5be
000000c0: b311 4cbe e5ed 22be eb6a f5bd 29f6 95be
000000d0: 93ab 2d3e 6af5 ab3d b2d8 aebe 791b 82be
000000e0: 0789 cd3d d7e9 d43c a2e0 c73e 8cf3 73bd
000000f0: a723 cfbe 2ac9 babe 5c5f 06be 14e8 d8bd
00000100: 5329 b03d a8c5 04be 0597 583e 4e82 23be
00000110: 6ba8 c83e 7ebd cb3d 133c 25be 217c f33e
00000120: 06d9 263e 6436 b8be 2e9e 87be 59ac ab3e
00000130: 99c9 613e 888f c23e e6b1 913c a40f b23e
00000140: f3db 8b3e 0aef 103e 208e 18be c8d2 023f
00000150: c20a c63d a134 1ebe d615 883d de9e ff3e
00000160: dec2 a33e 8be1 6fbd 651a 053f 7fa7 803e
00000170: c96f 84be 8549 ebbe 4d1f a03e 1a2f 003f
00000180: cbf7 9abe 05f9 493e c5c2 2f3d 27a6 02be
00000190: eefb dfbd e12c 2a3e ef3d d13d 7085 ab3e
000001a0: 852c 3d3e 01e3 843e 00f5 f13e b360 343e
000001b0: 2269 ec3d bb01 0dbe 98db c23e c001 c03d
000001c0: e963 a73e 8261 f63e 2a55 07be c037 aa3e
000001d0: b425 81bd 23e4 f43e cec4 c83e e7bb 1fbe
000001e0: 45ba 383c 0769 5abe d032 57be 02db b2bd
000001f0: 6e44 10bb 0eb9 1ebe 1a02 f1be 20bd a0be
-0.37916577 0.35519648 0.33209282 -0.49988362 -0.39417493 -0.33857027 -0.2597702 0.11912919
-0.48469618 -0.39162484 0.23107839 -0.17060201 -0.2145677 -0.41504452 0.19148782 0.113124005
-0.2048765 -0.3114103 0.11669596 0.15087855 0.19174515 0.1649378 -0.050171077 -0.3920518
0.3498912 0.033379324 -0.34465706 0.4695054 0.28649935 -0.40626028 -0.24742241 -0.15980715
-0.2908807 0.23489065 -0.37829027 0.45238745 -0.19775446 0.30363065 0.09550385 -0.22970633
0.34514573 -0.37955326 -0.26486775 0.109104246 0.38939783 -0.20713651 -0.28382427 -0.32233787
-0.19928627 -0.15911062 -0.119832836 -0.29289368 0.16959982 0.083964184 -0.341497 -0.25411585
0.100359015 0.02599041 0.3903857 -0.059558436 -0.40456888 -0.364816 -0.13122314 -0.105911404
0.08601632 -0.12966025 0.2115136 -0.15967676 0.39190993 0.09948252 -0.16136198 0.4755564
0.16293725 -0.35978997 -0.2648787 0.33529928 0.2204956 0.3800013 0.017785024 0.34777558
0.27316245 0.14153686 -0.14897966 0.51102877 0.09670021 -0.15449764 0.0664479 0.49925894
0.3198461 -0.058564704 0.519934 0.2512779 -0.25866535 -0.45954528 0.3127388 0.5007187
-0.30267176 0.197239 0.042910356 -0.12758695 -0.10936724 0.16618682 0.10216891 0.33500242
0.18474014 0.2595444 0.47257233 0.17615013 0.1154349 -0.13770191 0.38058162 0.09375334
0.32693413 0.48121268 -0.13216081 0.3324566 -0.063060194 0.47830305 0.3921265 -0.15599023
0.011274879 -0.21329127 -0.21015477 -0.08733179 -0.0022013444 -0.1550028 -0.47071916 -0.3139429

SoftmaxPolicy_l2.weight f4 [128, 128]
00000000: 3f32 863a 87a7 2abd 7eb7 953d 46a5 923d
00000010: 7100 683d a449 293d 6a13 94bd 5221 503d
00000020: 84e5 73bd a0e3 5cbc d0f5 17bd 693f d93c
00000030: fb7b 86bd 7519 26bd 775c 76bd 490c d0bd
00000040: 04be 3ebd 78d0 a73d cb65 d0bb e434 033d
00000050: cda3 b0bd 6d6b c83d cabe 5abc c31f 9ebd
00000060: c288 b43d 7d75 63bc a2ba 953d 9961 64bd
00000070: 81ef 8bbd ba9c 5dbd 7fdb 0d3d 7bae bb3c
00000080: b092 9cbd a065 5b3c bcf4 2a3c 4100 0b3d
00000090: 9d29 2dbd 05c1 80bd d2ef e93d 193e 42bd
000000a0: 6913 323d 1208 943d e42d 8cbd 262a a1bd
000000b0: 712a c43c 321f 9bbd e8a9 0b3d ed15 05bd
000000c0: 5fbe 14bd 1306 86bd a8bc 3f3d f61f 39bd
000000d0: 415d b1bd 2083 86bd 8cca 25bd cdb9 a3bd
000000e0: 83c6 3a3d 8275 b5bc 122b b33d 5135 7a3d
000000f0: a494 65bd 00d4 38bd bed3 31bd 42bb 6c3d
00000100: 3b70 b73b 5129 d0bc 4b47 bb3d 36bb d73d
00000110: 5d4f a43d 5a77 86bd 776b 0ebd ab43 53bc
00000120: e991 c63d 9b1b 17bd 3487 34bd 1571 883c
00000130: 1a4c a0bc 883a 2e3d 3234 873c de24 9abd
00000140: afb5 af3d d405 a93d b417 e13b fdd0 56bd
00000150: 6024 143d aa25 5e3d 5643 7f3d 30e6 1bbd
00000160: 8e05 aebb 00b5 cfbc c9f1 b63d 5fb9 003e
00000170: d2db 4d3b e7dc 5abd 2615 253d 4d30 523d
00000180: 77f7 153d 70d1 9dbd a758 7e3c c8b4 0abd
00000190: 5eda 94bd 4e29 14bd 40b5 633d 269c 2e3d
000001a0: f133 9ebd 2713 7f3c 8b26 b33d 7427 db3d
000001b0: 7961 8e3d 1c0f cabc f1ef 4e3d ea54 563d
000001c0: d544 2e3d a246 6fbd 17bc 06bd 18b3 9e3d
000001d0: ab9a a03d 409b a33d ddba 2fbd b7b6 8ebc
000001e0: 7724 61bd bdf5 f9bc a999 943d 0227 83bd
000001f0: dd31 d53b 8ffc af3c f7d5 43bd 13d6 223d
00000200: f1aa 8dbc e6cb 903d 0180 2dbd 06b2 4d3c
00000210: af38 a0bd fec0 473d d7b5 ad3d 9a31 ca3c
00000220: 2366 2e3b 76e9 3bbd f722 22bd a334 2cbd
00000230: 7b4a 48bd 1cfc d53c c63e 503c edf6 a73d
00000240: 72a3 90bd cfe8 6cbd 9820 15bd a326 08bd
00000250: d139 a13d 7e15 343d 5896 9cbd 71da 84bb
00000260: 06ea da3b fd55 9a3d 00c5 a73d 70ea 743d
00000270: 9923 af3d bc6c eebc 7ca7 c2ba 0229 a4bd
00000280: 7bb9 d43c cd0f fa3d 3fff 503d 6624 da3d
00000290: def5 09bd 89ce f33c dd84 53bd 3efc 8c3d
000002a0: 225b 18bd 65c9 26bd 60d4 5a3c 7f9c 8b3c
000002b0: 9df2 7a3d 9f98 5bbc 02a8 97bc 421b 323d
000002c0: 3dd7 793d dd9f cd3d dfcc 083d 6f29 16bb
000002d0: ca9b fa3d 5c46 073e 4294 21bd 5df8 2b3d
000002e0: d1be dd3c 0bfd 1fbd a5be bcbb b94b 66bc
000002f0: 3c28 89bd 543e 05bd 1ca5 5f3d ed57 9b3d
00000300: f09e 423c 2b22 9abd f45f 5d3c 13e2 d8bc
00000310: b35e a83d 56aa aebd 953d 46bc 3be0 b03d
00000320: c9c6 733c 0a96 23bd 3119 a9bd c63d 013a
00000330: e2e0 633d 8985 6cbd c576 abbd 97a8 643d
00000340: 9ab0 f9bc 4630 783d a45f 9ebd f647 35bc
00000350: 96aa 63bd 04b9 3dbb 57b6 aebd 85a3 3f3d
00000360: e7ef 21bd 4482 81bd 3973 2dbd 12f5 e6bd
00000370: d1e8 3d3d de70 a1bc a70f adbb 1275 943d
00000380: 23fe 40bc b511 a43d f561 c03b 1501 73bd
00000390: fd3f cc3c 8325 dc3c fcd9 7dbd 2e3e e93c
000003a0: 144e 9a3c 2fa4 9d3d 929c e4bb 2274 85bd
000003b0: 2e7d afbd 8a87 0f3d 5e0b b8bc 50fc aabc
000003c0: a6c2 0fbc 2afa bdbc 4a8b c33c cedf a73d
000003d0: 7b92 983d 9b20 80bd eadb bb3d 6d73 7c3d
000003e0: aea9 723c 19b1 263d dd5d 6f3d db0d 9e3d
000003f0: d203 493d a442 f93c 0d97 14bd 369e 71bd
0.0010238363 -0.041663673 0.07310389 0.0716043 0.056641046 0.041329995 -0.072302654 0.050813027
-0.059545055 -0.013482004 -0.03709966 0.026519494 -0.06566616 -0.04055162 -0.060146775 -0.10158593
-0.04656793 0.08194059 -0.006359791 0.032032862 -0.086249925 0.09786115 -0.013351152 -0.07720902
0.08815147 -0.013882992 0.07310988 -0.05575714 -0.06832791 -0.054104544 0.034633156 0.022910347
-0.07645166 0.0133909285 0.010434326 0.03393579 -0.042276014 -0.062868156 0.11422695 -0.047422502
0.043475542 0.07228102 -0.068446904 -0.07869367 0.023946019 -0.075743094 0.034097582 -0.032491613
-0.036314365 -0.06544127 0.046810776 -0.045196496 -0.08660365 -0.06567979 -0.040476367 -0.07994423
0.04559947 -0.022150759 0.087484494 0.061086003 -0.056049958 -0.045124054 -0.043414824 0.05779577
0.0055980957 -0.025410326 0.091444574 0.105337545 0.0802295 -0.06565733 -0.034770455 -0.012894551
0.09695799 -0.03689156 -0.044074252 0.016655484 -0.019567538 0.04253629 0.01650438 -0.07526563
0.08579575 0.08253065 0.0068692807 -0.0524454 0.036167502 0.054235138 0.062320076 -0.03806132
-0.0053107208 -0.025354862 0.089328356 0.12570713 0.003141154 -0.053433325 0.04030337 0.051315594
0.036612954 -0.07705963 0.015524066 -0.033863813 -0.07268213 -0.036172204 0.055592775 0.042629384
-0.07724751 0.015568531 0.08747586 0.107008845 0.06952185 -0.024665408 0.050521795 0.052327074
0.042546112 -0.05841697 -0.03289422 0.07749003 0.078420006 0.07988596 -0.042902816 -0.01742111
-0.054966416 -0.030512685 0.07255871 -0.064039245 0.0065061883 0.021482734 -0.047811475 0.03975494
-0.017293425 0.070701405 -0.042358402 0.012554651 -0.078233115 0.048768036 0.08481949 0.024681855
0.0026611171 -0.045876943 -0.039584126 -0.042042386 -0.048899155 0.026121192 0.012710279 0.08201394
-0.07062425 -0.05783921 -0.036408037 -0.03323997 0.07872356 0.04396581 -0.07645863 -0.0040543606
0.00668073 0.07535932 0.08191872 0.05979389 0.085517116 -0.029104583 -0.001485094 -0.08015634
0.02596735 0.12210045 0.05102467 0.10651474 -0.033681743 0.02976157 -0.05164038 0.06884049
-0.037196286 -0.04071941 0.013356298 0.017042397 0.06126653 -0.013403087 -0.01851273 0.043483026
0.060996283 0.10040257 0.033398505 -0.002291288 0.12236746 0.13210434 -0.03944803 0.041984905
0.027068527 -0.03905968 -0.0057600313 -0.01405614 -0.06697127 -0.032530144 0.05460082 0.0758513
0.011878714 -0.07526048 0.013511647 -0.026474988 0.082211874 -0.08528583 -0.012099643 0.086365186
0.014878937 -0.03993801 -0.08256758 0.00049301644 0.055634387 -0.057744537 -0.08372263 0.055824842
-0.030479718 0.060592912 -0.07733086 -0.01106452 -0.055582605 -0.002894939 -0.08530872 0.046786804
-0.03953543 -0.06323674 -0.042346213 -0.11277212 0.04636461 -0.01970714 -0.005281407 0.07248892
-0.011779341 0.0801119 0.0058710524 -0.059327204 0.024932856 0.026873356 -0.061975464 0.028472032
0.018836059 0.07697331 -0.0069766724 -0.06516291 -0.08568798 0.03504137 -0.022466358 -0.020872265
-0.008774435 -0.023190577 0.02387013 0.08196984 0.07449814 -0.06256219 0.09172805 0.061633516
0.014810963 0.040696237 0.058439124 0.077174865 0.04907591 0.030427285 -0.036276866 -0.058988772

SoftmaxPolicy_l2.bias f4 [128]
00000000: fd6f 5a3d 6601 10bd 8562 323b 937f 80bd
00000010: 7447 46bd 58f7 633d 6c53 9a3c eeca e33c
00000020: b506 4e3d 83c6 db3c cdfc f33b 4b6d 33bc
00000030: 001b 913a 60b9 a83d be0a 113d cf49 293c
00000040: 3115 133d 3af9 23bd 34b5 8dbd ae49 99bc
00000050: 4360 c33d c3ce af3c f388 85bd 8ae2 723d
00000060: 04cc a53d 0400 8c3d d1fb 373c 42d2 bcbc
00000070: f8cf 0e3c a664 f53c 8859 02bd f47a 30bd
00000080: 309b 9f3c b4a4 363d cece dbbc f5db 0ebc
00000090: 7b48 85bd 5d54 1bba 4f05 9fbc 077d ba3d
000000a0: a23f 7b3d c35a f3bc cc45 8cbd 8e95 94bd
000000b0: c327 51bd 55cd b63d 9707 d2bc c81e 863d
000000c0: eeb8 8b3d 241e 19bc 0a94 1f3d 71d3 f03c
000000d0: 99b4 a83d 4b78 2d3d 9134 523d 5231 b73d
000000e0: 9f6f 273c b51c aa3d f6d9 1dbb a8d4 87bd
000000f0: 4a9e ae3d afb5 87bd f1c0 f53a 3dde ac3d
00000100: f7f4 c2bc b5ac 79bd 098f 873d b696 093d
00000110: 19f4 683d 13d4 423d fd41 bdbd 8882 923d
00000120: 9825 95bd 2a31 403c 43b9 4fbd 16f7 863d
00000130: 1172 bd3d 3d20 583c 398d b7bc 2f8a 9b3d
00000140: 4ff8 8e3d b10a 86bc 4840 913d 2301 f13b
00000150: 2d34 25bd 95c5 aa3d dca8 52bd a23a 84bd
00000160: 9692 553d 6af3 083d 40f1 8f3d 7fa1 11bd
00000170: eacb ac3c 3981 3c3d 44ac 953c c235 94bd
00000180: 7b43 683d aa62 c23c e107 a8bc acd5 b7bc
00000190: 8d20 bbbd 378a c03d e390 593c b86c c9bc
000001a0: c122 c83d 20af 81bd 0c53 ce3c 1e95 65bc
000001b0: 5aa3 dcbc d0a0 fd3a 5f7a 3dbc 405a 9a3d
000001c0: 8844 843d d416 003d c250 7ebb 2844 76bc
000001d0: 9c86 03bc 2bc6 a5ba 6f2d 023d c9d9 8f3d
000001e0: 6255 81bd a044 b6bd bd73 6cbc 5549 933d
000001f0: 0cb0 2f3d f925 0ebd 28c4 683d e4af 1e3d
0.053329457 -0.035157584 0.0027219367 -0.06274333 -0.048407987 0.055655807 0.018838607 0.027806725
0.050299365 0.026828056 0.0074459077 -0.01095135 0.0011070669 0.082384825 0.035410635 0.010332539
0.03590888 -0.040032603 -0.069193274 -0.018711891 0.09539845 0.021460896 -0.065202616 0.059298076
0.080955535 0.068359405 0.011229471 -0.023049477 0.008716576 0.02995522 -0.031823665 -0.043086007
0.019483179 0.044590667 -0.02683201 -0.008719434 -0.06507965 -0.0005925352 -0.019411711 0.09105878
0.06133998 -0.029706364 -0.0684925 -0.07255088 -0.05106331 0.08925883 -0.025638385 0.0654884
0.06822382 -0.009345565 0.03895954 0.029397698 0.08237571 0.04235105 0.051319662 0.08944954
0.010219484 0.08306257 -0.0024086214 -0.06632358 0.08526285 -0.0662645 0.0018749518 0.08440826
-0.023798449 -0.060955722 0.06619079 0.033590995 0.056873415 0.04756553 -0.09241102 0.07153803
-0.07282561 0.011730472 -0.05071379 0.06590097 0.09250272 0.01319128 -0.022406207 0.07594716
0.06980955 -0.01636252 0.07092339 0.007354872 -0.04033296 0.08338467 -0.051430568 -0.06456496
0.05214175 0.033435263 0.07028437 -0.035554405 0.021093328 0.046021674 0.01827062 -0.07236816
0.05670498 0.023728687 -0.02051157 -0.022440754 -0.09137068 0.094013624 0.013279173 -0.024587974
0.09772254 -0.063322306 0.025186084 -0.014012603 -0.02693336 0.0019350294 -0.01156482 0.07536745
0.06458384 0.03127177 -0.003880546 -0.015030898 -0.008027699 -0.001264756 0.03178161 0.07023961
-0.063151136 -0.08899808 -0.014431891 0.07191721 0.0428925 -0.034704182 0.056827694 0.03874196

SoftmaxPolicy_l3.weight f4 [2, 128]
00000000: 1432 553d dc5f 593c 640c ff3d 852e 5d3c
00000010: c3e1 b6bd ebac 98bc 3edc 253d 9766 bf3d
00000020: 5e0a 763c 96a6 fc3b 9947 8d3d 1048 8e3d
00000030: ba50 b83d 7645 763c 93a3 733b 98c3 c33d
00000040: cd4c 633d 3675 c13d 729c 31bc ec40 c93d
00000050: c9ec 2fbd 52db c83d 1233 1dbd 0efc 7bbc
00000060: ff88 11bd 404b 2e3d 774b 463d f7d1 0b3d
00000070: d4f8 b3bd 8ec0 b83b 336e 1fbd 3b3c 13bd
00000080: 56ee 5a3d a436 54ba 3671 4d3d a14a a1bd
00000090: aa59 4c3c 14de 8e3d 0cbb 6d3d 7b31 d23d
000000a0: e650 18bc 5aad ae3d 3a62 8ebd d25a 1dbc
000000b0: 6caa 1ebc 62c0 e9bc 276a 063d ccb0 223b
000000c0: 50c9 d0bd 8181 c6bd cb11 1b3d d7ee 75bd
000000d0: 2db9 e2bd 34c4 033e fbe7 67bd 8cd9 c23d
000000e0: 6f71 863d 2f5d 413d 04e4 99bd 6ea5 a8bc
000000f0: f24b a63d f161 b23c bd1b ffbd cae6 f93b
00000100: 3186 87bd 6333 8fbd f132 aabd f631 a53d
00000110: 15ff 953d 9144 8dbd e323 0ebd e6a6 a03d
00000120: 5229 98ba 7edc 6ebd d844 db3c 67f5 dfbd
00000130: a48d b3bd 65ec 903d 9861 b5bd 259a ca3d
00000140: a9c2 05bd 855e 68bd 7860 a8bd 95c1 613d
00000150: ee24 f6bd 6725 263d aaa0 de3c f2e4 0a3d
00000160: a53d d3bd 607e 84bd 7bdf 333d 1f4f 94bd
00000170: 6bd3 3abd 279d 643d cbae 313d 14bd 943d
00000180: 5e4e 553b a004 2bbd ae83 013e e196 853b
00000190: 44cb aebc 006c 983d 2275 afbd d429 a63d
000001a0: 94e2 0c3d 8487 75bc 9dd8 93bd 73d8 d9bc
000001b0: 7dda c0bc ee18 9e3c b2cf 76bd 9654 3b3d
000001c0: 5b7a f6bd c975 a0bd 8543 ecbb 0fa2 da3d
000001d0: 254b 903d d684 b3bd 15fd 9a3d 0c0f 6abd
000001e0: 5184 993d 2b32 273c 81fa c0bc f055 ccbd
000001f0: daf2 d1bd ca5e d6bd 0563 6dbd 028a 8d3d
00000200: d0eb 9bbb 389d e13d c6a0 eabd 38e0 ae3d
00000210: 301b 923c f43c bd3d b922 cfbd f9ec 9cbd
00000220: 427f e03d 64c6 503d c8f7 f0bd 1256 ccbd
00000230: 1807 dcbc a391 fc3d 0a1f b03d ead5 a8bd
00000240: d75f 343c 1ffc 8d3c adf6 84bd 047e aabd
00000250: 36b1 d23d 3d2b 0e3c 12e8 163d 6f31 d73d
00000260: a602 163d ad06 11be 36ef 84bd 2230 7abd
00000270: 5abf 98bd b7fb 833d d6bc 5f3b 8dce ed3d
00000280: b6b8 09bd 8a64 9e3c 19e1 e5bc 7205 9f3d
00000290: f279 763d 0f8b a4bc bd48 5abd 1d91 3bbd
000002a0: 79b7 89bd 163e 14be e15c 2c3d 7597 5d3d
000002b0: ef2e dabd e353 043e 51a4 7bbd 3866 bdbd
000002c0: adad 8d3d 53aa 843d 14de 8cbc 2f7c 9e3c
000002d0: 3d6d 1a3d 8de2 edbd c4b5 0c3e ad80 b9bd
000002e0: 4708 4abd 18ca 14be 098c d8bc e9d4 d33c
000002f0: 0903 f7bd f903 8ebd 8abc 463c 7f23 87bd
00000300: d9d6 a23d 7e60 e33d a026 16bb 26f9 4fbd
00000310: 5600 5e3d 4630 303c 264c 8b3d 3cbe ba3c
00000320: 7052 853d ef38 f83d 1815 80bd 743f 5bbd
00000330: 5b31 af3b b72f c5bd 03ef 953d 4e69 8cbd
00000340: 55f6 553d 2dfa 8cbd 8dfd 8d3d 6733 c33c
00000350: da16 e93d fd07 8abd 82cf 9a3c 587d 53bd
00000360: d538 b53b 74e4 8b3d d5ba c1bd 59c9 b23d
00000370: f39b 143d 9d71 cebc e112 953d a86b 203c
00000380: 2fa9 debd 8af5 973d c115 873c cbc2 3fbd
00000390: 760c 673d cc10 22bd e4f9 3e3d 3995 1ebd
000003a0: b9de 13be b4ba c83d 4295 d03d 63dd f4bd
000003b0: cf43 97bd b4a2 ac3d 233c 623d bb32 40bd
000003c0: 6d04 663c 0798 b63d ee5a ce3d 4114 01be
000003d0: a7a3 6ebd 176b 6fbc 29e7 c6bd 28cf 53bc
000003e0: 5002 edb9 f4b6 83bc aede 71bd 3fb7 e93b
000003f0: 11fc cf3b 9f44 0dbd 9cd2 873d a89a 93bd
0.05204971 0.013267484 0.12453535 0.013499861 -0.089297794 -0.018637141 0.040493242 0.09345739
0.01501712 0.0077102883 0.06898422 0.069473386 0.08999772 0.015031209 0.0037176355 0.09558791
0.055493165 0.09446184 -0.010840522 0.09826836 -0.042950425 0.09807457 -0.038378783 -0.015379919
-0.03553104 0.042552233 0.048411813 0.034135785 -0.087876946 0.0056381887 -0.038923454 -0.035946112
0.05344995 -0.00080953 0.050156794 -0.078755625 0.012472549 0.06975952 0.05803971 0.10263344
-0.009296631 0.08529158 -0.06952329 -0.009604173 -0.009684186 -0.028534118 0.03281608 0.0024824617
-0.10194647 -0.0969267 0.037858766 -0.06004223 -0.11070476 0.12867814 -0.05661772 0.0951415
0.065646045 0.047208007 -0.07514194 -0.020586696 0.08119954 0.021775218 -0.124564625 0.007626389
-0.06617392 -0.06992223 -0.083104976 0.0806617 0.07324044 -0.06897844 -0.034702193 0.07844333
-0.0011608994 -0.058315746 0.026766226 -0.10935479 -0.0876725 0.07076339 -0.08856505 0.09892682
-0.032656346 -0.056730766 -0.08221525 0.055116255 -0.120187625 0.040563013 0.02717622 0.033909746
-0.10314492 -0.064694166 0.0439143 -0.07241654 -0.04561178 0.055813935 0.043379586 0.07262626
0.0032547931 -0.041752458 0.12647888 0.004076824 -0.021337159 0.07442474 -0.08567263 0.08113447
0.03439577 -0.014985923 -0.0721905 -0.026592469 -0.023541683 0.019298997 -0.060256667 0.045734964
-0.12035056 -0.07834966 -0.0072101974 0.106754415 0.07045583 -0.08765571 0.07567803 -0.057143256
0.074959405 0.010204832 -0.02355695 -0.09977329 -0.102513984 -0.10467298 -0.05795576 0.069110885
-0.0047583356 0.11016315 -0.11456446 0.0853886 0.01783523 0.092401415 -0.10114045 -0.076623864
0.109617725 0.05097045 -0.117660105 -0.09977354 -0.026858851 0.123324655 0.0859967 -0.08243926
0.011009178 0.017332135 -0.06492362 -0.08324817 0.102877066 0.008677301 0.036842413 0.105074756
0.03662362 -0.14162703 -0.06490938 -0.06108106 -0.074583724 0.06444495 0.0034139655 0.11611662
-0.03362342 0.01933505 -0.028061436 0.077647105 0.06017489 -0.02008584 -0.053292025 -0.045792688
-0.06724448 -0.14476809 0.042080764 0.05409952 -0.10653483 0.12922625 -0.061436 -0.09248012
0.06917892 0.06477799 -0.017195739 0.019346325 0.037701834 -0.11615477 0.13741213 -0.09057746
-0.0493243 -0.14530218 -0.026433961 0.02585836 -0.12061126 -0.069343515 0.012129912 -0.06598567
0.07951135 0.11102389 -0.0022911206 -0.050774716 0.05419954 0.010753697 0.068016335 0.022795789
0.06509864 0.12120234 -0.06254023 -0.05352731 0.00534646 -0.096282415 0.073209785 -0.06856023
0.052236874 -0.06883655 0.069331266 0.023828221 0.11381312 -0.06739805 0.018897776 -0.05163321
0.0055304565 0.06830683 -0.094594635 0.0872981 0.036281537 -0.02520066 0.072789915 0.009791292
-0.10872113 0.0741988 0.016489865 -0.04681663 0.056408368 -0.0395668 0.046625033 -0.03871653
-0.1444043 0.09801236 0.10184719 -0.11956289 -0.0738598 0.08429471 0.055233132 -0.04692338
0.014039141 0.08915716 0.10075937 -0.12605383 -0.05826154 -0.014612935 -0.09712059 -0.012927808
-0.00045205886 -0.01607845 -0.059050255 0.0071324403 0.0063471873 -0.03448927 0.066319674 -0.07207233

SoftmaxPolicy_l3.bias f4 [2]
00000000: aa56 023d fe6d 83bc
0.03182093 -0.01604366
