pytorch_models/model279620.pth (torch, 72107 bytes, 6 tensors)

SoftmaxPolicy_l1.weight f4 [128, 4]
0.25478053 -0.22054996 -0.11337811 0.22932199 -0.46699363 0.3133174 -0.057289887 0.25684398
0.06902479 -0.05549594 0.20284875 0.048087917 0.17283653 -0.1868295 -0.026430983 -0.052248735
0.07194675 -0.0017532976 0.43536365 0.1539636 -0.18326834 -0.30132648 -0.08233444 -0.21062276
-0.1623935 0.021591706 0.31193566 0.2781506 -0.4893584 0.32682174 0.2568567 0.5182279
0.32622567 -0.46083492 -0.48979807 -0.23440208 0.42214873 -0.09201435 0.2234374 -0.2268579
0.4850993 -0.2320733 0.30443895 -0.008346901 -0.2605108 0.25714865 -0.25422683 0.1562687
-0.13328084 -0.05126213 -0.47027954 -0.22877482 0.26738524 -0.118566334 0.5011173 0.39911813
-0.027865661 -0.30952817 0.41205776 0.19537179 -0.31887475 0.33886412 0.42178065 0.49099523
-0.27968052 -0.08230789 -0.027613826 0.06853774 -0.37896767 -0.3553112 0.24982668 -0.1241637
0.2307622 0.031813607 0.30006105 0.17858265 0.16573544 0.25192437 -0.32035494 0.32326895
-0.34562233 -0.37626776 0.08459608 -0.05523283 0.2915158 -0.28281504 -0.35699508 0.4106892
-0.07157852 0.27772412 0.0923983 -0.42023465 0.098642275 0.114552 -0.34315014 -0.23928212
0.17445196 0.06903357 -0.35569018 -0.21561052 0.44788966 -0.08383825 0.39642453 0.26663598
-0.3215103 -0.42251232 0.46133286 0.016433304 0.3379664 0.11487735 0.2629918 0.41041106
0.46505913 -0.32441357 0.18594083 0.44025868 0.35099128 0.30085197 -0.36042064 -0.35801396
-0.30906752 0.056301612 0.5122427 -0.3128403 0.2723246 -0.28137076 -0.49047285 -0.103780836
0.28313974 0.46367016 -0.29065397 0.11073638 0.41895664 0.3532025 0.4055373 0.37472335
0.30207622 0.11623857 -0.32941186 -0.4092078 -0.23649177 -0.057275243 -0.1887712 0.24610478
0.15395457 -0.11868443 0.20691283 0.17280032 0.2965117 0.35916162 -0.06586943 0.5196117
-0.04877654 -0.033979964 -0.60066766 -0.37001857 -0.2895428 -0.21399869 0.34454608 -0.16275626
-0.36516413 0.2169602 0.25616798 0.34476286 -0.25981924 0.10601233 -0.18332566 -0.11102242
-0.39418402 -0.22969629 -0.17142326 0.21446678 0.08409429 0.14514293 0.6189674 0.51107997
0.33320877 0.022928383 -0.22600381 0.4470487 -0.1302456 -0.045862745 -0.4408197 -0.10071176
-0.3304213 0.4564125 -0.47486132 -0.42070264 -0.010013057 -0.26582113 0.17326832 -0.19249642
-0.23376197 0.041586105 0.34088928 -0.38061568 0.23093542 0.31712395 0.46764928 -0.36420247
0.13516216 -0.361713 0.39329585 -0.20734267 0.29643482 0.016821982 -0.014873528 -0.00674526
0.07382141 0.2357002 0.20865287 0.22242749 -0.44921142 0.37213787 0.5310609 0.46246526
0.35032737 -0.36153865 -0.15670615 0.44473526 -0.3869528 0.4591256 -0.43362343 -0.3925433
0.24022727 -0.34693298 -0.05083875 0.39143276 0.4001965 0.46800122 -0.19069873 -0.43998384
0.48325253 -0.1289029 -0.23531398 0.13450126 -0.34679896 0.32561707 0.2373973 -0.44832665
-0.413169 -0.048337962 0.19394019 -0.012618979 -0.25064567 0.020972138 -0.4761053 -0.36461708
-0.32953528 0.4154343 0.40851918 -0.196822 0.027735392 0.21129481 0.014190756 -0.26715583
00000000: 9872 823e d9d7 61be c832 e8bd 62d3 6a3e
00000010: ca19 efbe 236b a03e cda8 6abd 0e81 833e
00000020: de5c 8d3d b64f 63bd 95b7 4f3e d6f7 443d
00000030: 0ffc 303e 3c50 3fbe ca85 d8bc c502 56bd
00000040: d158 933d e8ce e5ba fce7 de3e a2a8 1d3e
00000050: b2aa 3bbe 7747 9abe f59e a8bd 7ead 57be
00000060: 7b4a 26be 17e1 b03c 08b6 9f3e c169 8e3e
00000070: 2f8d fabe 2e55 a73e b982 833e 95aa 043f
00000080: 0d07 a73e 8ef2 ebbe d0c6 fabe 1907 70be
00000090: e123 d83e 0572 bcbd c6cc 643e 704d 68be
000000a0: ef5e f83e a0a4 6dbe 6cdf 9b3e 71c1 08bc
000000b0: ac61 85be fda8 833e 052a 82be e704 203e
000000c0: c67a 08be 3df8 51bd 7bc8 f0be f243 6abe
000000d0: b8e6 883e e8d2 f2bd 3949 003f 3659 cc3e
000000e0: 8746 e4bc 7a7a 9ebe 3cf9 d23e 8b0f 483e
000000f0: 8d43 a3be 997f ad3e a2f3 d73e ba63 fb3e
00000100: 4932 8fbe 0a91 a8bd 6436 e2bc 845d 8c3d
00000110: 0d08 c2be 59eb b5be 91d2 7f3e 8a49 febd
00000120: ed4c 6c3e fc4e 023d 9aa1 993e 5fde 363e
00000130: 8db6 293e 3bfc 803e 9005 a4be 8283 a53e
00000140: 69f5 b0be 2ba6 c0be b640 ad3d d23b 62bd
00000150: 8f41 953e 22cd 90be 0fc8 b6be db45 d23e
00000160: c297 92bd db31 8e3e 523b bd3d ff28 d7be
00000170: f604 ca3d 3d9a ea3d 60b1 afbe 5f06 75be
00000180: 89a3 323e 7961 8d3d 061d b6be 01c9 5cbe
00000190: cb51 e53e 63b3 abbd 28f8 ca3e 8384 883e
000001a0: ff9c a4be 8953 d8be d233 ec3e 239f 863c
000001b0: ef09 ad3e d144 eb3d dca6 863e 6621 d23e
000001c0: 3b1c ee3e 8919 a6be 4667 3e3e 9669 e13e
000001d0: 21b5 b33e 4509 9a3e 0e89 b8be 9b4d b7be
000001e0: 193e 9ebe 859c 663d 5622 033f 9b2c a0be
000001f0: 216e 8b3e d40f 90be 421f fbbe 0c8b d4bd
00000200: b1f7 903e 2d66 ed3e 99d0 94be c1c9 e23d
00000210: 7c81 d63e f5d6 b43e 96a2 cf3e bddb bf3e
00000220: bca9 9a3e 7d0e ee3d aca8 a8be af83 d1be
00000230: e62a 72be 7299 6abd 3d4d 41be e402 7c3e
00000240: 44a6 1d3e d310 f3bd f5e0 533e 91f2 303e
00000250: 62d0 973e 08e4 b73e 8de6 86bd 4605 053f
00000260: e9c9 47bd 932e 0bbd 5bc5 19bf 1373 bdbe
00000270: f43e 94be 7922 5bbe 5868 b03e 94a9 26be
00000280: cbf6 babe d12a 5e3e 7328 833e c284 b03e
00000290: 0707 85be fe1c d93d b9b9 3bbe b95f e3bd
000002a0: 7dd2 c9be 8135 6bbe 9489 2fbe 2e9d 5b3e
000002b0: a139 ac3d 59a0 143e a674 1e3f 23d6 023f
000002c0: 579a aa3e 4ed4 bb3c 8b6d 67be 91e3 e43e
000002d0: 1a5f 05be 93da 3bbd 1fb3 e1be f841 cebd
000002e0: fb2c a9be e6ae e93e 0621 f3be 5666 d7be
000002f0: ce0d 24bc b519 88be 406d 313e c81d 45be
00000300: 4c5f 6fbe 3156 2a3d 0a89 ae3e 0fe0 c2be
00000310: 567a 6c3e 125e a23e ba6f ef3e bf78 babe
00000320: f367 0a3e 7232 b9be 135e c93e a351 54be
00000330: 4ec6 973e 41ce 893c 19b0 73bc 5807 ddbb
00000340: ae2f 973d 655b 713e 19a9 553e 08c4 633e
00000350: 0aff e5be db88 be3e 9bf3 073f 3fc8 ec3e
00000360: 1c5e b33e 981b b9be 9477 20be 57b4 e33e
00000370: ad1e c6be 8312 eb3e e403 debe 6ffb c8be
00000380: 23fe 753e 33a1 b1be 4b3c 50bd e069 c83e
00000390: 8ee6 cc3e db9d ef3e 8746 43be 9045 e1be
000003a0: e06c f73e 1fff 03be 26f6 70be b3ba 093e
000003b0: a28f b1be 48b7 a63e 4718 733e 128b e5be
000003c0: e38a d3be 07fe 45bd 4298 463e d6bf 4ebc
000003d0: a154 80be c3cd ab3c 13c4 f3be 17af babe
000003e0: d9b8 a8be ceb3 d43e 6d29 d13e b58b 49be
000003f0: 5535 e33c ab5d 583e 5880 683c a6c8 88be

SoftmaxPolicy_l1.bias f4 [128]
-0.38099632 0.3558942 0.3318223 -0.5007561 -0.39417493 -0.33721796 -0.26069587 0.117598504
-0.48644102 -0.3883117 0.2308026 -0.17033449 -0.21352746 -0.4161576 0.19223641 0.110694446
-0.20322852 -0.3098443 0.11781887 0.15221587 0.19295505 0.1648307 -0.050903115 -0.3906462
0.34976104 0.032711964 -0.34418535 0.4694633 0.28677854 -0.40519452 -0.24514 -0.16234785
-0.2907632 0.23570621 -0.3769047 0.4519852 -0.19880804 0.3049509 0.09312976 -0.22869761
0.3451505 -0.38052964 -0.26502287 0.10883532 0.38978428 -0.20777269 -0.28201455 -0.3231493
-0.19868767 -0.15975508 -0.12245122 -0.29199335 0.17023318 0.08183417 -0.34019017 -0.25154552
0.10126557 0.02464475 0.38955495 -0.057885733 -0.40326852 -0.36311382 -0.1332033 -0.10580187
0.08498632 -0.1283152 0.21055156 -0.15744103 0.39186245 0.09993511 -0.15978716 0.4760171
0.16380145 -0.358543 -0.2645656 0.33493185 0.22090626 0.38013646 0.01768186 0.3478916
0.27253646 0.14098732 -0.14977397 0.5109573 0.09725346 -0.15463029 0.06679565 0.5008035
0.3209327 -0.058600467 0.51873505 0.25072423 -0.26078445 -0.45936993 0.31187603 0.501862
-0.30218673 0.19686738 0.042548053 -0.12635964 -0.1082969 0.16500284 0.10320237 0.33628455
0.18554577 0.25829288 0.47263524 0.17585136 0.115036964 -0.13641036 0.37963566 0.095186
0.32744506 0.48131734 -0.13346413 0.3341495 -0.06351291 0.47727528 0.39308423 -0.15382557
0.012064216 -0.21620122 -0.21018101 -0.0890859 -0.0017776918 -0.15319793 -0.47102758 -0.31306094
00000000: f311 c3be c437 b63e 9de4 a93e 8d31 00bf
00000010: 4cd1 c9be d5a7 acbe ee79 85be 7cd7 f03d
00000020: cc0e f9be cbd0 c6be 8457 6c3e 2a6c 2ebe
00000030: f1a6 5abe 9c12 d5be 9fd9 443e c5b3 e23d
00000040: 231b 50be e9a3 9ebe 054b f13d 7ade 1b3e
00000050: 0296 453e 61c9 283e c97f 50bd c702 c8be
00000060: e113 b33e fbfc 053d 1039 b0be 7e5d f03e
00000070: a3d4 923e a875 cfbe fb05 7bbe 843e 26be
00000080: eade 94be f85c 713e a7f9 c0be 9b6a e73e
00000090: 5694 4bbe 8622 9c3e d1ba be3d b52f 6abe
000000a0: 91b7 b03e c8d4 c2be 14b1 87be 0de5 de3d
000000b0: ce91 c73e 5dc2 54be 3664 90be d373 a5be
000000c0: c874 4bbe d696 23be b5c7 fabd 2780 95be
000000d0: 9b51 2e3e ac98 a73d 682d aebe 93ca 80be
000000e0: 5364 cf3d c9e3 c93c bf73 c73e 9719 6dbd
000000f0: 3679 cebe 0eea b9be 7266 08be a7ae d8bd
00000100: 4f0d ae3d 0f65 03be d49a 573e 3938 21be
00000110: 32a2 c83e c7aa cc3d 3f9f 23be 83b8 f33e
00000120: 91bb 273e f392 b7be 2475 87be 307c ab3e
00000130: 4035 623e 3fa1 c23e 8cd9 903c d91e b23e
00000140: e689 8b3e fb5e 103e 595e 19be 19ce 023f
00000150: d22c c73d 6757 1ebe 28cc 883d a834 003f
00000160: 4a51 a43e 0b07 70bd d2cb 043f ed5e 803e
00000170: 8a85 85be 8932 ebbe 37ae 9f3e 077a 003f
00000180: 38b8 9abe 9a97 493e de46 2e3d 6c64 01be
00000190: c4ca ddbd 81f6 283e c45b d33d 7d2d ac3e
000001a0: b6ff 3d3e f73e 843e 3ffd f13e 6112 343e
000001b0: 8098 eb3d 28af 0bbe 9b5f c23e e1f0 c23d
000001c0: e1a6 a73e 3a6f f63e d2aa 08be a515 ab3e
000001d0: 0e13 82bd 6d5d f43e 5642 c93e 7384 1dbe
000001e0: fda8 453c da63 5dbe b139 57be ab72 b6bd
000001f0: 7001 e9ba ebdf 1cbe 872a f1be 8649 a0be

SoftmaxPolicy_l2.weight f4 [128, 128]
-0.0005801762 -0.040914297 0.07190997 0.07300409 0.056641046 0.040669434 -0.07186532 0.052521672
-0.061262697 -0.018540848 -0.040156234 0.026487114 -0.06569093 -0.041159924 -0.059949007 -0.099764735
-0.046016946 0.08264836 -0.009011331 0.029330485 -0.08529792 0.09573321 -0.014562345 -0.08087933
0.08562943 -0.016866278 0.07355149 -0.058070455 -0.07069631 -0.05738514 0.03454598 0.019786807
-0.079184026 0.010815012 0.0063748783 0.03388081 -0.044206664 -0.06546216 0.11195133 -0.04666986
0.044292998 0.07181399 -0.067828625 -0.079527095 0.02138834 -0.07659424 0.03450755 -0.033320412
-0.036156867 -0.06772196 0.045653563 -0.049736682 -0.08860877 -0.06384158 -0.043277208 -0.07952974
0.044610478 -0.02499151 0.084493265 0.062009472 -0.056596626 -0.044967853 -0.041702658 0.05581279
0.0027525027 -0.02848745 0.089879274 0.10155049 0.077923045 -0.06453028 -0.034031954 -0.013181755
0.09598222 -0.040134825 -0.044101685 0.01641262 -0.019836681 0.040383462 0.017314 -0.07494169
0.08538865 0.07982391 0.008268626 -0.054806557 0.037302736 0.05427559 0.062346667 -0.037360966
-0.0048513506 -0.028272733 0.08954917 0.122698516 0.001856611 -0.05367148 0.039839234 0.051231593
0.036606256 -0.076786295 0.0153487725 -0.03684713 -0.07156891 -0.035757985 0.052580375 0.041307118
-0.07688527 0.016776137 0.085632026 0.10457285 0.06768577 -0.028080272 0.050751325 0.05037902
0.043005433 -0.060810257 -0.031871133 0.07657062 0.076660186 0.0790445 -0.045370575 -0.01667247
-0.056236926 -0.03402157 0.06980477 -0.0657125 0.0032102303 0.022359032 -0.04855886 0.035903014
-0.016484676 0.06974374 -0.04241476 0.011060358 -0.078233115 0.049405143 0.084475994 0.023113854
0.0043044006 -0.043385517 -0.038484056 -0.042025372 -0.048757236 0.024192765 0.012481771 0.07942913
-0.071024105 -0.058355562 -0.036409855 -0.03342824 0.077890836 0.04511293 -0.07743462 -0.0027952197
0.007324935 0.07567879 0.08160946 0.059853174 0.08638516 -0.02883073 -0.0012993586 -0.07734934
0.025075868 0.12172342 0.05250646 0.10639438 -0.03338399 0.029548537 -0.049751215 0.06829747
-0.03823477 -0.040242765 0.012897044 0.015083952 0.06172837 -0.012550288 -0.019793563 0.044191692
0.060868844 0.09964747 0.03449391 -0.0010933843 0.12157185 0.130219 -0.037725978 0.04101687
0.027426511 -0.039020356 -0.004760035 -0.015601769 -0.06643425 -0.032559972 0.051927093 0.075118914
0.01185984 -0.07573422 0.014887747 -0.02427848 0.08224205 -0.086312324 -0.0137303695 0.08646262
0.014912284 -0.039992906 -0.08242561 0.0006036987 0.055658802 -0.057938695 -0.08452691 0.053822026
-0.030279595 0.06208207 -0.07845064 -0.009976056 -0.05655017 -0.0028592101 -0.08552828 0.046152238
-0.04008635 -0.06336489 -0.04258313 -0.111543044 0.04678012 -0.019533837 -0.006801952 0.072511315
-0.011805038 0.07968236 0.005884024 -0.059889432 0.022675669 0.02643897 -0.061221126 0.029090255
0.017683322 0.074621245 -0.006889386 -0.06385836 -0.08562557 0.03431311 -0.023834879 -0.022030553
-0.009163241 -0.022955375 0.023052525 0.08237901 0.07387492 -0.061905507 0.09137015 0.060906872
0.0154234655 0.04250724 0.057825685 0.078243695 0.05100997 0.0297374 -0.035582673 -0.056993175
00000000: f716 18ba c095 27bd 8945 933d 2b83 953d
00000010: 7100 683d fe94 263d 202e 93bd f720 573d
00000020: 98ee 7abd fae2 97bc dd7a 24bd 81fb d83c
00000030: f788 86bd 4f97 28bd 178d 75bd 7451 ccbd
00000040: 447c 3cbd 8b43 a93d 43a4 13bc 7c46 f03c
00000050: adb0 aebd c60f c43d e796 6ebc 10a4 a5bd
00000060: 7c5e af3d 262b 8abc 2aa2 963d 49db 6dbd
00000070: 3ac9 90bd ae0c 6bbd 1680 0d3d f117 a23c
00000080: 3c2b a2bd 7331 313c 5be4 d03b 9bc6 0a3d
00000090: 0c12 35bd 0611 86bd bd46 e53d e528 3fbd
000000a0: 936c 353d 3713 933d bce9 8abd 1adf a2bd
000000b0: 9a36 af3c 71dd 9cbd ca57 0d3d fc7a 08bd
000000c0: 3919 14bd d0b1 8abd 3bff 3a3d b1b8 4bbd
000000d0: 8478 b5bd 60bf 82bd 7143 31bd 7de0 a2bd
000000e0: 7ab9 363d ffba ccbc ce0a ad3d a5fd 7d3d
000000f0: ddd1 67bd 3630 38bd 68d0 2abd f49b 643d
00000100: 5563 343b 835e e9bc a012 b83d b4f9 cf3d
00000110: 1e96 9f3d 7428 84bd 1765 0bbd 4af8 57bc
00000120: 5392 c43d 6a64 24bd f8a3 34bd c273 863c
00000130: 8980 a2bc 2169 253d 17d6 8d3c 077b 99bd
00000140: 3fe0 ae3d b87a a33d 2279 073c d77c 60bd
00000150: c1ca 183d 1550 5e3d 385f 7f3d d007 19bd
00000160: 14f8 9ebb 389c e7bc 8e65 b73d 5c49 fb3d
00000170: 8759 f33a a0d6 5bbd 772e 233d 38d8 513d
00000180: 71f0 153d 2242 9dbd 6b79 7b3c 04ed 16bd
00000190: b892 92bd f776 12bd 855e 573d a731 293d
000001a0: 0676 9dbd 1c6e 893c d85f af3d 4a2a d63d
000001b0: d69e 8a3d 9908 e6bc 9fe0 4f3d 3b5a 4e3d
000001c0: 7726 303d 2d14 79bd 4e8b 02bd 0fd1 9c3d
000001d0: 0400 9d3d 15e2 a13d 7fd6 39bd b494 88bc
000001e0: b158 66bd 345a 0bbd cef5 8e3d 4694 86bd
000001f0: ba62 523b 4a2a b73c a8e5 46bd 0a0f 133d
00000200: df0a 87bc ced5 8e3d 19bb 2dbd 8136 353c
00000210: af38 a0bd 0c5d 4a3d c001 ad3d 4459 bd3c
00000220: ee0b 8d3b 03b5 31bd 75a1 1dbd cc22 2cbd
00000230: abb5 47bd e82f c63c 5880 4c3c bdab a23d
00000240: 1675 91bd 3e06 6fbd 8022 15bd 0dec 08bd
00000250: 3b85 9f3d 56c8 383d 0b96 9ebd 0130 37bb
00000260: 0206 f03b 7bfd 9a3d dc22 a73d 9a28 753d
00000270: b4ea b03d 6c2e ecbc 3d4f aaba 5569 9ebd
00000280: e86b cd3c 214a f93d 0411 573d 4ce5 d93d
00000290: a7bd 08bd c60f f23c eec7 4bbd 8bdf 8b3d
000002a0: 109c 1cbd 99d5 24bd 204e 533c ae22 773c
000002b0: e3d6 7c3d b99f 4dbc 1c26 a2bc 5902 353d
000002c0: 9c51 793d f913 cc3d 7c49 0d3d e44f 8fba
000002d0: a9fa f83d 2158 053e 8e86 1abd 4e01 283d
000002e0: 90ad e03c cfd3 1fbd 11fa 9bbb 909e 7fbc
000002f0: ae0e 88bd 9b5d 05bd 81b1 543d f2d7 993d
00000300: c64f 423c 8b1a 9bbd bdeb 733c aae3 c6bc
00000310: 856e a83d 84c4 b0bd 58f5 60bc 5013 b13d
00000320: a752 743c 9acf 23bd c2ce a8bd 8941 1e3a
00000330: 7cfa 633d 2051 6dbd 721c adbd 7c74 5c3d
00000340: ea0c f8bc c549 7e3d bbaa a0bd 9d72 23bc
00000350: 27a1 67bd 9661 3bbb 7329 afbd 210a 3d3d
00000360: 9631 24bd 74c5 81bd a66b 2ebd ae70 e4bd
00000370: 839c 3f3d 6d05 a0bc e9e2 debb d080 943d
00000380: eb69 41bc 8130 a33d c5ce c03b 9f4e 75bd
00000390: 53c2 b93c 8a96 d83c 01c3 7abd b04e ee3c
000003a0: 9ddc 903c 06d3 983d 5cc0 e1bb 2cc8 82bd
000003b0: 755c afbd e78b 0c3d 5d41 c3bc 6b79 b4bc
000003c0: 6b21 16bc e90c bcbc a6d8 bc3c 54b6 a83d
000003d0: bc4b 973d a190 7dbd 4620 bb3d 7c79 793d
000003e0: b4b2 7c3c 121c 2e3d a0da 6c3d 3b3e a03d
000003f0: d5ef 503d d99b f33c 23bf 11bd ad71 69bd

SoftmaxPolicy_l2.bias f4 [128]
0.0523249 -0.03528642 0.0026734362 -0.06277082 -0.048462175 0.055848688 0.018384801 0.02934034
0.050019324 0.026791535 0.0065424275 -0.010918837 0.0011070669 0.08226849 0.033697158 0.010303085
0.03604613 -0.039710816 -0.06920522 -0.019494686 0.09542044 0.021008544 -0.065202616 0.05939318
0.080955535 0.06823351 0.010538603 -0.02324707 0.008716576 0.030116271 -0.03224841 -0.043333475
0.019086922 0.044788245 -0.02688555 -0.008719434 -0.06507965 0.0011066766 -0.019520946 0.090378635
0.061334193 -0.029945375 -0.0684925 -0.07149347 -0.051161095 0.08933642 -0.025582936 0.06599204
0.06814443 -0.009360603 0.039887626 0.029335376 0.08172263 0.041958246 0.051335454 0.08898919
0.010862437 0.08297001 -0.0024086214 -0.06697867 0.08511871 -0.0662645 0.0018143329 0.08430449
-0.023453401 -0.06057302 0.06619079 0.033588476 0.057208028 0.047542967 -0.09162084 0.071176104
-0.072567165 0.011526196 -0.051116444 0.06618387 0.09244791 0.012049341 -0.022424791 0.07567896
0.06944759 -0.014818766 0.07078502 0.008649923 -0.04047791 0.08304244 -0.05193403 -0.06392284
0.052192833 0.033435263 0.069683045 -0.03581782 0.021119127 0.04565454 0.018204758 -0.072273344
0.056707084 0.023536947 -0.020519994 -0.023463584 -0.09206121 0.093739934 0.012894444 -0.025119016
0.09732821 -0.06386293 0.025064265 -0.0142535325 -0.02740414 0.0019350294 -0.011402097 0.07515523
0.06466763 0.031320404 -0.0038259258 -0.015255071 -0.0072349557 -0.0010096544 0.03154106 0.07023961
-0.06340867 -0.08899808 -0.011443223 0.07178315 0.04290226 -0.035013687 0.056701865 0.038710453
00000000: a252 563d 7e88 10bd d134 2f3b fd8d 80bd
00000010: 4680 46bd 98c1 643d b99b 963c 275b f03c
00000020: 10e1 4c3d ec79 db3c dc61 d63b ece4 32bc
00000030: 001b 913a 627c a83d 0806 0a3d 45ce 283c
00000040: 1ba5 133d cfa7 22bd 77bb 8dbd 52b3 9fbc
00000050: cb6b c33d 1c1a ac3c f388 85bd 4346 733d
00000060: 04cc a53d 03be 8b3d 1baa 2c3c a470 bebc
00000070: f8cf 0e3c 66b6 f63c e916 04bd 717e 31bd
00000080: 2d5c 9c3c e173 373d 163f dcbc f5db 0ebc
00000090: 7b48 85bd e80d 913a 64ea 9fbc 6f18 b93d
000000a0: 9039 7b3d 0150 f5bc cc45 8cbd 2b6b 92bd
000000b0: 4c8e 51bd 03f6 b63d 4e93 d1bc d626 873d
000000c0: 4f8f 8b3d 375d 19bc 3561 233d be50 f03c
000000d0: 325e a73d 69dc 2b3d 2045 523d f73f b63d
000000e0: 5df8 313c 2eec a93d f6d9 1dbb 1d2c 89bd
000000f0: b852 ae3d afb5 87bd e9ce ed3a d5a7 ac3d
00000100: 5921 c0bc 6a1b 78bd 098f 873d 1294 093d
00000110: f752 6a3d 6abc 423d b5a3 bbbd c7c4 913d
00000120: 189e 94bd 5fd8 3c3c 7a5f 51bd 698b 873d
00000130: 5455 bd3d 996a 453c 32b4 b7bc 92fd 9a3d
00000140: 8a3a 8e3d 69ca 72bc bdf7 903d 68b8 0d3c
00000150: 2acc 25bd 2812 aa3d c7b8 54bd fae9 82bd
00000160: 27c8 553d 6af3 083d fcb5 8e3d b5b5 12bd
00000170: 0502 ad3c 4100 3b3d 2522 953c 0c04 94bd
00000180: b045 683d 8ed0 c03c 8c19 a8bc b436 c0bc
00000190: 968a bcbd b9fa bf3d 3843 533c 65c6 cdbc
000001a0: 0354 c73d 91ca 82bd 9353 cd3c a687 69bc
000001b0: a67e e0bc d0a0 fd3a dccf 3abc fcea 993d
000001c0: 7670 843d d349 003d 62bc 7abb 68f0 79bc
000001d0: 3513 edbb 6156 84ba 3331 013d c9d9 8f3d
000001e0: 68dc 81bd a044 b6bd 5b7c 3bbc 0b03 933d
000001f0: 48ba 2f3d 836a 0fbd 3740 683d da8e 1e3d

SoftmaxPolicy_l3.weight f4 [2, 128]
0.050817937 0.014027005 0.124439426 0.0136593245 -0.08813115 -0.017669395 0.03948345 0.09406838
0.01540117 0.007771407 0.06766571 0.06916422 0.08999772 0.016350064 0.004840298 0.095262185
0.054949056 0.09435703 -0.010840645 0.09696799 -0.042495012 0.09669577 -0.038378783 -0.0151644945
-0.03553104 0.04177868 0.047987588 0.033216756 -0.087876946 0.0057270485 -0.040284686 -0.034621775
0.052397646 -0.00083272666 0.050116148 -0.078755625 0.012472549 0.0696679 0.056971703 0.10231233
-0.009584479 0.08422203 -0.06952329 -0.009693655 -0.010729156 -0.027411047 0.032821905 0.0022916328
-0.10158839 -0.0959575 0.038021687 -0.0590709 -0.109233506 0.12724873 -0.055175472 0.09441863
0.065928064 0.04640411 -0.07514194 -0.018947942 0.07950901 0.021775218 -0.12398208 0.0066820905
-0.06848258 -0.069834486 -0.083104976 0.0796818 0.073189534 -0.06744835 -0.034893457 0.07785735
-0.00061469554 -0.05653644 0.025927832 -0.108080804 -0.08739382 0.06952974 -0.08840968 0.09800482
-0.032623686 -0.056652743 -0.08022196 0.054815795 -0.11999459 0.04012021 0.026909014 0.03361431
-0.102559194 -0.064694166 0.04305057 -0.07118767 -0.045036167 0.05467629 0.043368973 0.07261948
0.002684599 -0.041741315 0.12572537 0.004247952 -0.021182045 0.07373094 -0.08387248 0.07968797
0.032997783 -0.013282334 -0.07173685 -0.028156752 -0.021403717 0.019298997 -0.059439007 0.04470562
-0.120116994 -0.077580184 -0.0068501313 0.10621146 0.07038694 -0.08654573 0.0755253 -0.057143256
0.07375079 0.010204832 -0.021930616 -0.09911866 -0.10215023 -0.10426179 -0.056821976 0.06910903
-0.0035265796 0.10940353 -0.11446856 0.08522918 0.01666861 0.091433644 -0.100130744 -0.07723485
0.109233625 0.050909333 -0.1163416 -0.09946437 -0.026858851 0.12200576 0.08487404 -0.08211354
0.011553287 0.017436989 -0.064923525 -0.08194779 0.10242168 0.010056122 0.036842413 0.10485932
0.03662362 -0.14085329 -0.06448517 -0.060162015 -0.074583724 0.064356014 0.004775204 0.114792325
-0.032571115 0.019358242 -0.02802074 0.077647105 0.06017489 -0.019994168 -0.052224018 -0.045471583
-0.066956624 -0.14369859 0.042080764 0.054189 -0.105489835 0.12810324 -0.061441828 -0.09228929
0.068820834 0.063808806 -0.017358636 0.018375048 0.036230583 -0.11472546 0.13597 -0.08985459
-0.04960612 -0.14449815 -0.026433961 0.024219604 -0.11892073 -0.069343515 0.011547361 -0.06504136
0.08182001 0.11093614 -0.0022911206 -0.049794767 0.054250468 0.009223551 0.06820761 0.023381758
0.06455242 0.119423 -0.06170181 -0.05480117 0.0050677257 -0.09504877 0.07305441 -0.06763822
0.052204214 -0.0689146 0.067337975 0.024128687 0.11362007 -0.0669552 0.019164983 -0.051337775
0.004944804 0.06830683 -0.09373097 0.08606924 0.03570593 -0.024063071 0.0728005 0.009798031
-0.10815098 0.07418764 0.017243344 -0.04698775 0.05625327 -0.038872983 0.044824928 -0.03727004
-0.14300627 0.09630874 0.101393536 -0.11799856 -0.07599775 0.08429471 0.054415468 -0.045894038
0.013805639 0.08838768 0.10039935 -0.1255109 -0.058192596 -0.015722906 -0.09696786 -0.012927808
0.00075642596 -0.01607845 -0.060676582 0.006477764 0.005983341 -0.03490056 0.06518588 -0.07207047
00000000: 7826 503d 86d1 653c 19da fe3d 5ccb 5f3c
00000010: 1b7e b4bd 68bf 90bc 66b9 213d eca6 c03d
00000020: 3055 7c3c 49a7 fe3b 5294 8a3d f8a5 8d3d
00000030: ba50 b83d 92f0 853c 5d9b 9e3b d218 c33d
00000040: 4312 613d 423e c13d f69c 31bc 2797 c63d
00000050: 400f 2ebd 6f08 c63d 1233 1dbd 8074 78bc
00000060: ff88 11bd 1f20 2b3d a28e 443d 4b0e 083d
00000070: d4f8 b3bd f7a9 bb3b 8e01 25bd 90cf 0dbd
00000080: ea9e 563d 574b 5aba 9746 4d3d a14a a1bd
00000090: aa59 4c3c 0bae 8e3d 295b 693d 2089 d13d
000000a0: 3808 1dbc 9a7c ac3d 3a62 8ebd 23d2 1ebc
000000b0: 58c9 2fbc 228d e0bc 4370 063d 382f 163b
000000c0: 930d d0bd 5e85 c4bd a1bc 1b3d 54f4 71bd
000000d0: d1b5 dfbd 7e4d 023e adff 61bd 8e5e c13d
000000e0: 4b05 873d 3c12 3e3d 04e4 99bd b738 9bbc
000000f0: 9fd5 a23d f161 b23c 51ea fdbd 70f5 da3b
00000100: 9840 8cbd 6205 8fbd f132 aabd 3630 a33d
00000110: 65e4 953d 5c22 8abd 71ec 0ebd ad73 9f3d
00000120: 8523 21ba c192 67bd 9b66 d43c 7859 ddbd
00000130: 88fb b2bd 9c65 8e3d 2210 b5bd c0b6 c83d
00000140: 6aa0 05bd b50c 68bd 694b a4bd 8786 603d
00000150: b9bf f5bd 1755 243d 4b70 dc3c 29af 093d
00000160: 8e0a d2bd 607e 84bd cb55 303d d7ca 91bd
00000170: d877 38bd 3ff4 5f3d aaa3 313d 86b9 943d
00000180: 19f0 2f3b f1f8 2abd 27be 003e 6732 8b3b
00000190: f885 adbc 3f00 973d 56c5 abbd 7233 a33d
000001a0: af28 073d 269e 59bc c5ea 92bd fda8 e6bc
000001b0: d956 afbc ee18 9e3c 5176 73bd 3d1d 373d
000001c0: e6ff f5bd 5ce2 9ebd 1177 e0bb 6585 d93d
000001d0: 0727 903d e33e b1bd 02ad 9a3d 0c0f 6abd
000001e0: a70a 973d 2b32 273c d6a7 b3bc b9fe cabd
000001f0: 2434 d1bd 3587 d5bd 29be 68bd 0989 8d3d
00000200: 301e 67bb f50e e03d 7e6e eabd a38c ae3d
00000210: 9c8c 883c 9041 bb3d 5911 cdbd 4e2d 9ebd
00000220: e1b5 df3d 4e86 503d 8144 eebd fab3 cbbd
00000230: 1807 dcbc 28de f93d 71d2 ad3d 252b a8bd
00000240: ff49 3d3c 04d8 8e3c a0f6 84bd 3ed4 a7bd
00000250: 75c2 d13d 6fc2 243c 12e8 163d 7cc0 d63d
00000260: a602 163d d83b 10be cd10 84bd 726c 76bd
00000270: 5abf 98bd 16cd 833d 5179 9c3b 3d18 eb3d
00000280: 4a69 05bd 2d95 9e3c c08b e5bc 7205 9f3d
00000290: f279 763d cfca a3bc dae8 55bd 6940 3abd
000002a0: 8e20 89bd b925 13be e15c 2c3d 49f5 5d3d
000002b0: 0e0b d8bd 7f2d 033e 6daa 7bbd 2b02 bdbd
000002c0: f0f1 8c3d 31ae 823d b333 8ebc 4587 963c
000002d0: 8566 143d 2ff5 eabd b83b 0b3e af05 b8bd
000002e0: c92f 4bbd 53f7 13be 098c d8bc 3168 c63c
000002f0: b68c f3bd f903 8ebd 2431 3d3c 6834 85bd
00000300: 4091 a73d 7d32 e33d a026 16bb 99f5 4bbd
00000310: bd35 5e3d 601e 173c 6eb0 8b3d 1a8b bf3c
00000320: 0f34 843d 0c94 f43d 0abb 7cbd 3177 60bd
00000330: 2a0f a63b eea8 c2bd 8d9d 953d e885 8abd
00000340: 16d4 553d 1923 8dbd 7ee8 893d 86a9 c53c
00000350: a4b1 e83d cf1f 89bd e2ff 9c3c 8f47 52bd
00000360: 0608 a23b 74e4 8b3d 06f6 bfbd 1245 b03d
00000370: 6240 123d eb1f c5bc 6e18 953d ec87 203c
00000380: 437e ddbd b0ef 973d ea41 8d3c 3a76 40bd
00000390: d469 663d 4739 1fbd 589a 373d 78a8 18bd
000003a0: 3c70 12be 843d c53d 6aa7 cf3d 3ba9 f1bd
000003b0: b5a4 9bbd b4a2 ac3d c1e2 5e3d 63fb 3bbd
000003c0: 0c31 623c 9a04 b53d 2d9e cd3d ee85 00be
000003d0: 5c5b 6ebd 53cd 80bc 1697 c6bd 28cf 53bc
000003e0: e34a 463a f4b6 83bc 0288 78bd 6c43 d43b
000003f0: e70f c43b e4f3 0ebd 2d80 853d af99 93bd

SoftmaxPolicy_l3.bias f4 [2]
0.031854197 -0.016076956
00000000: 8c79 023d d2b3 83bc
