pytorch_models/model280132.pth (torch, 72107 bytes, 6 tensors)

SoftmaxPolicy_l1.weight f4 [128, 4]
000000 8d dd 82 3e 4a cf 62 be be 7d ea bd 8b 25 6b 3e
       0.25559655 -0.22149387 -0.11449765 0.2296354
000010 94 e6 ef be 5b a2 a0 3e 72 33 53 bd e0 2a 83 3e
       -0.46855605 0.31373867 -0.051562734 0.2561865
000020 ce d0 8c 3d a1 25 62 bd 1f 0e 53 3e 39 0d 4a 3d
       0.06875764 -0.055211667 0.20610856 0.049329016
000030 55 df 31 3e c3 74 40 be 6a c6 de bc 45 30 53 bd
       0.1737035 -0.18794541 -0.02719422 -0.051559705
000040 d1 58 93 3d e8 ce e5 ba fc e7 de 3e a2 a8 1d 3e
       0.07194675 -0.0017532976 0.43536365 0.1539636
000050 1e 86 3b be a4 fa 99 be 63 fa ab bd f0 c1 58 be
       -0.1831288 -0.30074036 -0.08397367 -0.21167731
000060 4e 3b 26 be 11 6c aa 3c 10 fa 9f 3e e9 54 8f 3e
       -0.1623356 0.020803483 0.3124547 0.2799447
000070 e0 bb fa be 32 bb a7 3e cb c1 84 3e 48 96 04 3f
       -0.48971462 0.32760006 0.25929102 0.5179181
000080 11 d3 a7 3e 7d b3 eb be 38 22 fb be 8c e1 6f be
       0.32778218 -0.46035376 -0.49049544 -0.23425883
000090 24 c3 d6 3e 35 44 c5 bd 23 f3 5f 3e ae 9c 69 be
       0.41945755 -0.0963215 0.21870093 -0.22813675
0000a0 29 45 f8 3e 5d ed 6f be 76 77 98 3e fe 29 23 bc
       0.48490265 -0.2343039 0.2977864 -0.009958742
0000b0 b3 c7 84 be 04 38 84 3e f8 4f 82 be fb f0 1f 3e
       -0.25933608 0.25823987 -0.25451636 0.1561927
0000c0 8c 53 07 be 93 a8 4e bd ea 53 f0 be 83 ab 6a be
       -0.13215464 -0.050453734 -0.4693902 -0.22916989
0000d0 25 c6 89 3e 0d dd ec bd 8c 89 00 3f 55 98 cd 3e
       0.26908985 -0.115655996 0.5020988 0.40155283
0000e0 45 e5 fa bc d4 66 9f be 19 63 d4 3e 49 9b 48 3e
       -0.030626902 -0.3113314 0.41481856 0.19590487
0000f0 e0 ca a1 be 35 3f af 3e eb 97 da 3e dd 30 fb 3e
       -0.31600094 0.3422791 0.4269403 0.49060717
000100 54 8a 8e be 81 a0 a6 bd 2a 01 ec bc 31 11 8b 3d
       -0.2783991 -0.081360824 -0.028809149 0.067903884
000110 b6 3e c1 be fa 76 b5 be 8a 2a 7f 3e 67 00 ff bd
       -0.37743157 -0.35442334 0.24918571 -0.124512486
000120 36 9d 6b 3e 4a f6 07 3d e9 4c 9c 3e d4 dd 37 3e
       0.2300919 0.033193864 0.30527428 0.17955714
000130 eb 4e 29 3e 20 d3 81 3e 39 3a a1 be 02 d9 a5 3e
       0.16534011 0.25356388 -0.31489733 0.32392126
000140 f2 89 b1 be be cf c0 be f4 f0 ab 3d 7d 93 67 bd
       -0.34675556 -0.37658495 0.083955675 -0.05653714
000150 b7 54 95 3e 4a 97 90 be 67 d0 b6 be fb 68 d2 3e
       0.29166195 -0.28240424 -0.35705873 0.4109572
000160 8f d3 91 bd 15 ae 8d 3e 49 4b b3 3d ca f9 d7 be
       -0.0712043 0.27671877 0.08754594 -0.4218276
000170 b2 ba c6 3d e7 cf e8 3d f0 88 ae be 40 8c 73 be
       0.09703578 0.11367779 -0.3408885 -0.2378397
000180 ae ba 34 3e 5b 16 8c 3d a1 27 b9 be 26 4e 5d be
       0.17649338 0.068402015 -0.36163047 -0.21611843
000190 00 e1 e4 3e 61 57 a8 bd a9 ce cd 3e 77 75 88 3e
       0.4470291 -0.08219791 0.40196732 0.2665212
0001a0 b1 4f a4 be bc 2e d8 be 24 fc eb 3e ef fa 83 3c
       -0.3209205 -0.42223155 0.46090806 0.016110865
0001b0 02 1b ac 3e 5f 4f ec 3d c6 e1 89 3e 86 be d2 3e
       0.33614355 0.11538576 0.26930064 0.41160983
0001c0 31 39 ed 3e 8f da a5 be 47 19 44 3e 55 45 e2 3e
       0.46332696 -0.3239331 0.19150268 0.4419352
0001d0 ee 95 b3 3e 1c a9 98 3e ff f9 bc be 35 51 b8 be
       0.35075325 0.2981652 -0.36909482 -0.35999456
0001e0 73 69 9d be 8d 2a 6b 3d a2 4d 03 3f bf 1d a0 be
       -0.30744514 0.057413626 0.51290333 -0.31272694
0001f0 2f 81 8c 3e db db 8f be 2b 77 fd be 87 61 d5 bd
       0.2744231 -0.28097424 -0.4950498 -0.104189925
000200 71 48 90 3e ae 9f ed 3e 4c 7b 93 be 56 4b e3 3d
       0.28180268 0.46410888 -0.28805006 0.110983536
000210 48 fe d5 3e 4a 57 b5 3e 47 5a d2 3e 2b 7a c0 3e
       0.41795564 0.3541816 0.410845 0.37593207
000220 61 e3 9a 3e a8 d2 ea 3d ae d6 aa be 92 fe d1 be
       0.302516 0.11465961 -0.33366913 -0.41014534
000230 1d 96 71 be cb ad 65 bd 9b 94 3c be cf 86 7c 3e
       -0.2359242 -0.056073945 -0.18416063 0.246608
000240 99 db 1f 3e 87 7a ea bd ec 6c 57 3e 9b ff 32 3e
       0.15611114 -0.114491515 0.21037644 0.17480318
000250 42 95 97 3e b5 a4 b8 3e 88 37 75 bd b3 33 05 3f
       0.29606062 0.36063161 -0.05986741 0.5203201
000260 f2 38 36 bd 51 c8 fe bc 46 1b 1b bf 83 28 be be
       -0.0444879 -0.031101378 -0.6058849 -0.37140283
000270 6c be 93 be e7 72 5a be ed 31 b0 3e 98 98 27 be
       -0.28856218 -0.21332894 0.3441309 -0.16366804
000280 9e fe ba be 87 36 60 3e be 23 86 3e 22 4e b0 3e
       -0.36522382 0.218958 0.26199144 0.3443461
000290 ff 66 85 be 5e 4b d7 3d 06 62 3a be 7f 1f e3 bd
       -0.26055142 0.10512422 -0.18201455 -0.11089992
0002a0 52 ae c9 be 2f 11 6b be 03 64 2e be 1a 48 5b 3e
       -0.39390808 -0.22955774 -0.17030339 0.21414223
0002b0 46 fb a8 3d bc 4c 15 3e 46 1d 20 3f c7 13 03 3f
       0.082510516 0.14580053 0.6254467 0.5120205
0002c0 08 d8 a9 3e 86 07 c0 3c 3d be 61 be 13 88 e5 3e
       0.3317263 0.023441087 -0.22045226 0.4483038
0002d0 c4 69 05 be e9 d0 3c bd a3 06 e1 be 2b 65 cc bd
       -0.13028628 -0.04609767 -0.43950376 -0.09980234
0002e0 40 b9 aa be a8 ff e7 3e d1 bf f4 be 80 f3 d6 be
       -0.3334446 0.45312238 -0.47802594 -0.4198265
0002f0 b2 37 29 bc 54 28 88 be 29 37 32 3e 39 22 45 be
       -0.01032822 -0.26593268 0.17403854 -0.19251336
000300 26 d5 6d be 98 ed 2f 3d 87 ab ae 3e 63 1b c3 be
       -0.23225841 0.042951196 0.3411524 -0.38106832
000310 8a ac 6b 3e 50 38 a2 3e c3 b6 f0 3e 5a 2e b9 be
       0.23015037 0.31683588 0.47014436 -0.36168176
000320 b1 32 0c 3e 37 7c b9 be 98 e2 c8 3e c4 55 53 be
       0.13691212 -0.3622758 0.39235377 -0.20638186
000330 0e 0a 97 3e e0 47 88 3c 0e 77 55 bc 63 a0 cf bb
       0.2949986 0.016635835 -0.013028873 -0.0063362583
000340 a1 a3 95 3d 90 b4 72 3e f7 b6 5b 3e 8b bf 64 3e
       0.073066 0.23701692 0.21456514 0.22338693
000350 8a f4 e5 be 60 d7 be 3e 85 a4 08 3f c2 ff ec 3e
       -0.4491313 0.37273693 0.53376037 0.46288878
000360 d5 05 b3 3e 80 36 b8 be 36 11 1e be 09 81 e3 3e
       0.34965387 -0.3597908 -0.15436253 0.44434384
000370 0c 17 c7 be 52 ab e9 3e b2 7e df be 0b 71 c8 be
       -0.3888477 0.4563852 -0.43651348 -0.39148745
000380 c8 70 74 3e 50 2f b2 be 15 57 45 bd 45 80 c9 3e
       0.23871148 -0.34801722 -0.04817875 0.39355674
000390 51 16 cd 3e e3 04 ef 3e 1f 5b 4a be 24 8c e2 be
       0.4005609 0.46683416 -0.19761322 -0.44247544
0003a0 9b d5 f7 3e f3 36 05 be d4 63 77 be 71 88 08 3e
       0.48405156 -0.13009243 -0.24159175 0.13333298
0003b0 cc 5e b3 be 13 9c a4 3e c2 0f 6d 3e b2 e4 e4 be
       -0.35033262 0.32150325 0.23150542 -0.4470573
0003c0 06 d5 d2 be 5a f6 3f bd b6 99 46 3e 2d fe 55 bc
       -0.4117815 -0.0468658 0.19394574 -0.0130610885
0003d0 86 ec 7f be d9 9f a6 3c e0 ba f2 be ef aa b9 be
       -0.2499257 0.020339893 -0.474082 -0.36263224
0003e0 46 db a8 be b5 f3 d4 3e c1 1b d1 3e 8f 63 49 be
       -0.32979792 0.41592184 0.40841487 -0.19666885
0003f0 c4 f7 ea 3c 6b 6b 57 3e cc 7b 16 3c 5a c4 89 be
       0.028682597 0.2103707 0.009184789 -0.26907617

SoftmaxPolicy_l1.bias f4 [128]
000000 06 59 c2 be d7 cb b5 3e 21 13 aa 3e d4 e3 ff be
       -0.37958544 0.3550708 0.3321772 -0.49978507
000010 4c d1 c9 be cd ec ac be 52 04 85 be c3 90 f3 3d
       -0.39417493 -0.33774415 -0.2597986 0.118928455
000020 61 6c f8 be 5c 90 c8 be 09 06 6d 3e d1 03 2f be
       -0.48520187 -0.39172637 0.23146833 -0.170913
000030 30 68 5b be 96 57 d4 be 23 e4 43 3e 34 bb e6 3d
       -0.21426463 -0.41473073 0.19129996 0.11266175
000040 2b dc 51 be d3 89 9f be 0e 6f ee 3d 4c 36 1a 3e
       -0.20494144 -0.3115984 0.11642276 0.15059775
000050 1d 7a 44 3e 57 d0 28 3e dc 1b 4c bd 7e b8 c8 be
       0.19187208 0.16485725 -0.049831256 -0.39203256
000060 13 4f b3 3e da f6 05 3d 3c 6b b0 be 0b 20 f0 3e
       0.35021266 0.03270612 -0.34456813 0.46899447
000070 f6 9a 92 3e 6a e9 cf be 38 80 7c be fe 7f 23 be
       0.2863385 -0.40607768 -0.24658287 -0.15966794
000080 b4 ef 94 be 3f 1d 70 3e 48 90 c1 be 21 81 e7 3e
       -0.2908913 0.23448656 -0.3780539 0.45215705
000090 9d 3d 4a be 29 49 9b 3e 16 ba c3 3d 4b 6b 6b be
       -0.19750066 0.30329254 0.095569775 -0.22990148
0000a0 3b 8c b0 3e bd 85 c2 be 14 a7 87 be 8c 6e de 3d
       0.34481987 -0.3799266 -0.26494658 0.10860929
0000b0 0f 29 c7 3e 8f 17 55 be 9c 32 91 be 7b 55 a5 be
       0.38898513 -0.20809768 -0.28358924 -0.3229178
0000c0 6e 46 4c be 2b 3c 23 be fe 33 f6 bd 1a f6 95 be
       -0.19948742 -0.15940921 -0.120216355 -0.29289323
0000d0 44 1a 2d 3e cc 6a ab 3d fc c2 ae be e8 df 81 be
       0.16904551 0.08369979 -0.34133136 -0.2536614
0000e0 37 51 ce 3d bc a1 d4 3c be 13 c8 3e 80 90 74 bd
       0.10074084 0.025956027 0.39077562 -0.05970812
0000f0 1a 8d cf be 30 d7 ba be 57 cc 06 be a9 d3 d7 bd
       -0.4053734 -0.364923 -0.13163887 -0.10538418
000100 f8 84 b0 3d 9d e9 04 be 16 f3 58 3e cf 80 23 be
       0.08619112 -0.12979741 0.2118648 -0.15967105
000110 4b d8 c8 3e 3f 48 cc 3d b1 2a 25 be ee 81 f3 3e
       0.39227518 0.09974717 -0.16129567 0.47560066
000120 85 1d 27 3e ae 2e b8 be 7c ef 87 be 56 ca ab 3e
       0.16319855 -0.35973114 -0.265499 0.33552808
000130 92 a6 61 3e dc ca c2 3e b7 24 90 3c c3 df b1 3e
       0.22036198 0.38045394 0.017595632 0.3474103
000140 58 f9 8b 3e 54 4d 11 3e f4 50 18 be 2d e4 02 3f
       0.27338672 0.14189655 -0.14874631 0.5112942
000150 58 ea c5 3d 9d 31 1e be 96 a9 88 3d 7e 87 ff 3e
       0.09663838 -0.15448613 0.06672971 0.4990806
000160 21 be a3 3e 50 d7 70 bd b1 23 05 3f 69 d8 80 3e
       0.31980994 -0.058799088 0.52007586 0.25165108
000170 f7 ae 84 be 89 32 eb be 86 06 a0 3e b2 32 00 3f
       -0.25914738 -0.45936993 0.31254977 0.50077355
000180 bd 0a 9b be 7f c9 49 3e 52 6e 2f 3d b5 de 02 be
       -0.3028163 0.19705771 0.04282982 -0.12780268
000190 ec f3 de bd 04 80 2a 3e 6b cf d0 3d 49 8f ab 3e
       -0.10886368 0.16650397 0.10195812 0.33507755
0001a0 65 4e 3d 3e 69 c0 84 3e 36 16 f2 3e 57 93 34 3e
       0.18486936 0.25928047 0.4728257 0.1763433
0001b0 13 e3 ec 3d f5 0c 0d be bd a8 c2 3e e4 e5 be 3d
       0.115667485 -0.13774474 0.38019362 0.09321192
0001c0 a1 45 a7 3e fd 2b f6 3e 4e a4 06 be ab 2e aa 3e
       0.3267031 0.48080435 -0.13148615 0.3323873
0001d0 52 18 80 bd 81 08 f5 3e 46 97 c8 3e f3 3b 20 be
       -0.06254639 0.4785805 0.39177912 -0.15647869
0001e0 de 42 3b 3c 79 5a 5a be db 1f 57 be 72 c5 b3 bd
       0.011429517 -0.21323575 -0.21008246 -0.08777894
0001f0 ce dc f2 ba 52 e3 1e be 89 1f f1 be 81 ba a0 be
       -0.001852894 -0.15516403 -0.47094372 -0.3139229

SoftmaxPolicy_l2.weight f4 [128, 128]
000000 28 ff 98 39 5c 1b 2a bd 61 3c 96 3d 76 e2 94 3d
       0.00029181805 -0.04153 0.07335735 0.072697565
000010 71 00 68 3d fa 64 25 3d 66 07 93 bd 4e 78 50 3d
       0.056641046 0.040379502 -0.071791455 0.05089598
000020 8e 49 78 bd 25 45 61 bc 94 85 17 bd fc 0e dd 3c
       -0.060617022 -0.0137493955 -0.036992624 0.026984684
000030 a8 54 87 bd b2 77 27 bd e2 b2 76 bd 74 87 cf bd
       -0.06607944 -0.040885635 -0.06022919 -0.101332575
000040 ef cf 41 bd f7 25 a6 3d ea 71 ca bb 0f 63 04 3d
       -0.04731744 0.0811271 -0.0061781304 0.032321032
000050 85 36 b1 bd 37 bc c8 3d ab 56 55 bc 8e 56 9e bd
       -0.08652977 0.09801524 -0.013021152 -0.07731353
000060 57 26 b5 3d f3 d1 62 bc 0f 32 94 3d 6f 1f 63 bd
       0.08845203 -0.013844001 0.072361104 -0.0554499
000070 4d 83 8b bd ab e9 5c bd 4c 91 0c 3d 79 4b b7 3c
       -0.06812153 -0.05393378 0.034318253 0.022374855
000080 5b 40 9c bd 5e e9 5e 3c be a8 2c 3c fd ad 0b 3d
       -0.07629462 0.013605444 0.010538278 0.034101475
000090 7c 89 2f bd 68 2e 80 bd 68 e8 e9 3d c3 b4 45 bd
       -0.042855725 -0.06258851 0.11421281 -0.04826809
0000a0 49 c2 32 3d 10 d7 93 3d 9c 88 8d bd 8e 5c a0 bd
       0.043642316 0.07218754 -0.06910822 -0.078301534
0000b0 81 94 c6 3c 8f b6 9c bd 23 c9 0c 3d 4d ce 07 bd
       0.024240734 -0.07652008 0.034371506 -0.033155728
0000c0 ee 35 15 bd 1a b0 85 bd 39 a2 3c 3d 6b 83 39 bd
       -0.036428384 -0.06527729 0.046053145 -0.045291346
0000d0 fc a8 b0 bd 0f 69 86 bd e5 fa 27 bd 47 13 a3 bd
       -0.08625981 -0.06563007 -0.041010756 -0.07962661
0000e0 bb 14 3b 3d 77 c4 b3 bc 80 98 b3 3d 64 36 7b 3d
       0.045674067 -0.021944268 0.087693214 0.061331168
0000f0 3c dc 68 bd 5a 24 39 bd 12 d8 30 bd ba 97 6d 3d
       -0.056850657 -0.045200683 -0.04317481 0.058006026
000100 16 9b bd 3b 85 0c cf bc 60 eb ba 3d 21 16 d7 3d
       0.00578631 -0.025274524 0.091269255 0.10502268
000110 36 10 a5 3d d8 0b 87 bd fd 35 0e bd 73 a7 51 bc
       0.080597326 -0.06594056 -0.034719456 -0.012796271
000120 ba f4 c6 3d cb 70 16 bd 03 57 35 bd d9 1d 89 3c
       0.09714647 -0.03672866 -0.044272434 0.016737865
000130 72 9a 9f bc 41 cc 2f 3d b2 86 82 3c 99 4c 99 bd
       -0.019482825 0.0429194 0.015933368 -0.07485313
000140 e8 ff af 3d 2f 63 a9 3d f1 a6 ce 3b 72 2b 56 bd
       0.08593732 0.08270871 0.006306522 -0.052287526
000150 30 05 13 3d 2b 52 5c 3d 58 a1 7d 3d e6 e4 1b bd
       0.03589362 0.0537893 0.061921448 -0.03806009
000160 18 a3 aa bb 12 2a cf bc 32 d0 b6 3d a9 00 01 3e
       -0.0052074306 -0.025288615 0.08926429 0.12597908
000170 b3 6e 22 3b a0 d6 5b bd 5b af 26 3d 8e 08 52 3d
       0.002478522 -0.05367148 0.040694576 0.05127769
000180 11 be 17 3d 73 9a 9d bd b2 36 7a 3c 35 92 0a bd
       0.037046496 -0.076954745 0.015271829 -0.03383084
000190 54 14 94 bd 65 f9 15 bd de 5c 64 3d 0f ff 2e 3d
       -0.0723044 -0.036614794 0.055752628 0.04272371
0001a0 3e 09 9e bd 69 2e 82 3c 29 de b3 3d 38 85 db 3d
       -0.077166066 0.01589127 0.08782608 0.10718769
0001b0 79 04 8f 3d ed 89 ca bc 0f 51 50 3d 29 ed 57 3d
       0.06983275 -0.024723971 0.050858553 0.052716408
0001c0 94 e8 2d 3d 6c 49 6e bd 9e a3 09 bd 91 bd 9e 3d
       0.042458132 -0.05817549 -0.033603303 0.07751001
0001d0 21 47 a1 3d d9 bb a3 3d 75 bb 2e bd 57 0b 90 bc
       0.07874895 0.079948135 -0.04265924 -0.017583532
0001e0 a4 44 61 bd 6e 84 fc bc c6 d9 94 3d 6d 9b 83 bd
       -0.0549971 -0.030824866 0.072680995 -0.064261295
0001f0 39 69 d3 3b eb 62 aa 3c cb ea 46 bd 60 d7 20 3d
       0.0064517525 0.02079912 -0.04856376 0.039267898
000200 33 c2 88 bc a9 a0 90 3d d5 71 2e bd ff ac 3a 3c
       -0.016694164 0.070618935 -0.042589027 0.011393785
000210 af 38 a0 bd d8 39 4b 3d 67 e4 ac 3d 52 e0 c9 3c
       -0.078233115 0.04961571 0.08442002 0.024643097
000220 56 eb 74 3b c4 fd 3a bd 32 a1 22 bd 92 e7 2d bd
       0.0037371716 -0.045652166 -0.03970451 -0.04245717
000230 7b a5 46 bd 9b fe d6 3c ca ec 51 3c 03 8c a7 3d
       -0.04849766 0.026244452 0.012812803 0.08181002
000240 55 3d 8f bd 29 de 69 bd c4 ec 15 bd dc 50 09 bd
       -0.0699412 -0.057096634 -0.03660275 -0.03352438
000250 80 d7 a1 3d b5 53 33 3d 8f 25 9d bd 33 9c 81 bb
       0.079024315 0.043781 -0.07673179 -0.003955388
000260 8e 03 d2 3b 11 2b 9a 3d 08 27 a9 3d ea af 73 3d
       0.006409115 0.075277455 0.08259398 0.059493937
000270 67 ac ae 3d db a3 ef bc 5c 15 99 ba dc 22 a3 bd
       0.08528977 -0.029252937 -0.0011679339 -0.07965633
000280 16 76 d3 3c 57 9e f9 3d 15 a6 50 3d 4a e5 d9 3d
       0.025813144 0.12188404 0.05093964 0.106394365
000290 19 3d 08 bd ea 8c f1 3c 44 2d 53 bd 3d 91 8e 3d
       -0.033261392 0.029486138 -0.05155684 0.06961296
0002a0 2e d6 18 bd 44 64 26 bd b0 c9 64 3c f5 7d 88 3c
       -0.037313633 -0.040622965 0.013964102 0.016661623
0002b0 e1 bc 79 3d 51 88 4f bc f8 9f 99 bc 0b 6d 34 3d
       0.060971145 -0.012666778 -0.018753037 0.044049304
0002c0 96 57 7a 3d 27 59 cd 3d 9f bf 0b 3d fd 76 13 bb
       0.061118685 0.1002677 0.03411829 -0.0022501342
0002d0 3f f3 f9 3d 94 43 07 3e f4 da 1f bd 9e ce 2a 3d
       0.12204599 0.13209373 -0.03902717 0.04170095
0002e0 cb dc dc 3c 98 bf 20 bd 16 af c3 bb 27 a7 69 bc
       0.026960751 -0.039245218 -0.0059717996 -0.014261044
0002f0 e7 a9 87 bd 51 e0 04 bd 4d cd 5e 3d 8e 00 9b 3d
       -0.06624203 -0.032440487 0.05439501 0.07568465
000300 cb b1 3f 3c 38 74 9a bd c6 11 61 3c 94 f4 d6 bc
       0.011700104 -0.07541698 0.013737148 -0.02623967
000310 a6 b3 a7 3d 31 09 ae bd 5b a7 46 bc e0 bb b0 3d
       0.08188562 -0.08497847 -0.012124862 0.08629584
000320 19 a6 71 3c 99 22 24 bd ba aa a8 bd d8 d2 f5 39
       0.014749073 -0.040072057 -0.082356885 0.00046887132
000330 6f 90 63 3d dd ea 6d bd f4 4a aa bd 51 2a 63 3d
       0.055557664 -0.05808531 -0.083150774 0.055460278
000340 86 54 fa bc d1 63 77 3d 08 4c 9d bd a7 b7 37 bc
       -0.030557882 0.060397927 -0.076805174 -0.01121322
000350 b9 7c 62 bd 03 fe 21 bb 0a cc ad bd 93 d1 3f 3d
       -0.055294726 -0.0024718053 -0.08486183 0.046830725
000360 bf 3d 22 bd 3d b0 81 bd d7 fe 2c bd b6 75 e7 bd
       -0.039609667 -0.06332443 -0.04223522 -0.113017485
000370 b3 0a 40 3d 6d 05 a0 bc e9 e4 b7 bb 4f a1 94 3d
       0.046885204 -0.019533837 -0.005612005 0.0725733
000380 b0 3f 47 bc 4f e3 a3 3d 6c 59 c8 3b 4b 51 73 bd
       -0.01216118 0.0800234 0.0061141755 -0.0594037
000390 bc 8b c9 3c 89 ff df 3c 7a a0 7e bd f0 73 e8 3c
       0.024602763 0.027343528 -0.06216476 0.028375596
0003a0 6f 09 9a 3c d9 15 9d 3d 4e 7a ee bb c2 ba 85 bd
       0.018803326 0.07670183 -0.0072777634 -0.06529762
0003b0 f0 02 b0 bd a4 67 0f 3d bb 4f ba bc 5f fd ad bc
       -0.0859431 0.03501095 -0.022743097 -0.02123898
0003c0 3b c5 0d bc 00 f9 bf bc 86 f2 c8 3c ef d3 a7 3d
       -0.00865298 -0.023434162 0.024529707 0.0819472
0003d0 39 04 98 3d b1 27 80 bd 4c 5e bb 3d 31 2c 7d 3d
       0.074226804 -0.062575705 0.09148845 0.061809722
0003e0 00 75 72 3c b2 8e 27 3d e9 ec 6e 3d 1e 65 9e 3d
       0.014798403 0.04090757 0.058331404 0.0773413
0003f0 b3 01 49 3d 8c 8c fe 3c 4e d4 11 bd 47 19 70 bd
       0.049073886 0.031072877 -0.03560286 -0.058617856

SoftmaxPolicy_l2.bias f4 [128]
000000 93 94 5b 3d 2a 01 11 bd bd e2 42 3b 33 ec 80 bd
       0.05360849 -0.0354015 0.0029737197 -0.062950514
000010 d4 3f 47 bd bd 10 63 3d 1a 1a 9c 3c b6 c6 e5 3c
       -0.048644856 0.055435885 0.019055415 0.028048854
000020 b6 f1 4c 3d ec 79 db 3c a5 e7 fa 3b 91 29 30 bc
       0.0500352 0.026791535 0.0076570087 -0.010752098
000030 00 1b 91 3a 29 30 a8 3d 0f e9 0f 3d 9f bd 2c 3c
       0.0011070669 0.08212311 0.03513437 0.010543256
000040 5b 28 12 3d 40 e3 22 bd b2 b8 8d bd fd cb 97 bc
       0.035683017 -0.039767504 -0.069199935 -0.018529886
000050 cd e4 c2 3d da 48 b2 3c f3 88 85 bd 38 04 72 3d
       0.095162965 0.021763254 -0.065202616 0.059086055
000060 04 cc a5 3d 19 90 8c 3d ba 75 3d 3c 0d 46 bb bc
       0.080955535 0.06863422 0.011563713 -0.022860551
000070 f8 cf 0e 3c c0 b5 f3 3c 80 bc 01 bd a1 5f 31 bd
       0.008716576 0.029749751 -0.03167391 -0.04330409
000080 a1 66 a2 3c 83 a4 36 3d 83 ae d9 bc f5 db 0e bc
       0.019824328 0.044590484 -0.026572471 -0.008719434
000090 7b 48 85 bd fe fb 82 ba ca 9a 9d bc 67 17 bb 3d
       -0.06507965 -0.0009993312 -0.019238848 0.09135323
0000a0 e3 93 7c 3d 31 eb f1 bc cc 45 8c bd 2b 6b 92 bd
       0.061664473 -0.029531093 -0.0684925 -0.07149347
0000b0 27 35 50 bd 19 61 b6 3d cf 28 d2 bc 23 79 86 3d
       -0.05083194 0.08905239 -0.025654225 0.06566074
0000c0 f0 2c 8b 3d 73 ed 1b bc ef eb 20 3d a4 d7 ee 3c
       0.067956805 -0.0095170615 0.039287504 0.02915556
0000d0 a2 2d a8 3d 00 80 2e 3d 7b 31 51 3d 89 98 b7 3d
       0.08211829 0.04260254 0.05107258 0.08964641
0000e0 4c f7 2d 3c 88 90 aa 3d f6 d9 1d bb 82 69 88 bd
       0.010618042 0.083283484 -0.0024086214 -0.06660749
0000f0 bc 02 af 3d af b5 87 bd d3 c5 da 3a f9 b5 ad 3d
       0.085454434 -0.0662645 0.0016691036 0.08481974
000100 29 ce bf bc c9 b4 7a bd 09 8f 87 3d 74 4d 0a 3d
       -0.023413735 -0.061207566 0.06619079 0.03376527
000110 c8 47 67 3d 31 d3 41 3d 15 6c bd bd 1d 22 93 3d
       0.05646494 0.04732055 -0.09249131 0.07184241
000120 08 8a 95 bd 08 92 3b 3c d4 26 4f bd bb 75 86 3d
       -0.07301718 0.011448391 -0.05057414 0.06565424
000130 4d 01 bd 3d e3 23 60 3c 7c 55 b9 bc 56 f0 9b 3d
       0.09228764 0.013680431 -0.02262377 0.076142
000140 88 f6 8e 3d 13 67 84 bc 44 a1 90 3d c7 98 ed 3b
       0.06980616 -0.01616243 0.07062009 0.0072508785
000150 a5 94 26 bd 0d 53 ab 3d 21 f4 50 bd 92 9d 84 bd
       -0.040669102 0.0836545 -0.05101407 -0.06475367
000160 97 91 54 3d 6a f3 08 3d 41 6d 90 3d b7 9d 12 bd
       0.051896658 0.033435263 0.070520885 -0.03579494
000170 6e c0 aa 3c 65 ae 3d 3d 44 ac 95 3c 64 a2 93 bd
       0.02084371 0.046308894 0.01827062 -0.07208708
000180 0a 55 69 3d 2c 58 c1 3c 4c ff a5 bc ef 2b b7 bc
       0.056965865 0.023601614 -0.020263337 -0.022359816
000190 2b 62 bb bd 3b ec c0 3d 5b 1d 55 3c 9b 7e c7 bc
       -0.091495834 0.094200574 0.013007487 -0.024352362
0001a0 54 b2 c8 3d 9d 49 82 bd 1e 6d cc 3c b1 d2 5f bc
       0.097996384 -0.06361697 0.024954375 -0.013661073
0001b0 ec be da bc d0 a0 fd 3a 8d 57 41 bc aa c9 9a 3d
       -0.026702367 0.0019350294 -0.011800659 0.075579956
0001c0 62 de 83 3d 5a 30 fe 3c 42 8b 86 bb 11 f6 72 bc
       0.064389005 0.031028915 -0.0041059563 -0.014829175
0001d0 f9 44 ff bb b0 6b c4 ba f0 14 03 3d c9 d9 8f 3d
       -0.0077902046 -0.0014985707 0.03200239 0.07023961
0001e0 49 dd 80 bd a0 44 b6 bd d4 eb 6b bc 96 cf 92 3d
       -0.06292207 -0.08899808 -0.0143994875 0.071685
0001f0 d5 a5 2e 3d 09 25 0f bd c4 d0 67 3d e4 af 1e 3d
       0.04263862 -0.03494743 0.05659558 0.03874196

SoftmaxPolicy_l3.weight f4 [2, 128]
000000 7e 0b 56 3d 7f 19 5d 3c db 24 ff 3d 6b 1f 60 3c
       0.052257054 0.013494848 0.124582015 0.013679366
000010 e6 69 b6 bd 3c c2 95 bc e6 ed 26 3d 8a f9 be 3d
       -0.08906917 -0.018281095 0.04075422 0.093249395
000020 00 24 7a 3c 49 a7 fe 3b 08 8f 8d 3d 00 ec 8e 3d
       0.015267372 0.007771407 0.06912047 0.06978607
000030 ba 50 b8 3d 29 23 7b 3c f1 d8 79 3b ae 2e c4 3d
       0.08999772 0.015328207 0.0038123692 0.09579216
000040 a1 74 62 3d 01 93 c1 3d 74 9c 31 bc 57 55 c9 3d
       0.055287007 0.09451867 -0.010840524 0.098307304
000050 57 da 2e bd 2b ec c8 3d 12 33 1d bd ad 85 79 bc
       -0.042688694 0.098106705 -0.038378783 -0.015229625
000060 ff 88 11 bd 7a 87 2e 3d 56 c7 46 3d dd 72 0c 3d
       -0.03553104 0.04260967 0.048529945 0.03428923
000070 d4 f8 b3 bd d7 22 c0 3b 4e ee 20 bd 3e 99 12 bd
       -0.087876946 0.0058635282 -0.039289765 -0.035790674
000080 b5 22 5b 3d 3c 35 54 ba b7 71 4d 3d a1 4a a1 bd
       0.053499896 -0.0008095091 0.050157275 -0.078755625
000090 aa 59 4c 3c 37 47 8d 3d e3 70 6e 3d 10 69 d2 3d
       0.012472549 0.06898349 0.058213126 0.10273945
0000a0 d7 14 19 bc 53 e6 ae 3d 3a 62 8e bd 23 d2 1e bc
       -0.0093433475 0.085400246 -0.06952329 -0.009693655
0000b0 68 e7 1c bc 53 ae e6 bc e0 69 06 3d bf a4 31 3b
       -0.009576656 -0.028159296 0.032815814 0.0027106253
0000c0 75 2c d0 bd 65 e7 c5 bd ee 36 1b 3d 9a 52 75 bd
       -0.101647295 -0.09663276 0.037894182 -0.059893228
0000d0 8e 75 e2 bd 95 e9 03 3e d0 ba 66 bd b5 5b c3 3d
       -0.11057578 0.12882073 -0.056330502 0.09538976
0000e0 aa 72 86 3d 9d f9 41 3d 04 e4 99 bd d3 cf a7 bc
       0.06564839 0.04735719 -0.07514194 -0.02048484
0000f0 bb b9 a6 3d f1 61 b2 3c 25 90 fe bd 0a 75 f5 3b
       0.08140894 0.021775218 -0.12429837 0.007490759
000100 8c f3 88 bd 4c 2f 8f bd f1 32 aa bd 80 5f a5 3d
       -0.06687078 -0.06991443 -0.083104976 0.08074856
000110 9e c9 95 3d 09 c4 8c bd 96 e2 0d bd c7 31 a1 3d
       0.07313846 -0.06873328 -0.034639917 0.078708224
000120 4d 78 7c ba 0d 07 6e bd fe 4c dd 3c ba 47 df bd
       -0.00096309633 -0.058112193 0.027014252 -0.10902353
000130 f0 17 b3 bd a5 ea 90 3d 9d cf b4 bd 3e 44 cb 3d
       -0.087448 0.07076005 -0.088286616 0.099251255
000140 5e c2 05 bd 9a c8 67 bd aa 01 a8 bd 9f 7a 5f 3d
       -0.032656066 -0.056587793 -0.082034424 0.0545603
000150 6e 64 f5 bd cd ff 25 3d 42 04 df 3c 93 0a 09 3d
       -0.11982046 0.040527154 0.02722371 0.03345735
000160 c5 cf d2 bd 60 7e 84 bd 9f 47 34 3d be ed 93 bd
       -0.10293535 -0.064694166 0.044013616 -0.0722308
000170 b6 d9 39 bd 21 41 65 3d cb ae 31 3d 58 c3 94 3d
       -0.04537364 0.055970315 0.043379586 0.07263821
000180 f7 c4 5a 3b 2c e5 2a bd d3 9d 01 3e 94 59 87 3b
       0.003338156 -0.04172246 0.12657861 0.0041305516
000190 89 53 ad bc 33 08 99 3d 4c 4b af bd a9 47 a6 3d
       -0.021157997 0.07472267 -0.085592836 0.08119137
0001a0 72 3a 0d 3d db 16 75 bc 2b 9c 93 bd 86 0a d8 bc
       0.034479566 -0.014959062 -0.07207521 -0.026372205
0001b0 db 8a c0 bc ee 18 9e 3c 13 f6 75 bd cd 52 3c 3d
       -0.023503711 0.019298997 -0.060049128 0.045977402
0001c0 73 b8 f5 bd 7c 1c a0 bd ed 8e e6 bb 91 0e db 3d
       -0.119980715 -0.07817933 -0.007036081 0.10696138
0001d0 22 c0 90 3d 94 24 b3 bd eb 68 9b 3d 0c 0f 6a bd
       0.070678964 -0.08747211 0.07588371 -0.057143256
0001e0 e4 cf 99 3d 2b 32 27 3c 23 68 c3 bc 56 be cb bd
       0.07510355 0.010204832 -0.023853367 -0.09948413
0001f0 90 51 d1 bd 4a 42 d6 bd 36 53 6c bd 02 8a 8d 3d
       -0.10220635 -0.104618624 -0.057696544 0.069110885
000200 13 b7 a2 bb 04 26 e1 3d 3d b9 ea bd 1d 82 ae 3d
       -0.004965672 0.10993579 -0.11461113 0.08520911
000210 bf 3b 90 3c 49 82 bc 3d 89 ab cf bd ec 7f 9c bd
       0.017606614 0.092045374 -0.101401396 -0.07641587
000220 0e fc df 3d 4e 86 50 3d 37 3f f1 bd 02 fa cc bd
       0.109367475 0.050909333 -0.117796354 -0.10008623
000230 18 07 dc bc ec f5 fb 3d 5f ed af 3d 00 41 a9 bd
       -0.026858851 0.12302765 0.08590197 -0.08264351
000240 8a c0 37 3c f6 84 8d 3c ad f6 84 bd 6f 92 aa bd
       0.0112153385 0.017275315 -0.06492362 -0.08328711
000250 fd 27 d2 3d 79 a4 0d 3c 12 e8 16 3d a5 e2 d6 3d
       0.102615334 0.00864517 0.036842413 0.10492448
000260 a6 02 16 3d bd 15 11 be 26 2d 85 bd 08 d1 7a bd
       0.03662362 -0.14168449 -0.06502752 -0.061234504
000270 5a bf 98 bd 93 85 83 3d 6f be 77 3b 12 7d ed 3d
       -0.074583724 0.06421962 0.0037802716 0.11596121
000280 15 ed 09 bd 81 64 9e 3c 1b e2 e5 bc 72 05 9f 3d
       -0.033673365 0.019335033 -0.028061917 0.077647105
000290 f2 79 76 3d 97 2f 9e bc 94 fe 5a bd 4a 00 3c bd
       0.06017489 -0.019309802 -0.05346544 -0.045898713
0002a0 fc 9e 89 bd 93 5a 14 be e1 5c 2c 3d 49 f5 5d 3d
       -0.06719777 -0.14487676 0.042080764 0.054189
0002b0 4e 67 da bd a0 f1 03 3e 0a a4 7b bd d9 dd bd bd
       -0.10664235 0.12885141 -0.061435737 -0.0927083
0002c0 d2 10 8d 3d 37 10 84 3d 55 28 8d bc b9 43 9d 3c
       0.06887974 0.06448405 -0.017231146 0.019197332
0002d0 00 e6 19 3d 52 2d ee bd 7a 6a 0c 3e d6 02 ba bd
       0.03757286 -0.11629738 0.13712493 -0.09082572
0002e0 b9 0a 4a bd 33 f1 14 be 09 8c d8 bc 4e ff d2 3c
       -0.049326632 -0.14545135 -0.026433961 0.025756504
0002f0 d2 70 f7 bd f9 03 8e bd c6 5f 42 3c 63 dc 86 bd
       -0.12082066 -0.069343515 0.0118636545 -0.06585004
000300 34 44 a4 3d 67 5c e3 3d a0 26 16 bb 39 54 50 bd
       0.08020821 0.11101609 -0.0022911206 -0.05086157
000310 43 6b 5e 3d 06 2c 2c 3c 83 2b 8b 3d ab 92 b8 3c
       0.05430151 0.010508543 0.067954086 0.022530874
000320 bb ea 84 3d 37 ce f7 3d 20 97 80 bd d3 9a 5c bd
       0.06490084 0.12099879 -0.06278825 -0.05385859
000330 02 d6 a7 3b f7 2d c5 bd 08 5d 95 3d 67 13 8d bd
       0.0051219473 -0.09627908 0.07293135 -0.06888466
000340 0a f6 55 3d 23 45 8d bd bf 9e 8d 3d 54 c1 c7 3c
       0.052236594 -0.068979524 0.06915044 0.024384178
000350 5a 56 e8 3d 2d f5 89 bd ea 6b 9a 3c f9 a2 51 bd
       0.11344595 -0.06736217 0.018850286 -0.051180813
000360 a5 5a ae 3b 74 e4 8b 3d e2 ee c1 bd f8 67 b2 3d
       0.0053208643 0.06830683 -0.094693914 0.08711237
000370 3e a2 13 3d 93 b9 cf bc e1 12 95 3d 95 39 20 3c
       0.036043398 -0.025357043 0.072789915 0.009779354
000380 e1 d4 de bd cd e5 97 3d 94 44 86 3c 23 fb 3f bd
       -0.10880447 0.07416878 0.016390122 -0.046870362
000390 9a 50 66 3d 36 49 23 bd 37 a6 3e 3d e3 d0 1e bd
       0.05622921 -0.03986474 0.046545234 -0.03877343
0003a0 af f4 13 be 9f ac c8 3d d0 58 d0 3d de 50 f5 bd
       -0.14448808 0.0979855 0.1017319 -0.11978315
0003b0 b5 57 97 bd b4 a2 ac 3d 84 62 61 3d f2 30 41 bd
       -0.07389776 0.08429471 0.055025592 -0.04716582
0003c0 2f f5 5f 3c ba 3e b6 3d a5 ff cd 3d 81 4a 01 be
       0.013669296 0.08898683 0.10058526 -0.12626077
0003d0 a6 8d 6f bd 1f 6d 72 bc ff 52 c7 bd 28 cf 53 bc
       -0.058484696 -0.014796524 -0.09732627 -0.012927808
0003e0 54 4b 1c ba f4 b6 83 bc da a7 70 bd 82 3d e0 3b
       -0.00059621525 -0.01607845 -0.058753826 0.00684327
0003f0 4e e7 c5 3b a0 7d 0d bd b8 4a 87 3d a8 9a 93 bd
       0.0060395366 -0.034543633 0.06606048 -0.07207233

SoftmaxPolicy_l3.bias f4 [2]
000000 81 5c 03 3d ac 79 85 bc
       0.03207064 -0.01629337
