pytorch_models/model280636.pth (torch, 72107 bytes, 6 tensors)

SoftmaxPolicy_l1.weight f4 [128, 4]
000000 56 1a 82 3e cc 09 67 be 12 0d e6 bd bf 35 6a 3e
       0.25410718 -0.22562331 -0.11232962 0.22872065
000010 3f 95 f0 be 23 7d 9f 3e aa 96 47 bd c1 0e 85 3e
       -0.46988866 0.3115016 -0.04872767 0.2598782
000020 58 84 8e 3d f2 76 60 bd e9 40 55 3e f0 5e 55 3d
       0.06958836 -0.054800935 0.20825543 0.052092493
000030 a9 fd 33 3e 9f 59 44 be 66 7a f5 bc cd 5d 47 bd
       0.17577232 -0.19174813 -0.02996559 -0.04867344
000040 d1 58 93 3d e8 ce e5 ba fc e7 de 3e a2 a8 1d 3e
       0.07194675 -0.0017532976 0.43536365 0.1539636
000050 06 38 3a be 7f 54 99 be a6 ce a9 bd a7 62 59 be
       -0.18185434 -0.29947278 -0.08291368 -0.21229039
000060 43 61 25 be b2 9d ac 3c 15 46 a0 3e e2 1c 90 3e
       -0.16150384 0.021071289 0.31303468 0.28147036
000070 fa c2 f9 be 92 ba a7 3e 09 d7 85 3e 0d 54 05 3f
       -0.48781568 0.3275953 0.2614062 0.52081376
000080 bf d8 a8 3e 29 c8 ed be 69 54 fb be d0 e4 6e be
       0.32977864 -0.46441773 -0.49087837 -0.23329473
000090 fd c4 d5 3e 30 39 c6 bd 48 ab 5e 3e 98 df 6e be
       0.41751853 -0.096788764 0.21745026 -0.23327482
0000a0 22 d8 f7 3e 30 4e 6f be e7 0c 98 3e 30 df 69 bc
       0.48407084 -0.2336967 0.29697344 -0.014274403
0000b0 4e 77 84 be 7b 41 84 3e 5c f9 81 be d9 66 20 3e
       -0.25872272 0.25831208 -0.2538556 0.15664233
0000c0 ce 9a 05 be 84 4a 4b bd 3e 73 f0 be 1c ad 6a be
       -0.13047335 -0.04963161 -0.46962923 -0.22917598
0000d0 91 3e 8b 3e 5f 6b e7 bd b0 b0 fe 3e 99 a2 ce 3e
       0.27196172 -0.11299776 0.49744177 0.40358427
0000e0 a5 ea ea bc 89 d6 9d be 78 d8 d5 3e 95 ec 4c 3e
       -0.02867634 -0.3082774 0.41766715 0.20012124
0000f0 9f 5e a2 be d2 5a ae 3e 29 ee db 3e 8d 5f fc 3e
       -0.31712815 0.34053665 0.4295514 0.4929165
000100 2a 02 8f be 74 92 a7 bd 76 94 fb bc 44 66 88 3d
       -0.2793134 -0.081822306 -0.03071044 0.066601306
000110 55 1c c2 be 03 0f b6 be 72 b4 7d 3e 4e c8 ff bd
       -0.3791224 -0.35558328 0.24775866 -0.12489377
000120 bd 62 6b 3e 09 c1 03 3d 02 64 9d 3e f3 9c 3c 3e
       0.22986884 0.032166515 0.30740362 0.18419246
000130 a6 e1 29 3e 05 23 81 3e 0a 67 a0 be cd 67 a8 3e
       0.16589984 0.2522203 -0.31328613 0.32891694
000140 4b 2e b0 be 96 fc bf be 15 fc af 3d 11 76 5e bd
       -0.3441032 -0.37497395 0.08593003 -0.054311816
000150 6e e6 93 3e 2e 7b 91 be f2 ce b5 be 4e 76 d3 3e
       0.2888674 -0.2841429 -0.3550945 0.41301197
000160 08 08 8e bd 00 b6 8e 3e 77 80 af 3d b5 c4 d8 be
       -0.069351256 0.2787323 0.085694246 -0.42337576
000170 6e 0d c7 3d 69 3c e8 3d f3 b4 ae be 7f c4 72 be
       0.097193584 0.11339647 -0.34122428 -0.2370777
000180 fc 67 34 3e fa 82 8d 3d 5c 2b ba be a3 63 61 be
       0.17617792 0.069097474 -0.36361206 -0.22010665
000190 93 d1 e4 3e eb 7c aa bd 9e 6e ce 3e 66 7c 8a 3e
       0.44691142 -0.083246075 0.4031877 0.27048033
0001a0 c1 87 a4 be e5 65 d8 be 1c 92 eb 3e 23 f6 7d 3c
       -0.32134822 -0.4226524 0.4600991 0.015500578
0001b0 8c 32 ac 3e 4a 09 ea 3d 29 06 8b 3e ae 37 d5 3e
       0.33632314 0.11427553 0.27153137 0.41644043
0001c0 cb 74 ed 3e bb e1 a5 be 8a 2c 46 3e 79 93 e4 3e
       0.46378168 -0.3239878 0.19352928 0.44643763
0001d0 9c 12 b3 3e a8 cb 98 3e cc 60 bd be 86 5e b9 be
       0.34975135 0.29842877 -0.36987913 -0.36204928
0001e0 7a 12 9d be 48 2b 6c 3d a5 96 02 3f 5f 52 9f be
       -0.3067816 0.057658464 0.51011115 -0.31117532
0001f0 c1 66 8b 3e e8 a1 91 be cc 7d fc be 50 52 da bd
       0.27226833 -0.28443837 -0.49314725 -0.10660231
000200 b7 88 90 3e 0f b1 ec 3e 9a 89 93 be 31 fd e9 3d
       0.28229305 0.46228835 -0.2881592 0.114252456
000210 23 04 d6 3e 8c c3 b4 3e 61 65 d3 3e 06 ed c2 3e
       0.4180003 0.3530544 0.41288283 0.3807146
000220 c4 92 9a 3e c4 f6 e9 3d d2 96 aa be 30 d5 d2 be
       0.30190098 0.1142402 -0.33318192 -0.41178274
000230 ca f0 70 be 3e 07 64 bd 19 5b 39 be d3 21 80 3e
       -0.23529354 -0.05567097 -0.18101157 0.25025806
000240 1f e0 21 3e f9 64 e4 bd 98 a0 55 3e a2 d3 34 3e
       0.15808152 -0.111520715 0.20862043 0.17658857
000250 da b9 97 3e e6 05 b8 3e 21 62 6c bd be 71 06 3f
       0.2963398 0.35942 -0.05771077 0.52517307
000260 de 12 2e bd a7 61 f2 bc 39 c3 1b bf 8b 52 bf be
       -0.042498462 -0.02958758 -0.6084476 -0.37367663
000270 7f 70 94 be 80 28 5b be f2 9f af 3e 77 d8 27 be
       -0.28992078 -0.21402168 0.34301716 -0.16391169
000280 88 63 bb be 7a 39 5e 3e 7c d1 87 3e bd f5 b1 3e
       -0.36599374 0.21701613 0.2652701 0.34757796
000290 4c 4c 86 be 0e 7b d6 3d 22 73 3a be e3 7e e8 bd
       -0.26230085 0.104726896 -0.18207982 -0.11352327
0002a0 0d bc c9 be b7 cf 6a be df 99 2c be 06 55 5c 3e
       -0.39401284 -0.229308 -0.16855572 0.21516809
0002b0 ea 1d aa 3d 90 a6 14 3e 61 8e 20 3f 91 31 04 3f
       0.08306487 0.14516664 0.6271725 0.5163813
0002c0 41 df a9 3e c2 0b ba 3c 02 b4 5f be 91 b6 e7 3e
       0.33178142 0.022710685 -0.21846011 0.45256475
0002d0 b2 0f 08 be 96 04 47 bd 45 ee e1 be 29 16 cc bd
       -0.13287237 -0.048588358 -0.44127098 -0.09965164
0002e0 82 08 aa be 40 dc e8 3e f7 21 f6 be 4d ee d7 be
       -0.33209616 0.45480537 -0.48072788 -0.42173997
0002f0 c2 70 38 bc 68 92 88 be c4 3f 31 3e 12 85 44 be
       -0.011257352 -0.266742 0.17309481 -0.19191387
000300 c3 76 6f be 35 98 2d 3d 38 42 ad 3e b6 aa c3 be
       -0.23385148 0.042381484 0.33839583 -0.3821618
000310 43 c8 6b 3e ba 55 a1 3e 07 b3 ef 3e 84 d6 b7 be
       0.23025613 0.31510717 0.46816275 -0.3590585
000320 35 d6 0a 3e 74 ff ba be d0 28 c8 3e 87 a6 54 be
       0.13558276 -0.3652302 0.39093637 -0.2076665
000330 87 d0 96 3e 24 2b 82 3c 29 bd 3b bc 76 a2 8e bb
       0.2945597 0.015889712 -0.0114586735 -0.004352863
000340 ad 33 96 3d 68 7c 71 3e 05 90 5d 3e 8c 8f 69 3e
       0.07334075 0.23582613 0.2163697 0.22808665
000350 29 80 e4 be 6f 37 bf 3e 27 74 09 3f a9 52 ee 3e
       -0.44629028 0.3734698 0.5369286 0.4654744
000360 03 ec b0 3e ad bd b8 be 09 e3 1b be 8c c1 e2 3e
       0.34555063 -0.3608221 -0.15223326 0.4428829
000370 cb cf c6 be e5 6e ea 3e 8e bd e0 be e6 49 c9 be
       -0.38830408 0.4578773 -0.4389462 -0.39314193
000380 39 0c 75 3e 44 1f b1 be e1 ed 3a bd d5 a1 cb 3e
       0.23930444 -0.34594166 -0.045637015 0.39771906
000390 19 ae cc 3e d0 8f ef 3e 0d ed 4c be 31 af e4 be
       0.39976576 0.46789408 -0.20012303 -0.4466491
0003a0 bc 63 f7 3e d4 08 05 be 7a 7a 78 be 62 0c 05 3e
       0.4831828 -0.12991649 -0.24265471 0.12993005
0003b0 5a ea b3 be b1 94 a4 3e 24 e4 6a 3e eb 75 e5 be
       -0.35139734 0.32144693 0.22938591 -0.44816527
0003c0 a4 7d d3 be 1e 19 47 bd 04 30 45 3e 87 d0 57 bc
       -0.41306794 -0.048607938 0.19256598 -0.013172275
0003d0 88 13 81 be b8 ba 9d 3c eb 70 f3 be e4 34 ba be
       -0.25210214 0.019254074 -0.47547087 -0.36368477
0003e0 e4 41 a9 be 12 ec d3 3e ad 10 d1 3e 7b 8c 48 be
       -0.33058083 0.41391045 0.40833035 -0.19584839
0003f0 3d fd e9 3c ab b1 58 3e fd fe ff 3b 59 be 8a be
       0.028563136 0.21161525 0.0078123794 -0.2709835

SoftmaxPolicy_l1.bias f4 [128]
000000 a1 36 c2 be 52 23 b5 3e a3 22 aa 3e f5 a4 fe be
       -0.37932304 0.3537851 0.3322955 -0.49735227
000010 4c d1 c9 be 3e 9b ad be ca f8 84 be f8 cd f5 3d
       -0.39417493 -0.33907503 -0.2597106 0.12002176
000020 d0 4e f6 be 91 76 c9 be 4a 3e 6c 3e bf 2a 2f be
       -0.48107004 -0.3934827 0.23070636 -0.1710615
000030 b0 fc 5c be de 49 d3 be da f1 44 3e 82 94 e6 3d
       -0.21580768 -0.41267294 0.19232884 0.11258794
000040 70 df 51 be 84 03 9f be 93 13 f0 3d ff 95 1a 3e
       -0.20495391 -0.3105737 0.117224835 0.15096281
000050 b0 29 45 3e 80 38 29 3e b7 38 41 bd a1 be c8 be
       0.19254184 0.1652546 -0.047173228 -0.39207938
000060 d9 38 b3 3e ab 51 0c 3d af 4b b0 be 10 80 f0 3e
       0.3500431 0.034257572 -0.34432742 0.46972704
000070 f5 77 92 3e ee f8 cf be 2e 29 7e be b8 f6 24 be
       0.28607145 -0.40619606 -0.24820396 -0.1610974
000080 4e 33 95 be 1a 5e 70 3e 57 79 c1 be 10 69 e7 3e
       -0.29140705 0.23473397 -0.37787887 0.45197344
000090 9b e9 48 be 98 41 9b 3e 5c 0b ca 3d c8 b7 6a be
       -0.19620363 0.30323482 0.09865448 -0.2292167
0000a0 1d 2d b0 3e 87 77 c1 be 62 a3 87 be 69 e3 df 3d
       0.3440942 -0.37786505 -0.2649184 0.10932047
0000b0 01 4d c7 3e ef 51 52 be a7 b0 90 be a5 0a a5 be
       0.38925937 -0.20539068 -0.28259775 -0.32234684
0000c0 a6 63 4b be 34 fb 23 be e0 18 f2 bd 90 43 96 be
       -0.19862232 -0.16013795 -0.11821151 -0.2934842
0000d0 8c c5 2d 3e aa a0 af 3d 3b a2 b0 be e1 3a 81 be
       0.1696989 0.08575566 -0.34498772 -0.25240234
0000e0 7e 4b cf 3d cf d4 d9 3c ca ef c7 3e 92 8f 6c bd
       0.10121821 0.026590733 0.39050132 -0.057754107
0000f0 cd 2b cf be 95 c6 b9 be 8f 39 08 be c1 9e d4 bd
       -0.40463105 -0.3628432 -0.13303207 -0.103818424
000100 de eb b1 3d 5a 80 05 be ef d6 58 3e 28 b6 22 be
       0.08687566 -0.13037243 0.2117574 -0.158898
000110 85 84 c8 3e 0a f0 c9 3d 6d b7 25 be 2e 07 f4 3e
       0.39163604 0.09860237 -0.16183253 0.47661728
000120 34 43 28 3e fe 53 b8 be 26 8e 86 be b9 ec ab 3e
       0.16431886 -0.3600158 -0.26280326 0.33579043
000130 c7 1b 62 3e e4 6a c2 3e 43 4c 9f 3c e9 0e b2 3e
       0.22080909 0.37972176 0.019445544 0.34777
000140 f4 24 8c 3e ca fc 10 3e ef c3 19 be 6d e2 02 3f
       0.27371943 0.14158931 -0.15016149 0.5112675
000150 5d f1 c4 3d 29 67 1f be 73 2e 8c 3d ae 02 00 3f
       0.09616349 -0.15566696 0.06844797 0.5000409
000160 45 94 a3 3e ea 06 73 bd 0f 2a 05 3f 97 f1 80 3e
       0.31949058 -0.059332766 0.520173 0.25184318
000170 3d 89 86 be b9 4c eb be 81 65 a0 3e 98 a3 00 3f
       -0.2627658 -0.45956972 0.3132744 0.50249624
000180 6f 9e 9b be 57 66 4a 3e e6 bc 38 3d a8 f3 02 be
       -0.30394313 0.19765602 0.045102023 -0.1278826
000190 79 7e dc bd 60 43 2b 3e 50 ef ce 3d 10 94 ab 3e
       -0.1076631 0.1672492 0.10104239 0.335114
0001a0 e2 6f 3f 3e a0 45 84 3e f4 13 f2 3e fb f0 34 3e
       0.18695024 0.2583437 0.47280848 0.17670052
0001b0 42 4f ee 3d dc 26 0b be 5e b4 c2 3e 62 8c c0 3d
       0.11636211 -0.13589042 0.38028234 0.09401776
0001c0 16 d9 a7 3e 56 49 f6 3e b8 a9 09 be 3c 2a aa 3e
       0.3278281 0.48102826 -0.13443649 0.33235347
0001d0 35 d9 75 bd 55 ed f4 3e d1 c4 c8 3e 6d 4c 1f be
       -0.060021598 0.4783732 0.3921266 -0.15556498
0001e0 b0 6a 46 3c 37 c3 5c be 91 bb 59 be ec 7b af bd
       0.012110397 -0.21558844 -0.21262957 -0.08568558
0001f0 26 bb 48 bb 71 91 1d be 16 a1 f0 be 0f 2d a0 be
       -0.0030629127 -0.15387513 -0.469979 -0.31284377

SoftmaxPolicy_l2.weight f4 [128, 128]
000000 02 19 12 ba a2 c6 29 bd f4 e9 94 3d 06 02 91 3d
       -0.00055731845 -0.041449197 0.072711855 0.07080464
000010 71 00 68 3d 36 a0 2f 3d 40 87 92 bd 96 d5 4c 3d
       0.056641046 0.0428774 -0.07154703 0.05000838
000020 a6 d1 6f bd f3 ac 6f bc fd 9b 1a bd 1c 85 f2 3c
       -0.058549546 -0.014628637 -0.03774642 0.029604487
000030 da f6 83 bd 7c 56 2e bd 84 61 79 bd ec 96 d2 bd
       -0.064435676 -0.042562947 -0.060884014 -0.10282692
000040 79 19 39 bd db 8c aa 3d e7 d7 f1 bb fb b5 00 3d
       -0.04519031 0.08327647 -0.007380474 0.03142355
000050 47 5a af bd 37 6f c4 3d f7 af 36 bc ce b7 97 bd
       -0.08562141 0.09591525 -0.011150352 -0.07408105
000060 45 b7 b5 3d 59 e5 77 bc 6b 12 98 3d bf c6 67 bd
       0.088728465 -0.015130364 0.07425388 -0.056586023
000070 64 43 8f bd 6c 10 5c bd 6d a8 15 3d 64 a8 b6 3c
       -0.069952756 -0.0537266 0.036537576 0.022297092
000080 79 28 9c bd 99 15 52 3c e8 26 30 3c 8d b2 0a 3d
       -0.07624907 0.012822532 0.0107514635 0.033861686
000090 30 2f 32 bd cc 44 82 bd 7d 0a f1 3d 0e 97 3c bd
       -0.043502033 -0.06360778 0.117695786 -0.046042494
0000a0 91 31 31 3d c0 8a 97 3d 7c b8 89 bd b9 e6 a6 bd
       0.04326016 0.07399511 -0.06724641 -0.081494756
0000b0 fe 19 bc 3c 10 5f 98 bd f6 43 17 3d 2b f1 02 bd
       0.022961613 -0.07440007 0.036930047 -0.031968277
0000c0 0c d3 0c bd 8a f0 83 bd 2d b3 4e 3d 6a de 3f bd
       -0.034380957 -0.064423636 0.050463844 -0.04684297
0000d0 67 5f b2 bd e1 5c 88 bd f0 5e 2a bd e8 75 9e bd
       -0.08709603 -0.0665834 -0.041594446 -0.077373326
0000e0 4a bb 32 3d ab 99 ac bc 95 fe b1 3d 23 8d 80 3d
       0.043635644 -0.021069368 0.08691136 0.0627692
0000f0 32 7d 5f bd 54 03 32 bd b6 34 2c bd 3f 22 74 3d
       -0.054562755 -0.043460205 -0.042042457 0.059602972
000100 be e7 ce 3b ad 79 d2 bc 40 59 bd 3d 31 e2 d3 3d
       0.006314247 -0.025692785 0.09245539 0.10345877
000110 f9 62 a6 3d f5 45 84 bd 42 c2 12 bd ea cf 5d bc
       0.08124346 -0.06458656 -0.03582979 -0.01353834
000120 1e 07 cc 3d 3d 5b 15 bd 92 cc 2c bd 7d e2 8e 3c
       0.09962295 -0.036463965 -0.04218728 0.017441982
000130 39 71 ab bc b1 b1 31 3d 6e a9 97 3c 15 50 9a bd
       -0.020928012 0.04338235 0.018513408 -0.07534806
000140 e3 1b b3 3d ca 6f a6 3d 36 15 04 3c ee 2c 58 bd
       0.08745553 0.08126791 0.008061698 -0.052777223
000150 39 23 16 3d 2a 30 61 3d ca a9 85 3d 9b 99 1c bd
       0.036654685 0.054977573 0.06526525 -0.038232427
000160 e9 8f d1 bb 0d 82 d1 bc 6a bf b7 3d 9b 99 01 3e
       -0.0063953293 -0.025574708 0.08972056 0.12656252
000170 28 f6 c1 39 f2 b9 5a bd e1 05 2a 3d db 7f 52 3d
       0.0003699523 -0.053399988 0.041509513 0.051391464
000180 89 47 20 3d dc cb a0 bd 19 1b 6f 3c 1a 3b 0f bd
       0.03913072 -0.07851383 0.014593863 -0.034968473
000190 1f 1c 90 bd 19 63 0b bd e0 d1 5d 3d 28 a2 29 3d
       -0.07036614 -0.034030054 0.05415523 0.04141441
0001a0 eb 17 99 bd d7 65 81 3c 13 d9 b5 3d 43 0f de 3d
       -0.07475265 0.015795631 0.08879294 0.10842755
0001b0 21 95 92 3d c7 6c de bc 75 51 54 3d 43 ab 51 3d
       0.0715735 -0.027151478 0.051835496 0.05118872
0001c0 0a 36 2c 3d 7a 47 73 bd 99 ca 00 bd c3 5d 9c 3d
       0.042043723 -0.059394337 -0.031443212 0.07635071
0001d0 80 18 a6 3d c7 d3 a4 3d 24 01 32 bd 54 ce 81 bc
       0.08110142 0.08048206 -0.04345812 -0.015845455
0001e0 09 0f 68 bd 7e 4a 07 bd 2b 9d 95 3d 8d f8 85 bd
       -0.056654964 -0.033030026 0.07305368 -0.06541548
0001f0 74 8b 9f 3b 8a 09 bb 3c 31 99 40 bd 22 f7 15 3d
       0.004868919 0.022831697 -0.047021095 0.036612637
000200 14 30 80 bc 3a 15 90 3d 4f 63 2c bd ee f5 5a 3c
       -0.015647925 0.07035299 -0.042086896 0.013364298
000210 af 38 a0 bd 14 02 42 3d aa 7c ac 3d f2 e9 cf 3c
       -0.078233115 0.047365263 0.08422215 0.025380109
000220 03 7e 00 3b 54 49 38 bd 41 dd 1f bd e8 a2 37 bd
       0.001960636 -0.044991806 -0.039029364 -0.044833094
000230 ba 73 4d bd af f6 e6 3c 6c ef 5b 3c b0 5e aa 3d
       -0.050159194 0.0281938 0.013423782 0.083188415
000240 b3 41 93 bd 66 11 72 bd b3 84 11 bd ff 4a 06 bd
       -0.071902655 -0.059098624 -0.035526942 -0.032786366
000250 1d b8 9f 3d de 03 3c 3d 3e 60 a1 bd e5 a3 e4 bb
       0.07798789 0.045902126 -0.07879685 -0.0069775456
000260 c4 e4 c2 3b fe a4 9c 3d d6 a1 a5 3d ce c9 77 3d
       0.005947681 0.07648657 0.080875084 0.06049519
000270 44 5e b2 3d 6e 91 f3 bc a9 fc 5d bb 79 b3 a2 bd
       0.08709386 -0.029732432 -0.003387252 -0.07944388
000280 31 c7 d1 3c b6 eb fa 3d 32 bd 4e 3d 80 1d da 3d
       0.025607677 0.122519895 0.0504734 0.10650158
000290 0f 6d 04 bd 54 9f f8 3c 1f 6e 62 bd 2f 4a 8a 3d
       -0.03233057 0.030349411 -0.0552808 0.06752431
0002a0 d4 d5 17 bd 9b b2 2d bd 7b 8a 48 3c 56 48 a0 3c
       -0.037069157 -0.04240666 0.012240048 0.019565742
0002b0 35 84 7e 3d 6e 5a 71 bc d0 d8 ad bc f6 4b 30 3d
       0.0621378 -0.014731033 -0.021221548 0.043041192
0002c0 2c c1 71 3d c3 37 cb 3d 3d 67 f7 3c bc ef 83 ba
       0.059022114 0.09922745 0.030200595 -0.0010065953
0002d0 30 53 fb 3d 77 16 08 3e 62 aa 1c bd cb be 21 3d
       0.12271726 0.1328982 -0.038248427 0.039488595
0002e0 55 07 ee 3c b8 de 24 bd 23 62 ad bb 1a 10 82 bc
       0.02905623 -0.040251464 -0.00529124 -0.015876818
0002f0 bd f9 8b bd 03 4a 0c bd 56 3f 5a 3d b6 7d 97 3d
       -0.06834743 -0.03425027 0.053283058 0.07397024
000300 a1 50 35 3c 83 d0 99 bd 90 03 4b 3c 65 a9 c9 bc
       0.011066587 -0.075104736 0.012390986 -0.024616906
000310 57 00 a6 3d bc 10 b1 bd 21 c4 3d bc 39 0f b2 3d
       0.081055336 -0.0864577 -0.011582405 0.0869431
000320 d3 d4 44 3c 13 63 26 bd de 15 ad bd 39 b4 dd b9
       0.012013632 -0.04062183 -0.084514365 -0.0004228668
000330 9f 4a 69 3d 10 8d 70 bd d2 9c af bd ba 88 64 3d
       0.05695593 -0.058728278 -0.08574833 0.055794455
000340 4f 54 04 bd fa 31 7d 3d d5 a7 a0 bd 14 8b 31 bc
       -0.032306965 0.06181524 -0.078445114 -0.010836381
000350 69 05 66 bd 9c 80 6c bb 85 c7 b4 bd 8d b6 3f 3d
       -0.056157503 -0.00360874 -0.08827118 0.046804953
000360 83 c7 1d bd 70 5c 81 bd 9e 86 2f bd a9 0b e9 bd
       -0.038520347 -0.06316459 -0.04285299 -0.11379177
000370 90 e1 48 3d c2 a3 a1 bc f4 2c d8 bb 1e 27 94 3d
       0.04904324 -0.019731406 -0.0065971557 0.072340235
000380 98 64 65 bc 50 fc a6 3d 0a 5e e2 3b 54 4c 6f bd
       -0.014001034 0.081535935 0.006908183 -0.0584224
000390 c0 5c b8 3c 43 ff ca 3c 95 63 78 bd d1 fc f2 3c
       0.022505164 0.024779921 -0.060641844 0.029661568
0003a0 d1 c5 84 3c 8a 25 9d 3d 7d d7 0a bc 3f cb 88 bd
       0.016207607 0.07673176 -0.008474228 -0.06679391
0003b0 17 17 b4 bd ac 84 18 3d a0 73 c3 bc 91 de a2 bc
       -0.087934665 0.0372359 -0.023858845 -0.019881519
0003c0 59 d7 09 bc e2 ee b6 bc b4 00 b8 3c 40 39 aa 3d
       -0.008413159 -0.022330705 0.022461273 0.08311701
0003d0 3f 22 93 3d 3a 92 81 bd 76 b2 bc 3d d0 d2 75 3d
       0.07184266 -0.06326719 0.09213726 0.0600155
0003e0 f7 a8 87 3c 8d d6 30 3d b2 5c 6c 3d 3d 0f a1 3d
       0.01656006 0.04317336 0.05770559 0.078642346
0003f0 e8 b1 4f 3d 5a 54 ee 3c 26 8d 17 bd 0f a2 65 bd
       0.050706774 0.029092956 -0.036999844 -0.056062754

SoftmaxPolicy_l2.bias f4 [128]
000000 a9 dd 5a 3d 4e 02 11 bd 1a ba 5c 3b 68 b4 80 bd
       0.053434048 -0.03540259 0.003368026 -0.0628441
000010 ff c0 46 bd d2 a0 63 3d 1c 5b 9c 3c 2b e4 ed 3c
       -0.0485239 0.055573292 0.019086413 0.029039463
000020 ad f1 4d 3d ad 2b cf 3c c9 01 fd 3b 1d 1b 2d bc
       0.050279308 0.02528938 0.00772116 -0.010565546
000030 00 1b 91 3a ce 82 a8 3d 90 ea 0b 3d 9c 7e 2f 3c
       0.0011070669 0.08228074 0.034159243 0.010711338
000040 75 05 18 3d 58 40 21 bd 9a b3 8d bd 4a 9b 94 bc
       0.03711458 -0.039368004 -0.06919022 -0.018140454
000050 2a 6c c3 3d 69 e3 b2 3c f3 88 85 bd 60 59 74 3d
       0.09542115 0.021836953 -0.065202616 0.059655547
000060 04 cc a5 3d c7 00 8d 3d e4 6e 3d 3c 77 c9 b9 bc
       0.080955535 0.06884914 0.011562083 -0.022679074
000070 f8 cf 0e 3c b0 d4 f3 3c 29 09 0a bd 98 73 31 bd
       0.008716576 0.029764503 -0.033700142 -0.04332313
000080 8f 1a a3 3c 09 41 37 3d e2 66 da bc f5 db 0e bc
       0.019910125 0.044739757 -0.026660386 -0.008719434
000090 7b 48 85 bd 93 19 ea 38 76 53 9b bc ce ed bb 3d
       -0.06507965 0.00011162753 -0.018960696 0.09176217
0000a0 c1 6f 7d 3d ee 94 ef bc cc 45 8c bd 2f e3 94 bd
       0.061874155 -0.02924582 -0.0684925 -0.07269894
0000b0 25 a0 4f bd 71 df b6 3d 11 25 d3 bc ae 5d 87 3d
       -0.050689835 0.08929337 -0.02577451 0.06609665
0000c0 25 59 8b 3d bf 20 1d bc 42 d2 1d 3d f5 cf ee 3c
       0.06804112 -0.009590327 0.038530596 0.029151896
0000d0 3d 0c a9 3d 87 f7 2e 3d 67 ca 51 3d 9e 83 b7 3d
       0.082542874 0.04271653 0.051218417 0.08960651
0000e0 2b d9 45 3c a7 ff aa 3d f6 d9 1d bb 69 16 87 bd
       0.012075703 0.08349543 -0.0024086214 -0.06596071
0000f0 f4 65 af 3d af b5 87 bd f5 d2 d9 3a 4d 83 ac 3d
       0.08564368 -0.0662645 0.0016618656 0.08423481
000100 37 39 c7 bc e7 f7 77 bd 09 8f 87 3d 8b 89 0a 3d
       -0.024319274 -0.060539152 0.06619079 0.033822577
000110 b8 0d 6a 3d f9 9b 41 3d f3 fd b5 bd 13 52 93 3d
       0.05714199 0.047267888 -0.088863276 0.07193389
000120 5f 28 96 bd b6 49 41 3c 25 1d 4e bd 46 7e 86 3d
       -0.07331919 0.011797359 -0.050320763 0.065670535
000130 4a 34 bd 3d ef 6b 57 3c ce 73 b9 bc cb cc 9b 3d
       0.09238489 0.013148292 -0.022638228 0.076074205
000140 b8 04 8e 3d ea 5e 7d bc 74 4f 91 3d 1d 50 08 3c
       0.06934494 -0.015464524 0.070952326 0.008319882
000150 03 6d 25 bd c7 de aa 3d 8c 85 52 bd 63 e0 80 bd
       -0.040387165 0.08343273 -0.05139689 -0.06292798
000160 b3 52 55 3d 6a f3 08 3d dc 64 91 3d f1 18 12 bd
       0.05208082 0.033435263 0.070993155 -0.035668317
000170 87 43 ab 3c 51 eb 3d 3d 44 ac 95 3c 64 91 93 bd
       0.020906223 0.046366993 0.01827062 -0.072054654
000180 df 28 6a 3d 6f 67 be 3c e0 a8 a3 bc 04 6a a9 bc
       0.057167884 0.02324268 -0.019977987 -0.020680435
000190 7d e4 bd bd b9 5b c1 3d 32 26 66 3c 97 d5 c7 bc
       -0.09272096 0.09441323 0.014047192 -0.02439384
0001a0 88 1a c9 3d bf 57 80 bd a0 6d cc 3c 99 6b 60 bc
       0.098195136 -0.06266736 0.024954617 -0.013697528
0001b0 30 cc d7 bc d0 a0 fd 3a f7 1e 3e bc ec cc 9a 3d
       -0.026342481 0.0019350294 -0.011604062 0.07558617
0001c0 17 29 84 3d a7 2b ff 3c 74 ba 81 bb 6b 1c 6e bc
       0.0645315 0.031148745 -0.0039589945 -0.014533143
0001d0 b3 fc e2 bb 19 e7 bc ba 9b 7e 03 3d c9 d9 8f 3d
       -0.0069270968 -0.0014412134 0.032103162 0.07023961
0001e0 0d c9 80 bd a0 44 b6 bd d8 96 4f bc 2b a3 92 3d
       -0.062883474 -0.08899808 -0.012670241 0.07160028
0001f0 ac e2 2e 3d 2f 16 0f bd 07 74 68 3d bc ca 1e 3d
       0.04269664 -0.034933265 0.056751277 0.03876756

SoftmaxPolicy_l3.weight f4 [2, 128]
000000 ef 82 5b 3d ed 78 40 3c 7a 91 01 3e 4c 0d 45 3c
       0.053591665 0.011747581 0.12653151 0.012027096
000010 ee 0e ba bd eb c6 a6 bc c4 4f 29 3d e9 02 c3 3d
       -0.09084879 -0.020358523 0.041335836 0.095220394
000020 c0 05 5a 3c f7 a1 15 3c 6f f5 90 3d 14 55 91 3d
       0.013307035 0.009132854 0.07078063 0.070963055
000030 ba 50 b8 3d 32 72 67 3c f6 36 a3 3b f4 cc c6 3d
       0.08999772 0.014126347 0.004980917 0.097070605
000040 9b 0e 66 3d b6 75 c5 3d d9 9b 31 bc b8 14 cd 3d
       0.056166273 0.09641592 -0.01084038 0.100137174
000050 34 28 37 bd 49 4e cb 3d 12 33 1d bd 8f 37 8a bc
       -0.044716075 0.09927041 -0.038378783 -0.016872196
000060 ff 88 11 bd eb 97 35 3d fd 77 4b 3d 10 1a 11 3d
       -0.03553104 0.044334333 0.049674977 0.035425246
000070 d4 f8 b3 bd 0c 11 81 3b 53 1f 18 bd 01 7b 17 bd
       -0.087876946 0.0039387997 -0.037139248 -0.03698254
000080 fe 7c 61 3d 8e aa 58 ba 79 f3 51 3d a1 4a a1 bd
       0.055050842 -0.0008265161 0.051257584 -0.078755625
000090 aa 59 4c 3c d9 36 91 3d b3 e3 75 3d 72 f4 d6 3d
       0.012472549 0.070905395 0.060031604 0.10495843
0000a0 03 53 eb bb 30 34 b1 3d 3a 62 8e bd 45 26 1d bc
       -0.0071815266 0.08652532 -0.06952329 -0.009591644
0000b0 b8 dc 0c bc 30 e6 f5 bc e9 78 06 3d 1c 42 8b 3b
       -0.008597545 -0.030016989 0.032830153 0.004249824
0000c0 d2 6b d4 bd ff 6d c9 bd 4e 05 1a 3d 96 a1 7a bd
       -0.103721276 -0.09835433 0.037602715 -0.061189257
0000d0 3e a4 e5 bd b9 8b 05 3e 3e 2d 6d bd 22 64 c6 3d
       -0.11212967 0.13041581 -0.057904474 0.096870676
0000e0 49 36 8b 3d 8c 0c 48 3d 04 e4 99 bd 4e 7a a1 bc
       0.067974634 0.04884009 -0.07514194 -0.01971164
0000f0 63 b5 a8 3d f1 61 b2 3c d5 fc 00 be a5 d5 07 3c
       0.08237722 0.021775218 -0.12596448 0.008290683
000100 eb c1 88 bd f2 53 92 bd f1 32 aa bd a9 23 a7 3d
       -0.06677612 -0.071449175 -0.083104976 0.081610985
000110 c1 f0 96 3d 06 5d 8e bd 17 e9 1c bd 75 4c a2 3d
       0.07370139 -0.069513366 -0.03830823 0.07924739
000120 bc f5 b2 b9 60 c9 71 bd 23 d9 e4 3c 50 d9 e2 bd
       -0.00034133892 -0.059029937 0.02793557 -0.11076605
000130 3a 19 b6 bd c9 bd 8e 3d 99 db b7 bd 03 65 cd 3d
       -0.0889153 0.069697924 -0.08977432 0.10029032
000140 e9 71 05 bd 12 64 67 bd cf 01 aa bd 2a de 69 3d
       -0.032579336 -0.05649192 -0.08301126 0.057096638
000150 6b 25 f9 bd 4d 56 2a 3d 29 c0 d6 3c f0 61 0d 3d
       -0.1216534 0.04158621 0.026214676 0.03451723
000160 8b cc d5 bd 60 7e 84 bd 43 70 3d 3d 25 f8 96 bd
       -0.10439404 -0.064694166 0.04624964 -0.073715486
000170 33 ae 3c bd f6 d4 65 3d cb ae 31 3d 4e 53 98 3d
       -0.046064567 0.0561113 0.043379586 0.07437764
000180 7a 53 93 3b fe 64 2a bd ef 16 03 3e 04 75 ae 3b
       0.004496035 -0.04160022 0.12801717 0.005324008
000190 8a 0f ab bc 2d 6b 9a 3d 12 5c ae bd c6 c7 a7 3d
       -0.020881433 0.075399734 -0.08513655 0.08192401
0001a0 74 61 13 3d 55 e8 67 bc ca f2 96 bd 91 ed d3 bc
       0.03598161 -0.014154513 -0.07370527 -0.025870116
0001b0 3c 58 b6 bc ee 18 9e 3c 38 96 7d bd fc 79 40 3d
       -0.02225887 0.019298997 -0.061910838 0.046991333
0001c0 6c 54 fa bd 3d d2 a2 bd 2e d3 13 bc 51 88 de 3d
       -0.122231334 -0.07950256 -0.009022517 0.10865844
0001d0 74 67 94 3d 80 97 b6 bd b8 cd 9e 3d 0c 0f 6a bd
       0.072462946 -0.08915615 0.077540815 -0.057143256
0001e0 e4 b8 9c 3d 2b 32 27 3c b0 a8 b8 bc aa d5 ce bd
       0.076524526 0.010204832 -0.022541374 -0.10099347
0001f0 84 6a d4 bd 96 40 d9 bd da 15 74 bd 87 8a 8d 3d
       -0.10371879 -0.10608022 -0.05959115 0.069111876
000200 9a 72 ce bb 14 ba e4 3d 4f b7 ee bd 65 e4 b1 3d
       -0.0063002827 0.11168304 -0.11656057 0.08686141
000210 c8 cf 9e 3c 73 c3 c0 3d 7b dc d0 bd 4c 89 a0 bd
       0.019386187 0.09412279 -0.10198303 -0.07838687
000220 d5 ff e3 3d b7 f2 4a 3d 9f a5 f4 bd 16 63 cf bd
       0.111327805 0.049547877 -0.11945652 -0.10126321
000230 18 07 dc bc fe 6b fe 3d bb 88 ad 3d 46 df ab bd
       -0.026858851 0.124229416 0.08473345 -0.083921954
000240 c9 58 29 3c 2e f4 7b 3c be f6 84 bd d0 51 ae bd
       0.010336109 0.015378041 -0.06492375 -0.08511698
000250 ef 4e d6 3d 66 27 f5 3b 12 e8 16 3d e3 3f da 3d
       0.10464274 0.0074815033 0.036842413 0.10656717
000260 a6 02 16 3d d3 d9 12 be 74 85 87 bd 3a 78 7f bd
       0.03662362 -0.14340906 -0.06617251 -0.062370516
000270 5a bf 98 bd a7 76 87 3d 55 9d d5 3a ea ed ef 3d
       -0.074583724 0.06614428 0.0016297499 0.117153004
000280 5e 47 10 bd 27 88 9e 3c 92 e5 ee bc 72 05 9f 3d
       -0.03522431 0.019352032 -0.029162202 0.077647105
000290 f2 79 76 3d 3b ee ad bc 65 71 62 bd 1a 17 45 bd
       0.06017489 -0.021231761 -0.055283923 -0.048117734
0002a0 6c 0c 8e bd 85 81 15 be e1 5c 2c 3d 55 8a 5d 3d
       -0.06935963 -0.14600189 0.042080764 0.054087
0002b0 93 68 dc bd a7 d8 05 3e 13 b3 7b bd cc 04 c1 bd
       -0.107621334 0.13070928 -0.061450075 -0.09424743
0002c0 30 50 91 3d d1 96 87 3d 12 c5 8a bc ae e1 a7 3c
       0.07095373 0.06620563 -0.016939674 0.020493355
0002d0 7d 43 20 3d 94 71 f1 bd 06 07 0e 3e 43 0b bd bd
       0.03912686 -0.117892414 0.13869867 -0.092306636
0002e0 02 92 53 bd f5 75 16 be 09 8c d8 bc ca a9 cc 3c
       -0.051652916 -0.14693435 -0.026433961 0.024983305
0002f0 7a 6c f9 bd f9 03 8e bd e1 ab 5d 3c c1 7f 88 bd
       -0.121788934 -0.069343515 0.013529749 -0.06664992
000300 93 12 a4 3d 0c 81 e6 3d a0 26 16 bb 7e dc 53 bd
       0.08011355 0.112550825 -0.0022911206 -0.05172395
000310 ec 1c 5c 3d 25 f4 38 3c bf ae 92 3d 17 28 b4 3c
       0.05373852 0.011288677 0.071622364 0.021991773
000320 c8 a4 83 3d 5f af f9 3d 27 7a 82 bd 9f 77 55 bd
       0.06427914 0.121916525 -0.06370955 -0.052116033
000330 f0 ea d7 3b 1b 01 c3 bd 04 69 98 3d 2c 34 8f bd
       0.006589286 -0.09521695 0.07441905 -0.06992373
000340 95 a5 55 3d 68 77 8d bd e4 9e 8f 3d 30 fa b2 3c
       0.052159864 -0.069075406 0.07012728 0.021847814
000350 57 17 ec 3d 82 20 8c bd 03 b0 a2 3c 56 fa 55 bd
       0.11527889 -0.06842138 0.01985932 -0.052240692
000360 f5 26 de 3b 74 e4 8b 3d 3c 83 c6 bd 5e 72 b5 3d
       0.0067795464 0.06830683 -0.09693 0.088597044
000370 bb 76 16 3d 3a e1 d0 bc e1 12 95 3d e9 b9 03 3c
       0.036734324 -0.025498021 0.072789915 0.00803993
000380 f4 33 e1 bd b2 a5 97 3d ac f6 74 3c 91 de 44 bd
       -0.109962374 0.07404651 0.014951389 -0.04806382
000390 97 2e 65 3d 36 0f 26 bd c4 c7 3c 3d 14 d1 21 bd
       0.055952635 -0.04054185 0.04608895 -0.039506033
0003a0 6c 7e 15 be d5 06 c7 3d 6f af d3 3d 0e 58 f6 bd
       -0.14599007 0.097181 0.10336196 -0.12028514
0003b0 52 e4 99 bd b4 a2 ac 3d aa 02 69 3d 21 58 45 bd
       -0.07514252 0.08429471 0.056887306 -0.04817975
0003c0 66 6a 82 3c 7b f4 b8 3d 12 11 d2 3d 61 07 03 be
       0.015919875 0.09031006 0.10257162 -0.12795784
0003d0 4b dc 76 bd 6c d5 56 bc cc b7 ca bd 28 cf 53 bc
       -0.06026868 -0.013112407 -0.09898338 -0.012927808
0003e0 92 32 04 bb f4 b6 83 bc 96 07 76 bd 7e d9 08 3c
       -0.0020171744 -0.01607845 -0.06006583 0.008352635
0003f0 72 77 f7 3b 0f 81 07 bd 18 2c 8b 3d 2d 9b 93 bd
       0.007552081 -0.033082064 0.067955196 -0.07207332

SoftmaxPolicy_l3.bias f4 [2]
000000 71 e4 02 3d 93 89 84 bc
       0.03195614 -0.016178882
