pytorch_models/model280297.pth (torch, 72107 bytes, 6 tensors)

SoftmaxPolicy_l1.weight f4 [128, 4]
00000000: e34a 833e a3a4 66be b8f0 e9bd c95e 6d3e
00000010: 530e f0be 6bad 9f3e cbf4 55bd e600 843e
00000020: fd19 8d3d 991e 60bd 4131 533e 21e5 4a3d
00000030: d6fb 313e 25d2 41be 3a9e ebbc 6672 4ebd
00000040: d158 933d e8ce e5ba fce7 de3e a2a8 1d3e
00000050: aa61 3bbe 39dd 99be 8654 acbd 6dc4 58be
00000060: 7f37 25be 0f86 b13c 6181 a03e a249 8f3e
00000070: 8344 fabe 576a a73e e00b 843e 94ca 043f
00000080: 26ae a83e 879e edbe f865 fbbe e75f 6cbe
00000090: 0df7 d63e b972 c5bd c618 603e 82e8 69be
000000a0: 104d f83e 4e54 6fbe 2c0b 993e ab3a 31bc
000000b0: afc9 84be cb0a 843e d048 82be d123 203e
000000c0: a73d 06be b99c 4cbd d230 f0be ed26 6abe
000000d0: ab5e 893e 3dba e7bd 2e5e 003f 4444 cc3e
000000e0: 7a95 efbc 6365 9ebe a122 d43e c752 483e
000000f0: 50fb a1be 1f63 ae3e 2100 da3e 26b4 fb3e
00000100: 3ddd 8ebe 9532 a8bd c76d f2bc 5fa3 8b3d
00000110: 879b c1be 4af9 b5be 6ed3 7e3e 3311 fdbd
00000120: da35 6b3e 3864 043d bfe1 9b3e 59d3 383e
00000130: 584f 293e 9250 813e 2abf a1be a457 a63e
00000140: ab1a b1be 843c c0be 7b93 aa3d 6e19 69bd
00000150: 1894 943e 9117 91be 956a b6be e6e9 d23e
00000160: 19bc 90bd 127d 8e3e 7bc8 b53d 51a8 d8be
00000170: c4de c63d f43f e83d afde aebe e70e 73be
00000180: a302 353e f78d 8d3d c393 b8be bbbd 5dbe
00000190: 9ab6 e43e f134 a9bd 2217 cd3e 5378 883e
000001a0: 567e a4be f655 d8be 5ae6 eb3e 00d5 833c
000001b0: bee9 ab3e 9da1 ea3d db69 893e 1331 d33e
000001c0: eb5d ed3e d7af a5be fbd0 433e f168 e23e
000001d0: 4380 b33e 8717 993e 5465 bcbe 93cd b8be
000001e0: 0c05 9dbe 5631 6e3d 965e 033f e49a 9fbe
000001f0: e52e 8c3e 9c54 91be 41e2 fcbe 41c4 d0bd
00000200: 9b43 903e b7fc ec3e 78ef 93be 2342 e53d
00000210: 42d1 d53e 18d8 b43e 05d4 d13e d2fb c03e
00000220: 27a7 9a3e 246e eb3d c233 aabe a649 d2be
00000230: 6590 71be 0782 65bd ecb0 3cbe 19f4 7c3e
00000240: e069 1e3e ccbf e7bd 1b96 563e 9d9f 313e
00000250: 70a0 973e 6e16 b83e 55f9 78bd 218b 053f
00000260: d0b8 34bd 5e6f f5bc 4aec 1abf 9fac bebe
00000270: 8214 94be 8df0 5abe 1e0d b03e f642 27be
00000280: cb56 bbbe bcbb 5e3e b10a 863e d9af b03e
00000290: c5c4 85be e091 d73d 71b0 3abe 046d e5bd
000002a0: 4466 c9be e858 6abe fce2 2dbe a989 5b3e
000002b0: 5cd0 a83d 66c4 143e 59d9 1f3f aa3b 033f
000002c0: b0a7 a93e 0999 bb3c 1c88 62be 2ed3 e53e
000002d0: 9994 06be d8e7 42bd 9e36 e1be 81ad c9bd
000002e0: 117b a9be 4842 e93e c69e f4be 24e5 d7be
000002f0: 7d0c 31bc 386f 88be 4d92 313e 3870 44be
00000300: 2a07 6ebe 0a2f 2f3d 9120 af3e dfad c2be
00000310: 5434 6c3e b8c5 a13e 021d f03e 1ea5 b8be
00000320: 2307 0c3e f495 babe 68ef c83e df51 51be
00000330: f8f2 963e 52a5 853c e569 54bc 694d c2bb
00000340: 160c 953d f3a0 713e 38d8 5a3e bcc0 653e
00000350: 93a9 e5be 7c46 be3e 175d 083f 2473 ed3e
00000360: a539 b23e ac95 b8be e132 1cbe e4a8 e33e
00000370: 1ace c5be 650e eb3e 9136 dfbe 7560 c9be
00000380: 5e89 743e 8d57 b1be 49c3 42bd 113c c93e
00000390: 0deb cc3e 8bc0 ef3e 89d8 49be d441 e3be
000003a0: 77df f73e bdf0 04be 9640 76be ef77 083e
000003b0: 564f b3be 3032 a53e 2215 6d3e da99 e5be
000003c0: 1547 d3be 389a 45bd 1e06 463e e699 4fbc
000003d0: 3e10 80be c30b aa3c d0bf f2be e2a7 b9be
000003e0: 80a5 a9be c6e5 d33e 1c74 d03e 5b94 48be
000003f0: 2021 ed3c f0ff 583e a7ba 1e3c 779f 8abe
0.25643072 -0.22523741 -0.114228666 0.23180689 -0.4688593 0.31186995 -0.052235406 0.25781935
0.068897225 -0.05471668 0.20624258 0.04953492 0.17381224 -0.1892782 -0.028761972 -0.050402068
0.07194675 -0.0017532976 0.43536365 0.1539636 -0.18298975 -0.30051592 -0.08414559 -0.2116868
-0.16134451 0.02167037 0.31348708 0.27985865 -0.48880395 0.32698318 0.2579031 0.5187161
0.32945365 -0.4641001 -0.49101233 -0.23083459 0.4198536 -0.09641022 0.2188445 -0.22842601
0.48496294 -0.23372003 0.29891336 -0.01081721 -0.25935122 0.25789484 -0.25446177 0.15638663
-0.13109456 -0.04995415 -0.46912247 -0.22866412 0.26830038 -0.11314819 0.50143707 0.39895833
-0.02924608 -0.30936727 0.4143267 0.19562827 -0.3163705 0.34059998 0.42578223 0.4916088
-0.27903166 -0.08212773 -0.029593362 0.0681827 -0.3781397 -0.35541755 0.24885342 -0.12356796
0.22969761 0.03232214 0.30445668 0.18049373 0.16534173 0.25256783 -0.3159116 0.3248874
-0.3459066 -0.3754617 0.08328911 -0.056909017 0.29019237 -0.28338292 -0.3562819 0.41194075
-0.07067127 0.27829796 0.08876129 -0.42315915 0.09710458 0.11340323 -0.3415427 -0.23736154
0.17676787 0.06911843 -0.36050233 -0.21654408 0.44670564 -0.08262051 0.4005671 0.266543
-0.32127637 -0.42253083 0.46074182 0.016092777 0.3357677 0.114566065 0.26838574 0.41248378
0.46360716 -0.32360718 0.19122688 0.4422069 0.35058793 0.29900762 -0.36796057 -0.3609434
-0.30667913 0.05815252 0.513162 -0.3117286 0.27379528 -0.28384864 -0.49391368 -0.101936825
0.2817658 0.46286556 -0.28893638 0.11194255 0.41761214 0.35321116 0.4098207 0.37692124
0.30205652 0.11495617 -0.33242613 -0.41071814 -0.23590238 -0.056032207 -0.18426865 0.24702491
0.15470076 -0.11315879 0.20955698 0.17346044 0.29614592 0.35954612 -0.060784657 0.5216542
-0.044121563 -0.02996033 -0.605168 -0.37241074 -0.28921896 -0.21380825 0.34385008 -0.16334137
-0.36589655 0.21751302 0.26180032 0.3450916 -0.26126686 0.1052587 -0.1823137 -0.11202434
-0.39335835 -0.22885478 -0.16981119 0.21439232 0.082428664 0.14528045 0.6244102 0.51262915
0.33135748 0.022900121 -0.22122234 0.4488768 -0.13142623 -0.047584385 -0.43986982 -0.09847546
-0.33101705 0.4555838 -0.47777385 -0.42167008 -0.0108062 -0.26647353 0.17340966 -0.19183433
-0.2324492 0.04276947 0.34204534 -0.38023278 0.23066837 0.3159616 0.4689713 -0.36063474
0.13674597 -0.3644253 0.39245152 -0.20441388 0.29482245 0.016314182 -0.0129647 -0.005929638
0.07277696 0.23596554 0.21371543 0.22436804 -0.44855937 0.3716315 0.53267044 0.46376908
0.34809604 -0.3605169 -0.15253784 0.4446479 -0.38633806 0.4590942 -0.43596318 -0.39331403
0.23880526 -0.34637108 -0.04754952 0.3930364 0.4002308 0.46826586 -0.19711508 -0.4438616
0.48412678 -0.1298246 -0.24048075 0.13327001 -0.35021466 0.32264853 0.23152593 -0.44843942
-0.4126517 -0.048242778 0.19338271 -0.01267097 -0.25012392 0.020757562 -0.47411966 -0.36260897
-0.3313408 0.4138624 0.40713584 -0.19587843 0.02894646 0.21191382 0.009688056 -0.27074787

SoftmaxPolicy_l1.bias f4 [128]
00000000: b749 c1be 731b b53e 2851 a93e 8fbe ffbe
00000010: 4cd1 c9be a402 adbe e55c 85be 6422 f33d
00000020: 10dd f6be 1440 c8be 0573 6d3e 62e7 2ebe
00000030: af9d 5cbe 813d d5be e82b 443e 7266 e53d
00000040: 6580 51be 2f3a 9fbe a7d3 ed3d 1e79 193e
00000050: f71f 443e 65cd 283e 3065 45bd 3dc0 c8be
00000060: a298 b33e a9ca 083d b24e b0be 3bd1 ef3e
00000070: dc38 923e e3a4 cfbe 8a9c 7dbe 6dc0 23be
00000080: 0b68 95be 5c8c 6f3e baa0 c1be 021d e73e
00000090: 0a6e 4cbe 18d8 9a3e 037c c63d 4314 6bbe
000000a0: d5f4 af3e bfff c1be a91e 88be d83b dd3d
000000b0: 2cdf c63e e600 54be 8bac 90be b333 a5be
000000c0: cfbd 4cbe 8e20 23be 8893 f2bd d906 96be
000000d0: 0bb4 2c3e 98bd aa3d 8e56 afbe 5633 81be
000000e0: 5e8e cc3d 9ccf da3c 9a71 c83e 9ae5 6abd
000000f0: 832a cfbe 1cc5 babe 33c8 07be 253c d4bd
00000100: d034 b33d 2f1d 06be d495 593e 6197 23be
00000110: 06ea c83e e83d cc3d 728d 25be 0df6 f23e
00000120: 68dc 273e d80e b8be ecbf 87be aa38 ac3e
00000130: da2b 613e 60ce c23e 8481 993c 9d7e b13e
00000140: 5357 8c3e 83ee 113e 3a7a 18be e90f 033f
00000150: 5ab6 c43d cfde 1dbe 5d44 893d 541e ff3e
00000160: 7640 a33e a906 75bd 894a 053f 042a 813e
00000170: 3a8c 84be b94c ebbe e7c3 9f3e 9d50 003f
00000180: 2a81 9bbe 6a32 493e 5b8e 313d d036 04be
00000190: 0afa dbbd 6179 2a3e fcdd d03d 6756 ab3e
000001a0: 4640 3f3e 0e54 843e c869 f23e 006f 353e
000001b0: ac65 ee3d ef74 0dbe af79 c23e b098 bd3d
000001c0: d3ea a63e 1bcd f53e 82c8 08be 5bd4 a93e
000001d0: 64fe 78bd 2a54 f53e ff35 c83e da08 1ebe
000001e0: 9c3e 293c ec1d 5bbe c782 58be ab0d b2bd
000001f0: 44ec f8ba 438f 1dbe 4715 f1be b9f7 a0be
-0.37751552 0.35372505 0.3306973 -0.49950072 -0.39417493 -0.33791077 -0.26047435 0.11871794
-0.48215532 -0.39111388 0.23188408 -0.17080453 -0.21544527 -0.41648486 0.19157374 0.112011805
-0.20459135 -0.31099078 0.11612635 0.14987609 0.19152819 0.16484602 -0.048192203 -0.39209166
0.35077387 0.033396397 -0.3443504 0.46839318 0.28559005 -0.40555486 -0.24766746 -0.15991373
-0.2918094 0.23393387 -0.37817937 0.4513932 -0.19963852 0.3024299 0.09691622 -0.22956948
0.3436648 -0.3789043 -0.26585892 0.1080243 0.38842142 -0.20703468 -0.2825664 -0.32266006
-0.19994281 -0.15930387 -0.118445456 -0.293021 0.16865556 0.083369434 -0.34245723 -0.2523448
0.09988092 0.026710324 0.3914917 -0.05734787 -0.4046212 -0.36478508 -0.13259964 -0.10363034
0.087503076 -0.1309707 0.21248561 -0.15975715 0.39241046 0.09972745 -0.16167238 0.47453347
0.16392672 -0.35948825 -0.26513612 0.3363698 0.21989384 0.38048077 0.018738516 0.3466691
0.27410373 0.14251141 -0.14890376 0.5119615 0.09605093 -0.15417026 0.067024924 0.49827826
0.31885117 -0.059820805 0.52066857 0.25227368 -0.25888234 -0.45956972 0.3120415 0.50123006
-0.30371982 0.19648138 0.04334865 -0.12911534 -0.107410505 0.16647865 0.1019859 0.33464357
0.18676862 0.2584538 0.4734633 0.17718124 0.11640486 -0.13814138 0.37983462 0.092576385
0.32601032 0.48008046 -0.13357738 0.33169827 -0.06078948 0.47915775 0.39103696 -0.15433064
0.010329869 -0.21398133 -0.21143638 -0.08694013 -0.0018991311 -0.15386681 -0.47086546 -0.31438997

SoftmaxPolicy_l2.weight f4 [128, 128]
00000000: e16d 253b a97b 25bd 8a85 973d 6254 913d
00000010: 7100 683d b628 2b3d 0746 92bd ae95 543d
00000020: 50c2 70bd fc39 66bc 1657 16bd 18ce e43c
00000030: e0c3 86bd 65c4 20bd f986 72bd d9ab ccbd
00000040: 66c2 3cbd 4edc a83d 6380 bebb 1025 063d
00000050: 5478 afbd 95e6 c83d eee5 34bc 21a7 9cbd
00000060: da39 b63d 021f 5ebc f327 973d 6359 61bd
00000070: 5d58 8bbd 0129 5cbd 2d55 0f3d e8ed be3c
00000080: cd74 9bbd 08c7 663c 4e1d 2d3c 5bde 0e3d
00000090: a1c5 25bd d072 7ebd 3ce7 eb3d 52e8 40bd
000000a0: f96c 363d 4a9e 943d 58b5 8abd ffd7 9fbd
000000b0: cb26 c93c 1e03 9bbd 054e 143d 544d 04bd
000000c0: a91e 14bd 3831 84bd 4b2c 483d bd0d 3bbd
000000d0: c941 afbd 0475 83bd 6191 1ebd 9f7b a0bd
000000e0: ca43 3d3d e9d8 adbc 1d32 b43d ea78 803d
000000f0: 4a53 64bd e164 38bd ffb1 2abd 14da 733d
00000100: 6b7a d43b c543 ccbc ee13 bc3d 223f d83d
00000110: fd88 a63d 2233 85bd 4648 10bd 4c22 46bc
00000120: 18d9 c93d 2912 15bd 412d 34bd 636a 8f3c
00000130: 4e95 99bc 90d6 323d d815 8d3c 1b33 97bd
00000140: 70c9 b13d 6981 a93d 3bb3 f93b 6396 54bd
00000150: d6a4 163d f516 633d 847a 803d 8710 19bd
00000160: 245f 91bb 9d7b ccbc ac4f b83d 3966 013e
00000170: 3f1c 783b f2b9 5abd 1353 2c3d 363a 553d
00000180: c984 1b3d 7bee 9bbd 0f3a 893c aeda 09bd
00000190: 7c6e 90bd 90cd 11bd 9b94 643d 3dd8 303d
000001a0: cc92 99bd 8987 8e3c bc59 b53d 87a2 dc3d
000001b0: 5467 913d d9af c7bc 456a 563d 632c 5a3d
000001c0: 0362 313d eaaf 6cbd 5a29 04bd 11f9 9f3d
000001d0: 8608 a53d b414 a53d 4a93 2cbd e5dc 8bbc
000001e0: 4f4f 5ebd 7225 f7bc a4d8 953d fc97 80bd
000001f0: ef40 d93b dfd6 b33c 0700 44bd 15d7 1f3d
00000200: e84e 9abc 8f4f 8e3d a376 31bd a348 583c
00000210: af38 a0bd dd1b 463d 2052 ac3d bd39 c23c
00000220: 1d3b f83a 3951 3abd 1d46 24bd 4f53 31bd
00000230: 92d3 47bd 4753 cb3c 2234 413c 25ed a43d
00000240: 5b83 91bd 52c9 6ebd 53a0 17bd 5c36 0bbd
00000250: d51b a03d 45bc 323d bb2a a1bd 6358 9abb
00000260: 4a3e bc3b 7878 993d ce86 a63d ea9d 713d
00000270: 2f58 ae3d 80e4 f1bc 1db5 ebba 5d29 a5bd
00000280: 0022 d03c 968f f83d 7d23 503d 6038 d83d
00000290: 6f73 11bd 086d ed3c 9c29 58bd c35e 8c3d
000002a0: 837d 1cbd c7f1 27bd 6772 503c f047 863c
000002b0: b422 783d aa9b 5cbc 8201 a8bc 9b6c 313d
000002c0: 533d 793d e2c6 cb3d 32da 003d bcc3 04bb
000002d0: 9a88 f83d 05e9 053e 25da 28bd 3dc8 253d
000002e0: 5046 d83c dff3 23bd a9e7 d0bb dca1 80bc
000002f0: f1b3 89bd 41a2 05bd 6505 593d 3dfb 973d
00000300: 497b 333c df2f 9bbd c834 543c b0f0 dbbc
00000310: 1909 a63d f7dd afbd 9a1a 42bc 8f3d af3d
00000320: eaba 573c 4cc3 25bd 6b41 a9bd 3736 e5b9
00000330: 458d 603d 4d48 71bd d4e9 acbd 25f1 5e3d
00000340: 6164 01bd 4fc3 763d dcbb 9fbd 705f 40bc
00000350: 4801 66bd eb36 82bb 33dc afbd 49d8 3c3d
00000360: fc54 25bd 7679 82bd 314d 30bd 4d97 e8bd
00000370: 2deb 3a3d c2a3 a1bc a5ac e4bb b2d9 923d
00000380: e38b 54bc 0544 a23d 4dd0 983b 9b3c 74bd
00000390: 54d4 ba3c dfe6 d63c 062a 7fbd 0425 e43c
000003a0: a405 883c 4134 9a3d d254 05bc 4544 87bd
000003b0: 4cae b2bd 73f9 0d3d 2269 c6bc e339 b2bc
000003c0: d9c4 1bbc d2d0 c3bc fee3 be3c 177b a63d
000003d0: 186f 943d 23cd 81bd e434 ba3d 1213 7b3d
000003e0: d943 663c aecb 243d 9fce 6c3d 1b6b 9b3d
000003f0: 1902 483d 49b5 f53c 1f7f 14bd 7273 6fbd
0.0025242495 -0.040401135 0.073985174 0.07096173 0.056641046 0.04178687 -0.07142263 0.05190056
-0.05877906 -0.0140519105 -0.036704145 0.027930304 -0.06580329 -0.039249796 -0.05921075 -0.09993715
-0.04608383 0.08245145 -0.0058136447 0.03275019 -0.08567873 0.09809605 -0.011041148 -0.07649065
0.08897753 -0.0135571975 0.073806666 -0.055016886 -0.06803963 -0.053750042 0.03499334 0.023306802
-0.07590637 0.014085539 0.010566069 0.034880023 -0.040471677 -0.062121212 0.11518714 -0.047096558
0.04453752 0.07256754 -0.0677287 -0.0780487 0.02455463 -0.07568954 0.036207218 -0.03230031
-0.036162052 -0.064547 0.048870366 -0.0456674 -0.085574694 -0.06418803 -0.038712863 -0.07836079
0.046207227 -0.021221595 0.08798621 0.062730625 -0.055743493 -0.04501808 -0.041673657 0.059534147
0.00648432 -0.024934659 0.09183489 0.10558917 0.08131597 -0.065038934 -0.035225175 -0.012093138
0.098558605 -0.036394272 -0.04398847 0.017506784 -0.018747952 0.043661654 0.01722233 -0.073827945
0.08680999 0.08276636 0.007620243 -0.051901232 0.036778294 0.055441815 0.06273368 -0.037369277
-0.0044363905 -0.024961287 0.08999571 0.12636651 0.0037858633 -0.053399988 0.042071413 0.052057467
0.03796843 -0.07613846 0.016751317 -0.033655815 -0.07052323 -0.03559643 0.055805784 0.04317497
-0.074987024 0.017398613 0.08855006 0.10773187 0.070997864 -0.024375843 0.05234744 0.053264987
0.043306362 -0.057784952 -0.032266 0.078111775 0.08058266 0.080605894 -0.042132653 -0.017073104
-0.054274853 -0.030169223 0.073167115 -0.06278989 0.006630055 0.021953044 -0.04785159 0.039023478
-0.018836454 0.06948768 -0.04332603 0.013200912 -0.078233115 0.048366416 0.084141016 0.023709172
0.0018938516 -0.045487616 -0.040105928 -0.04329234 -0.048785754 0.024819983 0.011792215 0.08053044
-0.07105132 -0.058297463 -0.03701813 -0.033987388 0.078178085 0.04363658 -0.07869478 -0.0047102435
0.00574473 0.07493681 0.08131181 0.05898849 0.085129134 -0.029527903 -0.0017983053 -0.0806453
0.025406837 0.12136762 0.050815094 0.10557628 -0.035510477 0.028982654 -0.052774057 0.06854012
-0.038205635 -0.04100206 0.012722588 0.016391724 0.06057997 -0.013464848 -0.020508531 0.043316465
0.0608495 0.09950043 0.031458087 -0.0020258268 0.1213543 0.13077171 -0.041223664 0.040474165
0.026400715 -0.040027495 -0.0063752723 -0.01570218 -0.06723774 -0.03262544 0.05298366 0.07420967
0.010954686 -0.0757749 0.012952037 -0.026848167 0.08107204 -0.08587258 -0.011847163 0.08556663
0.013167122 -0.040469453 -0.082644306 -0.00043718677 0.054822225 -0.058906842 -0.08443037 0.054429192
-0.03158987 0.060244855 -0.07799503 -0.011741504 -0.056153566 -0.003973832 -0.085869215 0.046104703
-0.04036425 -0.06370823 -0.043042365 -0.11356983 0.045634437 -0.019731406 -0.0069785886 0.07170428
-0.012972805 0.0792313 0.0046635033 -0.05962811 0.022806324 0.026233135 -0.062295936 0.027849682
0.016604252 0.07529498 -0.0081378985 -0.06604818 -0.08724651 0.03466172 -0.024220053 -0.021756118
-0.009507381 -0.023903284 0.023302075 0.08128946 0.07247752 -0.06337955 0.09092119 0.061297484
0.014054262 0.040233307 0.057814237 0.07588788 0.048830125 0.02999367 -0.036254045 -0.058459707

SoftmaxPolicy_l2.bias f4 [128]
00000000: fc7a 5e3d cb5f 14bd e9ec 723b 3199 82bd
00000010: 5789 4abd 2991 5f3d 535b a23c 88cf e93c
00000020: 6b0c 4a3d 3dd1 db3c 2e89 0a3c 0f20 24bc
00000030: 001b 913a 3a9c a63d 5dad 0a3d 42cc 393c
00000040: 8969 143d 71ee 20bd f8b4 8dbd 1740 90bc
00000050: 167f c13d e7e9 b83c f388 85bd 7fe3 6f3d
00000060: 04cc a53d 0711 8e3d 4cb3 473c 4aa9 b4bc
00000070: f8cf 0e3c 6f05 ed3c 78d3 04bd daf6 34bd
00000080: 92cb a83c e08d 363d ac7b d3bc f5db 0ebc
00000090: 7b48 85bd 1365 41ba f16b 96bc 69be bc3d
000000a0: 6e25 7f3d 425c ebbc cc45 8cbd 2fe3 94bd
000000b0: 8319 4dbd 50b6 b43d 1c91 d1bc 5a07 873d
000000c0: 8180 893d 753e 2abc c75b 213d 7cfe e73c
000000d0: e393 a63d 6c22 313d cef9 4d3d 191b b93d
000000e0: c481 373c a440 ac3d f6d9 1dbb 4b55 89bd
000000f0: 6dbc b03d afb5 87bd 3861 4b3a a9fd ad3d
00000100: 52b6 d1bc bd70 7cbd 098f 873d 6fe6 0d3d
00000110: c010 693d c562 3e3d 7a6f bebd 4ea4 943d
00000120: 290a 98bd 5c28 303c b285 4bbd 11b1 843d
00000130: 655e bb3d 95ee 5d3c a879 c0bc 006f 9d3d
00000140: 5d91 8e3d a028 82bc 1e1b 8f3d 0a11 fd3b
00000150: 40cb 29bd 388d ac3d 5df8 50bd 929b 83bd
00000160: ad97 513d 6af3 083d 891e 923d 7e84 15bd
00000170: e1db a43c f61e 413d 44ac 953c 2f4b 92bd
00000180: 9993 6c3d e809 bf3c 7d60 9fbc 38e0 a9bc
00000190: 6563 bdbd fa9d c23d ecb7 503c c34a c1bc
000001a0: 7c33 ca3d 48cf 82bd c0fb c53c a93f 56bc
000001b0: fadd d2bc d0a0 fd3a 681f 4ebc 1e76 9c3d
000001c0: c721 823d 1d40 f83c de81 9ebb 9e64 65bc
000001d0: c698 f1bb 7fd6 18bb d4d4 053d c9d9 8f3d
000001e0: 5b82 7ebd a044 b6bd ccd3 5fbc bc2c 913d
000001f0: 8ca6 2b3d e412 12bd 547a 643d 80be 1e3d
0.054316506 -0.036224168 0.003706748 -0.06376875 -0.049447384 0.054581795 0.019818937 0.028541341
0.04932825 0.026833171 0.008455558 -0.010017409 0.0011070669 0.081352666 0.03385674 0.011340203
0.03623346 -0.039289895 -0.06919283 -0.017608685 0.09448068 0.02257247 -0.065202616 0.058566567
0.080955535 0.069368415 0.012188744 -0.02205338 0.008716576 0.028933255 -0.032428235 -0.04418073
0.020604882 0.044568896 -0.025815807 -0.008719434 -0.06507965 -0.0007377427 -0.018362017 0.09216005
0.062291555 -0.028730515 -0.0684925 -0.07269894 -0.050073158 0.08823836 -0.025581889 0.06593199
0.06713963 -0.0103908675 0.039394166 0.02831959 0.08133676 0.043245718 0.05028706 0.090383716
0.011200372 0.08410767 -0.0024086214 -0.067057215 0.08629689 -0.0662645 0.0007758322 0.084956475
-0.025599632 -0.061630953 0.06619079 0.034643587 0.05690074 0.046480913 -0.09298606 0.07257901
-0.07423813 0.01075181 -0.04968805 0.06479085 0.09148864 0.013545652 -0.02349551 0.07687187
0.069613196 -0.015888512 0.06987594 0.0077229785 -0.0414536 0.08425373 -0.051018108 -0.06426157
0.05117004 0.033435263 0.0713473 -0.036503308 0.020124378 0.047148667 0.01827062 -0.071432464
0.057757948 0.023320153 -0.019455189 -0.020736799 -0.092474736 0.09502788 0.012739163 -0.02359522
0.09873101 -0.06387192 0.024167895 -0.013076701 -0.025740612 0.0019350294 -0.01258073 0.076397166
0.06354099 0.03030401 -0.0048372587 -0.01400104 -0.0073729483 -0.002332121 0.03267367 0.07023961
-0.062136035 -0.08899808 -0.013661336 0.070886105 0.04190688 -0.035662547 0.055780724 0.038755894

SoftmaxPolicy_l3.weight f4 [2, 128]
00000000: fa74 583d be53 6b3c cc79 003e e4a8 683c
00000010: 60d6 b4bd 21d4 91bc a92d 283d 2e82 c13d
00000020: 5a5e 823c cb5e fc3b 5d1a 8f3d 8019 903d
00000030: ba50 b83d cfe6 843c d94b 9c3b e7b8 c53d
00000040: 4a6f 643d 8703 c43d 729c 31bc 41db ca3d
00000050: dd28 2dbd fade c93d 1233 1dbd 31d5 6dbc
00000060: ff88 11bd 2a57 313d d830 493d 130e 0f3d
00000070: d4f8 b3bd 1ee2 d03b 0983 1cbd a37d 0ebd
00000080: 0767 5d3d bc0d 53ba bf1d 513d a14a a1bd
00000090: aa59 4c3c f81f 8f3d b3be 713d b4e5 d43d
000000a0: 1391 06bc 5841 b03d 3a62 8ebd 4526 1dbc
000000b0: 3692 10bc be59 e0bc 4675 063d 852c 5b3b
000000c0: 2966 cfbd 0f9a c4bd 486b 1b3d 6e16 72bd
000000d0: df6e e0bd 69a4 043e d293 63bd d2e8 c43d
000000e0: 24a0 883d 3692 443d 04e4 99bd 43cc 9bbc
000000f0: 078f a73d f161 b23c 2fe8 fcbd a8e4 fd3b
00000100: 6177 84bd a672 8dbd f132 aabd 1819 a73d
00000110: 496b 963d 001f 8abd f338 0dbd 8f28 a23d
00000120: 343c 26b9 4b28 69bd 8246 e13c 22c4 ddbd
00000130: 29b1 b1bd 7d57 913d 2e9d b3bd effe cb3d
00000140: 66c2 05bd f679 67bd 74ad a5bd f187 643d
00000150: ed60 f4bd 6562 293d 165c df3c ef27 0c3d
00000160: 2965 d1bd 607e 84bd 0fa6 383d 65df 91bd
00000170: 0a9e 36bd 9801 673d cbae 313d 0753 963d
00000180: 2fdf 7e3b b268 2abd e26a 023e 7223 ad3b
00000190: 0c94 abbc abf7 993d 6596 abbd cda0 a73d
000001a0: cdd7 0f3d f234 59bc 94e6 91bd 6d4d d3bc
000001b0: 3c63 babc ee18 9e3c 803b 72bd a222 3e3d
000001c0: c775 f4bd 4e64 9ebd abe3 d3bb ea0f dd3d
000001d0: c5e9 923d 5cd8 b1bd 9c23 9d3d 0c0f 6abd
000001e0: ce93 9b3d 2b32 273c 84d8 c2bc 63c5 cabd
000001f0: ba0b d0bd 41e5 d4bd 71e7 69bd 1f8a 8d3d
00000200: 0a03 b6bb ba5e df3d f487 ecbd ee70 ad3d
00000210: aaed 893c c386 bb3d 6c4b d0bd 9008 9fbd
00000220: f3a8 de3d 59cf 503d 8cca f2bd 8227 cebd
00000230: 1807 dcbc 9920 fa3d 6bf7 ad3d 39cb aabd
00000240: f4d5 2f3c e4c2 833c adf6 84bd 5918 acbd
00000250: 454f d13d 260e 063c 12e8 163d 9c6c d53d
00000260: a602 163d a6c9 11be e861 86bd 3e6c 7dbd
00000270: 5abf 98bd 9b79 823d 300a 313b 3e6f eb3d
00000280: 6731 0cbd 435b 9e3c 223a edbc 7205 9f3d
00000290: f279 763d a892 a5bc 644c 5ebd 9bf9 40bd
000002a0: 76ef 8bbd 1008 15be e15c 2c3d 558a 5d3d
000002b0: eff1 dbbd 1227 033e 70af 7bbd 162a bfbd
000002c0: 864a 8c3d e1c2 823d 0991 8dbc 57cb 963c
000002d0: a5d8 153d fda2 efbd bca0 0b3e f38f bbbd
000002e0: be65 4ebd 5c97 15be 098c d8bc bffb c63c
000002f0: 1e46 f8bd f903 8ebd 0520 353c 5a63 87bd
00000300: 09c8 9f3d c19f e13d a026 16bb 54c7 53bd
00000310: e127 5d3d ec03 173c b4d6 8a3d a7b7 b43c
00000320: e444 833d d15e f53d 7f95 81bd 01a2 5fbd
00000330: fe69 913b cf9a c5bd 992a 943d 18ce 8dbd
00000340: 12f6 553d 736c 8dbd 894a 8b3d a9a6 bd3c
00000350: d952 e73d 82a6 8bbd 1614 9a3c 55c0 54bd
00000360: 4db1 973b 74e4 8b3d 211e c4bd 9f59 b03d
00000370: 9266 103d 863a d3bc e112 953d 21bc 133c
00000380: b5f5 dfbd 94a7 973d a7b7 7f3c 5db4 44bd
00000390: d770 653d 2628 25bd 703c 373d 2d83 21bd
000003a0: 0d9c 14be 6630 c53d 39a3 ce3d 2280 f6bd
000003b0: 9ee1 98bd b4a2 ac3d f2a7 5d3d c700 43bd
000003c0: b3df 553c 8c86 b43d ead4 cc3d 294b 02be
000003d0: e8e0 73bd bbce 7cbc b00d c9bd 28cf 53bc
000003e0: b820 bfba f4b6 83bc aeef 70bd b1ae d03b
000003f0: 738a b13b b637 10bd d714 863d c59a 93bd
0.052845933 0.014363227 0.12546462 0.014200423 -0.08829951 -0.017801346 0.04105917 0.09448658
0.015914131 0.00770173 0.0698745 0.07036114 0.08999772 0.01622334 0.004769784 0.09654408
0.055770196 0.09570985 -0.010840522 0.099051006 -0.0422753 0.098569825 -0.038378783 -0.014516161
-0.03553104 0.043296017 0.049118847 0.03492553 -0.087876946 0.0063746115 -0.038210902 -0.034787785
0.054053333 -0.0008051058 0.05105376 -0.078755625 0.012472549 0.069885194 0.059019756 0.10395375
-0.008213299 0.08606213 -0.06952329 -0.009591644 -0.008823922 -0.027386542 0.032826684 0.0033443284
-0.101269074 -0.09599697 0.03794411 -0.059103422 -0.10958647 0.12953342 -0.055560894 0.096147195
0.066711694 0.047991 -0.07514194 -0.019018298 0.08181577 0.021775218 -0.12348973 0.007748205
-0.06468082 -0.06906633 -0.083104976 0.08159083 0.07344682 -0.06744194 -0.03447814 0.07917892
-0.00015853421 -0.056923192 0.027499441 -0.10828425 -0.08676369 0.07096765 -0.08770214 0.09960734
-0.032656096 -0.056512795 -0.08089724 0.055793706 -0.119325496 0.041353602 0.02726559 0.03421777
-0.10224373 -0.064694166 0.04508024 -0.07122687 -0.04458431 0.056398004 0.043379586 0.07340055
0.0038890352 -0.04160375 0.12736085 0.0052837664 -0.020944618 0.07517942 -0.08378295 0.08184967
0.035117913 -0.013257252 -0.071240574 -0.025793755 -0.022752397 0.019298997 -0.059138775 0.046419747
-0.11936527 -0.07733975 -0.006466349 0.10794051 0.07173494 -0.086838454 0.076728076 -0.057143256
0.07596551 0.010204832 -0.023784883 -0.0990093 -0.10158487 -0.10395289 -0.057105485 0.0691111
-0.0055545615 0.109067395 -0.115493685 0.08468805 0.01683696 0.09156563 -0.101706356 -0.07765305
0.10872068 0.050978992 -0.11855039 -0.10066129 -0.026858851 0.12213249 0.08494457 -0.08339543
0.010732163 0.016084142 -0.06492362 -0.084030814 0.102201976 0.008182084 0.036842413 0.10421106
0.03662362 -0.14237079 -0.06561643 -0.061870806 -0.074583724 0.06370851 0.002701413 0.11495827
-0.0342268 0.019330626 -0.028958384 0.077647105 0.06017489 -0.020211533 -0.05427207 -0.047113042
-0.06832783 -0.14553857 0.042080764 0.054087 -0.107395045 0.12807873 -0.061446607 -0.09334199
0.06850152 0.063848265 -0.017281072 0.018407507 0.03658356 -0.117010094 0.13635534 -0.091583155
-0.050389998 -0.1460852 -0.026433961 0.024289964 -0.12122749 -0.069343515 0.011054997 -0.06610747
0.078018256 0.11016799 -0.0022911206 -0.051703766 0.05399311 0.009217244 0.067792326 0.022060229
0.06409624 0.119809754 -0.06327342 -0.05459786 0.004437684 -0.09648668 0.07234687 -0.06924075
0.052236624 -0.06905451 0.06801326 0.023150759 0.11295099 -0.06818868 0.018808406 -0.051941235
0.00462929 0.06830683 -0.09576059 0.08610844 0.03525407 -0.025784742 0.072789915 0.009017021
-0.10935537 0.0740501 0.015607751 -0.04802357 0.056015816 -0.04032149 0.044735372 -0.03943174
-0.14512654 0.09628372 0.10089726 -0.12036158 -0.07464908 0.08429471 0.054115243 -0.047608163
0.013053822 0.08814725 0.10001548 -0.12723984 -0.05954066 -0.015430148 -0.09817064 -0.012927808
-0.0014581895 -0.01607845 -0.058822326 0.006368481 0.0054181158 -0.03520938 0.06546944 -0.07207254

SoftmaxPolicy_l3.bias f4 [2]
00000000: fc26 063d 9a0e 8bbc
0.032752022 -0.016974736
