pytorch_models/model280432.pth (torch, 72107 bytes, 6 tensors)

SoftmaxPolicy_l1.weight f4 [128, 4]
00000000: c305 833e 98e1 67be f2d7 e6bd 5792 6c3e
00000010: fa37 f0be 258e 9f3e e815 52bd a108 843e
00000020: addc 8b3d 7a29 64bd 3f93 523e 358d 533d
00000030: d5f2 343e a80a 45be eb99 f9bc d2b0 42bd
00000040: d158 933d e8ce e5ba fce7 de3e a2a8 1d3e
00000050: e0b8 3abe 5d6c 99be b523 aabd 84ac 59be
00000060: ac17 26be 96ef a83c 85e5 9f3e 8821 903e
00000070: 5422 fabe 3656 a73e cec0 843e c0de 043f
00000080: 2b70 a93e 33ef edbe 2363 fbbe e2e9 6bbe
00000090: 9205 d73e a504 c5bd 90ed 5f3e b36c 6bbe
000000a0: 5062 f83e 3f47 6fbe 2d0a 993e 8615 38bc
000000b0: 09c3 84be 081c 843e e23e 82be b512 203e
000000c0: 6fad 05be 4d1d 4cbd 0239 f0be 6d28 6abe
000000d0: c188 893e 4fb3 e7bd bf89 ff3e e2e5 cc3e
000000e0: 9183 f4bc 3197 9ebe 6249 d43e 3616 4a3e
000000f0: dc49 a2be 2634 ae3e e2c4 da3e cf86 fb3e
00000100: 3b8c 8ebe ce7d a6bd e55f f1bc bde0 883d
00000110: c56e c1be cfc0 b5be 54e2 7e3e c2be febd
00000120: 34d3 6a3e c1b0 033d 831f 9c3e a352 393e
00000130: 10f7 283e a830 813e d6a4 a1be 19b1 a63e
00000140: 13b1 b0be ca52 c0be 0ac0 ac3d 54f9 67bd
00000150: c178 943e 0547 91be 034b b6be 501c d33e
00000160: 8a09 8fbd 9991 8e3e 9f1c b33d 9a16 d8be
00000170: afef c63d 7928 e83d 70c6 aebe eddb 72be
00000180: 1c46 353e d8b6 8d3d c3d1 b8be 6a02 5ebe
00000190: 9579 e43e ed74 aabd 5213 cd3e 8b16 893e
000001a0: 3134 a4be 3325 d8be d5f1 eb3e 5e08 7f3c
000001b0: 17d2 ab3e e235 ea3d baa7 893e 299f d33e
000001c0: 461e ed3e 7305 a6be ee80 433e aa14 e33e
000001d0: a1d5 b33e 9fd6 983e 47bd bcbe 7222 b8be
000001e0: bb23 9dbe 1fdb 693d f803 033f b3a0 9ebe
000001f0: 8dfe 8b3e e98d 91be 1cff fbbe d307 d4bd
00000200: 6700 903e 53f5 ec3e e2c1 93be 032c e53d
00000210: 0aaf d53e 06db b43e 1516 d23e 531b c13e
00000220: 51d0 9a3e 925b ea3d 2b26 aabe 7555 d2be
00000230: aad0 71be cf03 67bd 8456 3cbe 7b2a 7e3e
00000240: b195 1f3e 71c4 e5bd ed91 553e 9e78 323e
00000250: 807a 973e 5a07 b83e 5904 77bd 4da4 053f
00000260: 90a9 2fbd 0802 f2bc b536 1bbf b668 bebe
00000270: 50e2 93be 85a0 5abe a922 b03e 10d2 27be
00000280: b0b9 bbbe 0119 5e3e 6e77 863e c1a8 b03e
00000290: 4f5f 85be b78a d93d 8c3a 39be 941b e7bd
000002a0: cf4e c9be 766b 6abe db91 2dbe 8df0 5b3e
000002b0: 046c a83d ef8a 143e 77e6 1f3f 636b 033f
000002c0: 6c93 a93e 362d ba3c 524d 62be e034 e63e
000002d0: 466a 06be 6444 42bd b53c e1be 1417 cbbd
000002e0: 8392 a9be 3df9 e83e 8ad4 f5be 8864 d7be
000002f0: 4928 33bc 4c7c 88be d76e 313e 79a2 44be
00000300: 5fa8 6dbe ee66 2a3d 9e4f ae3e c1bb c1be
00000310: 8fa8 6b3e 92e4 a13e bac4 ef3e f6ca b8be
00000320: a6ce 0b3e d7bd babe d1d4 c83e ad79 52be
00000330: 9c90 963e da73 803c 3835 51bc 947a b1bb
00000340: 5f8e 943d 6f5f 713e 3df7 5a3e e455 663e
00000350: 2c50 e5be 4b86 be3e 53d2 083f 6a4b ed3e
00000360: 5782 b13e 2cd1 b8be 3219 1bbe 0302 e33e
00000370: e424 c6be 7598 ea3e 950b e0be 0898 c8be
00000380: 5bfd 733e f091 b1be 3092 45bd 8e12 ca3e
00000390: 2124 cd3e 8db0 ef3e 3d3e 4abe 8e61 e3be
000003a0: 14f8 f73e c8f9 04be f26a 76be 5b8d 083e
000003b0: 2a56 b3be b1e9 a43e da33 6c3e 95d5 e4be
000003c0: 6df6 d2be 44e4 43bd eaa8 463e c628 53bc
000003d0: 75af 7fbe 2f05 ae3c 7382 f2be dde2 b9be
000003e0: c3a7 a9be 12b1 d33e b092 d03e 1870 47be
000003f0: 90c5 ef3c 00e3 583e b1b6 153c b113 8abe
0.25590333 -0.22644651 -0.11271657 0.23102699 -0.46917707 0.31163135 -0.051290423 0.25787833
0.068292 -0.055703618 0.20563982 0.051648337 0.17670758 -0.19242346 -0.030468902 -0.04753191
0.07194675 -0.0017532976 0.43536365 0.1539636 -0.18234587 -0.29965487 -0.08307592 -0.21257216
-0.16219968 0.020622056 0.31229797 0.28150582 -0.48854315 0.3268296 0.25928348 0.5190239
0.3309339 -0.46471557 -0.49099073 -0.23038438 0.41996437 -0.096200265 0.21867967 -0.22990684
0.48512506 -0.23367022 0.29890576 -0.0112356 -0.2593005 0.25802636 -0.254386 0.15632136
-0.13054441 -0.04983263 -0.46918494 -0.22866984 0.26862147 -0.11313497 0.4990978 0.40019137
-0.029847892 -0.30974725 0.41462237 0.19735035 -0.31696975 0.3402416 0.42728335 0.49126288
-0.27841362 -0.08129464 -0.029464671 0.066834904 -0.37779823 -0.35498664 0.24891025 -0.12438728
0.2293213 0.032150988 0.30492792 0.1809793 0.16500497 0.25232434 -0.31571072 0.3255699
-0.34510097 -0.37563163 0.08435066 -0.056634262 0.28998378 -0.28374496 -0.35604104 0.41232538
-0.06984241 0.27845457 0.087456934 -0.42204744 0.09713685 0.113358445 -0.3413577 -0.23716708
0.17702526 0.0691964 -0.36097535 -0.21680608 0.4462401 -0.08323083 0.40053803 0.2677501
-0.3207107 -0.4221588 0.4608294 0.01556596 0.33558723 0.114360586 0.26885778 0.41332367
0.4631216 -0.32426032 0.19092152 0.44351703 0.35123923 0.29851243 -0.36863157 -0.3596378
-0.30691323 0.057093736 0.5117793 -0.3098198 0.27342644 -0.2842858 -0.4921807 -0.10353055
0.28125307 0.46280918 -0.28858858 0.11190035 0.41735107 0.35323352 0.41032472 0.3771616
0.30237058 0.11443247 -0.33232245 -0.41080824 -0.23614755 -0.056400117 -0.18392378 0.24820893
0.15584446 -0.11219109 0.20856448 0.17428824 0.29585648 0.3594311 -0.06030688 0.5220383
-0.042886317 -0.029541984 -0.6063035 -0.37189263 -0.288836 -0.21350296 0.34401444 -0.16388726
-0.36665106 0.21689226 0.26262993 0.3450375 -0.26049277 0.10622161 -0.1808874 -0.11284557
-0.3931794 -0.22892556 -0.1695017 0.21478482 0.08223727 0.14506124 0.62461036 0.51335734
0.33120286 0.022726636 -0.22099808 0.44962215 -0.13126478 -0.047428504 -0.43991628 -0.09916511
-0.33119592 0.45502654 -0.48013717 -0.42068887 -0.010934898 -0.2665733 0.17327438 -0.19202603
-0.2320876 0.041602068 0.34045118 -0.37838557 0.23013519 0.31619698 0.46829778 -0.36092347
0.13653049 -0.3647296 0.39224866 -0.20554228 0.29407203 0.015680242 -0.012769036 -0.005416224
0.07253718 0.23571561 0.21383376 0.22493702 -0.4478773 0.37211832 0.5344593 0.463466
0.34669754 -0.36097085 -0.1514633 0.44337472 -0.3870002 0.4581944 -0.43758836 -0.3917849
0.23827116 -0.34681654 -0.04823512 0.3946728 0.40066627 0.46814385 -0.19750305 -0.44410366
0.48431456 -0.12985909 -0.24064234 0.13335173 -0.35026675 0.32209542 0.23066655 -0.446942
-0.41203633 -0.047825113 0.19400373 -0.012888139 -0.24969275 0.021242706 -0.4736515 -0.36305895
-0.33135805 0.4134603 0.40736914 -0.19476354 0.02926901 0.21180344 0.009137795 -0.26968148

SoftmaxPolicy_l1.bias f4 [128]
00000000: c36c c1be 5f0e b53e e51c a93e b536 febe
00000010: 4cd1 c9be 2353 adbe cac2 84be a2fb f23d
00000020: 6201 f6be 5a33 c8be 0e4f 6d3e a4c7 2ebe
00000030: e708 5dbe 0c17 d5be fd97 433e 8dd8 e43d
00000040: 6f48 52be c774 9fbe 0f7e ed3d 9139 193e
00000050: 45c5 433e bfca 293e 880b 44bd 5ebe c8be
00000060: 00bf b33e 29a3 073d b995 b0be 7faf ef3e
00000070: 49cf 913e a28b cfbe 7349 7ebe 1c2e 24be
00000080: 6f72 95be eb10 6f3e a76f c1be f6e9 e63e
00000090: 4b18 4bbe 87b4 9a3e dacd c83d a25e 6bbe
000000a0: 91c8 af3e 2864 c2be 961f 88be 1d78 dc3d
000000b0: c8b7 c63e c6d4 53be fbd6 90be 5819 a5be
000000c0: 418b 4ebe 5c70 23be 4a0d f3bd 8d71 96be
000000d0: 2a80 2c3e d096 ab3d 6205 b0be e68c 81be
000000e0: 0f63 cc3d 2a90 dd3c c68a c83e b761 6cbd
000000f0: 0876 cfbe daf0 babe c963 08be eaf9 d3bd
00000100: e5b9 b33d cde2 05be 22ad 593e 283c 23be
00000110: 4bfc c83e 687a cd3d 1a96 25be c0de f23e
00000120: d866 283e 3a32 b8be 58ab 87be 626e ac3e
00000130: 9bb8 603e 1dea c23e 6dfd 9a3c 0068 b13e
00000140: c397 8c3e 8999 123e 9216 19be 151c 033f
00000150: ce0e c43d eeab 1ebe d0f1 8a3d 436d ff3e
00000160: b9e8 a23e 09f0 74bd 794d 053f 476e 813e
00000170: 782f 85be b94c ebbe ffcf 9f3e 8933 003f
00000180: a092 9bbe 7561 483e 3d04 323d 7b7a 03be
00000190: e899 dcbd e51b 2b3e e0c2 cf3d 60dc aa3e
000001a0: 9eea 3f3e e641 843e 9498 f23e 0ecd 353e
000001b0: 3143 ef3d 082b 0dbe 0d3f c23e 461b bd3d
000001c0: 11f0 a63e fab3 f53e 28c1 08be d881 a93e
000001d0: de66 79bd 316c f53e b517 c83e c4f1 1ebe
000001e0: 2dd1 223c e84a 5bbe e387 58be a0d9 b0bd
000001f0: c0a9 fcba 7ccc 1dbe 6a24 f1be 9319 a1be
-0.3777829 0.35362527 0.33029857 -0.49651113 -0.39417493 -0.3385249 -0.25929862 0.118644014
-0.4804793 -0.39101678 0.23174688 -0.17068344 -0.21585427 -0.41619146 0.19100948 0.11174116
-0.20535444 -0.31143782 0.115963094 0.14963366 0.19118221 0.16581248 -0.04786256 -0.3920774
0.3510666 0.033114586 -0.3448923 0.4681358 0.2847846 -0.4053622 -0.24832706 -0.16033214
-0.29188868 0.23346297 -0.37780496 0.45100373 -0.19833486 0.30215856 0.09804888 -0.22985318
0.34332708 -0.37967038 -0.26586598 0.10765097 0.3881209 -0.20686635 -0.28289017 -0.32245898
-0.20170309 -0.1596083 -0.11867769 -0.29383507 0.16845766 0.083783746 -0.34379107 -0.2530281
0.099798314 0.027046282 0.39168376 -0.057710376 -0.40519738 -0.3651188 -0.13319315 -0.10350402
0.08775691 -0.13074799 0.21257451 -0.15940917 0.39254984 0.10033113 -0.1617054 0.4743557
0.16445482 -0.3597582 -0.26497912 0.33677965 0.21945421 0.3806924 0.018919671 0.34649658
0.27459535 0.14316382 -0.14950016 0.51214725 0.09573136 -0.15495273 0.06784403 0.49888048
0.31818178 -0.059799228 0.5207134 0.25279447 -0.26012778 -0.45956972 0.31213376 0.50078636
-0.30385303 0.19568427 0.043461073 -0.12839691 -0.10771543 0.1670986 0.10144591 0.33371258
0.18741843 0.25831527 0.47382033 0.17754003 0.116827376 -0.13785946 0.3793873 0.092337176
0.3260503 0.47988874 -0.13354933 0.33106875 -0.060889117 0.47934106 0.39080587 -0.15521914
0.009937567 -0.21415293 -0.21145587 -0.08635259 -0.0019276664 -0.15410036 -0.47098094 -0.31464824

SoftmaxPolicy_l2.weight f4 [128, 128]
00000000: 0f9a 133b c1c1 25bd c1b2 973d 6d3d 903d
00000010: 7100 683d c83f 2a3d d01f 94bd 0e80 543d
00000020: 9329 6dbd a481 60bc 8892 15bd 8722 e73c
00000030: 8328 87bd ee11 23bd 1a0e 74bd 070b cdbd
00000040: e874 3ebd 211c a83d 4b56 bbbb c07a 063d
00000050: abb7 afbd ed15 c83d c22b 44bc ad79 9abd
00000060: 33b8 b63d f546 5dbc 9a1d 963d 8c0b 61bd
00000070: 077d 8bbd a3e3 5bbd 97ed 0e3d 9b75 bd3c
00000080: 6824 9bbd 7221 683c 7699 2f3c 7985 0e3d
00000090: ea55 27bd 4d28 7ebd b36b ec3d dfce 41bd
000000a0: 8527 363d 04f5 943d c3d0 8bbd 9967 a0bd
000000b0: 97c0 c93c 99f5 9bbd 6214 103d 193f 04bd
000000c0: db73 15bd 4216 84bd b49d 4c3d 118b 3abd
000000d0: f823 afbd 25c6 83bd e4b9 21bd 0f46 a2bd
000000e0: 408e 3a3d 72d9 acbc f582 b43d 0e61 7b3d
000000f0: 9526 66bd d5b3 38bd 2f8a 30bd 347b 713d
00000100: d028 d93b 69bc cbbc e7ad bc3d cfc8 d73d
00000110: d8ec a63d 2016 85bd 5ce4 10bd b43b 49bc
00000120: 4014 ca3d 3e0d 15bd 3497 34bd 8853 903c
00000130: 3e8d 9ebc e382 333d d175 8a3c 9325 97bd
00000140: 7427 b23d 7777 a93d a907 ec3b 47c0 53bd
00000150: bfa1 153d 636a 603d 4c2d 813d 6c59 19bd
00000160: b9b7 9bbb 8bec cabc da4f b83d 69af 013e
00000170: 6735 4c3b f2b9 5abd d70e 2d3d 332f 553d
00000180: 80a6 1e3d 151e 9dbd 0850 863c ea36 09bd
00000190: 43e8 92bd 7799 10bd f2b6 643d beb7 303d
000001a0: 3fc7 99bd 1f2f 8e3c d3e3 b53d 7652 dd3d
000001b0: 4256 913d 03ac c8bc 20e5 563d 8313 5a3d
000001c0: fead 2f3d 935e 6cbd 8c9f 05bd cbd4 9f3d
000001d0: 042f a43d 8d65 a53d 2d2e 2cbd fd21 8fbc
000001e0: 6ecd 60bd 0e44 fdbc bced 953d 6d45 82bd
000001f0: 6a60 ce3b df0e b13c 1000 43bd cdea 1d3d
00000200: aa02 99bc d62f 8e3d a332 32bd d306 613c
00000210: af38 a0bd b6d5 463d 86cb ad3d f345 c23c
00000220: 7e5d a33a ece8 3bbd a431 25bd 8b69 32bd
00000230: 3b51 47bd e36d ce3c 68e4 463c cb50 a53d
00000240: 36ce 90bd db91 6dbd 3a44 18bd 8bdb 0bbd
00000250: 5a32 a03d 2947 343d 5220 a0bd 26ab babb
00000260: 7a28 b03b 2e42 993d 5866 a73d 2f07 713d
00000270: 8571 ae3d 9d53 f3bc 3866 f1ba deb2 a4bd
00000280: 982a ce3c 0239 f83d 0c38 4f3d 393f d83d
00000290: 6b62 10bd 3039 ec3c 3543 5abd a7b4 8c3d
000002a0: 4c89 1cbd aa9f 28bd b4f2 573c bed1 873c
000002b0: 8da7 773d 2d25 56bc 07dc a2bc 4160 313d
000002c0: 8039 793d 9150 cb3d 6cce fa3c c083 12bb
000002d0: e133 f83d 930a 063e 4d16 26bd a8ba 273d
000002e0: c46d dd3c 1b0d 25bd 2890 d7bb be8f 72bc
000002f0: 96eb 88bd c391 05bd b042 5d3d 5879 983d
00000300: 1c31 2f3c f87c 9bbd 4aef 4d3c 7459 dabc
00000310: f151 a53d 303b b0bd f6f5 40bc ad91 af3d
00000320: d187 513c 3655 26bd a832 a9bd e87d 2fba
00000330: b2df 623d 3699 72bd eeba acbd c54f 5e3d
00000340: e7d4 02bd 7bcf 763d 2b05 9fbd e5bc 44bc
00000350: 8b40 65bd 8fa5 5fbb 4aec b0bd a9ce 3c3d
00000360: d728 24bd ec01 83bd 5499 30bd 756b e9bd
00000370: 8423 3d3d c2a3 a1bc 702c f0bb 06bf 923d
00000380: 5b7d 5fbc 8f5f a33d d4a1 a33b db28 75bd
00000390: 22d1 c03c f724 d43c 6375 7fbd 575f e43c
000003a0: 9e7d 863c 6028 9a3d be8b 0cbc 8249 88bd
000003b0: 5e27 b3bd 7b12 0e3d 167e c8bc 7883 b2bc
000003c0: b2db 15bc 87e8 c4bc 5122 c13c a8a2 a63d
000003d0: 5b9b 943d ab4f 82bd b7d4 b93d 2c79 7b3d
000003e0: a9ed 6f3c 4593 273d 690d 6c3d bf05 9d3d
000003f0: a543 493d d2d7 f73c b563 15bd 03df 6dbd
0.0022522246 -0.04046798 0.074071415 0.07042966 0.056641046 0.041564733 -0.0723263 0.051879935
-0.057900976 -0.013702784 -0.036516696 0.028214706 -0.06599524 -0.03981202 -0.05958376 -0.10011869
-0.04649821 0.0820849 -0.005717074 0.032831907 -0.08579954 0.09769807 -0.011973323 -0.07542739
0.08921852 -0.013505687 0.07329865 -0.054942653 -0.068109564 -0.05368389 0.034894552 0.023127368
-0.07575303 0.01416813 0.01071774 0.03479526 -0.04085342 -0.062050153 0.115439795 -0.04731643
0.044471283 0.072732955 -0.068269275 -0.0783226 0.024627967 -0.076152034 0.03517569 -0.032286737
-0.03648744 -0.06449558 0.049955085 -0.04554278 -0.08551782 -0.064342774 -0.03948392 -0.07923519
0.045545816 -0.02109978 0.088140406 0.061371855 -0.05618914 -0.045093376 -0.043100532 0.058955386
0.0066271797 -0.024870114 0.09212857 0.10536348 0.08150643 -0.06498361 -0.03537403 -0.012282301
0.09867144 -0.03638958 -0.04408951 0.017617956 -0.019354459 0.043825995 0.016901882 -0.073802136
0.08698931 0.08274739 0.0072030616 -0.05169704 0.036531206 0.05478896 0.06307468 -0.037438795
-0.004752126 -0.024770996 0.089996055 0.1266457 0.003115976 -0.053399988 0.04225048 0.052046966
0.038733006 -0.07671753 0.016395584 -0.033499636 -0.07173207 -0.035302605 0.055838533 0.04314398
-0.07508706 0.017356453 0.08881345 0.10806744 0.070965305 -0.024496084 0.052464604 0.053241264
0.04289054 -0.05770738 -0.03262286 0.07804259 0.0801678 0.0807601 -0.042036224 -0.017472262
-0.054883413 -0.03091624 0.07320735 -0.06360898 0.0062981145 0.021613536 -0.04760748 0.038554
-0.018678028 0.06942718 -0.043505322 0.013734537 -0.078233115 0.048543654 0.08486085 0.023714995
0.0012463776 -0.04587643 -0.040330544 -0.043557685 -0.04866145 0.025198882 0.012139417 0.08072051
-0.070705816 -0.058000427 -0.03717444 -0.03414492 0.07822104 0.044013176 -0.078186646 -0.005696672
0.005375919 0.07483326 0.081738174 0.05884474 0.08517746 -0.029702956 -0.0018417304 -0.08041929
0.025166795 0.121202484 0.05059056 0.10558934 -0.03525011 0.028835863 -0.05328675 0.06870394
-0.038216874 -0.041167893 0.0131804235 0.016579505 0.060462523 -0.013070387 -0.019880308 0.043304686
0.060845852 0.09927476 0.030616008 -0.002235636 0.1211927 0.13089971 -0.04054861 0.040949494
0.02702988 -0.0402957 -0.006578464 -0.014804779 -0.066855595 -0.032609712 0.054018676 0.074450195
0.010692861 -0.07592195 0.012569258 -0.026653983 0.0807227 -0.08605039 -0.011777392 0.08572707
0.012788729 -0.040608607 -0.08261615 -0.00066944817 0.055389114 -0.059228145 -0.084340915 0.054275293
-0.03194132 0.060256463 -0.077646576 -0.012007927 -0.055969756 -0.003412578 -0.086388186 0.046095524
-0.04007801 -0.06396851 -0.043114975 -0.11397449 0.04617645 -0.019731406 -0.007329516 0.07165341
-0.013640727 0.07977211 0.0049936567 -0.059853416 0.023537222 0.025896532 -0.062367808 0.027877493
0.01641732 0.07527232 -0.008578239 -0.066546455 -0.08747743 0.034685593 -0.024474185 -0.021791205
-0.009146618 -0.024036659 0.023575934 0.08136493 0.07256194 -0.06362852 0.09073775 0.061394855
0.014644065 0.04091193 0.057629976 0.076671116 0.049136776 0.030254278 -0.03647204 -0.05807401

SoftmaxPolicy_l2.bias f4 [128]
00000000: fbec 5e3d 4e4d 15bd a0d7 7d3b e82d 83bd
00000010: bf95 4bbd 2548 5e3d 61db a33c 4d65 ef3c
00000020: 4003 493d 4ae5 d03c d07e 0d3c 4bf0 1fbc
00000030: 001b 913a 7650 a63d 4ec2 0b3d bf2b 3e3c
00000040: dbc7 113d 9e1a 1fbd 9ab3 8dbd 8a88 8ebc
00000050: 97cd c03d 8865 ba3c f388 85bd 5c6d 6d3d
00000060: 04cc a53d 8b5f 8e3d 92cb 493c 0699 b2bc
00000070: f8cf 0e3c c523 ea3c 19b3 04bd bd86 35bd
00000080: d0e6 aa3c 6389 363d 6e39 d2bc f5db 0ebc
00000090: 7b48 85bd 4a60 ffb9 19ad 94bc b32b bc3d
000000a0: 00b9 7f3d 7338 e9bc cc45 8cbd 2fe3 94bd
000000b0: e3e6 4bbd 2e74 b43d fd24 d3bc 919e 873d
000000c0: eee5 883d 5ead 2dbc 09dd 1e3d 7d89 e53c
000000d0: c1c3 a53d de8f 323d 40a5 4c3d 5d6f b93d
000000e0: 5787 3f3c bec8 ac3d f6d9 1dbb 658e 89bd
000000f0: 0b61 b13d afb5 87bd e7f1 263a 40a2 ae3d
00000100: a46f d5bc 5b4d 7dbd 098f 873d d844 0e3d
00000110: 14e4 673d 1daa 3d3d 14bd bcbd 994e 953d
00000120: 6d62 98bd 484c 2f3c 4c76 4abd 265a 843d
00000130: 0316 bb3d 2568 633c c867 c2bc 04df 9d3d
00000140: 3dd3 8e3d 9c4b 86bc fffb 8e3d 0885 eb3b
00000150: 5cab 2abd 98ef ac3d 7812 50bd 138a 83bd
00000160: 15a1 503d 6af3 083d 05c6 923d 5d68 16bd
00000170: 31a6 a33c 6ff9 413d 44ac 953c 6345 92bd
00000180: 8aac 6d3d 6f67 be3c 1e80 9dbc c38e aabc
00000190: e794 bdbd 0a41 c33d 215c 4f3c 19f4 bfbc
000001a0: 08ce ca3d 8ad7 82bd 73b7 c33c 1f88 50bc
000001b0: ae67 dabc d0a0 fd3a 9550 52bc 3acc 9c3d
000001c0: 9ff6 813d 55d9 f63c 8764 aabb f943 61bc
000001d0: 4ea1 ddbb 9a90 30bb 5bfd 063d c9d9 8f3d
000001e0: 2f31 7ebd a044 b6bd 981a 5bbc 8aa6 903d
000001f0: 35ef 2a3d 6df8 13bd 54a6 633d 81bf 1e3d
0.05442522 -0.036450677 0.003873326 -0.0640524 -0.049703356 0.05426802 0.020002069 0.029223109
0.049075365 0.025499959 0.0086361915 -0.00976188 0.0011070669 0.081208155 0.03412085 0.01160711
0.035590988 -0.038843744 -0.06919022 -0.017399091 0.09414213 0.022753492 -0.065202616 0.05796562
0.080955535 0.06951817 0.012316601 -0.021801483 0.008716576 0.02858151 -0.032397363 -0.04431795
0.020862013 0.044564616 -0.02566215 -0.008719434 -0.06507965 -0.0004870913 -0.018148946 0.091880225
0.06243229 -0.0284693 -0.0684925 -0.07269894 -0.049780738 0.08811222 -0.025774473 0.06622041
0.066844806 -0.010600416 0.038785014 0.028019661 0.08093978 0.043594234 0.049962282 0.09054444
0.011689982 0.08436726 -0.0024086214 -0.06716613 0.086610876 -0.0662645 0.0006368444 0.085270405
-0.026054211 -0.06184135 0.06619079 0.034733623 0.056613997 0.04630481 -0.09215751 0.07290382
-0.07440648 0.010699339 -0.049429223 0.06462507 0.09135058 0.01387981 -0.023731127 0.077085525
0.06973884 -0.016393475 0.06981658 0.0071874894 -0.041667327 0.084441364 -0.050798863 -0.0642282
0.05093487 0.033435263 0.071666755 -0.036720622 0.019976707 0.04735702 0.01827062 -0.07142141
0.058025874 0.02324268 -0.01922613 -0.020820027 -0.092569165 0.095338896 0.012656243 -0.023431825
0.099025786 -0.06388767 0.023891186 -0.012727766 -0.026660766 0.0019350294 -0.012836595 0.076561406
0.06345867 0.030132929 -0.005199972 -0.013749116 -0.006763614 -0.0026941658 0.032956462 0.07023961
-0.062058624 -0.08899808 -0.01337304 0.07063015 0.04173203 -0.03612559 0.055578545 0.03875685

SoftmaxPolicy_l3.weight f4 [2, 128]
00000000: 8f6a 593d 069a 673c 9eb8 003e 0626 673c
00000010: fd04 b5bd 5787 91bc 06ff 283d 5973 c03d
00000020: fd6e 813c 326f 123c 6a8d 8f3d bcb3 903d
00000030: ba50 b83d 7d20 853c 6c88 9e3b 36e1 c53d
00000040: d927 633d 1afa c33d d99b 31bc 294a cb3d
00000050: 9f4a 2dbd 0f23 ca3d 1233 1dbd 7a7f 72bc
00000060: ff88 11bd ec1e 323d e2eb 483d 492c 103d
00000070: d4f8 b3bd 2aed cf3b 14c2 1abd 54ca 0ebd
00000080: 335f 5e3d f5ee 52ba 4b55 513d a14a a1bd
00000090: aa59 4c3c a180 8e3d fb2e 723d 5282 d43d
000000a0: 8e0f 05bc a39e b03d 3a62 8ebd 4526 1dbc
000000b0: 47cc 0fbc b7d1 e0bc e978 063d 9d17 6a3b
000000c0: aa7e cfbd 47a6 c4bd b5e7 193d ad86 72bd
000000d0: 6ac5 e0bd 8eba 043e af1c 63bd 186f c53d
000000e0: eced 883d 2dc3 453d 04e4 99bd d927 99bc
000000f0: 960e a83d f161 b23c 1af4 fcbd 4cab 003c
00000100: 00fb 84bd f1ea 8dbd f132 aabd ff0b a73d
00000110: 5015 963d 2c6d 8abd afba 0fbd e597 a23d
00000120: 64f1 2039 712d 69bd 5c98 e33c 1bd8 ddbd
00000130: 74ae b1bd 7d18 913d f49d b3bd 10be cc3d
00000140: 65bf 05bd 3e46 69bd 27bd a5bd db56 623d
00000150: 6748 f4bd 1058 293d 638b e03c 7d02 0b3d
00000160: 3466 d1bd 607e 84bd 542b 393d 7862 92bd
00000170: 1250 36bd bb14 673d cbae 313d fd79 963d
00000180: 17eb 863b fe64 2abd 8b95 023e 09c9 ad3b
00000190: 2164 abbc 935f 9a3d b460 abbd 4c8e a73d
000001a0: 7182 103d ae31 59bc 5630 92bd 4c9d d3bc
000001b0: 417a b8bc ee18 9e3c d6be 72bd 36e4 3e3d
000001c0: 26d1 f4bd 108f 9ebd 5f3c d8bb 5002 dd3d
000001d0: 48d5 923d fe06 b2bd c133 9d3d 0c0f 6abd
000001e0: 4b6a 9b3d 2b32 273c 6b8e c2bc 81d6 cabd
000001f0: 01d9 cfbd b813 d5bd 5845 6abd 1f8a 8d3d
00000200: 9aaf bdbb f2d5 df3d 9a05 edbd 49a1 ad3d
00000210: 22a8 8a3c 8a73 bb3d 1bb4 d0bd bcf9 9dbd
00000220: d0e4 de3d 67bf 4b3d 993d f3bd bec1 cebd
00000230: 1807 dcbc 2e12 fa3d a1d3 ad3d 88f3 aabd
00000240: b7f3 343c 8ae8 833c bef6 84bd 4187 acbd
00000250: 2160 d13d 86ed 033c 12e8 163d e901 d63d
00000260: a602 163d 98fb 11be 6c3f 86bd 738a 7ebd
00000270: 5abf 98bd e888 823d d5fa 143b 9c95 eb3d
00000280: 9329 0dbd 4d5a 9e3c 3ea9 edbc 7205 9f3d
00000290: f279 763d 5515 a3bc adbc 5ebd c832 40bd
000002a0: ac1f 8cbd bb36 15be e15c 2c3d 558a 5d3d
000002b0: a40a dcbd 1336 033e 13b3 7bbd 6ea1 bfbd
000002c0: 0763 8c3d 19cf 823d da89 8abc d6ab 973c
000002d0: bf85 163d 42cf efbd f182 0b3e 3916 bcbd
000002e0: 4e01 4fbd 9be3 15be 098c d8bc 5557 c43c
000002f0: adc5 f8bd f903 8ebd 467f 353c 769a 87bd
00000300: a84b a03d 0b18 e23d a026 16bb 29ad 53bd
00000310: d6d3 5d3d 6e75 193c 9317 8c3d 59fa b23c
00000320: 52a1 823d 6761 f53d f729 82bd 1a7a 5fbd
00000330: e93e 913b cf5b c5bd 5f2b 943d 398d 8ebd
00000340: 11f3 553d 5086 8cbd 3c5a 8b3d d108 c23c
00000350: 533a e73d 57a1 8bbd c9e4 983c e39a 53bd
00000360: a0c1 973b 74e4 8b3d c860 c4bd b2dc b03d
00000370: 9a18 103d d160 d3bc e112 953d 7184 123c
00000380: 6d6d e0bd b2a5 973d 140d 7d3c 0ec9 44bd
00000390: e058 653d 08f8 25bd 0bd1 363d 255e 21bd
000003a0: b6c6 14be fd2f c53d fbec ce3d 286c f6bd
000003b0: d75b 99bd b4a2 ac3d 482b 5e3d 5bc2 43bd
000003c0: 95ba 583c 4eb1 b43d 751a cd3d 5f44 02be
000003d0: f1b7 73bd 7b59 7bbc d51d c9bd 28cf 53bc
000003e0: 08c0 b4ba f4b6 83bc b514 71bd b0c0 d13b
000003f0: f95e ae3b c9da 0fbd cf43 863d c59a 93bd
0.053080138 0.014135843 0.12570426 0.014108187 -0.08838842 -0.01776473 0.041258834 0.09397001
0.015799994 0.008937644 0.070093945 0.070655316 0.08999772 0.016250843 0.00483804 0.09662096
0.055457924 0.095691875 -0.01084038 0.09926254 -0.042307492 0.09869968 -0.038378783 -0.014800901
-0.03553104 0.04348652 0.04905308 0.035198484 -0.087876946 0.006345411 -0.037782744 -0.034860924
0.054290008 -0.00080464716 0.051106732 -0.078755625 0.012472549 0.06958128 0.059126835 0.10376419
-0.008121384 0.086240076 -0.06952329 -0.009591644 -0.008776731 -0.02744375 0.032830153 0.003571964
-0.10131581 -0.096020274 0.03757449 -0.059210468 -0.10975154 0.1296179 -0.055447277 0.0964033
0.06686005 0.048281837 -0.07514194 -0.018695759 0.08205907 0.021775218 -0.12351246 0.00785334
-0.06493187 -0.06929577 -0.083104976 0.08156585 0.07328284 -0.06759104 -0.035090145 0.07939128
0.00015348714 -0.056928102 0.027782612 -0.108322345 -0.086758524 0.07084749 -0.087703615 0.09997189
-0.03265323 -0.056951754 -0.080927186 0.055258613 -0.11927872 0.04134375 0.027410215 0.03393792
-0.10224572 -0.064694166 0.045207337 -0.07147688 -0.044509955 0.056416254 0.043379586 0.07347486
0.0041173804 -0.04160022 0.12752359 0.0053035063 -0.020921769 0.075377606 -0.08368054 0.08181438
0.03528065 -0.0132564735 -0.071381256 -0.025831841 -0.022519233 0.019298997 -0.059264027 0.046604358
-0.119539544 -0.07742131 -0.0065989937 0.10791457 0.071695864 -0.0869274 0.07675887 -0.057143256
0.07588633 0.010204832 -0.02374955 -0.099041946 -0.10148812 -0.10404152 -0.057195038 0.0691111
-0.0057887556 0.10929479 -0.11573334 0.08478028 0.016925875 0.09152897 -0.101906024 -0.07713649
0.10883486 0.049743082 -0.11876983 -0.10095547 -0.026858851 0.12210499 0.08487631 -0.08347231
0.011044434 0.016102094 -0.06492375 -0.08424235 0.10223413 0.0080522355 0.036842413 0.10449583
0.03662362 -0.14256132 -0.065550655 -0.062143754 -0.074583724 0.06373769 0.0022732515 0.11503145
-0.034463476 0.019330168 -0.029011365 0.077647105 0.06017489 -0.019907633 -0.054379154 -0.04692343
-0.068419784 -0.1457166 0.042080764 0.054087 -0.10744217 0.12813596 -0.061450075 -0.09356962
0.068548255 0.06387157 -0.016911436 0.018514555 0.036748644 -0.11709453 0.13624169 -0.09183926
-0.050538354 -0.14637606 -0.026433961 0.023967424 -0.12147079 -0.069343515 0.011077708 -0.06621258
0.0782693 0.11039742 -0.0022911206 -0.05167881 0.0541571 0.009366376 0.06840434 0.02184789
0.06378426 0.11981469 -0.063556604 -0.054559804 0.0044325483 -0.09636652 0.07234835 -0.0696053
0.05223376 -0.068615556 0.0680432 0.023685845 0.11290421 -0.068178825 0.01866378 -0.051661383
0.004631236 0.06830683 -0.09588772 0.08635844 0.035179712 -0.025803002 0.072789915 0.008942709
-0.10958371 0.07404651 0.015445013 -0.048043303 0.05599296 -0.040519744 0.044632953 -0.039396424
-0.14528927 0.09628294 0.10103794 -0.12032348 -0.0748822 0.08429471 0.054240495 -0.047792774
0.013228078 0.08822881 0.10014812 -0.12721394 -0.059501592 -0.015341158 -0.09820143 -0.012927808
-0.001379014 -0.01607845 -0.05885764 0.006401144 0.00532138 -0.03512076 0.06555902 -0.07207254

SoftmaxPolicy_l3.bias f4 [2]
00000000: 69b6 063d 782d 8cbc
0.032888804 -0.017111525
