pytorch_models/model280183.pth (torch, 72107 bytes, 6 tensors)

SoftmaxPolicy_l1.weight f4 [128, 4]
000000 4f 2e 83 3e ab a6 63 be 03 97 eb bd 71 91 6b 3e
       0.25621268 -0.22231548 -0.115034126 0.230047
000010 56 89 ef be fd c8 a0 3e ae f9 54 bd de 3c 83 3e
       -0.46784467 0.31403342 -0.051995926 0.25632375
000020 66 3b 8d 3d 67 29 61 bd ec 90 53 3e 6d 96 4c 3d
       0.06896095 -0.054971125 0.20660752 0.049948145
000030 ca b5 31 3e bb ff 40 be 43 fa e8 bc 7b 3c 51 bd
       0.17354503 -0.18847553 -0.028439647 -0.05108307
000040 d1 58 93 3d e8 ce e5 ba fc e7 de 3e a2 a8 1d 3e
       0.07194675 -0.0017532976 0.43536365 0.1539636
000050 f7 cd 3a be a2 9d 99 be e1 2c ac bd 0e 0b 59 be
       -0.18242632 -0.30003077 -0.084069975 -0.21195623
000060 c7 bc 25 be 40 06 af 3c ba 94 a0 3e 54 67 8f 3e
       -0.16185294 0.021365285 0.3136347 0.2800852
000070 8c 62 fa be 87 cb a7 3e 48 88 84 3e 7b a3 04 3f
       -0.4890331 0.32772467 0.25885224 0.5181195
000080 33 1f a8 3e fb ee eb be 93 4f fb be fa aa 6f be
       0.32836303 -0.46080765 -0.49084148 -0.23405066
000090 53 c4 d6 3e e9 bf c6 bd 18 0a 60 3e 93 47 69 be
       0.41946658 -0.09704573 0.2187885 -0.2278121
0000a0 70 29 f8 3e 8a 62 70 be bf ba 98 3e be 15 20 bc
       0.48469114 -0.2347509 0.29829976 -0.009770809
0000b0 71 e8 84 be b1 04 84 3e 97 48 82 be 01 f1 1f 3e
       -0.2595859 0.2578483 -0.25446007 0.1561928
0000c0 ce e4 06 be 3a 25 4e bd 43 28 f0 be 06 4f 6a be
       -0.1317322 -0.05032847 -0.46905717 -0.22881708
0000d0 0f 89 89 3e d8 15 ec bd ee a0 00 3f ba 6d cd 3e
       0.2686238 -0.11527604 0.5024556 0.40122777
0000e0 49 b8 f8 bc cb bf 9e be 3b 96 d4 3e af 6c 48 3e
       -0.030361312 -0.310057 0.41520867 0.1957271
0000f0 02 71 a1 be 9d 48 af 3e b9 4c da 3e ae 60 fb 3e
       -0.3153153 0.34235087 0.4263666 0.49097198
000100 be b2 8e be 6b 83 a7 bd 35 14 f3 bc 18 c0 8a 3d
       -0.27870744 -0.08179363 -0.029672721 0.0677492
000110 17 80 c1 be 75 cf b5 be 3f ad 7e 3e 5a 89 fe bd
       -0.37793037 -0.3550984 0.24870776 -0.124285415
000120 6c ba 6b 3e b2 c1 08 3d e6 0d 9c 3e 36 c7 37 3e
       0.23020333 0.033387847 0.30479354 0.17947087
000130 e6 92 29 3e 5d df 81 3e 35 86 a1 be b3 d7 a5 3e
       0.16559944 0.25365725 -0.31547704 0.32391128
000140 8f 0c b1 be 82 38 c0 be c0 a5 ab 3d b9 df 68 bd
       -0.34579894 -0.37543112 0.08381224 -0.056853984
000150 24 f5 94 3e 03 01 91 be 7e b6 b6 be 3a 9d d2 3e
       0.29093277 -0.28321084 -0.35686105 0.4113558
000160 48 2e 92 bd 1d ab 8d 3e bb 36 b5 3d ef ae d7 be
       -0.07137734 0.27669612 0.0884833 -0.4212565
000170 1a c4 c6 3d d9 df e8 3d 2d 7e ae be 03 73 73 be
       0.09705372 0.113708206 -0.3408064 -0.23774342
000180 19 92 34 3e c7 78 8b 3d ff d6 b8 be a4 f7 5c be
       0.17633857 0.06810146 -0.3610153 -0.21578842
000190 1a e9 e4 3e c3 e8 a7 bd 8a 58 cd 3e 58 5f 88 3e
       0.44709092 -0.08198693 0.40106612 0.26635242
0001a0 0d 6a a4 be f7 38 d8 be 3d ce eb 3e c3 16 82 3c
       -0.3211216 -0.4223096 0.46055785 0.015879994
0001b0 08 0e ac 3e 09 84 ec 3d 96 b6 89 3e 44 c4 d2 3e
       0.33604455 0.11548621 0.26897115 0.41165364
0001c0 c9 60 ed 3e 35 9e a5 be b0 01 44 3e 8c 41 e2 3e
       0.46362904 -0.32347265 0.19141269 0.44190633
0001d0 d2 68 b3 3e 45 79 98 3e 87 bb bc be b0 2d b8 be
       0.3504091 0.2978002 -0.36861822 -0.35972357
0001e0 2f 0f 9d be 37 37 6d 3d 9e 59 03 3f cd bc 9f be
       -0.30675647 0.057913985 0.5130862 -0.3119873
0001f0 6a 87 8c 3e 9e 45 90 be 0b ac fd be ef 01 d4 bd
       0.27447063 -0.28178114 -0.4954532 -0.10351931
000200 b4 4b 90 3e 65 b4 ed 3e ab ca 93 be 2a af e2 3d
       0.28182757 0.46426693 -0.2886556 0.11068566
000210 d7 12 d6 3e 73 64 b5 3e 20 fd d1 3e 33 77 c0 3e
       0.4181125 0.354282 0.41013432 0.37590942
000220 04 b8 9a 3e e7 48 e9 3d 43 b3 aa be fb be d1 be
       0.30218518 0.11390858 -0.3333989 -0.4096602
000230 43 2f 71 be 2d b9 63 bd ad a9 3c be e6 66 7c 3e
       -0.23553185 -0.05559652 -0.18424101 0.24648628
000240 2c 3e 1f 3e 1f 3e ea bd 92 c9 57 3e eb 0d 33 3e
       0.1555106 -0.1143763 0.21072987 0.17485778
000250 48 b8 97 3e f1 a2 b8 3e c9 75 77 bd 19 41 05 3f
       0.29632783 0.36061814 -0.060415063 0.52052456
000260 06 27 39 bd 1f b1 02 bd ca fa 1a bf fa e2 bd be
       -0.04520323 -0.031907197 -0.60538924 -0.37087232
000270 ca fe 93 be 63 b6 5a be 7b fc af 3e 3d bb 27 be
       -0.28905326 -0.21358638 0.34372315 -0.1638002
000280 45 9c ba be 68 91 60 3e 31 f6 85 3e 7d 51 b0 3e
       -0.3644735 0.21930468 0.26164392 0.3443717
000290 0a bd 85 be 26 6b d6 3d c3 11 3b be 5c 2f e4 bd
       -0.26120788 0.10469656 -0.18268494 -0.111418456
0002a0 10 a3 c9 be ef dc 6a be ed 29 2e be 03 bb 5b 3e
       -0.3938222 -0.22935842 -0.17008181 0.21458058
0002b0 31 36 a9 3d 41 93 15 3e a6 fe 1f 3f 41 12 03 3f
       0.08262289 0.14606954 0.6249794 0.5119973
0002c0 18 d5 a9 3e a5 0d c2 3c 22 24 62 be 83 7c e5 3e
       0.3317039 0.023688147 -0.22084096 0.44821557
0002d0 af 8a 06 be a5 2b 42 bd 90 5e e1 be 70 07 cb bd
       -0.13138841 -0.047404904 -0.44017458 -0.09913528
0002e0 63 9d aa be 35 23 e8 3e 36 29 f4 be a2 cf d6 be
       -0.33323202 0.4533936 -0.4768769 -0.41955286
0002f0 e8 d8 34 bc c1 79 88 be f5 96 31 3e ad b8 44 be
       -0.011038043 -0.2665539 0.17342742 -0.19211073
000300 d5 95 6e be ad 5e 2c 3d 6b c6 ae 3e 1c b7 c2 be
       -0.23299344 0.042082477 0.34135756 -0.38030326
000310 0a f0 6b 3e ec 60 a2 3e ab 9b f0 3e 5f 3d b9 be
       0.23040786 0.3171457 0.46993765 -0.36179635
000320 fd df 0b 3e 7e eb b9 be 36 bd c8 3e 5d 2c 53 be
       0.13659663 -0.3631248 0.39206856 -0.20622392
000330 18 13 97 3e d1 5b 8b 3c 8f a0 53 bc a6 ba d5 bb
       0.29506755 0.017011555 -0.012916698 -0.0065224944
000340 f6 9c 95 3d 48 ba 72 3e 54 5e 5b 3e 09 b9 64 3e
       0.073053285 0.23703873 0.21422702 0.2233621
000350 2e a3 e5 be 9a c6 be 3e 17 85 08 3f 22 27 ed 3e
       -0.4485106 0.37260896 0.5332808 0.46318918
000360 5b f3 b2 3e 23 30 b8 be 7e c9 1d be 2d 86 e3 3e
       0.3495129 -0.35974225 -0.15408894 0.44438305
000370 ef f9 c6 be 27 c3 e9 3e c8 00 df be 2a 27 c8 be
       -0.3886256 0.45656702 -0.43555284 -0.3909238
000380 c5 c6 74 3e 3e d0 b1 be 79 f7 43 bd 60 84 c9 3e
       0.2390395 -0.3472919 -0.04784343 0.39358807
000390 1d fa cc 3e 2e fd ee 3e 6a fc 49 be d1 69 e2 be
       0.4003457 0.46677536 -0.19725195 -0.44221357
0003a0 04 c9 f7 3e 0c 8f 05 be a4 c3 76 be 7e d3 08 3e
       0.4839555 -0.1304285 -0.24098068 0.13361928
0003b0 bf e0 b3 be 20 43 a4 3e 4f 1b 6d 3e 19 98 e4 be
       -0.35132405 0.32082462 0.23154949 -0.4464729
0003c0 c7 3c d3 be d4 00 44 bd d4 e1 45 3e b3 3e 5a bc
       -0.41257307 -0.047852352 0.19324428 -0.013320613
0003d0 fa 2e 80 be 86 8d a4 3c e2 d1 f2 be 91 93 b9 be
       -0.2503584 0.020087015 -0.47425753 -0.36245397
0003e0 2c 47 a9 be de 84 d4 3e 88 bd d0 3e cd 50 49 be
       -0.33062112 0.4150762 0.407696 -0.1965973
0003f0 14 13 e8 3c 1f 31 57 3e 78 e7 1f 3c e9 82 89 be
       0.02832941 0.21014832 0.009759776 -0.2685769

SoftmaxPolicy_l1.bias f4 [128]
000000 5d e8 c1 be 7e aa b5 3e d6 bb a9 3e 67 f2 ff be
       -0.37872592 0.35481638 0.3315112 -0.49989626
000010 4c d1 c9 be b9 52 ad be 32 20 85 be c5 47 f3 3d
       -0.39417493 -0.33852175 -0.26001126 0.11878923
000020 7f 2f f8 be 26 92 c8 be 45 c0 6c 3e 37 da 2e be
       -0.48473737 -0.39174002 0.2312022 -0.1707543
000030 a5 f7 5b be e2 9d d4 be ae fb 43 3e d6 02 e7 3d
       -0.21481188 -0.41526705 0.19138977 0.11279838
000040 d8 cf 51 be f8 59 9f be 3c ed ee 3d 31 3e 1a 3e
       -0.20489442 -0.31123328 0.116663426 0.15062787
000050 fe 1b 44 3e 99 0b 29 3e 7c 12 4d bd ac b8 c8 be
       0.19151303 0.1650833 -0.050066456 -0.39203393
000060 ee 38 b3 3e d8 17 09 3d 6e 63 b0 be fc 46 f0 3e
       0.3500437 0.033470005 -0.3445086 0.46929157
000070 ee 89 92 3e 72 16 d0 be 74 54 7d be 57 7b 23 be
       0.28620857 -0.40642124 -0.24739248 -0.15965019
000080 6b 06 95 be 44 6a 70 3e 06 db c1 be e3 7b e7 3e
       -0.2910646 0.23478037 -0.37862414 0.45211706
000090 2c c8 4a be 28 54 9b 3e 0f 20 c4 3d 1f 16 6b be
       -0.19802922 0.30337644 0.09576427 -0.22957657
0000a0 2a 87 b0 3e cf 20 c2 be 53 c7 87 be 8c e9 de 3d
       0.34478122 -0.37915656 -0.2651926 0.10884389
0000b0 bc 47 c7 3e 58 fa 53 be 08 55 91 be a0 1a a5 be
       0.38921916 -0.20700967 -0.28385186 -0.32246876
0000c0 01 53 4c be c3 da 22 be 2c 23 f4 bd 79 e7 95 be
       -0.19953538 -0.15903763 -0.11920771 -0.29278162
0000d0 12 7d 2d 3e a6 73 ab 3d f8 c7 ae be db 23 82 be
       0.16942242 0.083716676 -0.3413694 -0.2541798
0000e0 97 31 cd 3d e9 27 d5 3c 79 f8 c7 3e e8 cc 72 bd
       0.10019224 0.026020007 0.39056757 -0.059277445
0000f0 eb 2b cf be ee ad ba be 96 a8 06 be db fa d8 bd
       -0.40463194 -0.36460823 -0.13150248 -0.10594722
000100 e2 74 b0 3d 73 20 05 be cf ba 58 3e af 91 23 be
       0.086160436 -0.1300066 0.21165012 -0.15973543
000110 65 ae c8 3e f7 05 cc 3d f7 3b 25 be a9 20 f3 3e
       0.39195552 0.09962075 -0.16136156 0.47485855
000120 24 e8 26 3e 10 2f b8 be dc 8c 87 be 9d c9 ab 3e
       0.16299492 -0.35973406 -0.26474655 0.33552256
000130 df 8c 61 3e d3 9e c2 3e db 5d 93 3c cc ef b1 3e
       0.22026394 0.38011798 0.01798909 0.34753263
000140 92 f5 8b 3e ef 32 11 3e 0b be 18 be 07 dc 02 3f
       0.27335793 0.14179586 -0.14916246 0.51116985
000150 20 aa c5 3d 46 f8 1d be a9 5e 88 3d 01 6b ff 3e
       0.096515894 -0.1542674 0.0665868 0.49886325
000160 47 92 a3 3e e5 82 70 bd 62 27 05 3f ab c2 80 3e
       0.31947538 -0.05871858 0.5201322 0.2514852
000170 a9 41 84 be 72 4c eb be a5 f7 9f 3e ac 32 00 3f
       -0.25831345 -0.4595676 0.31243625 0.5007732
000180 0f 1f 9b be f0 94 49 3e d2 49 2f 3d ca aa 02 be
       -0.30297133 0.19685721 0.04279501 -0.12760463
000190 6a de df bd f2 4e 2a 3e 7c 47 d1 3d d3 57 ab 3e
       -0.10931094 0.16631678 0.10218713 0.33465442
0001a0 af 44 3d 3e bf c8 84 3e d3 0e f2 3e cd 95 34 3e
       0.18483232 0.25934407 0.47276935 0.1763527
0001b0 dd 6a ec 3d 52 ef 0c be 76 c3 c2 3e 65 6d bf 3d
       0.1154382 -0.13763168 0.3803975 0.09347037
0001c0 9b 4b a7 3e e8 49 f6 3e 6e eb 07 be ce 0a aa 3e
       0.3267487 0.4810326 -0.13273403 0.33211368
0001d0 00 ca 80 bd 80 ff f4 3e 08 ac c8 3e 11 bf 1f be
       -0.062885284 0.4785118 0.3919375 -0.1560023
0001e0 c8 d2 35 3c df 58 5a be 21 87 57 be be c9 b2 bd
       0.011097617 -0.21322964 -0.21047641 -0.087298855
0001f0 cf 09 10 bb f0 51 1e be db 00 f1 be 7b cf a0 be
       -0.0021978503 -0.15460944 -0.47070965 -0.31408295

SoftmaxPolicy_l2.weight f4 [128, 128]
000000 f3 7d a2 3a f0 e4 28 bd 4d 1d 96 3d 37 5c 92 3d
       0.0012397155 -0.041233957 0.073298074 0.07146495
000010 71 00 68 3d e6 34 2a 3d a5 a3 93 bd fe 49 52 3d
       0.056641046 0.041554354 -0.07208947 0.051340096
000020 48 bb 73 bd 63 b6 5d bc 95 b7 17 bd 95 ba df 3c
       -0.059504777 -0.013532254 -0.03704031 0.027310649
000030 34 64 86 bd 9c 23 25 bd 77 ee 74 bd d4 d3 ce bd
       -0.06562081 -0.040317163 -0.05979773 -0.10098997
000040 59 ea 3d bd cc 54 a8 3d 55 c6 cd bb 44 8e 03 3d
       -0.04636607 0.08219299 -0.0062797465 0.032118097
000050 2e 1e b0 bd 17 e7 c8 3d af 31 59 bc 18 1d 9e bd
       -0.08599506 0.09809702 -0.013256474 -0.07720393
000060 ad 97 b4 3d 67 1a 62 bc 90 4d 96 3d ef d3 63 bd
       0.08817992 -0.01380024 0.073390126 -0.055622038
000070 07 8f 8b bd f6 8b 5e bd 36 70 0e 3d 6d 10 bd 3c
       -0.0681439 -0.054332696 0.03477498 0.023079121
000080 70 d1 9c bd 25 64 5c 3c df 37 27 3c 34 7a 0c 3d
       -0.076571345 0.013451611 0.010206192 0.03429623
000090 a5 1b 2c bd 05 8c 80 bd a5 a6 e9 3d 10 b3 41 bd
       -0.04201855 -0.062767066 0.11408738 -0.047289908
0000a0 1d dc 33 3d f8 4e 94 3d 9b 7e 8b bd 00 a8 a0 bd
       0.04391109 0.072416246 -0.068112575 -0.078445435
0000b0 fd 4f c5 3c 3b e1 9a bd b9 78 0d 3d 06 0f 04 bd
       0.024085993 -0.075624906 0.03453896 -0.03224089
0000c0 09 72 14 bd ec 33 86 bd 35 c4 40 3d cd 6e 39 bd
       -0.036241565 -0.06552872 0.047062118 -0.045271683
0000d0 0d 0e b1 bd 0c 33 85 bd 19 78 24 bd 1e d9 a2 bd
       -0.08645258 -0.06503877 -0.040153597 -0.07951568
0000e0 dd 20 3c 3d 60 a1 b5 bc c1 4d b3 3d 59 1e 7b 3d
       0.04592978 -0.022171676 0.08755065 0.06130824
0000f0 56 24 65 bd a9 5d 38 bd cb 0a 30 bd 10 b9 6c 3d
       -0.055942856 -0.045011196 -0.042979043 0.057793677
000100 99 ab b7 3b 7b 4f d0 bc f0 46 bb 3d 74 2b d8 3d
       0.005605173 -0.025428524 0.0914439 0.10555163
000110 cb 57 a4 3d 43 ce 85 bd cf ff 0d bd ac 8a 4d bc
       0.08024558 -0.06533482 -0.034667786 -0.012545269
000120 b2 a7 c6 3d 80 e7 17 bd 0b db 33 bd 0f 09 8a 3c
       0.09699954 -0.03708601 -0.043910068 0.016850023
000130 cd e6 9c bc 61 64 2e 3d 81 cc 88 3c 09 87 99 bd
       -0.019153023 0.042576198 0.016699078 -0.07496459
000140 0d ff af 3d 80 59 a9 3d 04 d1 e9 3b ac 70 56 bd
       0.08593569 0.08269024 0.0071355123 -0.052353546
000150 43 52 15 3d 0b 2e 60 3d b6 43 7f 3d 24 c4 1a bd
       0.036455404 0.05473141 0.062320434 -0.03778471
000160 35 8b a2 bb 5f cc cf bc 69 69 b7 3d a0 a9 00 3e
       -0.0049604424 -0.025366006 0.08955652 0.12564707
000170 96 94 57 3b 11 bd 5a bd 75 d3 25 3d f1 2d 53 3d
       0.003289496 -0.053402964 0.040484864 0.051557485
000180 0a ce 18 3d d8 0a 9d bd 7d 7a 82 3c 29 9e 0a bd
       0.03730587 -0.07668084 0.015927548 -0.03384224
000190 20 69 94 bd d5 b7 13 bd a1 f9 63 3d 05 c3 2f 3d
       -0.072466135 -0.036063988 0.055657987 0.042910594
0001a0 ce 7e 9d bd 9e 7a 83 3c a3 32 b3 3d d8 0c db 3d
       -0.07690202 0.01604968 0.087498926 0.10695809
0001b0 60 50 8e 3d 6f ab c8 bc b2 5a 50 3d b8 32 57 3d
       0.06948924 -0.024495808 0.050867744 0.052538604
0001c0 dd 7d 2f 3d f8 bc 6e bd 0c bb 05 bd 1e 51 9f 3d
       0.042844642 -0.058285683 -0.032649085 0.07779144
0001d0 0d c9 a0 3d c9 f3 a3 3d c4 61 2f bd 71 05 8e bc
       0.078508474 0.08005483 -0.042817846 -0.017336579
0001e0 0f dc 5f bd 56 a4 f7 bc 23 57 94 3d 65 64 82 bd
       -0.054653224 -0.030229729 0.072431825 -0.06366805
0001f0 35 c5 da 3b f8 2e b2 3c 95 19 43 bd aa 95 23 3d
       0.006676341 0.021750912 -0.04763182 0.039937653
000200 fa 5f 8f bc 09 e4 8f 3d 60 6c 2e bd b6 1e 50 3c
       -0.01750182 0.07025916 -0.042583823 0.012702635
000210 af 38 a0 bd cb ec 46 3d 4c 5d ad 3d 7a 20 c6 3c
       -0.078233115 0.048565667 0.084650606 0.024185408
000220 df 99 2b 3b d2 c2 3b bd 70 77 22 bd 5c 21 2f bd
       0.0026184244 -0.045840092 -0.039664686 -0.042756423
000230 03 7f 48 bd 00 4f d4 3c ae a2 4a 3c 0f d3 a6 3d
       -0.048949253 0.025916576 0.012367887 0.08145725
000240 b8 04 91 bd 8b da 6d bd ef 7b 15 bd db 84 08 bd
       -0.07080978 -0.058069747 -0.036495145 -0.033329826
000250 f0 b3 a0 3d 4d 1f 33 3d 9d de 9c bd c1 19 85 bb
       0.0784682 0.043731023 -0.076596476 -0.004061908
000260 9e 8e d8 3b ff 28 9a 3d 30 41 a7 3d c8 4e 74 3d
       0.006608798 0.07527351 0.081667304 0.059645444
000270 32 c1 ae 3d 37 e0 ec bc 8f 5f d4 ba e8 82 a4 bd
       0.08532943 -0.028915508 -0.0016202795 -0.08032781
000280 0e 74 d5 3c 08 eb f9 3d 7e cd 51 3d e1 5e d9 3d
       0.026056316 0.12203032 0.051221363 0.106138
000290 da f6 0a bd 9b ef f2 3c f9 58 53 bd be ba 8c 3d
       -0.033926822 0.029655268 -0.051598523 0.06871556
0002a0 d8 2a 1a bd 2e 56 27 bd 1a de 55 3c 92 c6 89 3c
       -0.037638515 -0.04085367 0.013053441 0.016818319
0002b0 38 55 7a 3d 00 80 5d bc 68 55 9b bc 0f 3a 31 3d
       0.061116427 -0.013519287 -0.018961623 0.04326826
0002c0 74 66 79 3d 4e ba cd 3d bb d5 07 3d f4 6f 12 bb
       0.060888723 0.100453004 0.033162814 -0.0022344561
0002d0 26 4b fa 3d 0f a9 06 3e cc d8 22 bd fb 2d 2a 3d
       0.12221365 0.13150428 -0.039757535 0.041547757
0002e0 1e 1d db 3c 20 08 20 bd 78 a9 bf bb ac b6 6a bc
       0.026747283 -0.03907025 -0.0058490597 -0.014325779
0002f0 f3 5d 89 bd 80 b7 05 bd 41 e6 5d 3d c1 49 9b 3d
       -0.067073725 -0.032645702 0.054174665 0.07582427
000300 0e 18 42 3c 97 1f 9a bd 5a 51 5c 3c 7f 99 da bc
       0.011846555 -0.075255565 0.01344713 -0.02668452
000310 83 40 a8 3d 12 54 af bd be 12 47 bc e3 26 b0 3d
       0.0821543 -0.08560957 -0.012150465 0.08601167
000320 2b db 71 3c c1 f2 22 bd 4f 6f a9 bd bd 82 83 39
       0.014761726 -0.03978229 -0.082731836 0.00025083675
000330 2e 37 62 3d 36 d6 6c bd 5a ed ab bd 91 61 63 3d
       0.055228405 -0.057821475 -0.083948806 0.05551297
000340 df 52 fb bc 73 7f 77 3d 7d df 9e bd 11 5a 37 bc
       -0.030679164 0.06042428 -0.07757471 -0.011190907
000350 6f ca 64 bd 37 38 5b bb d8 e1 ae bd 0d 75 3e 3d
       -0.05585712 -0.0033450255 -0.0853917 0.046498347
000360 75 58 23 bd 65 83 81 bd b8 7b 2e bd ec ef e6 bd
       -0.03987928 -0.0632389 -0.042598456 -0.1127623
000370 70 51 3d 3d 34 9f a1 bc c6 d3 b3 bb 6e e7 93 3d
       0.046220243 -0.019729234 -0.005487892 0.07221876
000380 62 0b 4b bc a3 4f a3 3d 9a a1 b3 3b 2e 1f 73 bd
       -0.012392851 0.07974174 0.005481911 -0.059355907
000390 9c 23 ca 3c 7c e6 da 3c 01 25 7e bd a9 da e6 3c
       0.024675183 0.026721232 -0.06204701 0.028180437
0003a0 a3 26 97 3c 28 b1 9c 3d e1 11 e7 bb c9 7a 85 bd
       0.01845104 0.076509774 -0.007051692 -0.0651756
0003b0 d9 8e af bd c5 ea 0e 3d d5 03 bb bc 4a 8b ac bc
       -0.08572168 0.034891862 -0.022828976 -0.021062512
0003c0 46 88 14 bc a6 28 bf bc 69 b3 c1 3c fb 3d a7 3d
       -0.009065693 -0.023334812 0.02364512 0.08166119
0003d0 e6 59 98 3d 48 91 80 bd 04 aa bb 3d 8a 01 7c 3d
       0.07439022 -0.0627771 0.09163287 0.061524905
0003e0 a4 ad 6d 3c 4f 93 25 3d 76 c4 6f 3d 1d 52 9d 3d
       0.014506731 0.040423688 0.05853697 0.076816775
0003f0 fb 51 48 3d a9 38 f7 3c 84 43 15 bd 71 55 72 bd
       0.048906308 0.030178385 -0.03644134 -0.059163515

SoftmaxPolicy_l2.bias f4 [128]
000000 51 3b 5b 3d 5b f3 10 bd 96 4f 3f 3b b5 f9 80 bd
       0.053523365 -0.03538833 0.0029191724 -0.06297628
000010 aa 27 47 bd e8 08 63 3d a1 21 9c 3c ec 0f e4 3c
       -0.04862181 0.055428416 0.019059004 0.027839623
000020 b2 20 4d 3d 47 d0 db 3c ef 0c fa 3b 51 9a 30 bc
       0.05008001 0.026832713 0.0076309363 -0.010778979
000030 00 1b 91 3a 7c 47 a8 3d cd 31 10 3d cd ff 2c 3c
       0.0011070669 0.082167596 0.035203744 0.0105590345
000040 3b b9 13 3d 73 9a 23 bd fa b4 8d bd d1 9a 97 bc
       0.03606532 -0.039942216 -0.06919284 -0.01850644
000050 59 ea c2 3d ad 1e b1 3c f3 88 85 bd ce 9e 71 3d
       0.095173545 0.021621073 -0.065202616 0.05898934
000060 04 cc a5 3d 31 63 8c 3d 9a 5b 3a 3c 74 1d bb bc
       0.080955535 0.06854857 0.011374379 -0.022841193
000070 f8 cf 0e 3c d2 2a f3 3c f3 cb 02 bd fa 83 31 bd
       0.008716576 0.029683504 -0.031932782 -0.043338753
000080 c2 f6 a0 3c b4 a4 36 3d 3b 20 da bc f5 db 0e bc
       0.019648913 0.044590667 -0.026626697 -0.008719434
000090 7b 48 85 bd ac 33 30 ba 52 02 9d bc f2 93 ba 3d
       -0.06507965 -0.0006721567 -0.019166145 0.091102496
0000a0 81 29 7c 3d 46 a0 f1 bc cc 45 8c bd 3a dc 94 bd
       0.06156302 -0.02949537 -0.0684925 -0.072685674
0000b0 6e 34 50 bd e6 55 b6 3d 4e ed d1 bc e5 59 86 3d
       -0.05083125 0.089031026 -0.025625851 0.06560115
0000c0 74 42 8b 3d 6f 00 1d bc 13 d8 1f 3d 33 24 ef 3c
       0.06799784 -0.009582623 0.039024424 0.029192066
0000d0 75 45 a8 3d 00 37 2e 3d 2d 52 51 3d f4 91 b7 3d
       0.08216373 0.04253292 0.05110376 0.08963385
0000e0 a0 94 29 3c 16 96 aa 3d f6 d9 1d bb a4 42 88 bd
       0.010350376 0.08329408 -0.0024086214 -0.06653336
0000f0 a0 18 af 3d af b5 87 bd b2 f7 d2 3a c5 d3 ac 3d
       0.08549619 -0.0662645 0.0016095547 0.08438829
000100 38 cf c3 bc 38 b4 7a bd 09 8f 87 3d 43 7b 0a 3d
       -0.02390252 -0.061207026 0.06619079 0.033808958
000110 78 d3 68 3d ba e9 41 3d f4 49 bd bd b3 e8 92 3d
       0.056842297 0.04734204 -0.09242621 0.0717329
000120 b6 f4 95 bd e3 ae 3c 3c ed d5 4e bd 37 81 86 3d
       -0.073220655 0.011516306 -0.050496984 0.065676145
000130 8a 01 bd 3d 63 64 57 3c 34 82 b9 bc 28 eb 9b 3d
       0.09228809 0.013146493 -0.022645094 0.07613212
000140 51 02 8f 3d ea f3 85 bc cf d9 90 3d 54 83 f5 3b
       0.06982864 -0.016351659 0.07072794 0.007492462
000150 71 27 26 bd 81 23 ab 3d 7a c2 52 bd 31 12 84 bd
       -0.040564958 0.08356381 -0.051455 -0.06448782
000160 7e bb 54 3d 6a f3 08 3d a8 5e 90 3d 26 95 12 bd
       0.05193662 0.033435263 0.07049304 -0.03578677
000170 29 37 ab 3c bf 69 3d 3d 44 ac 95 3c bc d2 93 bd
       0.020900326 0.046243425 0.01827062 -0.07217929
000180 48 1b 69 3d 03 33 c0 3c de 51 a6 bc 76 05 b6 bc
       0.056910783 0.023461824 -0.02030271 -0.0222194
000190 30 f1 bb bd 47 0d c1 3d ff c7 55 3c 6f af c7 bc
       -0.09176862 0.094263606 0.013048171 -0.024375645
0001a0 57 84 c8 3d 2c 0e 82 bd 17 87 cc 3c 8a ab 62 bc
       0.09790867 -0.06350359 0.02496676 -0.013834843
0001b0 7b 88 dd bc d0 a0 fd 3a 30 ee 40 bc 02 cf 9a 3d
       -0.027042618 0.0019350294 -0.011775538 0.07559015
0001c0 12 c4 83 3d df 8c fe 3c 84 d9 86 bb 2c 91 72 bc
       0.06433882 0.031073032 -0.0041152854 -0.0148051195
0001d0 11 de 01 bc 05 88 c6 ba 0c e9 02 3d c9 d9 8f 3d
       -0.00792648 -0.0015146738 0.031960532 0.07023961
0001e0 3f f0 80 bd a0 44 b6 bd bb 7e 6a bc d9 dc 92 3d
       -0.06295823 -0.08899808 -0.014312441 0.071710296
0001f0 51 e9 2e 3d f6 2d 0f bd 60 d5 67 3d e4 af 1e 3d
       0.042702977 -0.03495594 0.056599975 0.03874196

SoftmaxPolicy_l3.weight f4 [2, 128]
000000 fa 5d 55 3d 7c 12 60 3c e6 0e ff 3d 9f f3 61 3c
       0.052091576 0.013676282 0.124540135 0.013790994
000010 52 39 b6 bd b6 0f 96 bc 39 89 25 3d d7 ab bf 3d
       -0.08897652 -0.018318038 0.04041407 0.09358948
000020 3a a7 7c 3c 3a 65 fc 3b a1 5f 8d 3d b9 31 8e 3d
       0.015420729 0.007702497 0.069030054 0.069430776
000030 ba 50 b8 3d e0 ff 7b 3c 67 08 72 3b b4 c0 c3 3d
       0.08999772 0.01538083 0.0036931278 0.095582396
000040 89 86 63 3d 44 87 c1 3d 72 9c 31 bc 4d 41 c9 3d
       0.055548225 0.09449628 -0.010840522 0.09826908
000050 69 5c 2e bd c1 c6 c8 3d 12 33 1d bd ac f5 75 bc
       -0.042568598 0.09803534 -0.038378783 -0.015012186
000060 ff 88 11 bd af 2a 2e 3d 00 a3 46 3d 7f f8 0b 3d
       -0.03553104 0.042521175 0.048495293 0.03417253
000070 d4 f8 b3 bd e6 92 c3 3b 68 0e 1e bd d7 b6 11 bd
       -0.087876946 0.0059684394 -0.038587958 -0.03557476
000080 83 a8 5a 3d b5 36 54 ba 4a bf 4d 3d a1 4a a1 bd
       0.05338336 -0.000809531 0.050231256 -0.078755625
000090 aa 59 4c 3c 17 0d 8f 3d 1d a6 6d 3d d3 76 d2 3d
       0.012472549 0.069849186 0.058019746 0.1027657
0000a0 ef 74 18 bc 70 a9 ae 3d 3a 62 8e bd f8 2a 1d bc
       -0.009305223 0.085284114 -0.06952329 -0.009592764
0000b0 6e 97 1e bc 70 30 e6 bc 90 6c 06 3d cd 1b 1b 3b
       -0.009679658 -0.028099269 0.032818377 0.0023667694
0000c0 16 18 d0 bd b1 e7 c5 bd 72 2c 1b 3d 3a 92 74 bd
       -0.10160844 -0.09663332 0.037884183 -0.059709765
0000d0 16 ce e1 bd e5 c7 03 3e f4 6d 66 bd dc e7 c2 3d
       -0.11025636 0.12869222 -0.056257203 0.0951688
0000e0 06 53 86 3d 39 26 41 3d 04 e4 99 bd fe d9 a5 bc
       0.06558804 0.047155593 -0.07514194 -0.020245548
0000f0 46 30 a6 3d f1 61 b2 3c f9 54 fe bd 0f f0 fa 3b
       0.08114676 0.021775218 -0.12418551 0.0076580117
000100 76 0a 87 bd 3e 67 8e bd f1 32 aa bd 11 56 a5 3d
       -0.06593792 -0.06953286 -0.083104976 0.080730565
000110 d8 02 96 3d af 83 8c bd d4 20 0e bd 63 96 a0 3d
       0.07324761 -0.06861054 -0.034699276 0.07841184
000120 bb 44 8e ba de 25 6d bd 6b cb da 3c a7 34 df bd
       -0.0010854224 -0.05789744 0.026708325 -0.108987145
000130 65 07 b3 bd ba 0e 91 3d 19 dd b4 bd 45 8a ca 3d
       -0.08741645 0.07082887 -0.088312335 0.09889654
000140 79 c3 05 bd 61 56 68 bd b2 95 a7 bd 0e 2e 63 3d
       -0.03265712 -0.056723002 -0.08182849 0.055463843
000150 df 9b f5 bd 1b 8d 26 3d df ff de 3c 3d 7c 0b 3d
       -0.11992621 0.040661912 0.027221618 0.03405403
000160 48 8a d2 bd 60 7e 84 bd a9 c3 33 3d 1a 8a 93 bd
       -0.10280281 -0.064694166 0.043887768 -0.07204075
000170 3a ec 39 bd f1 ae 64 3d cb ae 31 3d b8 b1 94 3d
       -0.0453913 0.0558309 0.043379586 0.0726046
000180 69 d5 52 3b ac 9f 2a bd 81 83 01 3e 80 14 83 3b
       0.003217066 -0.04165618 0.12647821 0.0040002465
000190 6b 8c ad bc 1c 5d 98 3d 2a 94 ae bd 8d 48 a6 3d
       -0.02118512 0.07439634 -0.08524354 0.08119307
0001a0 f5 bb 0c 3d cc 2e 72 bc 81 2a 93 bd 7e c1 d9 bc
       0.034358937 -0.014781665 -0.07185841 -0.026581522
0001b0 d5 1b c2 bc ee 18 9e 3c 26 3e 75 bd 05 45 3b 3d
       -0.023694912 0.019298997 -0.059873722 0.04572012
0001c0 7f a6 f5 bd 85 c4 9f bd 66 5f e1 bb 7c 90 da 3d
       -0.11994647 -0.07801155 -0.0068778275 0.106720895
0001d0 61 51 90 3d 31 d1 b2 bd 42 1c 9b 3d 0c 0f 6a bd
       0.07046772 -0.08731306 0.07573749 -0.057143256
0001e0 e7 68 99 3d 2b 32 27 3c 9d 33 c2 bc 9b e6 cb bd
       0.07490712 0.010204832 -0.023706252 -0.09956094
0001f0 12 48 d1 bd 30 bb d5 bd 5f e2 6b bd 02 8a 8d 3d
       -0.102188244 -0.10436094 -0.05758893 0.069110885
000200 0a 4b 9d bb e5 c6 e0 3d 48 a3 ea bd 99 47 ae 3d
       -0.004800205 0.10975436 -0.11456925 0.0850975
000210 70 79 8f 3c a7 95 bc 3d 37 f9 ce bd 39 32 9d bd
       0.01751396 0.092082314 -0.10106128 -0.07675595
000220 a6 ab df 3d 8f ce 50 3d d0 0f f1 bd bb 3f cc bd
       0.10921411 0.05097824 -0.11770594 -0.09973093
000230 18 07 dc bc 55 da fb 3d e5 2b b0 3d 06 d3 a8 bd
       -0.026858851 0.12297503 0.08602122 -0.082433745
000240 eb 78 33 3c ef b3 8d 3c ad f6 84 bd 65 7e aa bd
       0.010954122 0.017297713 -0.06492362 -0.08324889
000250 07 e9 d1 3d cd cf 0e 3c 12 e8 16 3d a3 70 d6 3d
       0.102495246 0.008716536 0.036842413 0.104707025
000260 a6 02 16 3d 87 fe 10 be fb 1a 85 bd aa 56 7a bd
       0.03662362 -0.14159594 -0.06499287 -0.061117806
000270 5a bf 98 bd 92 4e 83 3d 12 c0 49 3b dc 0b ed 3d
       -0.074583724 0.064114705 0.003078465 0.115745276
000280 e3 72 09 bd 8a 64 9e 3c 40 7d e6 bc 72 05 9f 3d
       -0.03355683 0.01933505 -0.028135896 0.077647105
000290 f2 79 76 3d 20 47 a5 bc ce 33 5a bd d2 1b 3c bd
       0.06017489 -0.020175517 -0.05327206 -0.04592497
0002a0 f6 b2 89 bd 21 3c 14 be e1 5c 2c 3d 81 8b 5d 3d
       -0.06723587 -0.14476062 0.042080764 0.05408812
0002b0 4c 31 da bd e4 e1 03 3e ba a6 7b bd 90 29 bd bd
       -0.10653934 0.12879139 -0.0614383 -0.09236443
0002c0 73 fc 8c 3d 83 10 84 3d 62 13 8d bc ef c2 9b 3c
       0.06884088 0.06448462 -0.017221157 0.01901385
0002d0 14 97 18 3d f0 e9 ed bd 42 57 0c 3e fd 8e b9 bd
       0.037253454 -0.11616886 0.13705161 -0.09060476
0002e0 78 cb 49 bd 5a bc 14 be 09 8c d8 bc 79 09 d1 3c
       -0.04926631 -0.14524975 -0.026433961 0.025517212
0002f0 5d e7 f6 bd f9 03 8e bd 6f 86 40 3c 12 34 87 bd
       -0.12055848 -0.069343515 0.0117508015 -0.066017285
000300 1e 5b a2 3d 59 94 e2 3d a0 26 16 bb 59 41 50 bd
       0.079275355 0.11063451 -0.0022911206 -0.05084357
000310 d1 f8 5d 3d 43 29 2a 3c 9e 4a 8b 3d 4d 00 bb 3c
       0.054192368 0.010385814 0.068013415 0.022827292
000320 dd 2a 85 3d 9d 5d f7 3d 78 ed 7f bd f5 c0 5c bd
       0.06502316 0.12078402 -0.062482327 -0.053894956
000330 a1 cd a6 3b 0c 52 c5 bd 84 6a 95 3d 6e 59 8c bd
       0.005090431 -0.0963479 0.07295707 -0.06852995
000340 25 f7 55 3d 40 fe 8c bd c7 32 8d 3d 77 5a c0 3c
       0.05223765 -0.06884432 0.06894451 0.023480637
000350 cb 8d e8 3d d9 3b 8a bd 4d 70 9a 3c a3 14 54 bd
       0.1135517 -0.06749696 0.018852377 -0.051777493
000360 06 03 aa 3b 74 e4 8b 3d ec ac c1 bd 54 04 b2 3d
       0.0051883487 0.06830683 -0.0945681 0.08692232
000370 c2 b4 13 3d 34 95 ce bc e1 12 95 3d 75 c6 20 3c
       0.036061056 -0.02521763 0.072789915 0.009812941
000380 68 95 de bd 11 c3 97 3d 0d 17 87 3c 7e 72 3f bd
       -0.10868341 0.07410253 0.016490484 -0.046740048
000390 08 6d 66 3d 08 f3 21 bd f2 37 3d 3d ad d2 1e bd
       0.056256324 -0.039538413 0.04619593 -0.038775135
0003a0 12 d5 13 be 9d 4f c8 3d 26 e7 cf 3d 1d e3 f4 bd
       -0.14436749 0.0978081 0.1015151 -0.11957381
0003b0 76 f3 96 bd b4 a2 ac 3d 97 aa 60 3d 2a 23 40 bd
       -0.07370655 0.08429471 0.054850187 -0.046908535
0003c0 85 65 5f 3c c3 e6 b5 3d ab ac cd 3d 78 0b 01 be
       0.013635044 0.08881905 0.100426994 -0.12602031
0003d0 1b b0 6e bd 2a 08 75 bc 56 06 c7 bd 28 cf 53 bc
       -0.058273416 -0.01495556 -0.09718005 -0.012927808
0003e0 83 98 d1 b9 f4 b6 83 bc 21 42 71 bd f4 c1 e2 3b
       -0.00039977217 -0.01607845 -0.058900956 0.0069200937
0003f0 a0 4f c5 3b d1 8b 0e bd 4a 12 87 3d a8 9a 93 bd
       0.006021455 -0.034801308 0.06595285 -0.07207233

SoftmaxPolicy_l3.bias f4 [2]
000000 52 15 03 3d 4e eb 84 bc
       0.032002755 -0.016225483
