pytorch_models/model280429.pth (torch, 72107 bytes, 6 tensors)

SoftmaxPolicy_l1.weight f4 [128, 4]
0.25600764 -0.22647081 -0.112694815 0.23116566 -0.46921542 0.31159443 -0.051288407 0.25783166
0.068260185 -0.055691235 0.20558034 0.05158172 0.17670734 -0.19242322 -0.030468766 -0.047532134
0.07194675 -0.0017532976 0.43536365 0.1539636 -0.18236813 -0.29969284 -0.083104484 -0.21254271
-0.16218892 0.020652039 0.31230316 0.28144112 -0.48860538 0.32677695 0.25924197 0.51899934
0.3310659 -0.46471927 -0.49100864 -0.23017664 0.42006025 -0.0962154 0.21895877 -0.22968498
0.48516664 -0.23367463 0.29903826 -0.011105784 -0.25930285 0.25802645 -0.25439954 0.1563165
-0.13053733 -0.04982828 -0.46917787 -0.22865334 0.2685491 -0.113043286 0.49899876 0.40001997
-0.02998143 -0.30984855 0.41448924 0.19727938 -0.31700462 0.34020388 0.4272553 0.49123743
-0.27840653 -0.08130017 -0.02945958 0.06687214 -0.3777739 -0.3549718 0.2489318 -0.12435049
0.22929488 0.032161567 0.3048117 0.18087097 0.16496196 0.25232568 -0.31582412 0.325469
-0.34514704 -0.3757013 0.08431794 -0.056624003 0.2900475 -0.28372777 -0.3560014 0.41237447
-0.06988825 0.27843878 0.08750526 -0.42202798 0.09712626 0.11335346 -0.3413508 -0.23716694
0.17707548 0.06921033 -0.36085194 -0.21669683 0.44621095 -0.08321834 0.40041724 0.2676313
-0.32071158 -0.42217013 0.4608336 0.0155957565 0.3355359 0.1143604 0.26873726 0.41320774
0.46307278 -0.32426348 0.19082221 0.44340396 0.3511955 0.2984837 -0.3685622 -0.35957298
-0.30689204 0.057118677 0.5118046 -0.30981147 0.2734395 -0.28437796 -0.4920409 -0.103334166
0.28120863 0.46282583 -0.28871283 0.111744955 0.4173133 0.35323128 0.41019854 0.37706357
0.3022886 0.114405796 -0.33226573 -0.41075882 -0.2362396 -0.05643596 -0.18404593 0.24809867
0.15578477 -0.11215031 0.20845224 0.17421521 0.29583335 0.35943896 -0.060419906 0.5219408
-0.04293696 -0.029544678 -0.60624075 -0.37186685 -0.28883797 -0.21351463 0.34401575 -0.16385543
-0.3667568 0.2168662 0.26254237 0.3449505 -0.26049268 0.10622158 -0.18088906 -0.112844825
-0.39318246 -0.22892785 -0.16950399 0.21478164 0.0821977 0.14507146 0.6244881 0.51323074
0.33115718 0.022722607 -0.22111826 0.44951156 -0.13124262 -0.047400698 -0.4398951 -0.099140935
-0.3312068 0.45502156 -0.48012683 -0.42067158 -0.01092333 -0.26656416 0.17328319 -0.19201168
-0.23206185 0.041603774 0.34047922 -0.37832937 0.2301337 0.31622246 0.46821666 -0.3610167
0.1366847 -0.36475328 0.3923862 -0.20530833 0.29404214 0.015675578 -0.012852964 -0.0054586753
0.07249198 0.23571458 0.21371824 0.22483759 -0.44796565 0.37204576 0.5344038 0.46343133
0.3467516 -0.3610152 -0.15142334 0.44345164 -0.38699788 0.45820352 -0.43758103 -0.39180514
0.23824683 -0.3468118 -0.048294622 0.39458272 0.40070328 0.46814367 -0.19735175 -0.44396883
0.484373 -0.12985481 -0.24050651 0.13348977 -0.3502634 0.32211515 0.23067586 -0.44693968
-0.4120209 -0.04780331 0.19402102 -0.012890179 -0.24968553 0.0212549 -0.47364604 -0.36305207
-0.3313696 0.41343036 0.4073479 -0.19473036 0.029198779 0.21177664 0.009190651 -0.26967385
00000000: 6f13 833e f7e7 67be 8acc e6bd b1b6 6c3e
00000010: 013d f0be 4e89 9f3e cb13 52bd 8302 843e
00000020: ffcb 8b3d 7e1c 64bd a783 523e 5b47 533d
00000030: c5f2 343e 980a 45be a299 f9bc 0eb1 42bd
00000040: d158 933d e8ce e5ba fce7 de3e a2a8 1d3e
00000050: b6be 3abe 5771 99be af32 aabd cca4 59be
00000060: da14 26be 772e a93c 33e6 9f3e 0d19 903e
00000070: 7c2a fabe 4f4f a73e 5dbb 843e 24dd 043f
00000080: 7881 a93e afef edbe 7c65 fbbe 6db3 6bbe
00000090: 2312 d73e 940c c5bd ba36 603e 8a32 6bbe
000000a0: c367 f83e 6748 6fbe 8b1b 993e 09f5 35bc
000000b0: 58c3 84be 0b1c 843e a840 82be 6f11 203e
000000c0: 94ab 05be bd18 4cbd 1538 f0be 1a24 6abe
000000d0: 457f 893e 3d83 e7bd c47c ff3e 6bcf cc3e
000000e0: 9e9b f5bc 78a4 9ebe ef37 d43e 9b03 4a3e
000000f0: 6e4e a2be 342f ae3e 35c1 da3e 7983 fb3e
00000100: 4d8b 8ebe b480 a6bd 3855 f1bc 43f4 883d
00000110: 956b c1be ddbe b5be fae7 7e3e 78ab febd
00000120: 47cc 6a3e d9bb 033d 4710 9c3e 3d36 393e
00000130: caeb 283e d530 813e b3b3 a1be dfa3 a63e
00000140: 1db7 b0be ec5b c0be e2ae ac3d 92ee 67bd
00000150: 1b81 943e c444 91be d145 b6be bf22 d33e
00000160: 9221 8fbd 878f 8e3e f535 b33d 0d14 d8be
00000170: 22ea c63d dc25 e83d 88c5 aebe e4db 72be
00000180: 4653 353e 25be 8d3d 96c1 b8be c6e5 5dbe
00000190: c375 e43e 616e aabd 7d03 cd3e f806 893e
000001a0: 4f34 a4be af26 d8be 62f2 eb3e 5885 7f3c
000001b0: 5dcb ab3e c935 ea3d ee97 893e f78f d33e
000001c0: e017 ed3e dd05 a6be e666 433e d805 e33e
000001d0: e6cf b33e dbd2 983e 2fb4 bcbe f319 b8be
000001e0: f420 9dbe 46f5 693d a005 033f 9c9f 9ebe
000001f0: 4300 8c3e fd99 91be c9ec fbbe dda0 d3bd
00000200: 94fa 8f3e 82f7 ec3e 2bd2 93be 8ada e43d
00000210: 17aa d53e bbda b43e 8b05 d23e 7a0e c13e
00000220: 92c5 9a3e 964d ea3d bc1e aabe fb4e d2be
00000230: cbe8 71be 6529 67bd 8976 3cbe 940d 7e3e
00000240: 0b86 1f3e 10af e5bd 8174 553e 7965 323e
00000250: 7877 973e 6208 b83e dd7a 77bd ea9d 053f
00000260: aade 2fbd ae07 f2bc 9832 1bbf 5565 bebe
00000270: 92e2 93be 94a3 5abe d522 b03e b8c9 27be
00000280: 8cc7 bbbe 2c12 5e3e f46b 863e 5a9d b03e
00000290: 4c5f 85be b38a d93d fb3a 39be 301b e7bd
000002a0: 364f c9be 106c 6abe 7492 2dbe b8ef 5b3e
000002b0: 4557 a83d 9d8d 143e 74de 1f3f 1763 033f
000002c0: 6f8d a93e c324 ba3c d36c 62be 6126 e63e
000002d0: 7764 06be 3c27 42bd ee39 e1be 670a cbbd
000002e0: f093 a9be 96f8 e83e 2fd3 f5be 4462 d7be
000002f0: c4f7 32bc 197b 88be 2671 313e b69e 44be
00000300: 9fa1 6dbe b868 2a3d 4b53 ae3e 63b4 c1be
00000310: 2ba8 6b3e e9e7 a13e 18ba ef3e 2ed7 b8be
00000320: 13f7 0b3e f1c0 babe d8e6 c83e 593c 52be
00000330: b18c 963e 126a 803c 3d95 52bc b0de b2bb
00000340: ad76 943d 2a5f 713e f4d8 5a3e d33b 663e
00000350: c15b e5be c87c be3e b0ce 083f df46 ed3e
00000360: 6d89 b13e fcd6 b8be b80e 1bbe 180c e33e
00000370: 9624 c6be a799 ea3e 9f0a e0be af9a c8be
00000380: faf6 733e 5191 b1be 95d0 45bd bf06 ca3e
00000390: fb28 cd3e 87b0 ef3e 9416 4abe e24f e3be
000003a0: bdff f73e a9f8 04be 5747 76be 8bb1 083e
000003b0: b955 b3be 47ec a43e 4b36 6c3e 47d5 e4be
000003c0: 67f4 d2be 67cd 43bd 72ad 463e 5431 53bc
000003d0: 90ad 7fbe c21e ae3c bc81 f2be f6e1 b9be
000003e0: 47a9 a9be 25ad d33e e78f d03e 6567 47be
000003f0: 4732 ef3c fadb 583e 6294 163c b112 8abe

SoftmaxPolicy_l1.bias f4 [128]
-0.37768137 0.35367194 0.3302628 -0.49651137 -0.39417493 -0.33847868 -0.2593348 0.11869554
-0.4803636 -0.39088276 0.23174582 -0.17068262 -0.21586618 -0.41630125 0.19099917 0.11178946
-0.20535815 -0.31147274 0.11595823 0.14963357 0.19126827 0.16580898 -0.047862772 -0.39208734
0.35104674 0.033116043 -0.34488082 0.46813744 0.28480563 -0.40541005 -0.24834739 -0.16028719
-0.29194668 0.23347281 -0.37786996 0.4509965 -0.19842178 0.30216286 0.09793188 -0.22984312
0.34333915 -0.37967047 -0.2658565 0.10764831 0.38813055 -0.20690012 -0.28288624 -0.32247669
-0.20175089 -0.15961544 -0.118583694 -0.2938819 0.16845758 0.0838235 -0.34372342 -0.25299188
0.099826865 0.027086891 0.3916846 -0.057717547 -0.40521765 -0.36512715 -0.13323377 -0.10350847
0.08776655 -0.13082176 0.21254517 -0.15941057 0.3925321 0.100265674 -0.16169423 0.47427306
0.16438872 -0.35975268 -0.2650118 0.3367663 0.21944876 0.3806695 0.018858474 0.346499
0.27456886 0.14315405 -0.14943723 0.5121342 0.09582335 -0.15497765 0.06775988 0.49887925
0.31815508 -0.059840064 0.5206744 0.25277644 -0.25994986 -0.45956972 0.3121882 0.5007873
-0.30384552 0.19564195 0.04350032 -0.12845023 -0.10766965 0.16700272 0.10151853 0.33369982
0.18734202 0.2583685 0.47379816 0.17751892 0.11676657 -0.13793246 0.37942806 0.09232943
0.3260378 0.4798972 -0.13350746 0.33107075 -0.06086296 0.47933173 0.39081013 -0.15518592
0.009880336 -0.21404195 -0.21143761 -0.08639873 -0.001905869 -0.15412576 -0.47100228 -0.31470117
00000000: 745f c1be 7d14 b53e 3518 a93e bd36 febe
00000010: 4cd1 c9be 144d adbe 88c7 84be a616 f33d
00000020: 38f2 f5be c921 c8be c74e 6d3e 6dc7 2ebe
00000030: 060c 5dbe 7025 d5be 4995 433e dff1 e43d
00000040: 6849 52be 5b79 9fbe 827b ed3d 8b39 193e
00000050: d4db 433e d4c9 293e c10b 44bd acbf c8be
00000060: 66bc b33e b0a4 073d 3894 b0be b6af ef3e
00000070: 0bd2 913e e891 cfbe c74e 7ebe 5322 24be
00000080: 097a 95be 7f13 6f3e 2c78 c1be 03e9 e63e
00000090: 142f 4bbe 17b5 9a3e 8290 c83d ff5b 6bbe
000000a0: 26ca af3e 2b64 c2be 581e 88be b876 dc3d
000000b0: 0cb9 c63e a0dd 53be 77d6 90be aa1b a5be
000000c0: c997 4ebe 3b72 23be 02dc f2bd b077 96be
000000d0: 2580 2c3e a8ab ab3d 84fc afbe 2788 81be
000000e0: 0772 cc3d 54e5 dd3c e28a c83e 3c69 6cbd
000000f0: b078 cfbe f2f1 babe 6f6e 08be 40fc d3bd
00000100: f3be b33d 24f6 05be 71a5 593e 863c 23be
00000110: f8f9 c83e 1758 cd3d 2c93 25be ebd3 f23e
00000120: 8455 283e 8131 b8be a0af 87be a26c ac3e
00000130: 2db7 603e 1de7 c23e 167d 9a3c 5168 b13e
00000140: 4a94 8c3e fa96 123e 1306 19be 3a1b 033f
00000150: 083f c43d 76b2 1ebe b1c5 8a3d 1a6d ff3e
00000160: 39e5 a23e db1a 75bd eb4a 053f ea6b 813e
00000170: 2618 85be b94c ebbe 22d7 9f3e 9933 003f
00000180: a491 9bbe 5d56 483e 642d 323d 7588 03be
00000190: e881 dcbd c302 2b3e f2e8 cf3d b4da aa3e
000001a0: 96d6 3f3e e048 843e ac95 f23e 85c7 353e
000001b0: 5023 ef3d 2b3e 0dbe 6544 c23e 3617 bd3d
000001c0: 6dee a63e 16b5 f53e 2eb6 08be 1b82 a93e
000001d0: 704b 79bd f86a f53e 4418 c83e 0fe9 1ebe
000001e0: 22e1 213c d02d 5bbe 1a83 58be d1f1 b0bd
000001f0: 5ace f9ba 25d3 1dbe 3627 f1be 8320 a1be

SoftmaxPolicy_l2.weight f4 [128, 128]
0.0023931696 -0.04051648 0.07408945 0.07042969 0.056641046 0.041541558 -0.072314546 0.051845353
-0.057916507 -0.0137151675 -0.036460917 0.028198935 -0.06600791 -0.039624434 -0.059577573 -0.10011427
-0.046504945 0.08206874 -0.005641067 0.0328857 -0.08587045 0.09777608 -0.011983856 -0.07548591
0.08921561 -0.013407773 0.07329596 -0.05488823 -0.06803255 -0.053724393 0.034876656 0.023153752
-0.07575531 0.014232097 0.010668737 0.034766514 -0.040682368 -0.061990634 0.11533513 -0.04733904
0.044429265 0.07273281 -0.06827226 -0.07818925 0.02468394 -0.07616182 0.035162166 -0.03228798
-0.036512677 -0.064515986 0.04997408 -0.045539197 -0.08546386 -0.064358056 -0.039345726 -0.079244636
0.045645013 -0.021095525 0.08818456 0.06138844 -0.056198105 -0.04509961 -0.043078486 0.058924735
0.006652941 -0.024811428 0.09208199 0.10547804 0.081504345 -0.06504524 -0.035355654 -0.012289803
0.0986055 -0.03642194 -0.04410051 0.017569857 -0.01933678 0.04382981 0.01684889 -0.07379281
0.086913094 0.082801536 0.007188788 -0.0516757 0.03646782 0.0547853 0.06298254 -0.03750185
-0.0047486247 -0.024720918 0.08993425 0.12663303 0.0032015508 -0.053399988 0.04223984 0.05201905
0.0387229 -0.07670077 0.016488753 -0.03340734 -0.071719535 -0.035391524 0.055922586 0.043189228
-0.07511142 0.017353436 0.08878655 0.10802577 0.07092887 -0.024336586 0.05243691 0.053311504
0.042847756 -0.05764502 -0.032649867 0.07808971 0.08015531 0.08072132 -0.041976582 -0.01749352
-0.05475874 -0.030785393 0.07318595 -0.06346684 0.006394084 0.021586673 -0.047621332 0.03860006
-0.018797109 0.06947644 -0.043510098 0.013734506 -0.078233115 0.048564397 0.08485143 0.023745032
0.0012491565 -0.045857787 -0.040368915 -0.043543812 -0.04864865 0.025071424 0.012138487 0.08071876
-0.070699364 -0.057985295 -0.03722608 -0.034175772 0.0782887 0.043951634 -0.07816985 -0.0056432225
0.005390436 0.07476223 0.081741184 0.058810644 0.085119314 -0.029659078 -0.0018247605 -0.080447376
0.025183145 0.12116266 0.0506396 0.10562243 -0.035384692 0.028799849 -0.053180445 0.06872476
-0.038173553 -0.04116776 0.013183724 0.016484108 0.060426436 -0.01306088 -0.019869639 0.043305747
0.06086875 0.099301994 0.030592544 -0.0022243545 0.121161684 0.13091172 -0.040663157 0.040957343
0.026947137 -0.040288024 -0.0066055884 -0.014815649 -0.066847496 -0.0326027 0.053997416 0.07448437
0.010683406 -0.07595436 0.01261768 -0.026746696 0.08073652 -0.085989945 -0.011786148 0.08574045
0.012858045 -0.04057109 -0.08260464 -0.00061861903 0.055378553 -0.059219055 -0.08428792 0.054278795
-0.031863138 0.06021761 -0.07763341 -0.012016654 -0.055911407 -0.0034088101 -0.08629746 0.04615738
-0.040075753 -0.06399765 -0.043054 -0.113952205 0.046101592 -0.019731406 -0.007308983 0.07168437
-0.013631956 0.07976175 0.004914419 -0.05991255 0.023530146 0.025980279 -0.062429048 0.027845649
0.016447179 0.07528102 -0.008543045 -0.06649923 -0.08743587 0.03457711 -0.024440434 -0.02183458
-0.009104149 -0.024078466 0.023601389 0.081329964 0.07258077 -0.0635861 0.0907013 0.061415415
0.014536539 0.040806886 0.05765976 0.07654591 0.049059726 0.030279892 -0.036459457 -0.058102135
00000000: b9d6 1c3b 9cf4 25bd 36bc 973d 713d 903d
00000010: 7100 683d 7b27 2a3d a619 94bd cb5b 543d
00000020: dc39 6dbd 95b5 60bc 0b58 15bd 7401 e73c
00000030: 282f 87bd 3b4d 22bd 9d07 74bd b608 cdbd
00000040: f87b 3ebd a813 a83d b3d8 b8bb 28b3 063d
00000050: d9dc afbd d33e c83d ef57 44bc 5b98 9abd
00000060: acb6 b63d 47ac 5bbc 311c 963d 7bd2 60bd
00000070: a654 8bbd 1c0e 5cbd d3da 0e3d f0ac bd3c
00000080: 9a25 9bbd be2d 693c edcb 2e3c 5567 0e3d
00000090: 8ea2 26bd e4e9 7dbd d334 ec3d 95e6 41bd
000000a0: 76fb 353d f1f4 943d 54d2 8bbd af21 a0bd
000000b0: f935 ca3c bafa 9bbd 3406 103d 6740 04bd
000000c0: 518e 15bd f520 84bd 9fb1 4c3d 4f87 3abd
000000d0: ad07 afbd 28ce 83bd fc28 21bd 034b a2bd
000000e0: 44f6 3a3d 86d0 acbc 1b9a b43d 7272 7b3d
000000f0: fc2f 66bd 5eba 38bd 1173 30bd 105b 713d
00000100: ea00 da3b 5641 cbbc 7b95 bc3d df04 d83d
00000110: c0eb a63d 7036 85bd 17d1 10bd 2b5b 49bc
00000120: aef1 c93d 2c2f 15bd bda2 34bd a9ee 8f3c
00000130: 2b68 9ebc e386 333d af06 8a3c af20 97bd
00000140: 7eff b13d da93 a93d ed8f eb3b e6a9 53bd
00000150: 485f 153d 8d66 603d fdfc 803d 8a9b 19bd
00000160: 5a9a 9bbb 8683 cabc 732f b83d 17ac 013e
00000170: 1cd1 513b f2b9 5abd af03 2d3d ed11 553d
00000180: e79b 1e3d 4b15 9dbd 6c13 873c 23d6 08bd
00000190: b1e1 92bd b4f6 10bd 150f 653d 30e7 303d
000001a0: 04d4 99bd cb28 8e3c b9d5 b53d 9d3c dd3d
000001b0: 2843 913d 855d c7bc 16c8 563d 2a5d 5a3d
000001c0: 2181 2f3d 2f1d 6cbd debb 05bd 7fed 9f3d
000001d0: 7828 a43d 3851 a53d a3ef 2bbd 924e 8fbc
000001e0: b34a 60bd a631 fcbc 84e2 953d e7fa 81bd
000001f0: 7785 d13b 89d6 b03c 960e 43bd 191b 1e3d
00000200: 65fc 99bc aa49 8e3d a537 32bd b206 613c
00000210: af38 a0bd 76eb 463d 96c6 ad3d f184 c23c
00000220: bdba a33a 60d5 3bbd e059 25bd ff5a 32bd
00000230: cf43 47bd 9662 cd3c 81e0 463c e14f a53d
00000240: d4ca 90bd fd81 6dbd 607a 18bd e5fb 0bbd
00000250: d355 a03d a106 343d 8417 a0bd c8ea b8bb
00000260: 41a2 b03b f11c 993d ec67 a73d 6ee3 703d
00000270: 0953 ae3d 98f7 f2bc cd2c efba 98c1 a4bd
00000280: e24c ce3c 2124 f83d 786b 4f3d 9350 d83d
00000290: 8aef 10bd a9ed eb3c bdd3 59bd 91bf 8c3d
000002a0: df5b 1cbd 869f 28bd 8c00 583c ae09 873c
000002b0: b681 773d 4dfd 55bc a7c5 a2bc 5e61 313d
000002c0: 8351 793d d85e cb3d 379d fa3c 7ac6 11bb
000002d0: 9e23 f83d b90d 063e 698e 26bd e3c2 273d
000002e0: 3ec0 dc3c 0e05 25bd b173 d8bb 56bd 72bc
000002f0: 57e7 88bd 698a 05bd 652c 5d3d 438b 983d
00000300: 7409 2f3c f68d 9bbd 63ba 4e3c e31b dbbc
00000310: 3059 a53d 7f1b b0bd b01a 41bc b098 af3d
00000320: 8daa 523c df2d 26bd 9f2c a9bd d22a 22ba
00000330: 9fd4 623d ae8f 72bd 259f acbd 7153 5e3d
00000340: ec82 02bd bea6 763d 44fe 9ebd 80e1 44bc
00000350: 5c03 65bd 5866 5fbb b9bc b0bd 850f 3d3d
00000360: 7926 24bd 3311 83bd 6459 30bd c65f e9bd
00000370: 06d5 3c3d c2a3 a1bc 3180 efbb 41cf 923d
00000380: 9158 5fbc 215a a33d 2209 a13b dd66 75bd
00000390: 4bc2 c03c 98d4 d43c 9ab5 7fbd 8f1c e43c
000003a0: 3cbc 863c ef2c 9a3d 21f8 0bbc c030 88bd
000003b0: 9411 b3bd baa0 0d3d 4e37 c8bc 6fde b2bc
000003c0: 9229 15bc 3440 c5bc b357 c13c 5390 a63d
000003d0: 3aa5 943d 6e39 82bd 9ac1 b93d bb8e 7b3d
000003e0: aa2a 6e3c 1f25 273d a42c 6c3d 1ac4 9c3d
000003f0: daf2 483d 890d f83c 8356 15bd 81fc 6dbd

SoftmaxPolicy_l2.bias f4 [128]
0.05442104 -0.03643569 0.003862249 -0.06404318 -0.049696457 0.054276697 0.019994993 0.029169103
0.049085442 0.025577797 0.008629863 -0.00978429 0.0011070669 0.08121655 0.034134336 0.011595762
0.03559673 -0.038853623 -0.06919022 -0.017406128 0.0941553 0.022746172 -0.065202616 0.057941478
0.080955535 0.06950998 0.012309145 -0.021814384 0.008716576 0.028590377 -0.03238402 -0.044309333
0.020840991 0.044564616 -0.025673443 -0.008719434 -0.06507965 -0.00052268256 -0.018156176 0.09180972
0.062408086 -0.028483551 -0.0684925 -0.07269894 -0.04978944 0.088118754 -0.025774457 0.06617844
0.0668531 -0.010590956 0.038785096 0.028033273 0.08093575 0.043574072 0.04997235 0.090534076
0.011601191 0.08435017 -0.0024086214 -0.0671446 0.08659934 -0.0662645 0.00064367615 0.0852512
-0.026133716 -0.061825603 0.06619079 0.034723625 0.056614958 0.046315737 -0.09231442 0.07288599
-0.074475735 0.010705741 -0.04944319 0.064633794 0.09135898 0.013854546 -0.02372281 0.07706929
0.06973209 -0.016393898 0.06982372 0.0071668997 -0.041661907 0.084429316 -0.050788566 -0.064252
0.05094643 0.033435263 0.07164078 -0.03670392 0.019988615 0.04734988 0.01827062 -0.071443416
0.058015224 0.02324268 -0.019234816 -0.020805392 -0.09254953 0.09532574 0.012661989 -0.023442773
0.09901364 -0.06387877 0.023901165 -0.012745473 -0.026667057 0.0019350294 -0.012826461 0.07654937
0.06346208 0.030143943 -0.00519469 -0.013760469 -0.006810779 -0.002687214 0.032939788 0.07023961
-0.0620631 -0.08899808 -0.01340545 0.07064725 0.041743156 -0.036117505 0.055586748 0.03875685
00000000: 99e8 5e3d 973d 15bd c91d 7d3b 1229 83bd
00000010: 838e 4bbd 3e51 5e3d 8acc a33c 0bf4 ee3c
00000020: d10d 493d 8788 d13c 4564 0d3c 494e 20bc
00000030: 001b 913a dd54 a63d 72d0 0b3d 27fc 3d3c
00000040: e0cd 113d fa24 1fbd 9ab3 8dbd 4c97 8ebc
00000050: 7ed4 c03d 2e56 ba3c f388 85bd 0b54 6d3d
00000060: 04cc a53d 405b 8e3d 4cac 493c 14b4 b2bc
00000070: f8cf 0e3c 5e36 ea3c 1ba5 04bd b47d 35bd
00000080: baba aa3c 6389 363d 1d51 d2bc f5db 0ebc
00000090: 7b48 85bd a204 09ba 43bc 94bc bc06 bc3d
000000a0: 9f9f 7f3d 5656 e9bc cc45 8cbd 2fe3 94bd
000000b0: 03f0 4bbd 9b77 b43d f424 d3bc 9088 873d
000000c0: 47ea 883d b085 2dbc 1fdd 1e3d 09a6 e53c
000000d0: a4c1 a53d ba7a 323d cfaf 4c3d ee69 b93d
000000e0: ec12 3e3c c8bf ac3d f6d9 1dbb 1c83 89bd
000000f0: ff5a b13d afb5 87bd 60bc 283a 2e98 ae3d
00000100: 6016 d6bc d83c 7dbd 098f 873d 5c3a 0e3d
00000110: 16e5 673d 92b5 3d3d 580f bdbd 4045 953d
00000120: bc86 98bd 2267 2f3c f184 4abd b95e 843d
00000130: 6b1a bb3d 2dfe 623c 5756 c2bc 81d6 9d3d
00000140: b3cf 8e3d 7f4c 86bc bdff 8e3d 50d8 ea3b
00000150: ada5 2abd 47e9 ac3d ac07 50bd 8d96 83bd
00000160: 34ad 503d 6af3 083d 67b8 923d da56 16bd
00000170: 2abf a33c f3f1 413d 44ac 953c ed50 92bd
00000180: 5fa1 6d3d 6f67 be3c 5592 9dbc 1270 aabc
00000190: 9c8a bdbd 243a c33d 3b74 4f3c 0f0b c0bc
000001a0: aac7 ca3d dfd2 82bd 60cc c33c 63d2 50bc
000001b0: df74 dabc d0a0 fd3a 1426 52bc ebc5 9c3d
000001c0: 68f8 813d 6ef0 f63c 3838 aabb 9773 61bc
000001d0: f52c dfbb f81b 30bb dfeb 063d c9d9 8f3d
000001e0: e135 7ebd a044 b6bd 88a2 5bbc 81af 903d
000001f0: dffa 2a3d f3ef 13bd eeae 633d 81bf 1e3d

SoftmaxPolicy_l3.weight f4 [2, 128]
0.05301731 0.014185332 0.1256543 0.0141515015 -0.08834622 -0.017717825 0.041242667 0.093930386
0.01585795 0.008865486 0.07004094 0.07061437 0.08999772 0.016282843 0.0048125857 0.096586324
0.05545805 0.09564012 -0.01084038 0.09919447 -0.042271163 0.098618194 -0.038378783 -0.014783578
-0.03553104 0.043434203 0.048981 0.035171222 -0.087876946 0.00641736 -0.037784684 -0.034836728
0.05421513 -0.00080464716 0.05110126 -0.078755625 0.012472549 0.0695654 0.059074435 0.10367422
-0.008184707 0.086206995 -0.06952329 -0.009591644 -0.008792543 -0.027399538 0.032830153 0.0035115448
-0.10128332 -0.0959741 0.037574455 -0.059177358 -0.109719165 0.1295509 -0.05540376 0.096347645
0.066777445 0.048234493 -0.07514194 -0.01872228 0.08202268 0.021775218 -0.123475745 0.007817104
-0.06485805 -0.06925273 -0.083104976 0.08156303 0.073283166 -0.06755368 -0.035036083 0.07938456
0.00017555321 -0.056906123 0.027751496 -0.108277604 -0.08671177 0.070905104 -0.087664254 0.09992848
-0.032652184 -0.056951318 -0.08089914 0.055248395 -0.11923145 0.041295547 0.027469842 0.03393088
-0.10222289 -0.064694166 0.04513605 -0.07142602 -0.044488974 0.056427963 0.043379586 0.07341087
0.004079026 -0.04160022 0.1274975 0.005307946 -0.020930426 0.075362235 -0.083685 0.08180365
0.0352299 -0.013261556 -0.071330376 -0.025854694 -0.022524942 0.019298997 -0.05919478 0.046564654
-0.11949 -0.077376515 -0.0065430216 0.10788798 0.07163833 -0.08688823 0.07668837 -0.057143256
0.075853094 0.010204832 -0.023771346 -0.09899222 -0.10146523 -0.10400267 -0.057132456 0.0691111
-0.00572593 0.1092453 -0.115683384 0.084736966 0.01688368 0.09148206 -0.10188985 -0.077096865
0.108776905 0.04981524 -0.11871683 -0.10091452 -0.026858851 0.12207298 0.08490176 -0.083437674
0.011044306 0.016153848 -0.06492375 -0.084174275 0.10219781 0.008133725 0.036842413 0.10447851
0.03662362 -0.142509 -0.06547858 -0.062116493 -0.074583724 0.06366574 0.0022751943 0.11500725
-0.034388598 0.019330168 -0.029005894 0.077647105 0.06017489 -0.019891756 -0.054326754 -0.04683345
-0.06835646 -0.1456835 0.042080764 0.054087 -0.10742636 0.12809174 -0.061450075 -0.093509205
0.06851576 0.0638254 -0.016911402 0.018481445 0.03671627 -0.11702754 0.13619818 -0.091783606
-0.050455745 -0.1463287 -0.026433961 0.023993947 -0.1214344 -0.069343515 0.011040996 -0.06617635
0.07819548 0.11035438 -0.0022911206 -0.051675994 0.054156765 0.009329009 0.06835028 0.021854606
0.06376219 0.1197927 -0.06352549 -0.05460454 0.0043857982 -0.09642413 0.07230899 -0.06956189
0.052232713 -0.068616 0.06801516 0.023696067 0.11285694 -0.06813062 0.018604154 -0.051654343
0.0046084113 0.06830683 -0.09581643 0.086307585 0.03515873 -0.025814708 0.072789915 0.009006698
-0.10954536 0.07404651 0.015471104 -0.04804774 0.05600162 -0.040504366 0.044637416 -0.0393857
-0.14523852 0.09628802 0.10098706 -0.12030062 -0.0748765 0.08429471 0.05417125 -0.04775307
0.013178536 0.088184014 0.10009214 -0.12718736 -0.05944407 -0.01538033 -0.098130934 -0.012927808
-0.0013457792 -0.01607845 -0.05883584 0.0063514193 0.005298493 -0.035159606 0.06549644 -0.07207254
00000000: ae28 593d 9869 683c 85ab 003e b3db 673c
00000010: ddee b4bd f924 91bc 12ee 283d 935e c03d
00000020: 88e8 813c 8b40 113c a071 8f3d 449e 903d
00000030: ba50 b83d 9963 853c e5b2 9d3b 0dcf c53d
00000040: fb27 633d f8de c33d d99b 31bc 7826 cb3d
00000050: 8724 2dbd 56f8 c93d 1233 1dbd d236 72bc
00000060: ff88 11bd 10e8 313d 4da0 483d b30f 103d
00000070: d4f8 b3bd b848 d23b 1dc4 1abd f5b0 0ebd
00000080: af10 5e3d f5ee 52ba 8e4f 513d a14a a1bd
00000090: aa59 4c3c 4e78 8e3d 09f8 713d 2653 d43d
000000a0: 2619 06bc 4b8d b03d 3a62 8ebd 4526 1dbc
000000b0: 990e 10bc ff74 e0bc e978 063d f221 663b
000000c0: a16d cfbd 128e c4bd ace7 193d f563 72bd
000000d0: 71b4 e0bd fea8 043e 0eef 62bd ea51 c53d
000000e0: 9dc2 883d 8891 453d 04e4 99bd 785f 99bc
000000f0: 82fb a73d f161 b23c dae0 fcbd 5013 003c
00000100: 4cd4 84bd 60d4 8dbd f132 aabd 850a a73d
00000110: 7c15 963d 9559 8abd ff81 0fbd 5f94 a23d
00000120: b514 3839 6516 69bd 1b57 e33c a6c0 ddbd
00000130: f195 b1bd b236 913d 5189 b3bd 4ea7 cc3d
00000140: 4cbe 05bd c945 69bd 73ae a5bd 244c 623d
00000150: 9e2f f4bd 8525 293d 6f08 e13c 1bfb 0a3d
00000160: 3c5a d1bd 607e 84bd 94e0 383d ce47 92bd
00000170: 123a 36bd 0221 673d cbae 313d 7058 963d
00000180: 5aa9 853b fe64 2abd b48e 023e 47ee ad3b
00000190: 4976 abbc 8457 9a3d 0b63 abbd ac88 a73d
000001a0: 3a4d 103d ff46 59bc a915 92bd 39cd d3bc
000001b0: 3a86 b8bc ee18 9e3c 3a76 72bd 94ba 3e3d
000001c0: 2cb7 f4bd 9477 9ebd d866 d6bb 60f4 dc3d
000001d0: 1eb7 923d 75f2 b1bd cb0e 9d3d 0c0f 6abd
000001e0: de58 9b3d 2b32 273c 20bc c2bc 6fbc cabd
000001f0: 01cd cfbd 5aff d4bd b903 6abd 1f8a 8d3d
00000200: 95a0 bbbb 00bc df3d 69eb ecbd 938a ad3d
00000210: a54f 8a3c f25a bb3d a0ab d0bd f6e4 9dbd
00000220: 6dc6 de3d 110b 4c3d cf21 f3bd 46ac cebd
00000230: 1807 dcbc 6601 fa3d f9e0 ad3d 5fe1 aabd
00000240: 2df3 343c 1355 843c bef6 84bd 9063 acbd
00000250: 164d d13d 5143 053c 12e8 163d d4f8 d53d
00000260: a602 163d e1ed 11be a219 86bd dd6d 7ebd
00000270: 5abf 98bd 2f63 823d 6d1b 153b ec88 eb3d
00000280: 0fdb 0cbd 4d5a 9e3c c59d edbc 7205 9f3d
00000290: f279 763d 09f4 a2bc bb85 5ebd 6fd4 3fbd
000002a0: 79fe 8bbd 0e2e 15be e15c 2c3d 558a 5d3d
000002b0: 5a02 dcbd 7b2a 033e 13b3 7bbd c181 bfbd
000002c0: fe51 8c3d e4b6 823d c889 8abc 6666 973c
000002d0: cd63 163d 23ac efbd 8977 0b3e 0bf9 bbbd
000002e0: afaa 4ebd 31d7 15be 098c d8bc f48e c43c
000002f0: 99b2 f8bd f903 8ebd 4be5 343c 7787 87bd
00000300: f424 a03d 7a01 e23d a026 16bb 35aa 53bd
00000310: 7cd3 5d3d b3d8 183c 3bfb 8b3d 6e08 b33c
00000320: c095 823d e055 f53d a719 82bd 03a9 5fbd
00000330: beb6 8f3b 047a c5bd bc16 943d 7776 8ebd
00000340: f8f1 553d 8c86 8cbd 884b 8b3d 411e c23c
00000350: 8a21 e73d 1188 8bbd bd67 983c 8193 53bd
00000360: 2802 973b 74e4 8b3d 683b c4bd 08c2 b03d
00000370: 9a02 103d 5e79 d3bc e112 953d d490 133c
00000380: 5159 e0bd b2a5 973d 837a 7d3c b5cd 44bd
00000390: f461 653d e8e7 25bd b9d5 363d e652 21bd
000003a0: 68b9 14be a732 c53d 4ed2 ce3d 2c60 f6bd
000003b0: da58 99bd b4a2 ac3d ace2 5d3d b998 43bd
000003c0: c9ea 573c d299 b43d 1cfd cc3d 673d 02be
000003d0: a07b 73bd c8fd 7bbc dff8 c8bd 28cf 53bc
000003e0: db64 b0ba f4b6 83bc dafd 70bd 911f d03b
000003f0: fb9e ad3b 8503 10bd ff22 863d c59a 93bd

SoftmaxPolicy_l3.bias f4 [2]
0.032877535 -0.017100258
00000000: 98aa 063d d715 8cbc
