pytorch_models/model280076.pth (torch, 72107 bytes, 6 tensors)

SoftmaxPolicy_l1.weight f4 [128, 4]
000000 5e dc 82 3e cc d4 62 be 50 0e eb bd d6 c7 6a 3e
       0.25558752 -0.22151488 -0.11477339 0.22927794
000010 fd b0 ef be 52 95 a0 3e 89 08 53 bd 16 a5 83 3e
       -0.4681472 0.31363922 -0.05152181 0.25711888
000020 ef 14 8d 3d 55 7f 61 bd 45 0e 53 3e d0 aa 48 3d
       0.068887584 -0.055053074 0.20610912 0.048991024
000030 55 df 31 3e c3 74 40 be 6a c6 de bc 45 30 53 bd
       0.1737035 -0.18794541 -0.02719422 -0.051559705
000040 d1 58 93 3d e8 ce e5 ba fc e7 de 3e a2 a8 1d 3e
       0.07194675 -0.0017532976 0.43536365 0.1539636
000050 47 51 3b be 80 fd 99 be c4 bd ab bd 61 7f 58 be
       -0.18292724 -0.30076218 -0.08385804 -0.21142341
000060 9d 18 26 be a2 89 aa 3c 76 d0 9f 3e 09 5f 8f 3e
       -0.16220327 0.020817582 0.3121373 0.28002194
000070 cd 98 fa be a7 93 a7 3e 64 dc 84 3e f0 d3 04 3f
       -0.48944703 0.32729837 0.25949395 0.5188589
000080 ee 0b a8 3e 46 c9 eb be 93 3e fb be 9f be 6f be
       0.32821602 -0.46051997 -0.49071178 -0.2341256
000090 44 13 d7 3e af 65 c4 bd 3e c2 5f 3e d1 28 6a be
       0.42006886 -0.09589707 0.21851441 -0.22867133
0000a0 b5 76 f8 3e 51 61 6f be 6e 78 98 3e 44 99 32 bc
       0.48528066 -0.23376967 0.2977938 -0.010900799
0000b0 ca bd 84 be bb 40 84 3e 5a 1b 82 be db f6 1f 3e
       -0.25926048 0.25830635 -0.25411493 0.15621512
0000c0 70 79 07 be a8 cd 4e bd a2 51 f0 be 4f b3 6a be
       -0.13229918 -0.050489098 -0.4693728 -0.22919963
0000d0 d2 d7 89 3e 77 78 ec bd 21 9d 00 3f 72 64 cd 3e
       0.2692247 -0.11546414 0.5023976 0.40115696
0000e0 af cd fb bc 70 99 9f be e8 c6 d4 3e ad 8f 49 3e
       -0.030737726 -0.3117175 0.41558003 0.19683714
0000f0 c5 bd a1 be 5d 13 af 3e d3 81 da 3e a4 bf fb 3e
       -0.31590095 0.3419446 0.42677173 0.49169648
000100 0f b4 8e be 3d d5 a6 bd eb db eb bc 3c c5 8a 3d
       -0.2787175 -0.08146141 -0.028791388 0.06775901
000110 e8 6e c1 be dc 82 b5 be bb 14 7f 3e e6 65 ff bd
       -0.37779927 -0.354514 0.24910252 -0.124706075
000120 6b 33 6b 3e a3 61 06 3d 22 56 9c 3e 68 9a 38 3e
       0.22968833 0.032807957 0.30534464 0.18027651
000130 0f 03 29 3e 6a 9e 81 3e 7b 24 a1 be 0d 3f a6 3e
       0.16505073 0.25316173 -0.31473145 0.3246998
000140 3d 4e b1 be 0b f4 c0 be 16 6b ad 3d ad 1e 62 bd
       -0.34630004 -0.3768619 0.08467691 -0.055205036
000150 3f 6e 95 3e 48 77 90 be bc 07 b7 be 49 0b d2 3e
       0.29185674 -0.28216004 -0.35748088 0.41024235
000160 4f be 91 bd e9 d2 8d 3e 31 70 b4 3d 35 66 d8 be
       -0.071163766 0.27699974 0.08810461 -0.42265478
000170 81 4e c7 3d 1a 14 e9 3d a4 f3 ae be aa 84 73 be
       0.0973177 0.11380787 -0.34170258 -0.23781076
000180 59 d3 34 3e 26 bd 8c 3d 80 46 b9 be 13 64 5e be
       0.17658748 0.06872015 -0.361866 -0.21717863
000190 bd bf e4 3e 1c ff a8 bd 3e b1 cd 3e 30 da 88 3e
       0.44677535 -0.08251783 0.40174288 0.26728964
0001a0 0d 64 a4 be 79 3b d8 be e6 09 ec 3e a9 16 85 3c
       -0.32107583 -0.42232874 0.46101302 0.016246157
0001b0 26 0a ac 3e 82 bd eb 3d 13 e6 89 3e 90 1a d3 3e
       0.33601493 0.11510755 0.26933345 0.41231203
0001c0 ed 1c ed 3e 67 07 a6 be b1 07 44 3e 91 9c e2 3e
       0.4631113 -0.32427523 0.19143559 0.44260076
0001d0 f1 ac b3 3e 85 c7 98 3e f1 bb bc be 89 9c b8 be
       0.3509288 0.2983972 -0.36862138 -0.36056927
0001e0 de 92 9d be 9e 66 6a 3d 7b 35 03 3f 3e 44 a0 be
       -0.30776113 0.05722677 0.5125348 -0.31302065
0001f0 fd 9a 8c 3e af c7 8f be 81 84 fd be a6 08 d6 bd
       0.27461997 -0.28082034 -0.49515155 -0.10450868
000200 90 49 90 3e cd 94 ed 3e 3a 65 93 be 3a 5a e3 3d
       0.28181124 0.46402588 -0.28788167 0.11101194
000210 09 d3 d5 3e 91 39 b5 3e 5e 6c d2 3e d4 bb c0 3e
       0.4176257 0.35395482 0.41098303 0.376433
000220 27 ce 9a 3e 4e e6 ea 3d 3e ac aa be c3 27 d2 be
       0.30235407 0.114697084 -0.33334535 -0.4104596
000230 ec 1f 72 be d9 79 67 bd ec 28 3c be f2 60 7d 3e
       -0.2364499 -0.056512687 -0.18374985 0.24744013
000240 45 44 20 3e 7a 43 ea bd ef fe 56 3e aa 1f 33 3e
       0.15651043 -0.114386514 0.20995687 0.17492548
000250 a5 6c 97 3e 41 69 b8 3e 90 20 75 bd 6a 6e 05 3f
       0.29575077 0.36017802 -0.059845507 0.52121603
000260 89 05 35 bd 60 d6 fb bc cc 00 1b bf 85 b6 be be
       -0.04419473 -0.03074187 -0.6054809 -0.37248626
000270 b2 d0 93 be 41 79 5a be 59 2b b0 3e 75 b9 27 be
       -0.2887016 -0.21335317 0.34408072 -0.1637934
000280 9a 2a bb be e0 a7 5f 3e 31 40 86 3e 15 c0 b0 3e
       -0.3655594 0.21841383 0.2622085 0.34521547
000290 9a 7e 85 be f1 34 d7 3d a1 69 3a be 45 9e e3 bd
       -0.26073152 0.10508145 -0.18204357 -0.11114172
0002a0 6e 95 c9 be 28 15 6b be cb cc 2e be 8a 6d 5b 3e
       -0.39371818 -0.22957289 -0.1707031 0.21428505
0002b0 76 66 a8 3d 64 f1 14 3e 28 16 20 3f d3 41 03 3f
       0.08222668 0.14545208 0.6253381 0.51272315
0002c0 9c bb a9 3e 92 de bc 3c 30 a4 61 be 6c f0 e5 3e
       0.33150947 0.023055349 -0.22035289 0.4490999
0002d0 f2 9c 05 be 22 f6 3c bd a8 17 e1 be 1b 0e cd bd
       -0.13048151 -0.046133168 -0.4396336 -0.10012456
0002e0 29 85 aa be 9c 35 e8 3e 44 e4 f4 be b4 45 d7 be
       -0.33304718 0.453534 -0.47830403 -0.42045367
0002f0 1b 2a 29 bc 66 28 88 be f6 33 32 3e e3 1f 45 be
       -0.01032498 -0.26593322 0.17402634 -0.19250445
000300 af 8c 6e be 25 2f 2d 3d de 24 ae 3e 05 3e c3 be
       -0.23295854 0.04228129 0.34012502 -0.38133255
000310 aa c5 6b 3e 97 1c a2 3e fc bc f0 3e 2b 00 b9 be
       0.23024622 0.31662437 0.47019184 -0.3613294
000320 e9 04 0c 3e 05 60 b9 be 90 ec c8 3e 55 cc 53 be
       0.13673748 -0.3620607 0.39242983 -0.20683415
000330 b1 fb 96 3e 23 71 86 3c cd 72 53 bc 88 9a be bb
       0.294889 0.01641137 -0.012905789 -0.0058167614
000340 4a 05 95 3d 3f 44 72 3e 9e d6 5b 3e b8 a0 65 3e
       0.072763994 0.23658846 0.21468589 0.2242459
000350 fb c1 e5 be 6f d7 be 3e 30 c0 08 3f 7b 66 ed 3e
       -0.44874558 0.37273738 0.53418255 0.4636725
000360 c1 03 b3 3e 87 0f b8 be b3 52 1e be 6e 52 e3 3e
       0.34963802 -0.35949346 -0.15461235 0.44398826
000370 95 27 c7 be b3 d1 e9 3e 13 87 df be 6a c7 c8 be
       -0.38897386 0.456678 -0.4365774 -0.3921464
000380 e4 96 74 3e 8d f3 b1 be ee 7b 44 bd 2d 68 c9 3e
       0.23885685 -0.34756127 -0.04796975 0.39337292
000390 bb 42 cd 3e ae 31 ef 3e 7b 6c 4a be 2d c2 e2 be
       0.40089974 0.4671759 -0.19767945 -0.4428877
0003a0 ed f1 f7 3e c6 cc 04 be 4b 97 77 be 05 81 07 3e
       0.48426762 -0.1296874 -0.24178807 0.13232811
0003b0 d2 ff b2 be 6a 31 a5 3e 78 61 6d 3e 68 89 e5 be
       -0.349608 0.32264262 0.23181713 -0.44831395
0003c0 15 04 d3 be 2c c6 40 bd fc 5d 46 3e cf d5 5a bc
       -0.41214052 -0.04706399 0.1937179 -0.01335664
0003d0 6a 10 80 be c0 d0 a5 3c e6 04 f3 be 62 cc b9 be
       -0.25012523 0.020241141 -0.47464675 -0.36288744
0003e0 ce f5 a8 be 7a b5 d4 3e f5 0e d1 3e d7 3c 49 be
       -0.33000034 0.41544706 0.40831724 -0.19652115
0003f0 75 8a ea 3c 91 9d 57 3e 8f 03 22 3c ff 25 8a be
       0.028630475 0.210562 0.009888544 -0.26982114

SoftmaxPolicy_l1.bias f4 [128]
000000 0d 73 c2 be 7d 9f b5 3e 97 0c aa 3e d4 e3 ff be
       -0.37978402 0.35473242 0.3321273 -0.49978507
000010 4c d1 c9 be f3 04 ad be 1c 15 85 be 9a c7 f2 3d
       -0.39417493 -0.33792838 -0.25992668 0.11854477
000020 95 2b f8 be 7d 03 c8 be 51 82 6d 3e 7b 16 2f be
       -0.4847075 -0.3906516 0.23194243 -0.1709842
000030 b7 3d 5b be 75 4d d4 be 0d 02 43 3e 41 c8 e5 3d
       -0.21410261 -0.41465345 0.19043751 0.11219836
000040 fa 71 51 be 4e 5c 9f be a4 d2 ed 3d dd d0 19 3e
       -0.20453635 -0.3112511 0.11612442 0.15021081
000050 66 3b 44 3e c6 f4 28 3e e6 00 4a bd 8c a1 c8 be
       0.19163284 0.16499624 -0.049317263 -0.3918575
000060 b6 a8 b3 3e 19 b4 03 3d e3 4d b0 be 26 d7 ef 3e
       0.35089654 0.032154176 -0.34434423 0.46843833
000070 b0 59 92 3e 3d bd cf be 48 17 7c be 98 0c 23 be
       0.2858405 -0.40574065 -0.24618256 -0.15922773
000080 cb 08 95 be a2 91 6f 3e 2f 76 c1 be a6 23 e7 3e
       -0.2910827 0.23395398 -0.3778548 0.45144385
000090 94 d3 49 be f9 08 9b 3e ed f5 c5 3d 07 3f 6b be
       -0.19709617 0.30280283 0.09666047 -0.22973262
0000a0 d0 38 b0 3e 43 64 c2 be 64 be 87 be ac d4 dd 3d
       0.34418344 -0.3796712 -0.26512444 0.108315796
0000b0 42 e1 c6 3e 02 d3 54 be 21 e9 90 be 61 55 a5 be
       0.38843733 -0.20783618 -0.28302863 -0.322917
0000c0 5c cb 4b be 80 84 23 be 2c fb f6 bd 11 11 96 be
       -0.19901794 -0.15968513 -0.12059626 -0.29309896
0000d0 23 a4 2c 3e d3 4f aa 3d 53 d8 ae be 40 59 81 be
       0.16859488 0.083160065 -0.34149417 -0.25263405
0000e0 f2 3b ce 3d 69 96 da 3c f6 5d c8 3e 62 f6 6e bd
       0.100700274 0.02668305 0.39134187 -0.058340438
0000f0 e7 4f cf be 77 b2 ba be c6 91 07 be 38 c9 d6 bd
       -0.40490648 -0.36464283 -0.13239202 -0.10487598
000100 77 ab b1 3d 40 f3 04 be 45 b5 59 3e cd 3a 23 be
       0.086752824 -0.12983418 0.21260555 -0.159404
000110 60 3a c9 3e af 8b cd 3d 92 31 25 be b9 7c f3 3e
       0.3930235 0.10036408 -0.16132191 0.47556093
000120 b6 2e 28 3e da 11 b8 be 3b a9 87 be 6a 13 ac 3e
       0.16424069 -0.3595112 -0.264963 0.33608562
000130 75 05 61 3e 59 23 c3 3e cf f3 95 3c 69 87 b1 3e
       0.21974738 0.38112906 0.018304734 0.34673622
000140 42 50 8c 3e 97 0a 12 3e 1d 9d 18 be 5c 12 03 3f
       0.27404982 0.14261852 -0.14903684 0.5119989
000150 62 18 c6 3d 82 38 1e be 62 81 8b 3d 57 47 ff 3e
       0.096726194 -0.15451244 0.06811787 0.49859115
000160 b6 80 a3 3e 1d 26 74 bd fc 4e 05 3f ba 32 81 3e
       0.31934136 -0.05960666 0.52073646 0.25234014
000170 93 a7 84 be 89 32 eb be b5 bc 9f 3e 62 57 00 3f
       -0.259091 -0.45936993 0.3119866 0.50133336
000180 f6 e2 9a be c5 49 49 3e 72 d7 2e 3d 98 e7 02 be
       -0.30251282 0.19657047 0.042685933 -0.12783659
000190 82 80 dc bd b5 1c 2b 3e a3 f0 cf 3d 99 82 ab 3e
       -0.107666984 0.1671017 0.1015332 0.33498076
0001a0 59 27 3e 3e 79 5e 84 3e 06 79 f2 3e af 53 35 3e
       0.18569697 0.25853327 0.4735796 0.17707704
0001b0 8e 0f ef 3d b6 7a 0c be c1 4e c2 3e 48 3f be 3d
       0.11672889 -0.13718686 0.3795071 0.09289414
0001c0 f1 ec a6 3e 2f e6 f5 3e c9 72 07 be e0 02 aa 3e
       0.32602647 0.4802718 -0.13227381 0.33205318
0001d0 fe 8e 7d bd 4d 58 f5 3e 93 4f c8 3e d5 78 1f be
       -0.061903946 0.4791893 0.3912321 -0.15573438
0001e0 8e 18 3a 3c 71 7d 5a be bc 55 57 be f3 1f b4 bd
       0.011358393 -0.21336915 -0.21028799 -0.08795156
0001f0 ca ce e9 ba f8 1b 1e be 10 1e f1 be 7a d6 a0 be
       -0.0017838117 -0.15440357 -0.47093248 -0.31413633

SoftmaxPolicy_l2.weight f4 [128, 128]
000000 00 67 0a 3a 04 1d 28 bd 76 65 97 3d 76 e2 94 3d
       0.00052796304 -0.041043296 0.07392399 0.072697565
000010 71 00 68 3d c7 ff 25 3d e6 0a 93 bd 9f fa 50 3d
       0.056641046 0.04052713 -0.07179813 0.05102026
000020 45 3d 77 bd 45 3f 66 bc da 32 16 bd d9 e0 dd 3c
       -0.060361166 -0.014053171 -0.03666959 0.027084755
000030 fa c9 86 bd 44 ef 27 bd a5 31 76 bd d4 73 cf bd
       -0.06581493 -0.040999666 -0.06010594 -0.10129514
000040 51 a7 40 bd 98 cf a6 3d 02 ba c2 bb f3 6e 05 3d
       -0.047034565 0.08145064 -0.005942584 0.032576513
000050 c7 8f b0 bd 26 aa c8 3d 52 ae 4b bc f6 7c 9f bd
       -0.08621173 0.09798078 -0.012431698 -0.07787506
000060 cb 7d b6 3d 5c 90 61 bc 49 8e 94 3d 45 c8 61 bd
       0.08910712 -0.013767328 0.07253701 -0.055122633
000070 7b 53 8b bd c3 dd 5c bd 1e 71 0d 3d ff 27 b7 3c
       -0.06803032 -0.053922426 0.034531705 0.022357939
000080 7b 49 9c bd 50 9b 63 3c 9a a3 2c 3c ee 7c 0d 3d
       -0.07631203 0.01389201 0.0105370525 0.03454297
000090 bf ef 2f bd 58 4a 7f bd 98 69 ec 3d 20 2e 44 bd
       -0.04295325 -0.06232676 0.11543578 -0.04789555
0000a0 0a 50 34 3d c6 d5 93 3d 53 1e 8d bd e1 8c a0 bd
       0.044021644 0.072185084 -0.068905495 -0.078393705
0000b0 e8 ba c8 3c a1 7c 9c bd 77 7e 0d 3d f6 d8 07 bd
       0.024503186 -0.076409586 0.034544434 -0.033165894
0000c0 eb 33 14 bd ea 43 85 bd 2d b8 3c 3d 71 d6 3a bd
       -0.036182325 -0.06507094 0.04607408 -0.045614664
0000d0 8d fd af bd ab 23 86 bd 4e 99 28 bd 75 b6 a2 bd
       -0.08593283 -0.06549772 -0.041161828 -0.07944957
0000e0 a9 20 3b 3d a7 5b b0 bc ac 4b b4 3d 30 77 7e 3d
       0.045685444 -0.021528078 0.08803496 0.062125385
0000f0 6f 3a 68 bd 12 3c 38 bd 1b e5 2e bd 72 b7 6e 3d
       -0.05669635 -0.044979163 -0.04269896 0.058280416
000100 ad 9a cb 3b dd ad ce bc 0a d6 bc 3d 06 d6 d6 3d
       0.006213507 -0.025229389 0.09220512 0.104900405
000110 75 5b a6 3d 7a df 85 bd aa 8f 0e bd 0e 8c 4c bc
       0.08122913 -0.065367654 -0.034804977 -0.0124845635
000120 b2 46 c9 3d cb 5d 16 bd d2 4c 34 bd 00 09 90 3c
       0.09827937 -0.03671054 -0.044018574 0.017582417
000130 52 fd 9e bc 86 42 32 3d d6 32 87 3c 2b 21 98 bd
       -0.019407902 0.043520473 0.016503733 -0.07428201
000140 50 0d b2 3d b9 ad a9 3d 80 13 dd 3b 3f 1b 54 bd
       0.086939454 0.08285088 0.0067467093 -0.051783796
000150 90 ae 13 3d 58 02 5c 3d 91 e1 80 3d 0a 5f 1a bd
       0.036055148 0.053713173 0.062930234 -0.037688293
000160 e7 be a3 bb b7 8e cd bc eb c4 b7 3d 2d b2 01 3e
       -0.0049971226 -0.025092466 0.08973106 0.12665625
000170 27 a0 2b 3b a0 d6 5b bd e4 7e 29 3d 8e 34 54 3d
       0.0026187988 -0.05367148 0.041380778 0.051807933
000180 f2 74 16 3d 18 7d 9d bd 97 68 76 3c 06 67 0a bd
       0.03673262 -0.07689875 0.015039585 -0.033789657
000190 92 77 92 bd a7 0f 13 bd 00 b2 64 3d 90 0c 30 3d
       -0.071517125 -0.0359036 0.055833817 0.04298073
0001a0 1a 3b 9c bd 1b 79 85 3c 63 7c b5 3d 87 58 dd 3d
       -0.0762846 0.0162931 0.088616155 0.10807901
0001b0 d0 d1 90 3d 8e 76 cc bc 79 4b 53 3d 23 4d 58 3d
       0.070712686 -0.024958875 0.05158565 0.05280794
0001c0 6b 75 2e 3d a2 12 6d bd be c7 07 bd c5 3c 9f 3d
       0.042592447 -0.057879098 -0.033149473 0.07775263
0001d0 7e bf a1 3d dc 55 a5 3d d1 6d 2d bd 7a 0c 8c bc
       0.07897852 0.08073017 -0.042341057 -0.017095793
0001e0 43 10 61 bd 72 02 fe bc 1f ee 94 3d 38 e5 83 bd
       -0.05494715 -0.031007025 0.072719805 -0.064402044
0001f0 fe a4 d1 3b c2 48 ae 3c 07 fd 46 bd d7 18 1f 3d
       0.0063978424 0.021274928 -0.04858115 0.03884205
000200 bb 84 8a bc fa c7 8f 3d bb a1 30 bd ff ac 3a 3c
       -0.016908994 0.070205644 -0.04312299 0.011393785
000210 af 38 a0 bd 05 bb 4a 3d fb e6 ac 3d 05 f3 c8 3c
       -0.078233115 0.049494762 0.084424935 0.024529943
000220 86 69 65 3b fc 57 3a bd b1 08 24 bd d5 42 2e bd
       0.0035005524 -0.045494065 -0.04004735 -0.042544205
000230 e6 95 47 bd 2c b6 d6 3c b2 1f 50 3c e5 67 a7 3d
       -0.04872694 0.026209913 0.012702869 0.08174113
000240 dc b8 8f bd 79 f8 6a bd 16 1f 17 bd ea 99 0a bd
       -0.07017681 -0.05736587 -0.03689488 -0.03383819
000250 03 4b a1 3d c8 4e 33 3d b3 43 9e bd d6 61 67 bb
       0.078756355 0.043776304 -0.07727756 -0.0035306117
000260 c5 bf bd 3b 5f d6 99 3d ef da a8 3d 39 3c 72 3d
       0.005790683 0.07511591 0.08244883 0.059139464
000270 72 64 ae 3d 86 aa f0 bc a5 0d b3 ba 4d 18 a3 bd
       0.08515252 -0.029378187 -0.0013660683 -0.079636194
000280 65 74 d2 3c b9 ed f8 3d d3 35 50 3d fa 18 d9 3d
       0.025690267 0.12154717 0.05083258 0.10600467
000290 31 1a 08 bd 3e f8 ee 3c 6c 85 57 bd 80 ee 8d 3d
       -0.033228103 0.029171105 -0.052617475 0.06930256
0002a0 43 2c 1a bd b5 61 26 bd c7 03 62 3c c9 27 88 3c
       -0.037639868 -0.040620524 0.013794846 0.016620534
0002b0 18 83 78 3d f0 1e 51 bc cb a4 9a bc 85 75 34 3d
       0.060671896 -0.012763724 -0.018877408 0.044057388
0002c0 f4 6d 79 3d 25 cf cc 3d 50 b1 0b 3d 1c d6 0a bb
       0.060895875 0.10000447 0.034104645 -0.0021184748
0002d0 61 34 f9 3d 56 27 07 3e 37 6d 1f bd da 49 2a 3d
       0.121681936 0.13198599 -0.038922515 0.041574337
0002e0 d8 95 dc 3c 75 82 22 bd 43 75 cf bb ec 9f 74 bc
       0.02692692 -0.039675195 -0.0063311174 -0.0149307065
0002f0 e9 ed 87 bd be b6 05 bd 05 1d 5d 3d a1 5e 9a 3d
       -0.06637175 -0.03264498 0.053982753 0.0753758
000300 30 6e 38 3c 10 c9 9a bd 19 b5 53 3c f0 89 d6 bc
       0.0112567395 -0.07557881 0.012921595 -0.02618882
000310 13 7a a6 3d f9 09 af bd 43 13 46 bc 72 25 b0 3d
       0.081287526 -0.08546824 -0.012089553 0.08600892
000320 b5 2d 61 3c 79 b5 24 bd 52 24 a9 bd a9 c1 8b b9
       0.013743808 -0.04021213 -0.08258881 -0.00026656434
000330 7c 37 63 3d cb 43 70 bd 35 3f ab bd 6e ef 60 3d
       0.055472836 -0.058658402 -0.08361665 0.054915838
000340 71 c1 00 bd a4 ae 76 3d 64 0d 9e bd b2 8e 3f bc
       -0.03143448 0.060225144 -0.07717398 -0.011691736
000350 50 0c 63 bd e3 bd 1d bb 6f 86 af bd 97 80 3e 3d
       -0.055431664 -0.002406948 -0.08570563 0.04650935
000360 4a 0d 23 bd a0 3c 82 bd 61 a0 2e bd 5b c3 e8 bd
       -0.039807595 -0.063592196 -0.042633418 -0.11365386
000370 bd 75 3f 3d 6d 05 a0 bc 17 b3 cc bb b9 b1 93 3d
       0.046743143 -0.019533837 -0.006246935 0.07211632
000380 90 f6 42 bc ef c0 a3 3d 85 27 cf 3b b8 f7 73 bd
       -0.011899605 0.079957835 0.0063218498 -0.059562415
000390 d1 f7 c3 3c f7 26 db 3c 26 41 7f bd db 6d e6 3c
       0.023921879 0.026751978 -0.06231799 0.028128555
0003a0 04 c8 93 3c 37 49 9c 3d c7 22 03 bc c6 62 87 bd
       0.01803971 0.07631152 -0.008003897 -0.066106364
0003b0 64 a3 b1 bd d2 8d 0f 3d 71 bf bf bc 9b 8e af bc
       -0.086737424 0.03504736 -0.023406716 -0.021430304
0003c0 1e ab 0f bc 5b a6 c2 bc ba d9 c5 3c 52 5d a7 3d
       -0.008768825 -0.023760965 0.024151672 0.08172096
0003d0 68 7c 97 3d b6 8e 81 bd 8d a2 ba 3d 2e 7a 7b 3d
       0.073967755 -0.06326048 0.09113035 0.061395817
0003e0 a1 5c 71 3c a1 f8 27 3d 45 4a 6e 3d 2b 9e 9e 3d
       0.014731557 0.041008595 0.058176298 0.07745012
0003f0 e7 fd 48 3d d7 45 fb 3c 10 c5 11 bd 03 e1 6e bd
       0.049070265 0.03067295 -0.035588324 -0.058320057

SoftmaxPolicy_l2.bias f4 [128]
000000 a4 55 5e 3d 53 8b 13 bd e6 e3 69 3b e8 19 82 bd
       0.054280892 -0.03602154 0.0035688817 -0.063525975
000010 db c5 49 bd 3b bb 60 3d ab e6 a0 3c 84 15 ee 3c
       -0.049260955 0.054866057 0.019641241 0.029062994
000020 ad 83 4a 3d ec 79 db 3c 06 c1 06 3c 7b d3 25 bc
       0.049441982 0.026791535 0.008224731 -0.010121222
000030 00 1b 91 3a 46 ca a6 3d f4 5e 0f 3d 30 e0 36 3c
       0.0011070669 0.08144049 0.035002664 0.011161849
000040 02 b8 11 3d bc 26 20 bd b2 b8 8d bd a4 33 93 bc
       0.035575874 -0.03909944 -0.069199935 -0.01796896
000050 88 c1 c1 3d 36 7a b7 3c f3 88 85 bd 10 8a 6f 3d
       0.09460741 0.022397142 -0.065202616 0.058481276
000060 04 cc a5 3d b3 d4 8d 3d 61 38 47 3c 8a 1d b6 bc
       0.080955535 0.06925335 0.012159438 -0.022230882
000070 f8 cf 0e 3c c7 3a ef 3c 36 67 01 bd 88 fe 33 bd
       0.008716576 0.029202832 -0.03159257 -0.04394391
000080 37 9c a7 3c 62 79 36 3d d1 8e d4 bc f5 db 0e bc
       0.020460231 0.044549353 -0.025947006 -0.008719434
000090 7b 48 85 bd 28 3b 08 ba 71 ce 98 bc 93 6f bc 3d
       -0.06507965 -0.0005196803 -0.018653126 0.092009686
0000a0 0b 93 7f 3d 60 cb ec bc cc 45 8c bd 2b 6b 92 bd
       0.06239609 -0.02890557 -0.0684925 -0.07149347
0000b0 9b 54 4d bd 00 3c b5 3d cf 28 d2 bc 65 09 88 3d
       -0.050129514 0.08849335 -0.025654225 0.06642417
0000c0 6e f9 89 3d c1 46 26 bc 6d d5 20 3d 01 b6 e9 3c
       0.06737028 -0.010148705 0.03926604 0.028529169
0000d0 9f f3 a6 3d c2 16 31 3d 7f c8 4e 3d 87 c8 b8 3d
       0.08151936 0.043234594 0.050484177 0.090226226
0000e0 a1 ea 3d 3c 97 de ab 3d f6 d9 1d bb b5 71 89 bd
       0.011591584 0.08392065 -0.0024086214 -0.06711141
0000f0 d1 65 b0 3d af b5 87 bd 23 36 87 3a b9 41 af 3d
       0.0861317 -0.0662645 0.0010315817 0.085574575
000100 74 34 bf bc 8e 93 7c bd 09 8f 87 3d fb 03 0d 3d
       -0.023340441 -0.061664157 0.06619079 0.034427624
000110 2a e4 66 3d 29 00 3f 3d ef ca bd bd 56 63 94 3d
       0.056369938 0.046631012 -0.09267222 0.07245509
000120 59 c7 96 bd 4c e6 30 3c 3c 7e 4c bd 9e 0e 85 3d
       -0.07362241 0.010797095 -0.049925074 0.06496929
000130 61 c1 bb 3d 97 36 68 3c 74 ed bd bc a2 40 9d 3d
       0.091677435 0.0141731715 -0.023184516 0.07678343
000140 5d d2 8e 3d 75 3e 86 bc 8f 5e 8f 3d 0a d3 ff 3b
       0.06973717 -0.016387204 0.070004575 0.0078071402
000150 67 f4 28 bd a0 92 ac 3d 59 36 4e bd 8e 4b 84 bd
       -0.041248705 0.08426404 -0.0503448 -0.064597234
000160 99 05 52 3d 6a f3 08 3d db 98 91 3d cf 2d 15 bd
       0.05127487 0.033435263 0.07109233 -0.03642064
000170 c9 85 a5 3c 5d 65 40 3d 44 ac 95 3c 3f 1b 92 bd
       0.020205395 0.046971668 0.01827062 -0.07134103
000180 a8 20 6c 3d 2c 58 c1 3c f9 39 a0 bc 8d 7d af bc
       0.05764833 0.023601614 -0.019558894 -0.021422172
000190 47 fc ba bd 21 3b c2 3d e8 f7 4a 3c a9 27 c2 bc
       -0.09130149 0.09483934 0.012388207 -0.023700552
0001a0 2c 16 ca 3d ba 84 83 bd ee c3 c7 3c 2a 8d 55 bc
       0.0986751 -0.064218 0.024385419 -0.013034144
0001b0 3f e4 d7 bc d0 a0 fd 3a a0 97 4a bc 1c 23 9c 3d
       -0.026353953 0.0019350294 -0.012365252 0.07623884
0001c0 56 a6 82 3d 78 08 f9 3c 5b ae 98 bb 36 a2 67 bc
       0.06379382 0.030399546 -0.0046594567 -0.014137795
0001d0 5b f7 e3 bb 39 b9 09 bb 6c 33 05 3d c9 d9 8f 3d
       -0.0069569773 -0.0021014942 0.032519743 0.07023961
0001e0 b3 f6 7e bd a0 44 b6 bd a5 f7 5f bc f4 8f 91 3d
       -0.06224699 -0.08899808 -0.013669883 0.07107535
0001f0 1a 01 2c 3d 75 d9 11 bd 3e 57 65 3d da ae 1e 3d
       0.041993238 -0.035607774 0.055991404 0.03874097

SoftmaxPolicy_l3.weight f4 [2, 128]
000000 14 25 5a 3d ec c0 5e 3c 80 94 00 3e 39 22 62 3c
       0.053258017 0.013595801 0.12556648 0.013802105
000010 6e 2e b6 bd 9e 89 94 bc 8e ef 29 3d a4 90 c0 3d
       -0.088955745 -0.018132027 0.041488223 0.09402588
000020 52 4b 7c 3c 49 a7 fe 3b 1c c1 8f 3d 06 a8 90 3d
       0.015398817 0.007771407 0.070192546 0.07063298
000030 ba 50 b8 3d 74 36 7e 3c f9 74 7e 3b e8 ed c5 3d
       0.08999772 0.015515912 0.0038827045 0.09664518
000040 9a 48 62 3d 5b cd c3 3d 74 9c 31 bc 4a 68 cb 3d
       0.05524502 0.09560653 -0.010840524 0.09932001
000050 87 46 2e bd c5 93 ca 3d 12 33 1d bd 48 41 78 bc
       -0.04254773 0.09891466 -0.038378783 -0.015152283
000060 ff 88 11 bd a1 65 32 3d c9 4e 4a 3d fb 67 10 3d
       -0.03553104 0.043553952 0.04939154 0.035255414
000070 d4 f8 b3 bd ee b6 c3 3b 87 fb 21 bd 97 ff 11 bd
       -0.087876946 0.0059727347 -0.039546516 -0.03564414
000080 2b c6 5e 3d 01 fe 52 ba 62 38 50 3d a1 4a a1 bd
       0.054388206 -0.0008048714 0.05083502 -0.078755625
000090 aa 59 4c 3c ec b5 8d 3d 44 ab 72 3d ba 6f d4 3d
       0.012472549 0.069194645 0.059245363 0.10372873
0000a0 fa 5e 0a bc 8a a4 b0 3d 3a 62 8e bd 23 d2 1e bc
       -0.008445496 0.08625133 -0.06952329 -0.009693655
0000b0 2d 2e 10 bc 4f 39 e5 bc e0 69 06 3d db 0a 6e 3b
       -0.008800072 -0.027981428 0.032815814 0.0036322388
0000c0 ec f6 cf bd 97 8a c5 bd ad 20 1b 3d eb a0 74 bd
       -0.101545185 -0.096455745 0.03787296 -0.059723776
0000d0 00 07 e2 bd 83 fe 04 3e cf 91 65 bd d0 71 c5 3d
       -0.110364914 0.12987714 -0.056047257 0.09640849
0000e0 e5 79 88 3d 78 d2 45 3d 04 e4 99 bd 9c 8c a5 bc
       0.066638745 0.04829642 -0.07514194 -0.02020865
0000f0 ed 7f a8 3d f1 61 b2 3c 40 4e fe bd 35 04 07 3c
       0.08227525 0.021775218 -0.12417269 0.008240749
000100 cb 73 88 bd de 14 8f bd f1 32 aa bd f2 11 a7 3d
       -0.06662711 -0.06986402 -0.083104976 0.0815772
000110 6b b6 95 3d 88 4a 8c bd fd 6a 0d bd cf 9f a2 3d
       0.07310184 -0.06850153 -0.03452586 0.07940637
000120 fb 75 3b ba 55 10 6d bd 1f 9a e3 3c 9f c9 de bd
       -0.00071510643 -0.057876904 0.027783452 -0.108783
000130 cb ba b2 bd 2e 82 91 3d 33 6f b4 bd ee 29 cd 3d
       -0.08727034 0.07104908 -0.08810272 0.10017763
000140 72 be 05 bd c0 f1 67 bd 28 85 a7 bd a7 3d 60 3d
       -0.032652326 -0.056627035 -0.081796944 0.054746296
000150 38 11 f5 bd 5d 70 29 3d ae e4 e1 3c ff fb 08 3d
       -0.11966175 0.041366924 0.027574863 0.033443447
000160 62 80 d2 bd 60 7e 84 bd 07 b6 38 3d 32 a8 93 bd
       -0.10278393 -0.064694166 0.04509547 -0.07209815
000170 7f 65 38 bd 27 36 68 3d cb ae 31 3d 70 04 96 3d
       -0.04501867 0.05669227 0.043379586 0.07325065
000180 04 a8 8b 3b 2c e5 2a bd 6c 7f 02 3e 58 1f 98 3b
       0.0042619724 -0.04172246 0.1274392 0.0046424083
000190 dd 5a ae bc 68 94 9a 3d 35 73 ae bd 77 0c a8 3d
       -0.021283561 0.075478375 -0.08518068 0.082055025
0001a0 79 30 11 3d 10 b9 6e bc 9d 5d 93 bd 37 82 d1 bc
       0.035446618 -0.0145704895 -0.0719559 -0.025574787
0001b0 b0 57 be bc ee 18 9e 3c 37 46 75 bd 97 30 40 3d
       -0.023235172 0.019298997 -0.059881415 0.04692134
0001c0 a4 9f f5 bd 7f a7 9f bd 9b 98 e2 bb fa ef dc 3d
       -0.1199334 -0.07795619 -0.0069151646 0.107879594
0001d0 7d d4 92 3d e0 cb b2 bd fa 47 9d 3d 0c 0f 6a bd
       0.07169435 -0.08730292 0.07679744 -0.057143256
0001e0 b8 6f 9b 3d 2b 32 27 3c 65 e8 bf bc bf 58 cb bd
       0.07589668 0.010204832 -0.023426244 -0.09929036
0001f0 34 db d0 bd 67 e8 d5 bd 27 9e 6b bd f5 89 8d 3d
       -0.1019806 -0.10444718 -0.057523873 0.06911079
000200 ea 83 c3 bb 16 f1 e0 3d 66 bd ec bd c6 41 ae 3d
       -0.005966653 0.109834835 -0.115595624 0.08508639
000210 d2 4d 8f 3c 23 34 bc 3d 61 2c d1 bd 06 17 9e bd
       0.017493162 0.09189632 -0.10213543 -0.07719235
000220 24 b7 df 3d 4e 86 50 3d 4b 71 f3 bd 08 b6 ce bd
       0.10923603 0.050909333 -0.11886843 -0.100933135
000230 18 07 dc bc 81 93 fb 3d 81 c8 af 3d 3a 00 ab bd
       -0.026858851 0.122839935 0.08583165 -0.083496526
000240 ab 70 38 3c 8c 9b 84 3c ad f6 84 bd 62 a5 ac bd
       0.011257331 0.016187452 -0.06492362 -0.08429982
000250 16 de d1 3d b1 67 00 3c 12 e8 16 3d 19 ba d6 3d
       0.10247438 0.007837222 0.036842413 0.10484714
000260 a6 02 16 3d 46 0d 12 be e1 f0 86 bd 26 c6 7e bd
       0.03662362 -0.14262876 -0.06588913 -0.062200688
000270 5a bf 98 bd 53 4c 83 3d 05 49 84 3b 40 30 ed 3d
       -0.074583724 0.06411042 0.004037025 0.115814686
000280 8b 90 0d bd c4 5a 9e 3c 65 6f eb bc 72 05 9f 3d
       -0.034561675 0.01933039 -0.02873964 0.077647105
000290 f2 79 76 3d 69 ea 9f bc f5 38 5f bd a6 0d 40 bd
       0.06017489 -0.019520955 -0.054497678 -0.046888016
0002a0 b9 75 8b bd b1 39 15 be e1 5c 2c 3d 49 f5 5d 3d
       -0.06809563 -0.14572789 0.042080764 0.054189
0002b0 76 fe db bd 00 c3 03 3e 0a a4 7b bd 0b c1 bf bd
       -0.10741894 0.12867355 -0.061435737 -0.09362992
0002c0 49 db 8c 3d 69 b3 83 3d d6 fb 8c bc 64 e0 9b 3c
       0.06877763 0.06430704 -0.017209928 0.019027896
0002d0 d9 08 19 3d 2b 57 f0 bd 3c 20 0c 3e f1 18 bc bd
       0.037361953 -0.11735376 0.13684171 -0.09184445
0002e0 2a 19 4e bd 6d e7 15 be 09 8c d8 bc 17 bc d0 3c
       -0.050316967 -0.14639063 -0.026433961 0.025480313
0002f0 04 37 f9 bd f9 03 8e bd 9b 50 40 3c 9b 65 88 bd
       -0.121686965 -0.069343515 0.011737968 -0.06660005
000300 73 c4 a3 3d f9 41 e3 3d a0 26 16 bb 1b b9 53 bd
       0.07996454 0.11096568 -0.0022911206 -0.051690202
000310 a7 91 5e 3d f1 5f 28 3c b7 ef 8a 3d 8b da b2 3c
       0.054338124 0.01027678 0.06784003 0.021832725
000320 b9 68 84 3d de 52 f7 3d 67 2a 82 bd ff 96 5d bd
       0.06465287 0.120763525 -0.06355744 -0.05409908
000330 8c 03 a2 3b 80 c5 c5 bd 9e fc 94 3d 17 f9 8e bd
       0.0049442705 -0.09656811 0.072747454 -0.06981104
000340 1e f2 55 3d 90 30 8d bd 3d 22 8d 3d 3e 3b c6 3c
       0.052232854 -0.06894028 0.06891296 0.02419817
000350 23 03 e8 3d 72 ad 8b bd 7e 8b 97 3c 65 94 51 bd
       0.11328723 -0.068201914 0.018499132 -0.05116691
000360 5e 64 a9 3b 74 e4 8b 3d 16 26 c4 bd 6c 22 b2 3d
       0.0051694354 0.06830683 -0.09577577 0.08697972
000370 07 2e 12 3d a1 a3 d5 bc e1 12 95 3d d1 30 16 3c
       0.035688426 -0.026079 0.072789915 0.009166912
000380 39 b9 e0 bd cd e5 97 3d 85 6f 7e 3c d9 13 42 bd
       -0.109728284 0.07416878 0.015529518 -0.04738221
000390 44 d4 66 3d 9e 61 26 bd 0a f6 3c 3d 80 5a 22 bd
       0.056354776 -0.04062044 0.04613308 -0.03963709
0003a0 32 f2 14 be e2 e0 c7 3d 42 1a d0 3d f1 f2 f6 bd
       -0.14545515 0.0975969 0.10161258 -0.12058056
0003b0 83 e4 97 bd b4 a2 ac 3d a8 b2 60 3d bc 0e 45 bd
       -0.07416632 0.08429471 0.05485788 -0.048109755
0003c0 a8 2e 5f 3c bd c9 b5 3d 43 c0 cd 3d 33 3b 02 be
       0.013621964 0.08876369 0.10046437 -0.12717895
0003d0 5e b6 73 bd b7 32 75 bc 0e 32 c9 bd 28 cf 53 bc
       -0.05950009 -0.014965705 -0.09824 -0.012927808
0003e0 ac 1b b6 ba f4 b6 83 bc bd 67 72 bd 33 e4 d9 3b
       -0.0013893745 -0.01607845 -0.059180964 0.006649518
0003f0 95 81 be 3b 67 31 0e bd 2c f0 86 3d 9b 9a 93 bd
       0.005813787 -0.034715082 0.06588778 -0.07207223

SoftmaxPolicy_l3.bias f4 [2]
000000 6a e6 05 3d 7e 8d 8a bc
       0.032690443 -0.016913172
