pytorch_models/model280621.pth (torch, 72107 bytes, 6 tensors)

SoftmaxPolicy_l1.weight f4 [128, 4]
0.2540391 -0.22546855 -0.11220567 0.22873443 -0.46964958 0.311356 -0.0491062 0.25965163
0.06988152 -0.054918077 0.20766264 0.05191335 0.17577232 -0.19174813 -0.02996559 -0.04867344
0.07194675 -0.0017532976 0.43536365 0.1539636 -0.18179674 -0.29940918 -0.08284376 -0.21234253
-0.16160634 0.020953301 0.313027 0.28161648 -0.48770773 0.3273749 0.2610746 0.52064127
0.32957375 -0.4641116 -0.4905487 -0.23338868 0.41752645 -0.09662966 0.21761346 -0.233435
0.4839981 -0.23368536 0.29699287 -0.014147956 -0.2587348 0.25824112 -0.25392234 0.156613
-0.13051319 -0.049648773 -0.46963105 -0.22928028 0.2719725 -0.11323733 0.4974936 0.40360728
-0.028294181 -0.30838326 0.41728303 0.19973508 -0.31695735 0.3403881 0.4292694 0.4928131
-0.27918473 -0.08172499 -0.0305331 0.06667027 -0.37894368 -0.35546085 0.24788466 -0.12489314
0.23010087 0.031992216 0.3070436 0.18396027 0.16609512 0.25209445 -0.3135754 0.32863536
-0.34395665 -0.37512776 0.08562465 -0.0544912 0.28921276 -0.28401086 -0.35527176 0.412839
-0.069469966 0.2788077 0.085984215 -0.42343262 0.097163975 0.11336662 -0.34120017 -0.23707123
0.17603047 0.06926423 -0.36325434 -0.21984729 0.44702548 -0.08328514 0.40309015 0.2702497
-0.3211952 -0.42254832 0.4601744 0.015531963 0.33657163 0.114150696 0.2711533 0.4162348
0.46399716 -0.32400766 0.19334665 0.4461088 0.3497778 0.29844815 -0.36980727 -0.36211148
-0.30670208 0.057770044 0.51068985 -0.3112537 0.2722291 -0.28420225 -0.49293995 -0.106572025
0.28221124 0.4621837 -0.28808588 0.11425495 0.41819948 0.3528898 0.41253495 0.38048536
0.3019327 0.1142291 -0.3331258 -0.41181183 -0.23498814 -0.055902895 -0.18145934 0.24994312
0.15808915 -0.11181992 0.20851335 0.17674245 0.29657018 0.35926652 -0.058076423 0.5249238
-0.04262952 -0.029333167 -0.6080671 -0.37356722 -0.28969368 -0.21389781 0.3431319 -0.16393963
-0.36569607 0.2170387 0.26504907 0.34719658 -0.2623261 0.10473264 -0.1820842 -0.1135816
-0.39391664 -0.22927557 -0.16873203 0.21499743 0.08328657 0.14502996 0.6268546 0.51615417
0.33202222 0.02252798 -0.21886311 0.45240048 -0.13269721 -0.04842117 -0.44109374 -0.0998114
-0.33178893 0.4554064 -0.4803543 -0.4222624 -0.011316636 -0.2667911 0.17302266 -0.19193381
-0.23368199 0.042502664 0.33900008 -0.38190195 0.23029582 0.31527895 0.46826294 -0.35908797
0.13522035 -0.3651172 0.39131427 -0.20743239 0.2945561 0.015780669 -0.011556553 -0.0041992096
0.07353708 0.23573509 0.21605408 0.22779492 -0.44613737 0.3732941 0.5365973 0.46528915
0.34562665 -0.3607786 -0.15233488 0.44270238 -0.3880054 0.45855626 -0.4384535 -0.3936158
0.23947527 -0.34621787 -0.04594936 0.39741114 0.3996105 0.46806952 -0.19993545 -0.4466481
0.48302972 -0.12982763 -0.24250612 0.1301627 -0.3511024 0.3219737 0.22990683 -0.44840991
-0.41287625 -0.048451766 0.19275586 -0.013156533 -0.25201145 0.019302014 -0.4753586 -0.36371893
-0.33036524 0.41396457 0.40816697 -0.19580598 0.028500557 0.21163395 0.007975573 -0.27089134
00000000: 6a11 823e 3ae1 66be 16cc e5bd 5c39 6a3e
00000010: e975 f0be 0e6a 9f3e 9523 49bd 0ff1 843e
00000020: 0b1e 8f3d c7f1 60bd 84a5 543e 18a3 543d
00000030: a9fd 333e 9f59 44be 667a f5bc cd5d 47bd
00000040: d158 933d e8ce e5ba fce7 de3e a2a8 1d3e
00000050: ed28 3abe 294c 99be fda9 a9bd 5270 59be
00000060: 227c 25be 42a6 ab3c 1345 a03e 0930 903e
00000070: d4b4 f9be af9d a73e 92ab 853e bf48 053f
00000080: e4bd a83e 09a0 edbe 3329 fbbe 71fd 6ebe
00000090: 07c6 d53e c5e5 c5bd 10d6 5e3e 9609 6fbe
000000a0: 99ce f73e 374b 6fbe 730f 983e d4cc 67bc
000000b0: e378 84be 2e38 843e 1c02 82be 295f 203e
000000c0: 40a5 05be 835c 4bbd 7b73 f0be 73c8 6abe
000000d0: fb3f 8b3e f9e8 e7bd 7bb7 fe3e 9da5 ce3e
000000e0: 33c9 e7bc 69e4 9dbe 1fa6 d53e 5a87 4c3e
000000f0: 3c48 a2be 5947 ae3e 33c9 db3e 0052 fc3e
00000100: 4df1 8ebe 6e5f a7bd 8d20 fabc 6c8a 883d
00000110: e804 c2be f7fe b5be 7ad5 7d3e f9c7 ffbd
00000120: 909f 6b3e 450a 033d d234 9d3e 1560 3c3e
00000130: d714 2a3e 8612 813e f48c a0be e542 a83e
00000140: 161b b0be bf10 c0be fa5b af3d 2a32 5fbd
00000150: b213 943e df69 91be 2ee6 b5be a25f d33e
00000160: 4546 8ebd e2bf 8e3e 7e18 b03d 29cc d8be
00000170: e8fd c63d c22c e83d cab1 aebe cdc2 72be
00000180: 5541 343e 68da 8d3d 79fc b9be a61f 61be
00000190: 86e0 e43e 6691 aabd d561 ce3e 2b5e 8a3e
000001a0: b273 a4be 4158 d8be fb9b eb3e c679 7e3c
000001b0: 1e53 ac3e d7c7 e93d 9bd4 8a3e ba1c d53e
000001c0: 0991 ed3e 55e4 a5be aafc 453e 5f68 e43e
000001d0: 1316 b33e 32ce 983e 6157 bdbe ad66 b9be
000001e0: 0e08 9dbe 48a0 6c3d 92bc 023f a55c 9fbe
000001f0: 9d61 8b3e f582 91be a062 fcbe 6f42 dabd
00000200: fe7d 903e 58a3 ec3e fe7f 93be 80fe e93d
00000210: 3e1e d63e f9ad b43e c837 d33e face c23e
00000220: ec96 9a3e f2f0 e93d 778f aabe 00d9 d2be
00000230: bba0 70be 6ffa 64bd 7ad0 39be 17f1 7f3e
00000240: 1fe2 213e d801 e5bd 8684 553e f9fb 343e
00000250: 0cd8 973e c8f1 b73e 8be1 6dbd 6861 063f
00000260: 4b9c 2ebd 1c4c f0bc 49aa 1bbf 3444 bfbe
00000270: bb52 94be 0708 5bbe fcae af3e cadf 27be
00000280: 843c bbbe 653f 5e3e 83b4 873e c0c3 b13e
00000290: 9b4f 86be 117e d63d 4874 3abe 789d e8bd
000002a0: 71af c9be 37c7 6abe 17c8 2cbe 4928 5c3e
000002b0: 2692 aa3d bc82 143e 8b79 203f ae22 043f
000002c0: d1fe a93e 998c b83c a71d 60be 09a1 e73e
000002d0: c7e1 07be 4755 46bd 0ad7 e1be eb69 ccbd
000002e0: 3de0 a9be 072b e93e 00f1 f5be c732 d8be
000002f0: 6969 39bc d898 88be da2c 313e 4c8a 44be
00000300: 554a 6fbe 4617 2e3d 6b91 ad3e a788 c3be
00000310: abd2 6b3e 3e6c a13e 29c0 ef3e 61da b7be
00000320: 3477 0a3e a4f0 babe 585a c83e 2869 54be
00000330: 0fd0 963e 7646 813c b257 3dbc 8699 89bb
00000340: 9c9a 963d 8a64 713e 483d 5d3e 1243 693e
00000350: 1e6c e4be 6720 bf3e 715e 093f 613a ee3e
00000360: faf5 b03e f9b7 b8be adfd 1bbe e3a9 e23e
00000370: a5a8 c6be e3c7 ea3e fa7c e0be 0388 c9be
00000380: 0139 753e 7843 b1be 6535 3cbd 7979 cb3e
00000390: bf99 cc3e cfa6 ef3e e1bb 4cbe 0faf e4be
000003a0: ac4f f73e 89f1 04be 8653 78be 5f49 053e
000003b0: b2c3 b3be bdd9 a43e b26c 6b3e fc95 e5be
000003c0: 8464 d3be 5c75 46bd cb61 453e 808e 57bc
000003d0: a507 81be 421f 9e3c 3462 f3be 5e39 babe
000003e0: a225 a9be 2af3 d33e 43fb d03e 5d81 48be
000003f0: 007a e93c 92b6 583e faab 023c 45b2 8abe

SoftmaxPolicy_l1.bias f4 [128]
-0.37942588 0.35354364 0.3319538 -0.49735227 -0.39417493 -0.33912244 -0.2595748 0.11954491
-0.48135883 -0.39351004 0.23062582 -0.17111266 -0.21577176 -0.41260114 0.19222125 0.112205215
-0.20500207 -0.31071675 0.11697987 0.15075016 0.19225885 0.16528836 -0.04717299 -0.39209956
0.35018432 0.034339868 -0.3444898 0.46950144 0.28595385 -0.40620327 -0.24820213 -0.16128427
-0.2915797 0.23455353 -0.3778577 0.45178962 -0.19607015 0.30302575 0.098772384 -0.22944422
0.34392378 -0.37782326 -0.2651021 0.10908771 0.38904992 -0.20564047 -0.28188658 -0.32227826
-0.19883104 -0.16007067 -0.11863395 -0.29343638 0.16947085 0.085324675 -0.34503764 -0.25172052
0.10107952 0.02642374 0.39060318 -0.057542138 -0.40480512 -0.36298537 -0.1332339 -0.10398189
0.0869395 -0.13029794 0.2118346 -0.15877698 0.3918001 0.09920512 -0.16167098 0.47630426
0.16446394 -0.36000445 -0.26336202 0.33593953 0.22067653 0.37991133 0.019687489 0.34754202
0.27385783 0.1415607 -0.15031442 0.5114342 0.09573993 -0.15572791 0.06843736 0.49988088
0.31931743 -0.059105877 0.5203625 0.25195745 -0.26275885 -0.45956972 0.31289154 0.50215334
-0.3041005 0.19744167 0.044965103 -0.12763488 -0.107628964 0.16733257 0.10117556 0.33499822
0.18711391 0.25811723 0.4729073 0.17683133 0.11645224 -0.13568814 0.38010588 0.093709044
0.3277163 0.48080343 -0.13445829 0.33230123 -0.06001626 0.4784913 0.39192387 -0.15505296
0.012007985 -0.2156754 -0.21261288 -0.08576027 -0.0031296506 -0.15392737 -0.46992177 -0.31279388
00000000: 1c44 c2be ac03 b53e d9f5 a93e f5a4 febe
00000010: 4cd1 c9be 75a1 adbe fde6 84be f6d3 f43d
00000020: aa74 f6be 267a c9be 2d29 6c3e 2838 2fbe
00000030: 46f3 5cbe 7540 d3be a6d5 443e d9cb e53d
00000040: 10ec 51be 4416 9fbe 2493 ef3d 405e 1a3e
00000050: 81df 443e 5a41 293e 7738 41bd 46c1 c8be
00000060: 5c4b b33e f6a7 0c3d f860 b0be 7e62 f03e
00000070: 8b68 923e e0f9 cfbe b328 7ebe b427 25be
00000080: ef49 95be cd2e 703e 9176 c1be f850 e73e
00000090: 9dc6 48be 3126 9b3e 2d49 ca3d 6df3 6abe
000000a0: c716 b03e 0d72 c1be 76bb 87be 6169 df3d
000000b0: 8d31 c73e 6a93 52be 7053 90be a801 a5be
000000c0: 5d9a 4bbe 91e9 23be 5bf6 f2bd 4b3d 96be
000000d0: c489 2d3e b4be ae3d c6a8 b0be 83e1 80be
000000e0: c802 cf3d 9976 d83c 24fd c73e 4eb1 6bbd
000000f0: 9e42 cfbe 38d9 b9be 786e 08be 75f4 d4bd
00000100: 560d b23d d36c 05be 2beb 583e 6f96 22be
00000110: 069a c83e 0e2c cb3d 148d 25be 27de f33e
00000120: 3c69 283e 8152 b8be 63d7 86be 4400 ac3e
00000130: 07f9 613e bd83 c23e a847 a13c 07f1 b13e
00000140: 1837 8c3e 4af5 103e 06ec 19be 5aed 023f
00000150: 4c13 c43d 2377 1fbe e328 8c3d 63f0 ff3e
00000160: 937d a33e 0119 72bd 7a36 053f 9100 813e
00000170: 5488 86be b94c ebbe 5233 a03e 1f8d 003f
00000180: 10b3 9bbe 262e 4a3e 542d 383d b8b2 02be
00000190: 936c dcbd 3b59 2b3e 2235 cf3d e384 ab3e
000001a0: ca9a 3f3e f127 843e e820 f23e 4613 353e
000001b0: 837e ee3d d5f1 0abe 3d9d c23e 87ea bf3d
000001c0: 6eca a73e de2b f63e 6faf 09be 6323 aa3e
000001d0: 9cd3 75bd d0fc f43e 3faa c83e 34c6 1ebe
000001e0: 24bd 443c 03da 5cbe 31b7 59be 15a3 afbd
000001f0: d31a 4dbb 239f 1dbe 9699 f0be 8526 a0be

SoftmaxPolicy_l2.weight f4 [128, 128]
-0.00065609225 -0.04095378 0.072834976 0.07080464 0.056641046 0.04275363 -0.07165777 0.050682157
-0.058891226 -0.014569635 -0.037855193 0.029817976 -0.064379275 -0.04255792 -0.06074171 -0.10207663
-0.045363236 0.08310163 -0.0073780967 0.031525392 -0.08545679 0.095901065 -0.011022301 -0.073997885
0.0887579 -0.0152153885 0.07409601 -0.056480344 -0.069988996 -0.053648047 0.036463004 0.022107724
-0.07615112 0.01287244 0.010845761 0.03413058 -0.043597147 -0.06349624 0.11758204 -0.046213053
0.04376138 0.074001186 -0.06736522 -0.08120965 0.023026912 -0.07440824 0.03726701 -0.031946473
-0.034460805 -0.06436056 0.05019622 -0.046782937 -0.08688832 -0.065831 -0.04174553 -0.07704166
0.04366673 -0.02108684 0.08687094 0.06317507 -0.05472581 -0.04338109 -0.041498072 0.05969855
0.006296362 -0.025681017 0.092246324 0.10333677 0.081340775 -0.064369805 -0.035321817 -0.013340818
0.09971347 -0.036381487 -0.0421811 0.017529357 -0.020724928 0.043509617 0.01851102 -0.07494128
0.0875591 0.08120119 0.008039448 -0.05283004 0.03682545 0.054902654 0.06506435 -0.037938606
-0.0060859695 -0.025631301 0.089840546 0.12650426 0.00027235423 -0.053399988 0.04184503 0.05146799
0.03926559 -0.078225404 0.0145757105 -0.034989227 -0.06996049 -0.0342017 0.054087725 0.041423187
-0.074378975 0.016400088 0.08889478 0.10834669 0.071618505 -0.027124628 0.052278053 0.05148159
0.042249028 -0.05934479 -0.031588607 0.076359265 0.08122821 0.08049634 -0.04337494 -0.015788881
-0.05672055 -0.03309506 0.07312831 -0.06558105 0.0047390764 0.022658842 -0.046983156 0.036558405
-0.015562021 0.06985015 -0.04223064 0.013364298 -0.078233115 0.047476206 0.08431398 0.024751225
0.002307595 -0.04504137 -0.038932502 -0.045018848 -0.05020578 0.028185863 0.013281981 0.0824939
-0.07174549 -0.058939196 -0.035525307 -0.032875035 0.07782326 0.045916047 -0.07896757 -0.0070536938
0.005890136 0.07657113 0.08101608 0.060388666 0.08712882 -0.029793678 -0.003319529 -0.079258665
0.025529286 0.122476585 0.05039729 0.10621809 -0.03224515 0.030248797 -0.055255108 0.06768082
-0.037569012 -0.04241255 0.012348344 0.019317182 0.0620736 -0.014720634 -0.021593241 0.043023266
0.059066486 0.099165566 0.03044176 -0.0010560119 0.12252281 0.13219674 -0.03810843 0.039119586
0.029026328 -0.04024765 -0.0052620657 -0.016335538 -0.06819863 -0.034319762 0.052730266 0.07386206
0.01107474 -0.07510716 0.012542222 -0.02449666 0.08093545 -0.0866778 -0.011817516 0.086741894
0.011854008 -0.040686287 -0.084512375 -0.00055520027 0.056762304 -0.058873676 -0.085793406 0.055388514
-0.032465354 0.061877128 -0.0784221 -0.010807473 -0.056313332 -0.0035396228 -0.08816019 0.04650424
-0.038817693 -0.06310519 -0.04299967 -0.113766536 0.04912776 -0.019731406 -0.006941288 0.072233446
-0.014113939 0.081262335 0.0069179926 -0.058396813 0.02205328 0.02489462 -0.060573943 0.029643448
0.015793057 0.07614911 -0.008611663 -0.066762984 -0.0880328 0.03721842 -0.024308888 -0.0201359
-0.008608802 -0.022382922 0.022595521 0.08309867 0.07169709 -0.06332378 0.092059046 0.059924006
0.016621795 0.043236833 0.057648588 0.07880007 0.050833322 0.029253643 -0.037031192 -0.056010135
00000000: 9bfd 2bba 27bf 27bd 812a 953d 0602 913d
00000010: 7100 683d 6e1e 2f3d 4fc1 92bd 1898 4f3d
00000020: ed37 71bd 7ab5 6ebc 0c0e 1bbd d444 f43c
00000030: 48d9 83bd 3751 2ebd 4dcc 78bd 8d0d d1bd
00000040: cdce 39bd 3031 aa3d f6c3 f1bb c520 013d
00000050: f803 afbd c767 c43d e296 34bc 348c 97bd
00000060: b4c6 b53d f749 79bc a6bf 973d ef57 67bd
00000070: 6456 8fbd 0ebe 5bbd 3b5a 153d 421b b53c
00000080: 1ef5 9bbd ede6 523c 6bb2 313c 82cc 0b3d
00000090: ec92 32bd 510a 82bd dace f03d e649 3dbd
000000a0: 223f 333d ef8d 973d c7f6 89bd 3f51 a6bd
000000b0: efa2 bc3c 5963 98bd 4ba5 183d 4eda 02bd
000000c0: c626 0dbd 78cf 83bd 8d9a 4d3d 779f 3fbd
000000d0: 81f2 b1bd 67d2 86bd 5cfd 2abd 05c8 9dbd
000000e0: e3db 323d 4fbe acbc 64e9 b13d ee61 813d
000000f0: 2c28 60bd 5fb0 31bd e2f9 29bd 7786 743d
00000100: b651 ce3b ff60 d2bc a4eb bc3d 3aa2 d33d
00000110: fe95 a63d 51d4 83bd 9cad 10bd 7293 5abc
00000120: 9336 cc3d c104 15bd 17c6 2cbd ba99 8f3c
00000130: 53c7 a9bc 2437 323d 6ca4 973c d07a 99bd
00000140: 2f52 b33d cf4c a63d e4b7 033c 5064 58bd
00000150: 48d6 163d 9be1 603d 7540 853d 8365 1bbd
00000160: d06c c7bb bcf8 d1bc 52fe b73d 558a 013e
00000170: c4ca 8e39 f2b9 5abd b265 2b3d 19d0 523d
00000180: f5d4 203d a434 a0bd f6ce 6e3c dd50 0fbd
00000190: 7247 8fbd 1517 0cbd 178b 5d3d 5cab 293d
000001a0: 0154 98bd 7a59 863c 770e b63d dfe4 dd3d
000001b0: b9ac 923d 7834 debc 8321 563d 5cde 523d
000001c0: 510d 2d3d 8613 73bd 0e63 01bd 3f62 9c3d
000001d0: fa5a a63d 44db a43d eca9 31bd af57 81bc
000001e0: cf53 68bd b08e 07bd 4cc4 953d 5c4f 86bd
000001f0: 414a 9b3b 099f b93c 6971 40bd 44be 153d
00000200: d9f7 7ebc 980d 8f3d 09fa 2cbd eef5 5a3c
00000210: af38 a0bd 6976 423d cfac ac3d 15c3 ca3c
00000220: 053b 173b 4d7d 38bd b077 1fbd af65 38bd
00000230: 93a4 4dbd 0ae6 e63c ab9c 593c 90f2 a83d
00000240: 4def 92bd 3a6a 71bd fc82 11bd f9a7 06bd
00000250: cd61 9f3d 7712 3c3d c0b9 a1bd ac22 e7bb
00000260: 0b02 c13b 53d1 9c3d c2eb a53d 1b5a 773d
00000270: 9870 b23d df11 f4bc 748c 59bb 5e52 a2bd
00000280: cb22 d13c 01d5 fa3d 646d 4e3d df88 d93d
00000290: 7e13 04bd 53cc f73c 2e53 62bd 3e9c 8a3d
000002a0: f7e1 19bd c8b8 2dbd b550 4a3c 113f 9e3c
000002b0: e340 7e3d d02e 71bc 4fe4 b0bc 2a39 303d
000002c0: b3ef 713d 5117 cb3d ff60 f93c e169 8aba
000002d0: 3ded fa3d 955e 073e 9617 1cbd dc3b 203d
000002e0: 9fc8 ed3c b8da 24bd 686d acbb 1bd2 85bc
000002f0: b9ab 8bbd e192 0cbd b1fb 573d fe44 973d
00000300: d472 353c c8d1 99bd e47d 4d3c 38ad c8bc
00000310: 7cc1 a53d 2184 b1bd 419e 41bc bca5 b13d
00000320: 5037 423c aaa6 26bd d314 adbd dc8a 11ba
00000330: 977f 683d 8625 71bd 74b4 afbd 11df 623d
00000340: 64fa 04bd df72 7d3d c49b a0bd d411 31bc
00000350: cfa8 66bd 04f9 67bb 548d b4bd 3b7b 3e3d
00000360: 4dff 1ebd 4b3d 81bd 6c20 30bd 6efe e8bd
00000370: 313a 493d c2a3 a1bc be73 e3bb 21ef 933d
00000380: 273e 67bc de6c a63d 54b0 e23b 7f31 6fbd
00000390: 15a9 b43c cdef cb3c 621c 78bd d1d6 f23c
000003a0: 7160 813c 11f4 9b3d ef17 0dbc 08bb 88bd
000003b0: 8a4a b4bd 5872 183d 6f23 c7bc 0bf4 a4bc
000003c0: ef0b 0dbc 645c b7bc 3e1a b93c a32f aa3d
000003d0: edd5 923d e6af 81bd 7489 bc3d e072 753d
000003e0: 6e2a 883c 1b19 313d ed20 6c3d ee61 a13d
000003f0: 9a36 503d 56a5 ef3c 05ae 17bd e26a 65bd

SoftmaxPolicy_l2.bias f4 [128]
0.053589314 -0.03558406 0.003488672 -0.06302234 -0.048680525 0.05540239 0.019110002 0.029248396
0.050126098 0.02528938 0.007866327 -0.010505721 0.0011070669 0.08214006 0.034006923 0.010816875
0.0367407 -0.03938702 -0.06919022 -0.017995855 0.095256664 0.021883994 -0.065202616 0.059445985
0.080955535 0.06896184 0.011698651 -0.022575451 0.008716576 0.02962226 -0.03350452 -0.043476075
0.020002762 0.044739757 -0.026530728 -0.008719434 -0.06507965 -3.6960446e-05 -0.0188516 0.091898136
0.061931424 -0.029128434 -0.0684925 -0.07269894 -0.050604325 0.089138515 -0.02577451 0.066233106
0.067878276 -0.009743059 0.038512032 0.028970575 0.082407385 0.042879753 0.05104579 0.08977284
0.012226994 0.083612084 -0.0024086214 -0.066186726 0.08573996 -0.0662645 0.0014957795 0.08421696
-0.024159383 -0.060678415 0.06619079 0.03390085 0.057030436 0.0471103 -0.08875549 0.072007716
-0.073217176 0.011638638 -0.050238106 0.065505356 0.092228964 0.013093266 -0.022797886 0.07622088
0.069357656 -0.015480174 0.07079533 0.008206402 -0.04055332 0.08360703 -0.05150778 -0.063221246
0.051928386 0.033435263 0.07114255 -0.035843227 0.02076597 0.046420928 0.01827062 -0.07194581
0.057275288 0.02324268 -0.019889157 -0.020904593 -0.09272096 0.094533056 0.013776799 -0.024323238
0.09830896 -0.0629169 0.024789589 -0.013576092 -0.026136864 0.0019350294 -0.011764451 0.075704314
0.064402364 0.030997759 -0.004121562 -0.014442622 -0.006868744 -0.0016050563 0.03225404 0.07023961
-0.06278161 -0.08899808 -0.012614109 0.07143604 0.042556114 -0.03510861 0.056601845 0.03875685
00000000: 7880 5b3d 97c0 11bd 34a2 643b db11 81bd
00000010: 3b65 47bd 9eed 623d 948c 9c3c 559a ef3c
00000020: 0651 4d3d ad2b cf3c c4e1 003c 3020 2cbc
00000030: 001b 913a 0c39 a83d d84a 0b3d 4339 313c
00000040: 6b7d 163d 4954 21bd 9ab3 8dbd 0b6c 93bc
00000050: ed15 c33d 1046 b33c f388 85bd a27d 733d
00000060: 04cc a53d dd3b 8d3d b3ab 3f3c 27f0 b8bc
00000070: f8cf 0e3c 62aa f23c 093c 09bd f813 32bd
00000080: d5dc a33c 0941 373d f856 d9bc f5db 0ebc
00000090: 7b48 85bd fa05 1bb8 ac6e 9abc 1735 bc3d
000000a0: ceab 7d3d c19e eebc cc45 8cbd 2fe3 94bd
000000b0: 7b46 4fbd 418e b63d 1125 d3bc 39a5 873d
000000c0: c403 8b3d 5aa1 1fbc cbbe 1d3d b353 ed3c
000000d0: 34c5 a83d aea2 2f3d 6415 513d d3da b73d
000000e0: bb53 483c d03c ab3d f6d9 1dbb e88c 87bd
000000f0: 6f98 af3d afb5 87bd 080e c43a f179 ac3d
00000100: e6e9 c5bc ee89 78bd 098f 873d 9edb 0a3d
00000110: bf98 693d bbf6 403d 70c5 b5bd c878 933d
00000120: e3f2 95bd fcaf 3e3c 79c6 4dbd ac27 863d
00000130: 8ae2 bc3d 2385 563c a2c2 babc b119 9c3d
00000140: 630b 8e3d 8ea0 7dbc 24fd 903d 2574 063c
00000150: 3d1b 26bd 2a3a ab3d d2f9 52bd 247a 81bd
00000160: dcb2 543d 6af3 083d 2fb3 913d 59d0 12bd
00000170: 651d aa3c df23 3e3d 44ac 953c 5358 93bd
00000180: 7e99 6a3d 6f67 be3c 96ee a2bc 1c40 abbc
00000190: 7de4 bdbd 8c9a c13d 15b8 613c 8741 c7bc
000001a0: 3556 c93d 93da 80bd 8913 cb3c 426e 5ebc
000001b0: fa1c d6bc d0a0 fd3a afbf 40bc dd0a 9b3d
000001c0: 63e5 833d 03ef fd3c 2b0e 87bb bfa0 6cbc
000001d0: 3313 e1bb c160 d2ba d01c 043d c9d9 8f3d
000001e0: a593 80bd a044 b6bd 68ab 4ebc 0f4d 923d
000001f0: 524f 2e3d 0cce 0fbd 56d7 673d 81bf 1e3d

SoftmaxPolicy_l3.weight f4 [2, 128]
0.053522382 0.0120239975 0.1264384 0.012160091 -0.09054393 -0.020045258 0.041215856 0.0952978
0.013529883 0.009132854 0.0706437 0.070981294 0.08999772 0.0144658685 0.005097682 0.09705534
0.05612706 0.09644097 -0.01084038 0.09998025 -0.04444201 0.09915677 -0.038378783 -0.016566394
-0.03553104 0.04420768 0.04964919 0.035320293 -0.087876946 0.004079987 -0.03729022 -0.036604755
0.05493138 -0.00082651584 0.05117502 -0.078755625 0.012472549 0.07073345 0.05997711 0.105009705
-0.0072577936 0.086450286 -0.06952329 -0.009591644 -0.008700641 -0.029614586 0.032830153 0.0042394395
-0.10342712 -0.09810859 0.03760096 -0.06097076 -0.1117595 0.13032971 -0.057564728 0.096902914
0.06799278 0.048723757 -0.07514194 -0.019256433 0.08222743 0.021775218 -0.12564988 0.008082005
-0.066901684 -0.07125704 -0.083104976 0.081472516 0.07364764 -0.06917885 -0.038585633 0.0791886
-0.00029843632 -0.058597293 0.027867917 -0.11043572 -0.08875813 0.06955562 -0.089599006 0.10027177
-0.032581154 -0.056525853 -0.082608186 0.056931295 -0.12139867 0.041549105 0.026047701 0.03447035
-0.104118034 -0.064694166 0.046137594 -0.07341444 -0.045872148 0.055962738 0.043379586 0.074317284
0.0044079777 -0.04160022 0.12790598 0.0052067293 -0.020881433 0.07534029 -0.084673725 0.081732325
0.035842538 -0.013886306 -0.07350504 -0.02597526 -0.022210853 0.019298997 -0.061664224 0.046905663
-0.121909395 -0.079274334 -0.008828713 0.10857441 0.072564535 -0.08890265 0.077604696 -0.057143256
0.07640953 0.010204832 -0.022710994 -0.10082955 -0.10341931 -0.105926864 -0.059340134 0.0691111
-0.0062310006 0.111406624 -0.116467446 0.086728424 0.019081334 0.09380953 -0.10186305 -0.07846428
0.111104965 0.049547877 -0.119319595 -0.10128145 -0.026858851 0.1238899 0.08461668 -0.08390669
0.010375318 0.015352986 -0.06492375 -0.08496006 0.10436867 0.0075951507 0.036842413 0.10626136
0.03662362 -0.14328243 -0.066146724 -0.062265564 -0.074583724 0.06600311 0.0017807193 0.11677522
-0.03510485 0.019352032 -0.029079648 0.077647105 0.06017489 -0.021059822 -0.05522943 -0.048169006
-0.06928336 -0.14592688 0.042080764 0.054087 -0.10751825 0.13030685 -0.061450075 -0.09423707
0.07065956 0.065959886 -0.016937912 0.020274859 0.038756672 -0.1178063 0.13835895 -0.092338875
-0.05167107 -0.14681801 -0.026433961 0.0245281 -0.12163915 -0.069343515 0.013215172 -0.06644124
0.08023912 0.11235869 -0.0022911206 -0.051585488 0.05379228 0.010954168 0.07189977 0.02205057
0.06423624 0.12148388 -0.06364189 -0.052446388 0.0064321198 -0.095074646 0.07424374 -0.06990518
0.052161682 -0.06904145 0.0697242 0.022013152 0.115024164 -0.06838426 0.020026295 -0.052193813
0.0065035443 0.06830683 -0.09681795 0.088295996 0.036541905 -0.02534946 0.072789915 0.008100288
-0.10987434 0.07404651 0.015062575 -0.047946535 0.055952635 -0.040482398 0.045626126 -0.03931435
-0.14585097 0.096912794 0.10316172 -0.120179996 -0.07519054 0.08429471 0.056640692 -0.04809408
0.015597924 0.09008183 0.10237782 -0.12787382 -0.06037025 -0.013365902 -0.09904726 -0.012927808
-0.0019021833 -0.01607845 -0.05989621 0.008188711 0.0072526066 -0.033235434 0.06770418 -0.07207254
00000000: 493a 5b3d 4d00 453c 1179 013e 1e3b 473c
00000010: 196f b9bd f435 a4bc f5d1 283d 7e2b c33d
00000020: 71ac 5d3c f7a1 153c a5ad 903d a45e 913d
00000030: ba50 b83d 4002 6d3c 750a a73b f3c4 c63d
00000040: 7de5 653d d882 c53d d99b 31bc 72c2 cc3d
00000050: d308 36bd b412 cb3d 1233 1dbd 3fb6 87bc
00000060: ff88 11bd 1d13 353d f35c 4b3d 03ac 103d
00000070: d4f8 b3bd 69b1 853b a1bd 18bd deee 15bd
00000080: baff 603d 8aaa 58ba e69c 513d a14a a1bd
00000090: aa59 4c3c b3dc 903d 8faa 753d 540f d73d
000000a0: c9d2 edbb d90c b13d 3a62 8ebd 4526 1dbc
000000b0: 228d 0ebc 4a9a f2bc e978 063d ffea 8a3b
000000c0: 99d1 d3bd 28ed c8bd 7703 1a3d 7abc 79bd
000000d0: 2ae2 e4bd 2775 053e fec8 6bbd 0975 c63d
000000e0: cc3f 8b3d 9092 473d 04e4 99bd abbf 9dbc
000000f0: db66 a83d f161 b23c 5daa 00be 636a 043c
00000100: c003 89bd 36ef 91bd f132 aabd 10db a63d
00000110: 93d4 963d a4ad 8dbd f80b 1ebd a22d a23d
00000120: 7277 9cb9 b703 70bd 424b e43c 1f2c e2bd
00000130: d3c6 b5bd 2d73 8e3d af7f b7bd 495b cd3d
00000140: d173 05bd a787 67bd 7b2e a9bd ca30 693d
00000150: de9f f8bd 652f 2a3d fd61 d53c c830 0d3d
00000160: d63b d5bd 607e 84bd c6fa 3c3d 4f5a 96bd
00000170: 6fe4 3bbd 2f39 653d cbae 313d a933 983d
00000180: cc70 903b fe64 2abd c9f9 023e 369d aa3b
00000190: 8a0f abbc 034c 9a3d 6b69 adbd 4763 a73d
000001a0: a0cf 123d 6483 63bc cf89 96bd 12ca d4bc
000001b0: 89f3 b5bc ee18 9e3c a093 7cbd 2720 403d
000001c0: a2ab f9bd 955a a2bd 4ea6 10bc 435c de3d
000001d0: b79c 943d 9812 b6bd 36ef 9e3d 0c0f 6abd
000001e0: 9a7c 9c3d 2b32 273c 680c babc b97f cebd
000001f0: 81cd d3bd 2ff0 d8bd a40e 73bd 1f8a 8d3d
00000200: 6c2d ccbb 2829 e43d 7c86 eebd ac9e b13d
00000210: 7550 9c3c 361f c03d 939d d0bd e1b1 a0bd
00000220: 008b e33d b7f2 4a3d d55d f4bd a66c cfbd
00000230: 1807 dcbc fdb9 fd3d 834b ad3d 45d7 abbd
00000240: 3dfd 293c 178b 7b3c bef6 84bd 8aff adbd
00000250: 3ebf d53d bee0 f83b 12e8 163d 8e9f d93d
00000260: a602 163d a1b8 12be ef77 87bd 2d0a 7fbd
00000270: 5abf 98bd a32c 873d 0667 e93a d927 ef3d
00000280: 1aca 0fbd 2788 9e3c 7138 eebc 7205 9f3d
00000290: f279 763d a685 acbc 4138 62bd dd4c 45bd
000002a0: 6fe4 8dbd db6d 15be e15c 2c3d 558a 5d3d
000002b0: 8732 dcbd 296f 053e 13b3 7bbd 5dff c0bd
000002c0: f6b5 903d fa15 873d 60c1 8abc 7617 a63c
000002d0: 51bf 1e3d 6e44 f1bd f8ad 0d3e 2a1c bdbd
000002e0: 0ba5 53bd 7657 16be 098c d8bc 27ef c83c
000002f0: f21d f9bd f903 8ebd 7384 583c 5812 88bd
00000300: 6854 a43d 501c e63d a026 16bb 4e4b 53bd
00000310: 4b55 5c3d 1c79 333c 3040 933d 66a3 b43c
00000320: 4a8e 833d 8acc f83d ae56 82bd 06d2 56bd
00000330: 88c4 d23b 7fb6 c2bd 1a0d 983d 722a 8fbd
00000340: 7da7 553d 9b65 8dbd 90cb 8e3d ed54 b43c
00000350: ca91 eb3d 0c0d 8cbd 2f0e a43c 2ec9 55bd
00000360: af1b d53b 74e4 8b3d 7d48 c6bd 88d4 b43d
00000370: f7ac 153d aca9 cfbc e112 953d 12b7 043c
00000380: cc05 e1bd b2a5 973d 05c9 763c 9663 44bd
00000390: 972e 653d dfd0 25bd 76e2 3a3d 1508 21bd
000003a0: f559 15be 377a c63d 7446 d33d ee20 f6bd
000003b0: 7ffd 99bd b4a2 ac3d 1200 683d 4cfe 44bd
000003c0: 6f8e 7f3c d37c b83d 76ab d13d 5bf1 02be
000003d0: cc46 77bd a8fc 5abc 4ad9 cabd 28cf 53bc
000003e0: ae52 f9ba f4b6 83bc ba55 75bd f129 063c
000003f0: 46a7 ed3b e121 08bd 7da8 8a3d c59a 93bd

SoftmaxPolicy_l3.bias f4 [2]
0.032091685 -0.016314415
00000000: 9272 033d cfa5 85bc
